Reinforcment_Learning_DQN/agent_output/weights/episode_20_weights.pt (torch, 22511 bytes, 6 tensors)

dense1.weight f4 [64, 5]
00000000: 1184 18be bd78 d5be fa9e 443e 1622 823e
00000010: a445 afbd 64ee b7be f2d3 883e 44a5 3bbe
00000020: 0a90 c83e b80d cf3e d314 88bc c75a bf3d
00000030: 1ec4 46bc 2f93 4abd fd56 6dbe 7423 8a3e
00000040: 108c 763d 4b4d c5be 216a 703e d92d 8dbe
00000050: dd42 6f3e 26bd 7dbe 643f 4f3e c9b8 823e
00000060: a4a2 bb3d 8dbe d4be 88a5 2f3e 586b abbd
00000070: f843 283e c3e1 87be 14e2 b0be 91b5 3abe
00000080: 904b 183d 4092 5dbe 3431 9c3e 47fc 9d3e
00000090: 81c1 b1bc 0349 a0bd d595 c0be cc63 673d
000000a0: 485d ac3d 223a d8be ef53 b9be 8045 39be
000000b0: bcdd 87bd cc6a 33be c05a ee3e b4c5 83be
000000c0: 6bb5 8ebe fcfa 433e a040 babd 207b 6c3d
000000d0: 741f e8bd 7289 c13e fee1 babe 36f2 e43d
000000e0: 2c87 10bd 8273 513e 3e17 dc3e 33c4 d13d
000000f0: 7a25 e1be 1d74 9d3d 95e1 cf3e 695d b8bc
00000100: 2df9 af3d 115e c1bd d79d 4f3e 1cc3 803e
00000110: 676f 44be 2a26 393d cdcf 033e 1935 91bd
00000120: 84ed efbe 3b41 b4be 5c1c 56be 8144 0bbe
00000130: d58a f73d 1849 ad3e 80d2 ca3e 6175 e7bd
00000140: 8357 97be 6822 333e a0da 07be a838 9cbe
00000150: f4ba 173e 7b07 c23d 3058 193e 48c7 edbd
00000160: de29 02bf bba9 0e3e 9355 15bd 7963 6ebe
00000170: 446d a73e 5cd4 c93e 666e f9be 00cd f8bb
00000180: c0b0 d13b 4084 e8bb e470 a4be fbad 66be
00000190: ac94 debd fc2e 2c3e 057c c3be 4b44 d63e
000001a0: 92b0 d3bd 2a57 8dbe f7fc bcbe 697c 853e
000001b0: 6128 c9be e14f 7cbe 5dcd 163e 0852 28be
000001c0: 885a 103e 484b 2d3e 2c7f 75bd 2fac b63e
000001d0: d1bb b3be 26f9 6dbe be1c c1be 5b67 ea3d
000001e0: 49ba be3d f078 5c3e 5542 3f3d 03ac 9dbc
000001f0: 4f74 af3e ff11 79be e8b2 69be 4c91 e8bd
00000200: 40f8 963b a01b a23e 90bb aabe 00f8 413a
00000210: c08f a8bc 409f 093e ccff 78be 27fe 59be
00000220: 49d0 7dbe c54e c23e fa21 413e 9bb3 603e
00000230: a927 6bbe 56b8 28be c058 0cbe c8c1 6c3e
00000240: 4047 df3b fa68 953e fe96 db39 fcfa 55be
00000250: e137 1b3e 02d4 193e 4a62 d0be 9c32 7f3e
00000260: c98d 413e 5622 5ebe 350a b63e e8b5 2fbe
00000270: 48f6 acbe 30c1 8f3c 40bc 94be 06d4 b43e
00000280: f9ea 87bd a0fa 03be 4add 923e a17c c3be
00000290: 7f2e 35be 57ef 5abe fd11 983e 40a2 d13d
000002a0: 2b7e 2abd 2c0a ecbe 3327 be3e 969c 813e
000002b0: 64a8 7dbe ecbc 5f3e b978 c73e 0989 bdbe
000002c0: e65e 233d 8839 d23e 55f2 c93e d9a6 cdbe
000002d0: 6332 80bc 16df 53be 76a3 4f3e 5ae4 173f
000002e0: 34f0 e3be 5cb6 153e 0b82 97bc 7098 48bd
000002f0: caea bd3d 9bc9 f73e 38dd abbe e7c6 a73e
00000300: e323 f13d 1d77 f9be e42c 153e ed99 4dbd
00000310: 9851 973e 44d7 7f3e b287 b1be 8556 97be
00000320: 6eed bcbe 593f c73e 4aea b13e ee94 993d
00000330: 2211 30be 8473 abbd d64d 3d3e 414c 6fbd
00000340: bc13 aa3e 7767 d5bd 34ae 9c3e 24b2 46be
00000350: 3d15 0abe 9dfa a5be 0ad8 7abe 92e3 2a3d
00000360: 769a a0bb f345 653d 9b70 9c3d eac7 1bbf
00000370: 8418 36be 0aa3 aa3e fa8a 263e 262e 343d
00000380: 7f8c 1b3e d638 7bbe 08d8 cc3d 44b1 27be
00000390: 94f1 b3bd 18c8 0cbd 30f5 22be c405 1e3e
000003a0: b086 bfbe c118 b2be f0ec 603d 2e11 253e
000003b0: 603f 06be e4fa 113e 1c2f 57bd b64a ce3e
000003c0: d96a b83d 5606 98be 4471 7e3e 921d 5fbd
000003d0: dd57 8a3d bc4a 0e3e 7065 a1be 226b bebd
000003e0: 7407 e4bd 382c cb3e ddfc babe 44f8 a0be
000003f0: 7cef 32be 18a3 13bd ce9c 18be 88c8 0f3e
-0.1489413 -0.41693678 0.1920127 0.2541663 -0.08558205 -0.35924065 0.267242 -0.18324763
0.39172393 0.40440154 -0.016611492 0.09343486 -0.012131719 -0.04945677 -0.23177715 0.26980174
0.060192168 -0.38535532 0.23477985 -0.2757404 0.2336535 -0.24779186 0.20239025 0.25531605
0.091618806 -0.4155163 0.17152989 -0.083700836 0.16432178 -0.2653943 -0.34547484 -0.18233325
0.037181437 -0.21637821 0.3050629 0.30856535 -0.021698715 -0.07826426 -0.37614313 0.056491658
0.084162295 -0.42231852 -0.3619685 -0.18092918 -0.06634089 -0.17521209 0.46553612 -0.25736773
-0.27872786 0.19138712 -0.090943575 0.05773461 -0.11334124 0.37800175 -0.36500543 0.111790106
-0.03528516 0.20454219 0.42986482 0.102425 -0.43973905 0.076881625 0.40601793 -0.022505479
0.085924484 -0.0944177 0.20275055 0.25148857 -0.19183122 0.04520241 0.12872238 -0.07090206
-0.46860898 -0.35206017 -0.20909256 -0.13600351 0.12087027 0.3384483 0.39613724 -0.11301685
-0.29558954 0.17493594 -0.13266993 -0.30511975 0.1481741 0.09474083 0.14975047 -0.116102755
-0.50845134 0.13931935 -0.036458563 -0.23280133 0.3270055 0.3941983 -0.4871704 -0.0075927973
0.006399244 -0.0070958436 -0.3211738 -0.22527306 -0.10868201 0.16814798 -0.38180557 0.41848978
-0.103364125 -0.27605563 -0.36911747 0.2607148 -0.3928862 -0.24639846 0.14726777 -0.16437542
0.14097035 0.16923249 -0.059935734 0.3567824 -0.3510423 -0.23239574 -0.3771724 0.11445495
0.09312875 0.21530509 0.04669412 -0.01924706 0.34268424 -0.24323271 -0.22822154 -0.11355838
0.0046072304 0.316617 -0.33346224 0.00073993206 -0.020576358 0.13439655 -0.24316329 -0.21288358
-0.24786486 0.3795072 0.18860617 0.21943514 -0.22964348 -0.16476569 -0.1370573 0.23120797
0.0068139136 0.29181653 0.00041883433 -0.20896524 0.15158035 0.15022281 -0.4069999 0.2492165
0.18901743 -0.21692786 0.35554662 -0.17159235 -0.33781648 0.017548174 -0.29049873 0.3531801
-0.06636614 -0.12888575 0.28684455 -0.38181022 -0.17693518 -0.21380363 0.29701224 0.10236025
-0.04162423 -0.4610151 0.37139282 0.25314778 -0.24771267 0.21849412 0.38959292 -0.37018612
0.039885424 0.41059518 0.39442697 -0.40166357 -0.015649026 -0.2069057 0.20277199 0.5933281
-0.44519198 0.14620346 -0.018494627 -0.0489735 0.09273298 0.48396 -0.33567214 0.32768938
0.11774423 -0.4872369 0.14567906 -0.050195623 0.2955444 0.24984461 -0.3467384 -0.29558197
-0.36899894 0.38915518 0.3474906 0.07499109 -0.17194036 -0.08371642 0.18486723 -0.05842233
0.3321818 -0.10420125 0.30601656 -0.19403893 -0.13484664 -0.32417765 -0.24496475 0.041720934
-0.0049012257 0.055974912 0.07638665 -0.6085192 -0.1778279 0.33327514 0.16263953 0.043989323
0.15190314 -0.245334 0.10002142 -0.16376215 -0.08786312 -0.03437051 -0.15913844 0.15431887
-0.37407446 -0.3478451 0.05491346 0.16119835 -0.13110113 0.14255863 -0.05253516 0.40291375
0.090047546 -0.29692334 0.24847895 -0.05447156 0.0675504 0.13895696 -0.31522703 -0.09297778
-0.11134234 0.39682174 -0.36521044 -0.31439412 -0.17474169 -0.03604421 -0.14903566 0.1404134

dense1.bias f4 [64]
00000000: 072e 0f3e 0421 e43e a6fc 9e3e 343d 3ebe
00000010: ecf0 473d 98a9 9d3e 7df6 b43e 5979 403e
00000020: a071 25be 2094 2abe 1251 bd3e e580 d5be
00000030: 4375 983e adad fbbe e0b5 8fbd 7de3 f73d
00000040: e601 55be 06ef eb3c 78e1 4bbe 201e b5bc
00000050: 4963 37be e7cb e7be 9140 99be 8398 943d
00000060: 1992 63be d869 da3d 52e4 983e 14b1 a63e
00000070: cf8d d5be bf99 debe 9718 813e 8099 cd3e
00000080: 296f 67bd 2a56 4c3e 95e8 98be 7048 f8bb
00000090: 6f08 b13e 7c2e af3c 73dd a43e b17c 0dbe
000000a0: a216 d6be bf17 9a3e 8bb4 ee3d f19f ebbe
000000b0: 8423 bbbe 7234 aa3e 3ace 31be c90f 71be
000000c0: 85da cfbe 9c4d 63bb c69f ad3e 82c8 af3e
000000d0: 9899 623e 4b7b c73e d98b 01bf 0bee 523e
000000e0: 548a c13e c343 64bd 1df4 dfbe 493b 843e
000000f0: ef86 d03d a9c4 72be f34a 793e 3645 c03c
0.13982402 0.4455644 0.3105213 -0.18578035 0.048813745 0.30793452 0.35344306 0.1879629
-0.16156626 -0.16658068 0.36975914 -0.416999 0.29776964 -0.49155942 -0.07017112 0.12103937
-0.20801505 0.028800499 -0.19910228 -0.022109091 -0.17908968 -0.45272753 -0.29932073 0.07255652
-0.222237 0.10664719 0.29861695 0.32556975 -0.41709754 -0.43476674 0.25214073 0.40156174
-0.056502495 0.19954744 -0.29864946 -0.0075769946 0.34576747 0.02138447 0.32200202 -0.13817097
-0.41814142 0.30096242 0.116555296 -0.46020463 -0.36550534 0.33243138 -0.17363825 -0.23541178
-0.40596405 -0.003468371 0.3391096 0.34332663 0.22128904 0.38961253 -0.50604016 0.20598619
0.37800848 -0.055728685 -0.4374093 0.2582648 0.101819865 -0.23707832 0.24344997 0.023470502

dense2.weight f4 [64, 64]
00000000: f62c 3ebe 5457 233d 24c4 833d 541b 47bd
00000010: 384f c83b 80ec 0e3c 4894 dfbc 5ca5 4dbd
00000020: a0b1 a5bc b361 b93b ba27 d6bd 3274 843d
00000030: 84c5 b2bd ba34 893d 8ebd e3bd c727 af3d
00000040: d05f 943c 7e4b 973d b957 db3d 000a 3a3d
00000050: b360 3dbd 9fa0 993c 7715 f93d 6df8 e33d
00000060: 5ee9 dbbd 302e b63c 747d e6bd b827 13bd
00000070: 3a1b e5bd 1321 ddbd 5dca a33c f695 9c3d
00000080: c547 7fbd d167 a0bd 1221 e33b bbf5 da3d
00000090: d82a 013d 2bed 9c3d 6c8d e4bd a0dd 05bc
000000a0: 0d01 a63d 4dcb a9bc ab6f ecbb 5a02 ee3c
000000b0: b6f1 733d 2006 893b 9865 68bd 1094 9e3c
000000c0: 5fca af3d 60b4 8abd 6ac2 c2bd b5fe 0a3c
000000d0: 508e f13c da49 903c 573b 6c3c 1ba7 d7bd
000000e0: d862 f23c f4e6 7b3c 36e8 d9bb 5626 4c3d
000000f0: 6017 de3c 846a 14bd 7c15 bfbc 80f9 42bd
00000100: 9d2f 7dbd dc4d b4bd ae7b cf3d feff b0bd
00000110: 7a85 013d 7a50 e9bd 705f 01bd efae 573c
00000120: a8a6 ce3d c93d 1ebd 7cd2 7d3d 6c43 fa3c
00000130: 04b2 14bd 8736 b63d cb2b f6bd bdc4 463d
00000140: 6057 c3bd 4ad9 71bd 2c2e dfbb f0f4 2dbd
00000150: c226 b23d f739 80bc b008 e53a 1ff0 a3bd
00000160: e5a1 8f3d 54e9 cbbd faf0 a73d b74d 9fbd
00000170: ccd7 d83d 9a59 14be 2f4c 56bd c86f 333d
00000180: 4bc8 ecbc 5b1b 5a3d a045 1bbe 5fd7 ce3c
00000190: 078c a63d 8a43 d4bd 5973 81bd c686 dfbd
000001a0: faab 67bd e0be efbd ca68 dbb9 3ea0 1a3d
000001b0: 09e8 933d 00c2 ba3b fa14 823d 3383 3dbd
000001c0: e534 9cbd 5452 eb3c d01c f83d 2eff 6a3d
000001d0: beb7 9bbd 0b99 d53c 3f86 853d b371 32bd
000001e0: a866 ecbc 795e 41bd b610 9a3d 7d8d 80bc
000001f0: 70ba 2ebd 289b 07be 8a4f 70bd cd15 08be
00000200: a659 863d 4864 f8bc 080f e53d 1ed6 a43a
00000210: 48ba adbc 8012 bf3b 7649 93bd feae a3bd
00000220: d0fe 0f3d bd69 9e3d deb6 bdbd 806b 01bd
00000230: 4082 13bd dc48 cc3d 57c3 b3bc 5d04 c5bd
00000240: b820 adbd 6a92 a43d 301f e1bd f0c4 b5bc
00000250: a566 14bd 545b 71bd e5a2 1fbb 368e a1bd
00000260: 6826 da3d 9cdd 9d3d fec9 babd d0f1 193d
00000270: 068b cf3d b95f 1d3d 980c d53c f4be 3ebd
00000280: 5c4f 833d 9d81 2f3d e77a cdbc 4466 983d
00000290: 9812 25bd a66f 1cbc 5a16 cebd c083 c93c
000002a0: e86f e7bd c354 40bd 07fd 5fbc 0878 01be
000002b0: 16b3 1dbc 1c2a c03d e0c8 acbb 2125 933c
000002c0: 1e07 8b3d 6033 ae3c d8ed b3bd 1c16 36bd
000002d0: 724d f1bd 7407 af3d e66e 543c aaa4 9dbd
000002e0: 2643 ddbd 6037 e8bc f6f9 05be f1e0 a43c
000002f0: 7457 afbd 9825 19bd 89e5 c9bd 7a13 a63d
00000300: c6c8 d4bd 1289 84bd ffaf 303d 921d 7d3d
00000310: 6785 5cbc 1622 c43d 0216 0bbd 4b8a 573d
00000320: 8666 84bd 2e81 2f3d c076 cb3d a926 a13c
00000330: bcbb 7b3c 6a37 c13d 95f4 e4bb 558d 5cbd
00000340: 6e14 a8bd 0823 0d3d 7eba b13c d019 543c
00000350: b020 983d cd62 7e3d 09ab 383c 8a16 0e3d
00000360: cb47 c3bd 80bc bf3a c0ee 5f3d ac4b fdbd
00000370: 440e c7bd 4396 513c aa75 17bb 781f 573d
00000380: aeda 08be e935 f6bd e047 92bd 2f35 093d
00000390: 2b1c 9c3d 0021 b0bd cec9 d0bc 0fe3 363d
000003a0: a265 cfbd 9f23 0dbd bf88 7a3d 9837 66bd
000003b0: 26cc 953d d0da f5bc 8ad4 bc3d a45b c93c
000003c0: b3fe 903d b171 0dbe fc29 d83d af8c 693d
000003d0: c0b0 eebd 4b3a a73d 0259 20bd a3c4 b33d
000003e0: aadd 833d ffd4 0cbe 0e55 0cbe 1946 0abe
000003f0: ebc5 573b 6566 8f3d 45ad e43c f3eb 103b
-0.18571839 0.039878204 0.06433895 -0.048610047 0.0061129592 0.008723378 -0.027292386 -0.050206527
-0.0202263 0.0056573986 -0.10456796 0.06467475 -0.08729079 0.0669951 -0.11120139 0.08552509
0.018112093 0.07387446 0.10710091 0.045419693 -0.046234798 0.018753348 0.12162297 0.11131368
-0.10737871 0.02223882 -0.11254397 -0.03592655 -0.11186834 -0.10797324 0.019993955 0.0764579
-0.062324304 -0.078323014 0.0069314325 0.106914006 0.031535 0.07662424 -0.111597866 -0.008170515
0.08105669 -0.020726824 -0.0072154603 0.029053856 0.059556685 0.0041816384 -0.056737512 0.019357711
0.08583521 -0.06772685 -0.09509738 0.008483578 0.029486805 0.01761334 0.014418445 -0.1052992
0.029588148 0.015374888 -0.006649996 0.049841247 0.027110755 -0.036234394 -0.023325674 -0.047601223
-0.061812986 -0.08803913 0.10131012 -0.08642577 0.031621434 -0.11392303 -0.031585157 0.013164266
0.10090381 -0.03863314 0.06196831 0.030549727 -0.03630258 0.08897119 -0.120200716 0.048527468
-0.0953815 -0.059045114 -0.006810924 -0.04246992 0.08698799 -0.01565264 0.0017473903 -0.08004784
0.07013301 -0.09956613 0.082002595 -0.07778495 0.10588035 -0.14487305 -0.052318748 0.043807775
-0.0289041 0.053248744 -0.15163279 0.025249181 0.08132177 -0.103644446 -0.06320829 -0.10914378
-0.056560494 -0.117063284 -0.0004184901 0.037750475 0.072219916 0.005699396 0.06351657 -0.0462677
-0.07627276 0.02872578 0.121148705 0.057372265 -0.076034054 0.026073953 0.06519746 -0.043565463
-0.028857544 -0.047209237 0.075227186 -0.015692467 -0.04265827 -0.13242781 -0.058669604 -0.13289566
0.06560068 -0.030321255 0.111845076 0.0012576019 -0.02120699 0.005831063 -0.07191746 -0.079923615
0.035155118 0.07735012 -0.09263395 -0.03159666 -0.036012888 0.09974834 -0.021943731 -0.09619973
-0.08453506 0.08035739 -0.10992277 -0.022188634 -0.036230702 -0.058924988 -0.0024358567 -0.07888453
0.10651857 0.07708284 -0.09120558 0.037584126 0.101339385 0.038421366 0.026006982 -0.046568826
0.06411621 0.04284822 -0.025083018 0.074413806 -0.040300936 -0.009548103 -0.10062857 0.024598956
-0.11300641 -0.046955835 -0.013671166 -0.12643445 -0.009625217 0.09383032 -0.0052729696 0.01796204
0.06788467 0.021264732 -0.087855995 -0.04445468 -0.1178235 0.085463434 0.012965893 -0.07697423
-0.10803823 -0.028346717 -0.13083634 0.020126792 -0.08561602 -0.037389368 -0.098582335 0.081091836
-0.10389857 -0.064714566 0.043136593 0.06179578 -0.01345954 0.09576814 -0.033956535 0.05262212
-0.06464867 0.042847805 0.09934759 0.019671755 0.015364584 0.094343975 -0.0069871643 -0.053845722
-0.08207022 0.034457237 0.021695372 0.012945607 0.0742811 0.062105943 0.011271247 0.034689464
-0.09535178 0.0014628321 0.05467105 -0.12367949 -0.09719518 0.012792173 -0.0023110905 0.052520245
-0.1336467 -0.12022001 -0.07142615 0.033497985 0.0762256 -0.08600044 -0.025486853 0.044650134
-0.10126807 -0.0344578 0.061165567 -0.056205362 0.07314329 -0.030011564 0.09220226 0.02457983
0.0707983 -0.13812901 0.10554883 0.057018932 -0.11654806 0.081654154 -0.039147384 0.0877774
0.064387634 -0.13753127 -0.13704321 -0.13503303 0.0032924365 0.07001952 0.027914653 0.0022113293

dense2.bias f4 [64]
00000000: cc09 efbd da61 2b3d b2ad 9f3d c8cb 17bd
00000010: 00d8 be3d 60d5 d7bc 7d8f 433d 8f62 68bb
00000020: c480 ccba 2159 353c 157f acbd 2cb8 953d
00000030: c67c e53d 736d e5bc e49c d7b9 6bd5 2cbb
00000040: 76bb 1d3d eb07 8bbd 5180 4d3d 38ea 02bb
00000050: ee4a d83d 5cbd a03d 4397 a63d cd45 bf3d
00000060: 168e 60bd bd77 e0bd 2807 c4bd dbe5 4ebd
00000070: f889 913d 06b9 c33d 1846 90bd 7079 663d
00000080: aed5 c63c e0d4 e43b 22a0 8abd ee56 84bc
00000090: 675d 233d 1b02 863d 9d7e 9f3d b24a c23b
000000a0: 1a2c eebd 9a04 b13d 7f6f 093e 2133 ffbd
000000b0: 7e55 e7bd 686f 983d cf06 593c a0bd f5bb
000000c0: 281c 8b3d fe69 ebbd de1d 453d ef48 4abc
000000d0: c7ff 65bc df7b c4bd 3574 9dbd 92e9 aebc
000000e0: 17aa 9c3a d2f0 e1bc 6a70 a53d b835 b9bd
000000f0: 6406 b6bd eae9 8b3b 8b19 aa3d 0cba 073d
-0.116717905 0.041841365 0.077968016 -0.037059575 0.093185425 -0.026346862 0.047744263 -0.0035459136
-0.001560234 0.011068613 -0.084226765 0.073105186 0.11205439 -0.028006291 -0.00041124888 -0.0026372324
0.038508855 -0.067886196 0.0501712 -0.001997603 0.10561167 0.078486174 0.0813432 0.09339485
-0.054823004 -0.10960338 -0.095716774 -0.050512176 0.071063936 0.09556775 -0.07044619 0.056268156
0.024271812 0.0069833845 -0.06768824 -0.016154733 0.039883997 0.0654337 0.077878214 0.0059293145
-0.116295055 0.08643456 0.13421439 -0.12460924 -0.11295603 0.07443124 0.013246252 -0.0074994117
0.0679248 -0.11494826 0.048124187 -0.01234649 -0.014038033 -0.09593939 -0.0768818 -0.02135161
0.0011952546 -0.027580652 0.08078082 -0.09043449 -0.08887938 0.004269828 0.08305653 0.033136413

dense3.weight f4 [8, 64]
00000000: a199 473d aec4 b2bc 2873 e3bc 95c8 983d
00000010: 1e4d ae3d fa4b b63d c1af 7cbd 4e13 e73d
00000020: a73a 62bd 6152 5abc 1239 39bd da9d e7bb
00000030: a832 ba3d 8939 a1bd 4041 a63c 5cb1 5ebd
00000040: 398e 473d df13 a8bd 24e7 69bd b9d9 c1bc
00000050: ec09 70bd 083b ebbd a1ce 69bc 4ce7 e0ba
00000060: c2d5 9ebd b108 a53d 8cac 89bd 4d16 30bd
00000070: ee61 5ebd 0c68 a6bd a217 9cbd 0745 9db9
00000080: d333 e23d 5c0c b9bd ee57 e23b 8afd de3c
00000090: d800 023d 7cf6 d33d c51f b6bd e840 ddbd
000000a0: 2ce5 fdbd 0c1e 4f3d 587d f4bc a43c 4e3d
000000b0: dba3 6dbd f7fe 04bd eb6c a73c cee9 ed3d
000000c0: d930 8e3d 7836 683d 461c 6d3d 68af 5a3d
000000d0: 80d9 c7bd 0456 4b3d ecbe a2bd d365 aebd
000000e0: 25db df3d 4a2d a1bd 6d4b 84bd 4013 d13b
000000f0: f5bd 0fbe 5a22 1f3d b6c5 d4bb 1a31 8d3d
00000100: 79b5 fabd b827 903d 0082 e2ba 5742 57bd
00000110: 440d ffbd f24f 9bbd 6d0b b8bd e682 813c
00000120: f209 3b3d f828 a0bd e7dc 4e3d 1edf 55bd
00000130: b006 d83d baef 9bbc 449f 3cbd 7e80 e5bd
00000140: a1ea 83bd eb9d b7bd 7dfb d1bd 1591 55bd
00000150: c0e1 4bbc fb8a 433d 5642 ea3c d53b 433d
00000160: eaca 293d 36b3 c13d 533d 83bc 3180 c73d
00000170: 0889 0f3d 0f17 e8bd 3ae0 fabc 24ac a53d
00000180: 63a7 ddbc 4481 9c3d dafc 213d d865 a53d
00000190: c312 06bd a82d 3c3d d309 4b3d 4889 06bd
000001a0: 50a7 7d3c 664f ac3d 004b 83bd cbcb 5bbd
000001b0: 1ca7 cfbd 1d83 8cbd a30c aa3a f861 d33d
000001c0: ab14 b03d 1093 6dbd 3b9b a4bd 7174 563d
000001d0: 306e 27b5 04bd dbbd 6e9c e6bc cfc8 febd
000001e0: 95fd 753d 6690 4abc b33a 63bd 8807 bf3c
000001f0: 549d 4ebd 5eb8 abbd b058 eebd b604 cf3d
00000200: 1bbf ac3d 2eb0 2ebd ead6 963d ff17 b73d
00000210: 54b6 02bd 8017 a3bd 33fe 623d 28ea 273c
00000220: 54e3 e03d 5539 37bd 6af5 193d c6d5 aa3c
00000230: 485e e0bc f86d b0bd 68c3 a4bd c0d7 d43d
00000240: 2bdc 8b3d 244d 89bc 3739 a7bd c7c1 f8bb
00000250: a814 7d3d abab ce3d a507 0c3d 2d91 f63c
00000260: f3fa 02bd 11b5 803d 6261 65bd c341 cb3d
00000270: c0cf c2bd e328 b6bd f2cb 403d e9cf b63d
00000280: d237 db3b 1e20 9ebd 2ca1 4bbd d636 143d
00000290: d72c 8dbd 099d 8fbc cd5b 80bd 0bd9 bb3d
000002a0: 9a42 e03d 0825 96bd c777 babd efc7 efbd
000002b0: 93df 7bbd 8f29 003e 9c13 b03d e8b9 423d
000002c0: f20f aa3d 802d b23a 314a e13a 0795 0d3d
000002d0: 93f3 aabb e47d 70bd 9f88 413d bbaf 07bd
000002e0: ef60 783d 2c63 2fbd 725a 46bd 3023 4f3c
000002f0: 9461 a9bd 5767 22bd f3c8 06bd 7cfc 40bd
00000300: 2ba8 393c df69 9c3c e4f5 373d 9263 be3c
00000310: 7ca6 43bd 5077 9f3d 79e6 ab3d dd7c d03d
00000320: c7cb 48bc 2853 dabd b652 0bba 1692 d2bd
00000330: 0867 c6bc 2424 433d fea9 e93d e1af 85bb
00000340: 6064 a33d 5d12 aabd 20f6 f5bd 9a11 943d
00000350: 9061 78bd bd87 d23c dfc8 4bbd f9c8 cd3d
00000360: f100 96bd 90ce 143d 0d24 b1bd fd12 a13d
00000370: 51bf 1f3d 9c8e a13d da5d babd 8bb1 003d
00000380: 3050 9c3d 6047 8ebb cfd5 953d f485 b53d
00000390: 875b ee3d 698a f9bc ea60 ba3d 65c6 d03c
000003a0: 6cef ff3d 456f 363d 1774 00be 0b68 293d
000003b0: be7e 11bd ae60 a13d 469b 9cbd 26d1 b1bd
000003c0: 7c86 b83d 2052 e0bc 6b83 173a 455c c13c
000003d0: 18ac 833d 361d 3abd 3eed fe3d 569a 9e3d
000003e0: b99e ba3d a814 ecbd ee54 f3bc 56de c23d
000003f0: b609 abbd bef1 8abd 74ab 523c 18f3 ee3c
0.048730496 -0.0218223 -0.027764872 0.07460133 0.08510803 0.0890121 -0.06169105 0.11282979
-0.055231716 -0.013325305 -0.045220442 -0.007068378 0.09091693 -0.07872302 0.020294785 -0.05436836
0.04871962 -0.08206915 -0.0571052 -0.023663389 -0.058603212 -0.11485869 -0.014270456 -0.0017158776
-0.07755615 0.080582984 -0.06722364 -0.042990018 -0.05429261 -0.08125314 -0.07621695 -0.00029996803
0.11045041 -0.090355605 0.0069074547 0.027220506 0.031739086 0.103497475 -0.08892778 -0.108033955
-0.12397227 0.050565764 -0.029844925 0.0503508 -0.058017593 -0.032469716 0.020437678 0.1161686
0.06942911 0.05669257 0.05788829 0.053389937 -0.09758282 0.049642578 -0.07946572 -0.08515515
0.109304704 -0.07869966 -0.06459699 0.0063804686 -0.14037307 0.03885112 -0.0064932955 0.06894131
-0.122416444 0.07038826 -0.0017281175 -0.0525535 -0.12453702 -0.07583608 -0.08986554 0.015809488
0.04566378 -0.07820314 0.050503638 -0.052214734 0.105481505 -0.019035209 -0.046050325 -0.112061486
-0.06441236 -0.08965667 -0.10253046 -0.052140314 -0.01244396 0.047739964 0.028596085 0.047664482
0.04145328 0.0945801 -0.016020453 0.097412474 0.035042793 -0.11332523 -0.030624498 0.08089474
-0.027057355 0.07641843 0.03954778 0.08076066 -0.032732736 0.04594198 0.049569916 -0.032845765
0.015481785 0.084135816 -0.064107895 -0.05366115 -0.101392955 -0.068609454 0.0012973737 0.103214204
0.08597692 -0.058001578 -0.0803742 0.05235714 -6.237269e-07 -0.10729411 -0.028150763 -0.12440645
0.060056288 -0.012363529 -0.0554759 0.02331902 -0.05044301 -0.083847746 -0.116380095 0.101083204
0.08434888 -0.042648487 0.0736521 0.08940124 -0.031912163 -0.07963467 0.055418205 0.010248698
0.109808594 -0.04473241 0.03758756 0.020853888 -0.027388707 -0.08614725 -0.08045083 0.103927135
0.06829103 -0.016760416 -0.0816521 -0.0075914594 0.061787277 0.10091337 0.034186978 0.030098522
-0.031977605 0.06284536 -0.056001075 0.099246524 -0.095122814 -0.08894517 0.047069497 0.089263745
0.006690004 -0.077209696 -0.049714252 0.036185108 -0.06893318 -0.017530935 -0.062675096 0.09172257
0.10950203 -0.07331282 -0.09104877 -0.11708056 -0.061492514 0.12515853 0.0859749 0.047540575
0.083038226 0.0013593882 0.0017188248 0.03456595 -0.0052170246 -0.05871381 0.047249433 -0.033126574
0.060639318 -0.042819187 -0.0484261 0.012642667 -0.08270565 -0.039649334 -0.032906484 -0.047115788
0.011331598 0.019093452 0.044912234 0.023240838 -0.047766194 0.07786429 0.083935685 0.10180066
-0.012255616 -0.10660392 -0.0005314754 -0.1028177 -0.024219051 0.04764189 0.114093766 -0.0040798043
0.079781294 -0.08304284 -0.12009835 0.0722992 -0.060639918 0.02569949 -0.049752112 0.10048098
-0.07324398 0.036329806 -0.08649454 0.0786495 0.039000813 0.07888529 -0.09099932 0.03141932
0.07632482 -0.0043420047 0.073161714 0.0886344 0.11638551 -0.030461507 0.09100516 0.025485227
0.12496838 0.04453971 -0.12544285 0.04135899 -0.03552126 0.07879768 -0.076468036 -0.0868247
0.09010026 -0.02738291 0.00057797757 0.023603568 0.06429309 -0.045438014 0.12447594 0.07744281
0.09112305 -0.11527377 -0.029703584 0.095150635 -0.083514616 -0.0678439 0.01285826 0.02916865

dense3.bias f4 [8]
00000000: 9eaf f2bc 9575 febd 557e d93d 7c0a d6bd
00000010: 9551 0fbd dc73 f7bd e5ba 38bd f289 9f3c
-0.029624756 -0.12424771 0.10619799 -0.104512185 -0.034989912 -0.12082645 -0.04510011 0.019474957
