Reinforcment_Learning_DQN/agent_output/weights/episode_287_weights.pt (torch, 21495 bytes, 6 tensors)

dense1.weight f4 [64, 5]
0.10677912 -0.1506636 0.085548386 -3.028608 -4.079694 0.38861775 -0.40467325 -0.06942187
-0.10817668 0.6906522 -0.1590693 -0.1454114 -0.19677794 0.20958334 0.4430123 0.25152513
-0.7045892 0.08733974 0.3448295 0.16195709 -0.17624125 -0.23496039 -0.2958821 0.004589319
-0.17472106 0.21464272 -0.3077688 0.1224075 -1.8965739 -3.8492153 -0.3206429 -0.42210567
-0.36001134 -0.026060402 -0.3152027 0.121033065 0.7065984 -0.1829775 1.2775388 1.3866296
-0.7120768 0.007953953 0.3154756 -0.9495774 -0.83470875 -0.3581755 0.015071958 -0.40748453
0.37109184 0.34176672 -0.5273691 0.009429577 0.3067274 -1.3567514 -1.2386757 -0.32865685
-0.58080584 0.19326565 -0.7160629 -1.0354561 -0.21246661 0.15722209 -0.101418495 -0.093485326
0.38021576 0.22740604 -0.012335112 -0.51052904 -0.27705416 -2.4507961 -0.3657607 -0.45440102
0.20327501 -0.52420104 -0.21947503 0.17226546 0.23236404 -0.09050953 1.3637494 1.8953228
0.33926246 0.013899459 -0.38619125 0.5418985 0.445298 -0.046183806 0.20049486 0.0990285
-2.881238 -2.9172375 -0.57155466 0.06607889 0.22826092 -0.8128156 -0.5100239 -0.008940807
0.33678535 0.03394558 -3.054423 -1.8791478 0.22109786 -0.38546696 0.13835177 -1.4780121
-3.1504893 0.26142347 -0.43435904 0.19419914 -2.5830214 -4.231684 -0.0035589635 -0.4151567
-0.30684435 0.21566164 0.36043257 -0.15596694 0.5808867 -0.057547033 0.40261644 0.08999042
0.15930048 -0.29327813 0.24169108 -2.6376603 -3.489625 -0.039429337 0.16579191 0.0086946925
-3.516009 -3.5788825 -0.25104308 0.46410403 0.28333956 -2.9424639 -2.4988644 0.008104268
0.40295684 0.07817943 -3.2316434 -1.5469261 0.21660726 -0.3738005 0.1523171 -2.2844362
-3.6332018 -0.10182772 -1.1718636 0.22714745 -0.18198138 -0.15240854 -0.054934233 -0.38638422
0.026403576 -0.39306372 0.38130027 0.06701658 0.08622059 -0.07413815 -2.5068812 -3.2539377
-0.27895004 0.7079197 0.2337939 1.038542 1.0203052 0.25789768 -0.40004054 0.12017015
-1.0531034 -2.6572356 -0.105522126 0.09999751 -0.566798 0.6468964 -0.30503136 0.16590197
0.02251689 -0.49327263 0.58628035 -1.6770293 -0.38724247 0.07332468 -0.25763017 -0.18881357
-0.2534031 0.23501159 0.20586987 -0.650705 -0.26661038 0.74579823 -0.107366115 0.47440743
0.10630211 -1.7364075 -0.6640471 -0.01981458 -0.14363989 -0.32462895 0.43395936 0.2610675
0.24140784 -0.39717814 0.17051071 -2.6132836 -3.8543048 0.15070532 -0.34284836 -0.38955003
0.14840204 0.2046445 0.19330846 -0.744068 0.043786135 -0.048025724 -0.2575492 -0.049293265
0.19167994 0.010244502 -2.7104776 -3.1543424 -0.07956298 0.44493452 -0.14441928 -1.596513
0.16741818 -0.26553622 -0.23939009 0.06623882 -0.25960886 0.37298614 -0.48266503 -0.1830746
0.30149275 -1.3460796 -0.85614204 0.138859 -0.29596946 0.1803154 -2.6527245 -3.7473118
0.053213723 -0.4789145 -0.1687764 -0.11702783 -0.42269304 -0.39433092 0.09288235 0.046827786
-2.3960588 -2.865732 0.029868105 0.22353879 -0.035015002 0.7320638 -0.35328215 -0.28931224
00000000: 03af da3d 8f47 1abe fe33 af3d b7d4 41c0
00000010: da8c 82c0 e8f8 c63e 5531 cfbe 0e2d 8ebd
00000020: bc8b ddbd 95ce 303f 10e3 22be bae6 14be
00000030: 2880 49be 049d 563e 82d2 e23e e7c7 803e
00000040: f55f 34bf 2ddf b23d 7e8d b03e 14d8 253e
00000050: 9678 34be 7599 70be dc7d 97be 0062 963b
00000060: 14ea 32be 4dcb 5b3e df93 9dbe c9b0 fa3d
00000070: efc2 f2bf 8b59 76c0 4e2b a4be 3c1e d8be
00000080: 6853 b8be a07c d5bc 4062 a1be 2fe0 f73d
00000090: a2e3 343f 745e 3bbe 6486 a33f 147d b13f
000000a0: aa4a 36bf 4c51 023c 0586 a13e 8117 73bf
000000b0: 79af 55bf c762 b7be 60f0 763c d0a1 d0be
000000c0: c0ff bd3e 0cfc ae3e a901 07bf 837e 1a3c
000000d0: 600b 9d3e 08aa adbf ed8c 9ebf b645 a8be
000000e0: b1af 14bf 6ee7 453e e64f 37bf d389 84bf
000000f0: d990 59be d4fe 203e 80b4 cfbd 3c75 bfbd
00000100: a4ab c23e 21dd 683e 3619 4abc 08b2 02bf
00000110: 0bda 8dbe d8d9 1cc0 fd44 bbbe 40a7 e8be
00000120: 5327 503e 0a32 06bf 10be 60be 5b66 303e
00000130: d7f0 6d3e 0f5d b9bd 578f ae3f f099 f23f
00000140: cfb3 ad3e 8eba 633c dcba c5be dcb9 0a3f
00000150: 19fe e33e 3b2b 3dbd 864e 4d3e 74cf ca3d
00000160: 3466 38c0 05b4 3ac0 6851 12bf 5e54 873d
00000170: 3bbd 693e af14 50bf ed90 02bf 767c 12bc
00000180: 216f ac3e 850a 0b3d ab7b 43c0 ea87 f0bf
00000190: 7a67 623e ed5b c5be 16ac 0d3e 802f bdbf
000001a0: 9ea1 49c0 4cd9 853e 4f64 debe 24dc 463e
000001b0: 3950 25c0 f569 87c0 803d 69bb 6b8f d4be
000001c0: b41a 9dbe 68d6 5c3e 9e8a b83e ccb5 1fbe
000001d0: feb4 143f 70b6 6bbd be23 ce3e e64c b83d
000001e0: aa1f 233e 8d28 96be de7d 773e 6dcf 28c0
000001f0: 0456 5fc0 a880 21bd 5bc5 293e 2f74 0e3c
00000200: 4b06 61c0 690c 65c0 b888 80be 0b9f ed3e
00000210: e211 913e 5451 3cc0 65ed 1fc0 c4c7 043c
00000220: 5c50 ce3e 891c a03d 3fd3 4ec0 ad01 c6bf
00000230: 4bce 5d3e c762 bfbe 04f9 1b3e 3434 12c0
00000240: 6186 68c0 0d8b d0bd a0ff 95bf 5799 683e
00000250: 5459 3abe fc10 1cbe b802 61bd 27d4 c5be
00000260: 504c d83c a63f c9be ca39 c33e fd3f 893d
00000270: 6c94 b03d bed5 97bd be70 20c0 8440 50c0
00000280: 8ad2 8ebe 3a3a 353f ab67 6f3e f2ee 843f
00000290: 5c99 823f 2a0b 843e 1dd2 ccbe c51b f63d
000002a0: 18cc 86bf 2610 2ac0 fc1b d8bd 7fcb cc3d
000002b0: ac19 11bf 019b 253f 122d 9cbe 35e2 293e
000002c0: 5775 b83c 3b8e fcbe 7816 163f e5a8 d6bf
000002d0: a544 c6be 402b 963d 1ae8 83be 5858 41be
000002e0: 0dbe 81be e1a6 703e 8dcf 523e 9a94 26bf
000002f0: 2881 88be a2ec 3e3f c4e2 dbbd 88e5 f23e
00000300: ecb4 d93d 9a42 debf fefe 29bf 3052 a2bc
00000310: 5616 13be c435 a6be ec2f de3e a4aa 853e
00000320: 9e33 773e ef5a cbbe 5c9a 2e3e 0a40 27c0
00000330: eeac 76c0 7f52 1a3e d289 afbe 1a73 c7be
00000340: b4f6 173e 548e 513e a7f2 453e 3e7b 3ebf
00000350: 1759 333d 9fb6 44bd 7ddd 83be bce7 49bd
00000360: bf47 443e 8ed8 273c 7778 2dc0 bfe0 49c0
00000370: eaf1 a2bd 75ce e33e a6e2 13be 8a5a ccbf
00000380: ac6f 2b3e 5df4 87be ad22 75be 38a8 873d
00000390: 74eb 84be 0af8 be3e df1f f7be e877 3bbe
000003a0: 425d 9a3e 564c acbf 202c 5bbf 0e31 0e3e
000003b0: 4f89 97be 9aa4 383e 3dc6 29c0 f5d3 6fc0
000003c0: a2f6 593d 4834 f5be b8d3 2cbe 49ac efbd
000003d0: 396b d8be bee5 c9be 1a39 be3d 7ece 3f3d
000003e0: 0759 19c0 2768 37c0 f5ad f43c 5ae7 643e
000003f0: e46b 0fbd 8868 3b3f 66e1 b4be bc20 94be

dense1.bias f4 [64]
0.46131882 -0.35886353 0.35169303 0.3877473 -0.12978694 0.2717497 0.42225194 0.37546915
0.4140386 0.21593422 0.51194686 -0.29587144 0.14058179 0.0413946 -0.3336492 -0.21295583
-0.22611298 0.026964372 -0.04591879 -0.15451361 0.24676009 0.49948838 0.008955717 0.24408725
0.6488547 0.47447354 0.032117683 -0.0057302467 0.40254202 -0.43169272 -0.20864697 0.13309339
-0.013857749 -0.06956428 0.33491325 -0.14872447 -0.19755839 -0.6115595 0.1654965 -0.41259047
0.654479 0.29121405 0.185165 0.14392804 0.19956623 -0.0059044063 0.1144355 -0.016750384
-0.3399039 0.050586097 -0.24592683 0.54395384 0.4070832 0.2561254 0.20314145 0.5324383
0.33518082 -0.2097098 -0.3714199 0.25502744 0.19938877 0.5760376 -0.33962825 0.29220286
00000000: fb31 ec3e f6bc b7be 1c11 b43e d086 c63e
00000010: dee6 04be c722 8b3e 6831 d83e 7e3d c03e
00000020: defc d33e dc1d 5d3e f30e 033f 767c 97be
00000030: acf4 0f3e 628d 293d 11d4 aabe 1811 5abe
00000040: 298a 67be 63e4 dc3c 5715 3cbd d138 1ebe
00000050: adae 7c3e f1bc ff3e 00bb 123c 02f2 793e
00000060: 571b 263f 32ee f23e d58d 033d cbc4 bbbb
00000070: fd19 ce3e d406 ddbe 8da7 55be a249 083e
00000080: 9d0b 63bc b877 8ebd c079 ab3e 3a4b 18be
00000090: bf4c 4abe 2a8f 1cbf ea77 293e 0f3f d3be
000000a0: f08b 273f 021a 953e e59b 3d3e df61 133e
000000b0: 175b 4c3e c079 c1bb 295d ea3d 1a38 89bc
000000c0: e207 aebe 5e33 4f3d 3ed4 7bbe 8f40 0b3f
000000d0: 366d d03e de22 833e 5004 503e e04d 083f
000000e0: d29c ab3e 2abe 56be c02a bebe f592 823e
000000f0: 922c 4c3e 3377 133f c1e3 adbe 9d9b 953e

dense2.weight f4 [64, 64]
0.048662502 -0.33271885 -0.10162085 0.051726263 -0.034134313 0.020782426 -0.031141058 -0.14674488
0.11705329 0.06473051 0.04939795 0.19209665 -0.08169712 -0.33832505 0.19874191 -0.25821748
-0.17537954 -0.09658828 0.10655943 -0.44937742 -0.10319158 0.0041785957 0.10134442 -0.18901293
0.05980124 -0.006805514 -0.16318007 -0.31100363 0.038441654 0.14987144 0.08641283 -0.37564266
-0.12162737 -0.15458865 0.080441825 -0.26101255 -0.07303533 -0.07060124 -0.14304921 -0.07509458
0.070876636 0.088150054 0.07984288 -0.23756967 -0.006155135 -0.046501383 0.07767626 -0.015084041
0.092179686 -0.021036517 -0.5116247 0.050040293 -0.11721487 -0.44801313 0.05673249 -0.14324209
-0.11399323 -0.055408224 -0.12151192 -0.35420364 0.0033485326 -0.1126756 0.11167641 -0.22682972
0.019114805 -0.076625794 0.08264923 0.011625209 -0.11523591 0.061417866 0.119546175 0.0017773062
-0.0852846 0.051178932 0.03493143 -0.15432635 -0.0434331 -0.058206867 0.0137437275 -0.06748171
-0.049855538 -0.1439511 -0.022284973 -0.03389432 -0.05694277 0.013290428 0.0060767233 -0.08330929
-0.008410932 -0.1370893 0.09997865 -0.14584401 0.05995713 -0.16888064 -0.091013 0.05845496
-0.023165006 -0.013553854 -0.10372771 -0.017270923 0.0100412965 -0.08063946 -0.023421098 0.12103827
-0.10991762 -0.044857398 0.074676424 0.027523898 0.09647629 -0.03630601 0.124983385 0.011100434
-0.084685996 0.05043134 -0.12555501 -0.17074294 0.115920424 -0.1651879 -0.024051353 -0.14352083
0.028702274 -0.09651017 -0.06752086 -0.04551795 -0.008708316 -0.105985485 -0.0326778 -0.0372603
-0.010994623 -0.052778196 0.0703869 0.010661125 -0.044996634 -0.09266764 0.0044395775 -0.02946306
-0.107656285 -0.11036576 0.00042839348 -0.040282115 0.010447785 0.016545082 -0.010048062 -0.079983115
-0.01219995 -0.0334528 0.046606243 0.06127715 0.0035248084 -0.17084736 -0.069295764 0.10559721
0.070108585 0.03903142 0.017249601 -0.12281361 -0.15201682 -0.05652137 0.009866357 -0.15020269
-0.07375034 -0.00925596 -0.06536921 0.077881105 0.016945228 0.06477783 -0.052132484 0.032022476
0.0054828045 -0.11267333 0.104076356 -0.13336186 0.0793656 -0.023358136 0.093851745 -0.11946923
-0.03916128 -0.08861471 -0.09766745 0.016792163 0.07400291 0.015345479 0.09582281 -0.14885908
0.022167176 0.09237884 -0.033423617 -0.10871054 -0.015077724 -0.070540674 -0.0880321 -0.05394539
-0.002637902 -0.11694881 0.09148915 -0.06421551 0.071203604 0.08425656 0.012904093 -0.07281994
0.10556657 0.11816524 -0.0015183088 0.019087149 0.118193746 -0.11515361 0.033335026 0.04345091
0.053711206 -0.10192391 -0.056724224 -0.13401087 -0.091673546 -0.018875781 0.10604264 0.04657355
-0.06232411 -0.057635777 -0.105133966 -0.06337767 -0.07086829 -0.10603416 -0.06456277 -0.05404459
0.022115815 0.06599113 -0.089491665 -0.12437908 -0.00057798624 -0.11781525 -0.052534945 -0.029587507
-0.08518185 -0.04256469 0.054746773 -0.11182892 -0.05290188 0.063279554 -0.036570188 -0.13010882
0.012548983 0.095480286 -0.050841764 0.1125704 -0.019156098 -0.0017060792 0.036549643 -0.026848286
0.10657033 -0.06432293 -0.005418271 0.030173453 0.019214053 -0.025999231 -0.117066234 0.012351547
00000000: 5552 473d 205a aabe 981e d0bd ebde 533d
00000010: 6cd0 0bbd e83f aa3c 881b ffbc 4a44 16be
00000020: a3b9 ef3d 6e91 843d 8155 4a3d fcb4 443e
00000030: d250 a7bd f138 adbe 0083 4b3e 1535 84be
00000040: b296 33be 13d0 c5bd d53b da3d cc14 e6be
00000050: 1b56 d3bd 9aec 883b aa8d cf3d 9b8c 41be
00000060: 25f2 743d ca00 dfbb ad18 27be de3b 9fbe
00000070: ff74 1d3d e677 193e 36f9 b03d 3c54 c0be
00000080: c517 f9bd 7d4c 1ebe afbe a43d 70a3 85be
00000090: 8c93 95bd 6297 90bd 7e7b 12be 30cb 99bd
000000a0: c527 913d 0488 b43d aa84 a33d 7745 73be
000000b0: 04b1 c9bb 3c78 3ebd bb14 9f3d 0e23 77bc
000000c0: b4c8 bc3d c654 acbc d6f9 02bf 0df7 4c3d
000000d0: 5a0e f0bd fa61 e5be 5460 683d 0eae 12be
000000e0: 4875 e9bd bcf3 62bd 3edb f8bd 2e5a b5be
000000f0: 0e73 5b3b 77c2 e6bd 9ab6 e43d 0d46 68be
00000100: a796 9c3c fced 9cbd 0044 a93d a977 3e3c
00000110: ce00 ecbd 4d91 7b3d a0d4 f43d 80f4 e83a
00000120: b1a9 aebd 00a1 513d 4214 0f3d ba07 1ebe
00000130: e8e6 31bd 536a 6ebd 5f2d 613c da33 8abd
00000140: 5235 4cbd eb67 13be fa8e b6bc c5d4 0abd
00000150: d23c 69bd 18c0 593c 401f c73b 109e aabd
00000160: 01ce 09bc 2361 0cbe 9bc1 cc3d 2258 15be
00000170: 9c95 753d 0cef 2cbe 0665 babd 786e 6f3d
00000180: 8ac4 bdbc fc10 5ebc 326f d4bd c07b 8dbc
00000190: 4084 243c 4d26 a5bd 9add bfbc eae2 f73d
000001a0: 7d1c e1bd 64bc 37bd f4ef 983d cc79 e13c
000001b0: 5c95 c53d 9cb5 14bd 4af7 ff3d 98de 353c
000001c0: da6f adbd 1891 4e3d 7e91 00be 3dd7 2ebe
000001d0: b067 ed3d 0427 29be 5807 c5bc 20f7 12be
000001e0: 0821 eb3c 20a7 c5bd 6048 8abd 0871 3abd
000001f0: 53ad 0ebc eb0e d9bd 28d9 05bd 429e 18bd
00000200: cb22 34bc f32d 58bd 0227 903d 00ac 2e3c
00000210: 644e 38bd 88c8 bdbd e079 913b 845c f1bc
00000220: e67a dcbd 7207 e2bd 009a e039 dcfe 24bd
00000230: 302d 2b3c 8d89 873c a0a0 24bc 30ce a3bd
00000240: 4de2 47bc ce05 09bd 30e6 3e3d c0fd 7a3d
00000250: 7900 673b 9cf2 2ebe f0ea 8dbd 5a43 d83d
00000260: 1795 8f3d 69df 1f3d 094f 8d3c b485 fbbd
00000270: 4caa 1bbe f482 67bd 80a6 213c bcce 19be
00000280: 6b0a 97bd 4fa6 17bc 4be0 85bd 2180 9f3d
00000290: b8d0 8a3c 3daa 843d df88 55bd 002a 033d
000002a0: 19a9 b33b 46c1 e6bd fc25 d53d 0390 08be
000002b0: 6f8a a23d 9059 bfbc 5835 c03d 49ac f4bd
000002c0: 9467 20bd a17b b5bd df05 c8bd b88f 893c
000002d0: d68e 973d 9b6b 7b3c c03e c43d 846e 18be
000002e0: f097 b53c 1e31 bd3d 34e7 08bd a2a3 debd
000002f0: 8f08 77bc a177 90bd 2c4a b4bd d7f5 5cbd
00000300: a7e0 2cbb dc82 efbd aa5e bb3d 6c83 83bd
00000310: 32d3 913d b48e ac3d b06b 533c 9f22 95bd
00000320: 4933 d83d 9e00 f23d fd01 c7ba a75c 9c3c
00000330: 900f f23d a8d5 ebbd 4f8a 083d 95f9 313d
00000340: 4800 5c3d 7cbd d0bd a957 68bd 253a 09be
00000350: 57bf bbbd 62a1 9abc e22c d93d e8c3 3e3d
00000360: 9147 7fbd 7e13 6cbd 7a50 d7bd 27cc 81bd
00000370: 6523 91bd 7028 d9bd 7c39 84bd dc5d 5dbd
00000380: 3a2c b53c 5c26 873d 6847 b7bd 76ba febd
00000390: 0084 17ba 1f49 f1bd e22e 57bd 8061 f2bc
000003a0: d273 aebd 5058 2ebd 273e 603d 9006 e5bd
000003b0: a4af 58bd b698 813d 9fca 15bd 3f3b 05be
000003c0: 409a 4d3c 2b8b c33d 743f 50bd 4f8b e63d
000003d0: 40ed 9cbc 859e dfba 14b5 153d f0f0 dbbc
000003e0: 8c41 da3d bebb 83bd c08b b1bb 512e f73c
000003f0: ca66 9d3c 57fc d4bc 6cc0 efbd 255e 4a3c

dense2.bias f4 [64]
-0.14639069 0.058430586 -0.08263224 -0.010494288 -0.017199306 -0.11467838 0.32622784 0.055257596
0.07219675 0.03762825 0.33096454 0.050560586 -0.03303846 0.07555824 0.0091512995 0.08478004
0.1002711 -0.1030274 0.04245612 -0.13758521 -0.089070335 -0.020736108 0.0026837566 0.41426238
0.025896031 -0.0136915855 0.3496101 -0.017949874 0.014402262 0.028523188 -0.012195362 -0.19510482
-0.13783884 -0.16186608 0.04413514 -0.09303697 -0.1639978 0.45277292 0.032782078 0.15257718
-0.13020444 0.3429818 -0.117723495 0.20365608 -0.058190707 0.032741174 0.078041 0.12181689
-0.14516413 -0.041323934 0.3974038 -0.1552502 0.04638144 -0.05891385 -0.15794937 0.03688024
-0.118822165 -0.15906942 0.04149252 0.023831218 0.019580713 -0.02811467 0.37358743 0.0014993495
00000000: 71e7 15be e954 6f3d 183b a9bd 3cf0 2bbc
00000010: 8fe5 8cbc 80dc eabd 5607 a73e ca55 623d
00000020: e4db 933d 1420 1a3d 2f74 a93e 9e18 4f3d
00000030: 5653 07bd 47be 9a3d 55ef 153c 28a1 ad3d
00000040: ef5a cd3d 0800 d3bd 78e6 2d3d 23e3 0cbe
00000050: 826a b6bd c5de a9bc f7e1 2f3b 331a d43e
00000060: ea23 d43c ac52 60bc 1800 b33e 9d0b 93bc
00000070: 77f7 6b3c 76a9 e93c 0ecf 47bc 8fc9 47be
00000080: a025 0dbe 39c0 25be 0cc7 343d 2b8a bebd
00000090: 0aef 27be dad1 e73e 8046 063d 313d 1c3e
000000a0: 5054 05be 4f9b af3e 0419 f1bd 388b 503e
000000b0: 6159 6ebd 9c1b 063d f6d3 9f3d 227b f93d
000000c0: e8a5 14be 4943 29bd 8378 cb3e e9f9 1ebe
000000d0: 77fa 3d3d a64f 71bd 7bbd 21be bc0f 173d
000000e0: 0959 f3bd 18e3 22be 10f4 293d b039 c33c
000000f0: bb67 a03c bd50 e6bc da46 bf3e d285 c43a

dense3.weight f4 [4, 64]
-0.07654299 -0.07741654 0.07425427 0.063464426 0.027008904 0.047085516 -0.11598677 -0.12061949
-0.31115374 -0.02631421 -0.123501725 0.06206033 0.048310492 -0.028638132 -0.13825251 -0.042749695
-0.071288966 0.054872975 -0.08769483 -0.13174781 -0.06423267 -0.0545042 -0.009893614 0.0034234207
0.09170687 0.043939333 0.28135538 0.05658392 0.084574 0.09069481 0.025915464 0.0136854565
-0.047048386 0.005872233 0.06282994 -0.06146836 0.03688138 -0.1734467 0.07010817 -0.2080851
0.056638792 -0.2743984 0.06757868 -0.069144346 0.07500917 -0.12076719 0.1024124 -0.0674034
-0.046131402 -0.015005508 -0.1396961 0.02503409 0.040240042 -0.09138535 0.21244478 -0.053786796
-0.02308848 0.08100388 -0.03853084 -0.08794437 0.031055372 -0.20083484 -0.14881681 0.07169462
-0.08697463 -0.12375216 -0.10767769 0.067616284 -0.0810154 -0.04574781 -0.09173032 -0.02255787
-0.25379714 -0.07074718 -0.17451327 0.03475297 0.028331097 -0.00013132975 -0.12279446 -0.049841378
-0.13100588 -0.07635482 -0.03631248 -0.11065161 -0.029360713 0.03578607 -0.0446444 -0.09803332
-0.053296015 -0.06039668 0.2812234 -0.003572151 -0.093753606 0.06700942 0.033069152 -0.061603505
-0.08306844 -0.1215227 0.09233397 -0.18305217 -0.092465326 -0.16780631 0.2472172 -0.18523872
-0.042243853 -0.20140631 0.038060635 -0.17527243 -0.0631326 0.04913795 -0.03091497 -0.19902527
-0.05188416 -0.09820361 -0.1637748 0.01172705 0.11184717 0.07766706 0.06285946 -0.08673656
-0.08316213 0.03233234 0.06460429 -0.0999158 0.08477988 -0.20769918 -0.23314963 -0.11054133
0.08998274 0.059829637 0.048875056 0.07082779 0.089167796 0.038990106 -0.11949392 0.0028922409
-0.17757201 -0.06621113 -0.17402047 -0.0028097134 0.0036308616 0.03601773 -0.08403676 0.012615514
-0.01961056 -0.08477916 -0.10219513 0.023124991 -0.060022376 0.06640904 0.02243935 0.20281292
0.08351567 -0.12412602 0.28330585 -0.01838155 0.01856631 -0.028410217 -0.119912 -0.04448035
-0.07195471 0.10388204 -0.046151035 -0.14246692 0.14535706 -0.15217315 0.01952262 -0.17838138
0.03060162 -0.0036889706 0.1245013 -0.003956704 -0.003529116 -0.07366562 0.025693458 -0.12337431
0.03842543 -0.0638501 -0.13001853 0.08559114 0.0051483037 0.10348913 0.12552592 0.07362273
0.05429804 -0.021376897 -0.050930284 -0.09788482 -0.010559685 -0.21413794 -0.08054236 -0.01102954
0.1951702 -0.055653263 -0.15250857 0.014760981 0.03084562 -0.016040333 -0.102535956 0.07175497
-0.010046039 -0.08379269 -0.16696247 -0.036845464 0.016808942 -0.025374709 -0.073025204 0.01781427
-0.11998785 0.010235533 -0.084540315 0.13092007 -0.012205392 0.0530457 0.047025863 -0.10440143
0.041947246 0.023125622 0.22110426 0.03362809 0.021891132 0.053275604 -0.017142495 0.09407553
-0.027539046 -0.020440107 -0.03351568 -0.015706016 0.2626219 -0.19556189 -0.31413555 -0.20344265
-0.08136736 -0.20699908 0.09299658 -0.2623239 0.011096198 -0.019027226 0.0013776305 -0.26446152
-0.008452043 0.040532693 -0.25921914 -0.010652932 0.067542315 0.035491526 0.05045159 0.056652736
0.06435711 0.027464349 -0.09460241 -0.01537323 0.07280181 -0.19794464 -0.16334917 -0.000464806
00000000: 92c2 9cbd 908c 9ebd 9f12 983d a3f9 813d
00000010: c741 dd3c bedc 403d 798a edbd 5a07 f7bd
00000020: 8b4f 9fbe e690 d7bc 79ee fcbd f932 7e3d
00000030: 39e1 453d 849a eabc 1192 0dbe 4e1a 2fbd
00000040: f3ff 91bd 7cc2 603d 5999 b3bd e6e8 06be
00000050: 6b8c 83bd cc3f 5fbd d318 22bc 785b 603b
00000060: d0d0 bb3d bbf9 333d d00d 903e 8ac4 673d
00000070: 2235 ad3d 33be b93d ab4c d43c f738 603c
00000080: cfb5 40bd dc6b c03b fcac 803d 3fc6 7bbd
00000090: ee10 173d 039c 31be df94 8f3d 4314 55be
000000a0: 14fe 673d f27d 8cbe b166 8a3d 8d9b 8dbd
000000b0: 689e 993d ca54 f7bd 98bd d13d cb0a 8abd
000000c0: 48f4 3cbd aad9 75bc 7f0c 0fbe 4b14 cd3c
000000d0: bed2 243d 3e28 bbbd 208b 593e 8b4f 5cbd
000000e0: 0d24 bdbc 5de5 a53d 84d2 1dbd 2e1c b4bd
000000f0: d667 fe3c a6a7 4dbe 6f63 18be a1d4 923d
00000100: c11f b2bd c671 fdbd 1f86 dcbd 687a 8a3d
00000110: 67eb a5bd 0e62 3bbd 1bdd bbbd 48cb b8bc
00000120: b3f1 81be e6e3 90bd 9bb3 32be 2159 0e3d
00000130: 9e16 e83c 90b5 09b9 a97b fbbd 7926 4cbd
00000140: 6826 06be ea5f 9cbd 65bc 14bd 509d e2bd
00000150: e185 f0bc 6a94 123d 0cdd 36bd b1c5 c8bd
00000160: ec4c 5abd 8262 77bd 83fc 8f3e c01a 6abb
00000170: e401 c0bd 3c3c 893d 8573 073d f553 7cbd
00000180: c91f aabd e5e0 f8bd 9819 bd3d 0772 3bbe
00000190: 765e bdbd 6bd5 2bbe 8126 7d3e 38af 3dbe
000001a0: e407 2dbd 753d 4ebe 78e5 1b3d 9e7a 33be
000001b0: aa4b 81bd e044 493d 6441 fdbc 48cd 4bbe
000001c0: 7c84 54bd f91e c9bd 95b4 27be d022 403c
000001d0: 2110 e53d e80f 9f3d 76bc 803d f0a2 b1bd
000001e0: e850 aabd ea6e 043d 414f 843d a8a0 ccbd
000001f0: 13a1 ad3d 18af 54be c7be 6ebe 7e63 e2bd
00000200: df48 b83d ec0f 753d 3631 483d 290e 913d
00000210: 9b9d b63d 17b4 1f3d 3ab9 f4bd c08b 3d3b
00000220: 70d5 35be b399 87bd 6c32 32be 2b23 38bb
00000230: c0f3 6d3b 5487 133d 771b acbd 4db1 4e3c
00000240: 53a6 a0bc b2a0 adbd ae4b d1bd 9f70 bd3c
00000250: 06da 75bd 7601 883d bad2 b73c 31ae 4f3e
00000260: 430a ab3d c835 febd 770d 913e e894 96bc
00000270: 6018 983c 8bbc e8bc 6c94 f5bd 0731 36bd
00000280: fe5c 93bd 1bc0 d43d de08 3dbd d9e2 11be
00000290: 7bd8 143e 47d3 1bbe e7ed 9f3c 9ca9 36be
000002a0: 40b0 fa3c a8c2 71bb 8afa fe3d 3da7 81bb
000002b0: be48 67bb 00de 96bd 167b d23c acab fcbd
000002c0: fc63 1d3d d7c3 82bd 9423 05be 684a af3d
000002d0: 1ab3 a83b 1cf2 d33d de89 003e 84c7 963d
000002e0: 9f67 5e3d 9a1e afbc 469c 50bd d677 c8bd
000002f0: 8702 2dbc fa46 5bbe 65f3 a4bd 3eb5 34bc
00000300: b2da 473e adf4 63bd 352b 1cbe 0bd8 713c
00000310: f4af fc3c 0467 83bc 5ffe d1bd 45f4 923d
00000320: 2498 24bc 809b abbd 36f8 2abe 45eb 16bd
00000330: e8b2 893c 9fde cfbc 3d8e 95bd 3bef 913c
00000340: 31bc f5bd f0b2 273c 7923 adbd e90f 063e
00000350: 20f9 47bc 7346 593d 319e 403d 6bd0 d5bd
00000360: e0d0 2b3d f271 bd3c 2869 623e 9cbd 093d
00000370: 0855 b33c 8537 5a3d 6b6e 8cbc acaa c03d
00000380: 9199 e1bc 0372 a7bc bd47 09bd e7a9 80bc
00000390: 6176 863e 6041 48be 60d6 a0be 4553 50be
000003a0: eea3 a6bd 91f7 53be fe74 be3d 514f 86be
000003b0: d4cc 353c fcde 9bbc 9c91 b43a 8067 87be
000003c0: 707a 0abc 9c05 263d 5fb8 84be a389 2ebc
000003d0: a053 8a3d 905f 113d 54a6 4e3d b30c 683d
000003e0: a9cd 833d eafc e03c e9be c1bd 00e0 7bbc
000003f0: 1e19 953d 00b2 4abe 0145 27be 35b1 f3b9

dense3.bias f4 [4]
0.63394964 0.6045895 0.6176429 -0.053235494
00000000: 864a 223f 61c6 1a3f d81d 1e3f 760d 5abd
