Reinforcment_Learning_DQN/agent_output/weights/episode_49_weights.pt (torch, 21487 bytes, 6 tensors)

dense1.weight f4 [64, 5]
000000 23 ec dc bb 82 e5 15 be f8 bb 88 3e e3 09 90 bf
       -0.006742017 -0.14638332 0.2670591 -1.1253017
000010 79 db 1c bf 53 98 02 3e 72 7c 2b 3d ad bc f8 be
       -0.6127239 0.1275342 0.041866727 -0.48581448
000020 fb 3a be be e6 fa d1 3d 14 f7 bc 3e 9d 6c bb be
       -0.37154374 0.10252933 0.36907256 -0.36606303
000030 1c 22 b3 be df 3f dd 3d 99 4b 17 3d b3 15 9a bd
       -0.3498696 0.10803198 0.03693733 -0.0752367
000040 f2 12 d1 3e 20 e1 7d be df ea 89 3e d5 0d 7d be
       0.40834767 -0.2479291 0.26937005 -0.24712308
000050 9a eb 7e be 00 f8 a0 3d 08 da 8e be 08 8c 81 be
       -0.24894562 0.07859802 -0.2790072 -0.25302148
000060 c0 0d d6 3e 8a 2f c4 3e 77 48 a3 be 95 2f dc bd
       0.41807365 0.3831752 -0.31891224 -0.10751263
000070 18 36 df 3e d0 98 f4 3e af ca 0f be 2a 6e 0d 3f
       0.43595958 0.47772837 -0.14042161 0.5524622
000080 e3 a4 56 be 77 81 a0 ba 4f dc ea be 73 eb 78 be
       -0.20961337 -0.0012245615 -0.45871207 -0.24308567
000090 e8 19 e7 3d 1e 6d 9e be 50 2a 9b 3c 60 1b 37 bc
       0.11284238 -0.30942625 0.018941075 -0.01117596
0000a0 b0 dc 18 bd 62 e1 0b be 8e 5b 75 be f0 aa af 3d
       -0.03731984 -0.13660195 -0.23960707 0.085775256
0000b0 7e 79 c4 3e 2b ad d2 3e 89 a9 cf be 2c 40 c8 be
       0.3837394 0.41147742 -0.40559033 -0.3911146
0000c0 6c b6 75 3e e9 00 8e be a1 61 ae be 80 ee b1 be
       0.2399537 -0.2773507 -0.3405886 -0.34752274
0000d0 23 6b b0 3e 7a ac dc be a0 0e 0b bf e2 4d dd 3d
       0.3445674 -0.4310034 -0.5431919 0.108058706
0000e0 c6 4b e2 be f8 dd a8 3d ac 24 39 be 38 f8 55 3e
       -0.44198436 0.08245462 -0.18080395 0.20895469
0000f0 5e 9b ac bc d1 73 c8 3d 84 fc 75 be 44 1d ec 3e
       -0.021070179 0.09787715 -0.24022108 0.46116078
000100 81 8f 08 3e 58 f0 04 3e c4 bc b0 be ce 3f 83 be
       0.13335992 0.12982309 -0.34519017 -0.25634617
000110 a8 76 c5 be 92 be 9e be 01 9c c7 3e 53 40 a7 be
       -0.3856709 -0.3100477 0.3898621 -0.32666263
000120 e2 86 b7 bd 52 5e 64 be 99 be 24 bf 35 77 9a bd
       -0.08961274 -0.22301605 -0.6435333 -0.07542268
000130 b7 62 22 3e 35 16 51 3e 4c 45 e5 be 4e 34 9c bf
       0.15857969 0.20418628 -0.44779432 -1.2203462
000140 0e 0d 72 be 41 6d 61 be ec f2 7d 3e 6c a2 b1 be
       -0.23637792 -0.22014333 0.24799699 -0.3469423
000150 20 fa e7 be 10 91 c6 3e b7 80 b3 be 59 0f da be
       -0.45308018 0.3878255 -0.3505914 -0.42589834
000160 a3 45 74 3e 4c 66 11 be 02 c8 e3 3d 69 69 2f 3d
       0.2385469 -0.1419918 0.11122133 0.042825136
000170 00 fc 22 be e7 48 01 be 98 a3 74 3e 73 f4 ac 3e
       -0.15916443 -0.12625466 0.23890531 0.3378025
000180 5a 85 a9 be cb 0d bf 3d 86 59 92 bf 13 58 05 bf
       -0.33109552 0.09328803 -1.143357 -0.52087516
000190 8a 77 16 be b7 37 d7 be dc a8 61 be b0 3e 57 3e
       -0.14694038 -0.42034695 -0.22037071 0.21020007
0001a0 38 ee 5a bd 27 69 6e 3e 9d a3 db bc ec e3 b8 be
       -0.05344984 0.232823 -0.026811415 -0.3611139
0001b0 aa 92 79 3e 61 19 3e 3e 90 c4 e3 be 3a ef 98 3e
       0.24372354 0.18564369 -0.44485903 0.29870015
0001c0 c7 5f 3c 3e 1b 35 54 3f 5c bd 26 3f 40 47 b9 3c
       0.18395911 0.8289353 0.6513269 0.022616982
0001d0 c2 24 8e be 70 99 c4 3e 96 40 ac bf e9 5c 27 bf
       -0.2776242 0.38398314 -1.345721 -0.65376145
0001e0 74 ce 0f bf e0 17 19 3e 89 c6 ae 3e 13 d6 21 3f
       -0.561744 0.14950514 0.34135845 0.63217276
0001f0 09 9d e2 3d 4a 61 ba be e4 21 d2 be b0 d9 60 bd
       0.11065108 -0.3640235 -0.41041481 -0.054895103
000200 48 d6 08 3d d2 db d1 3e 32 74 a0 3e 7f 44 d7 be
       0.03340748 0.40988022 0.3133865 -0.42044446
000210 34 00 95 be 00 9e 0d 3f e1 48 e2 3e 9a d1 dc be
       -0.29101717 0.55319214 0.44196227 -0.43128663
000220 ce d9 e4 be e4 1a 9c bd 95 d0 94 be 6d a0 c0 be
       -0.44697422 -0.076223165 -0.29065385 -0.37622395
000230 e9 87 a8 3e e4 94 df be e2 0f 3a 3e ab 35 19 bf
       0.3291619 -0.43668282 0.18170121 -0.59847516
000240 26 e8 80 bf a0 64 8f 3e 4b b5 48 be d2 2a 8b be
       -1.0070846 0.28006458 -0.19600408 -0.27181107
000250 ad 14 8f 3e b0 0e 9d be ac 02 c1 be 58 d0 09 3e
       0.27945462 -0.30675268 -0.3769735 0.13458383
000260 9c c8 15 be 94 de 9d 3e 3a d7 c5 3e b3 42 81 3d
       -0.14627308 0.30833876 0.38640767 0.0631155
000270 78 ef 88 3e 93 5e 0c 3e f1 a7 84 bf e1 e6 1c bf
       0.267452 0.13707952 -1.0363752 -0.61289793
000280 70 2d d6 be 69 46 90 be b3 d4 2f 3d a0 d9 4f 3e
       -0.4183154 -0.2817872 0.042927455 0.20297861
000290 a0 f0 1d bd 64 08 3d 3e d4 2b 81 be 5d b5 70 be
       -0.038559556 0.18460232 -0.2522875 -0.23506685
0002a0 d8 4b 6a 3e 9d 6a 96 be 54 a4 d4 be 12 4e 0c be
       0.22880495 -0.29378214 -0.41531622 -0.13701656
0002b0 78 5a 4a be 40 ad 4b bd 02 b9 d0 be 97 95 aa be
       -0.19761074 -0.04972577 -0.4076615 -0.33317253
0002c0 d4 eb 9d 3e f2 47 06 3e 08 3a c1 3d 2b 32 f0 3e
       0.30843985 0.13113382 0.09434897 0.46913275
0002d0 50 ce 6a be 70 db a1 be 50 a5 3e 3d 44 97 85 3e
       -0.22930264 -0.3161273 0.046544373 0.2609197
0002e0 8a 35 dd be 7e 72 1e be c2 71 de be 84 7d a8 3e
       -0.4320491 -0.15473363 -0.43446165 0.3290826
0002f0 fa 15 d4 be 30 1b 22 bf dc 9f 9c 3e ca a3 f8 be
       -0.41423017 -0.63322735 0.30590713 -0.4856246
000300 ad 06 52 be ab c0 1b 3f 57 98 db be 54 bc 9e bd
       -0.20510359 0.60840863 -0.42889664 -0.077507645
000310 dd 4f 85 3e 13 f6 b4 3d 3d c4 4b bf 2a 7a 6e be
       0.26037493 0.088359974 -0.7959631 -0.2328879
000320 73 fd 35 3d 40 44 a1 3e 91 41 ad 3d 10 2f ab bf
       0.04443116 0.31497383 0.084597714 -1.3373737
000330 b6 66 9f bf 5f 40 24 3e 0d d0 8a 3e 64 df 4c 3e
       -1.245322 0.1604018 0.27111855 0.20007092
000340 f4 89 ff be 6f 09 c1 bf 76 4c 8e 3e 6f 9a b1 3e
       -0.49909937 -1.5081004 0.2779271 0.34688136
000350 d0 1e 92 be ef ce 43 bf f5 31 16 bf f0 cb 92 3e
       -0.28539133 -0.7648763 -0.5866998 0.28671217
000360 b4 fd a6 3e 99 6f 96 bd ad 46 39 bf 80 10 e3 bd
       0.32615435 -0.07345504 -0.7237347 -0.110871315
000370 be b4 ca be b7 32 d8 3c df aa 9a 3e 58 6f 08 3e
       -0.3959102 0.02639137 0.3020849 0.13323724
000380 aa f2 a8 3e 6e 38 6e 3e e0 7c f5 be 9f 12 91 3e
       0.32997638 0.23263714 -0.47946835 0.2833452
000390 f5 ce 10 bf d8 68 64 bf cd 7e ca 3e 20 b3 6b be
       -0.5656579 -0.8922248 0.39549866 -0.2301755
0003a0 08 14 84 3d 58 bd 71 bf 65 47 aa bf 36 11 74 3e
       0.06449133 -0.9442954 -1.3303038 0.2383469
0003b0 46 75 18 3d 2c 51 bf be 3c 68 19 3d 28 3e 1c 3f
       0.037221216 -0.37366617 0.03745292 0.6103234
0003c0 58 52 df be a0 e1 0c be e8 e2 3c 3e 3c cd d6 3e
       -0.4361751 -0.13757944 0.18445933 0.41953456
0003d0 bc 05 9b 3d 85 39 c8 bc e5 e5 9d 3d 29 79 7d 3e
       0.07569453 -0.02444149 0.077098645 0.2475325
0003e0 42 c9 94 bf 47 d7 8a bf 1c e7 9f be c0 fd 48 be
       -1.1623919 -1.0846947 -0.3123101 -0.19628048
0003f0 70 6f 75 3e 8a ba 93 bd 8f 71 b5 be 36 62 a0 3e
       0.23968291 -0.07213314 -0.354382 0.3132493

dense1.bias f4 [64]
000000 23 dc 88 be ad 64 95 be a4 dd ad be ba 8e 8c 3e
       -0.2673045 -0.29178372 -0.3395816 0.27452642
000010 10 3d 00 3e 54 40 1b be 2e 2e ed 3e c7 f5 94 be
       0.12523293 -0.15161258 0.46324295 -0.29093763
000020 20 81 ac 3d 37 ee 06 be d6 59 b5 3c 81 8c 8d be
       0.08423066 -0.13176809 0.022137564 -0.27646258
000030 99 9d 5f be d0 13 d4 3e 36 f3 85 bc 97 7e 09 3f
       -0.21837462 0.41421366 -0.016351324 0.53708786
000040 61 f5 0f 3e 32 86 9e 3e 9b ce c9 bc d2 e8 56 bc
       0.14058448 0.30961758 -0.02463465 -0.013117032
000050 03 4f b9 be 3e a4 32 3d 8c 55 e1 3d e6 53 87 3e
       -0.36193094 0.043613665 0.11002645 0.26431197
000060 af bd 60 be 30 45 99 3e 99 ff 14 be b0 9c 7e 3e
       -0.21947359 0.29935598 -0.14550628 0.24864459
000070 a6 9c bb 3e 7b c9 88 be e8 98 3c 3d 44 51 de 3e
       0.3664295 -0.26716217 0.04604426 0.43421376
000080 18 15 34 bc 95 0b d6 bd 70 20 ff bc 9c ae 96 3e
       -0.010991357 -0.10451428 -0.031143397 0.2943009
000090 30 e0 1f be 01 b2 61 be b5 87 31 3e f5 94 ac be
       -0.15612864 -0.2204056 0.17336924 -0.33707395
0000a0 60 49 86 be 43 ab b2 3e 35 d4 a7 3e 35 9e a5 3e
       -0.26227856 0.34896287 0.3277909 0.32347265
0000b0 2d 5b 2d be e4 73 d4 bd eb b0 bc 3e 70 4a 4e bd
       -0.16929312 -0.10373667 0.36853728 -0.050363958
0000c0 21 cf 40 3e 7b e8 87 3e 5a 55 e0 3e 0f 51 ae 3e
       0.18829013 0.26544556 0.43815118 0.34046218
0000d0 cc 36 8e 3e 75 30 ed 3e 60 ee 1c be 5f 09 f5 bd
       0.27776182 0.46326032 -0.15325308 -0.11964678
0000e0 ef 70 18 3f da 88 77 be f2 df 65 3e a4 cb 9b 3e
       0.59547323 -0.24173298 0.2244871 0.30428803
0000f0 b3 b1 41 be da 94 9b be f8 d2 7a be a5 f6 f1 bc
       -0.18915443 -0.30387002 -0.2449454 -0.029536555

dense2.weight f4 [64, 64]
000000 5e b4 d5 bd 0c df 07 bd 70 0e dd 3c d8 a6 2a bd
       -0.10434793 -0.0331717 0.026984423 -0.04166302
000010 dc c3 90 3d 96 15 ae 3d 4c c1 8d bd a6 0b dd 3d
       0.07068607 0.08500211 -0.06921634 0.107932374
000020 c0 17 4c 3c 28 20 f7 bc 7e 34 97 bd 3c f0 63 bd
       0.012456834 -0.0301667 -0.07383059 -0.055649027
000030 7a 07 af 3d 3e b0 a2 bd 30 23 6f bd 96 5f f2 bd
       0.08546348 -0.07943772 -0.058383167 -0.11834638
000040 40 b5 70 3d f8 67 83 bc a8 b4 09 bd 50 ae be 3c
       0.058766603 -0.016040787 -0.033619553 0.023276478
000050 22 67 e1 bd 38 7c b0 3d b8 5d 85 bd f0 fd e0 3c
       -0.11005999 0.08617443 -0.06512016 0.027464837
000060 7a 7b 88 bd 0e b8 ea bd 9a 6d c5 bd 50 c1 c2 3c
       -0.06664176 -0.11460887 -0.096400455 0.02377382
000070 f6 d7 8b 3d 30 22 57 bd d0 71 48 3c e2 0d d6 3d
       0.06828301 -0.052522838 0.012234166 0.10451867
000080 30 b8 3d bc ec 7a 7d bd da 0b f0 3d c0 7c 56 bb
       -0.011579558 -0.061884806 0.117210105 -0.0032728165
000090 5a 2c e7 bd 64 81 67 3d 3c 57 f7 bd 7a 2c dc bd
       -0.11287756 0.05651988 -0.120771855 -0.10750671
0000a0 20 7f ae 3b 68 63 c4 bd ae 95 98 3d ac c7 9b bd
       0.005325213 -0.09589273 0.07450424 -0.07606444
0000b0 3c d8 cb bd 08 85 f5 3d e0 88 73 bd a0 b4 19 3d
       -0.09953353 0.11988264 -0.059456706 0.037525773
0000c0 38 85 56 bd 5c 0e 2b 3d 80 7a 96 bd 44 fc ed bd
       -0.05237314 0.04176174 -0.07347584 -0.116203815
0000d0 9c 69 0f bd 60 02 8f 3b fc 37 76 3d c6 d4 83 3d
       -0.035012826 0.004364297 0.060111985 0.06437068
0000e0 f2 dc d4 bd 70 d5 b5 3d d4 69 13 bd 00 67 f0 ba
       -0.103937045 0.088786006 -0.035989597 -0.0018341243
0000f0 20 24 66 3c d0 53 e7 bd 78 10 37 bd cc 7b dd 3d
       0.014046699 -0.11295283 -0.04469344 0.10814628
000100 95 79 ff bc 23 c4 3d be 9e 41 34 3c dd 6d 3b 3d
       -0.031185905 -0.18531851 0.0110019725 0.04575907
000110 0c 2b a9 bd cf 55 ea 3c fa f1 87 3e 50 57 52 bc
       -0.08260164 0.02860537 0.265518 -0.0128382
000120 cc a4 10 3d c8 0c c9 ba 3b 1e 74 be 9f 14 c9 bc
       0.035313413 -0.0015338892 -0.23839657 -0.024545966
000130 e7 0e be bb 4c f2 2b 3d 74 07 44 bd 67 df f1 bc
       -0.0058001163 0.04197912 -0.04785867 -0.029525472
000140 2f 46 ee bd cd 11 8b bd 1a c1 4f 3d 52 f2 24 be
       -0.1163448 -0.067905046 0.050721265 -0.16108063
000150 c0 87 09 bb 52 3a 86 bd 41 44 15 be be 38 22 be
       -0.0020985454 -0.065540925 -0.14576818 -0.15841958
000160 08 cf c3 bc 94 5f 8b 3d 74 04 bf bd e6 cb c7 3d
       -0.023902431 0.068053395 -0.09327021 0.097556874
000170 77 a1 03 be ec 17 74 3d e8 e6 94 bd 7f 04 da 3d
       -0.12854563 0.059593126 -0.07270604 0.10645389
000180 26 d2 df bd c8 7c e0 bd 54 82 1e 3d 57 52 32 3e
       -0.109287545 -0.109613 0.03869851 0.17414223
000190 c0 58 d9 bb f5 f4 73 bd 7c cb 16 3d c0 68 16 bd
       -0.0066328943 -0.05955978 0.03681515 -0.03672099
0001a0 62 b1 e7 3d a3 25 24 3d 23 16 49 3d ef 93 1c 3e
       0.1131313 0.040074956 0.049093377 0.15290807
0001b0 14 3d b8 bd 25 89 07 be b4 7c e3 bd bf 1c e9 bd
       -0.08996025 -0.1323591 -0.111077696 -0.11382436
0001c0 a7 07 98 bd 95 9a 9b bd 08 4b 25 bd e6 19 c7 bd
       -0.074233346 -0.075978436 -0.04035476 -0.097217366
0001d0 98 4f 3e 3d 40 af eb bb e9 c4 a6 bd e5 a4 1f be
       0.046462625 -0.0071925223 -0.081430264 -0.15590246
0001e0 17 06 f2 3d a4 c8 39 3d 15 a8 aa 3d 90 77 47 bc
       0.11817568 0.04535736 0.0833284 -0.012174502
0001f0 a6 e0 0a 3e 70 db ca 3c 3c cc af bd 44 bb 1c 3e
       0.13562259 0.02476284 -0.085838765 0.15305811
000200 25 b6 3d 3d 84 e4 20 be e8 e1 98 3d 8a ca a5 bd
       0.046316285 -0.15712172 0.07464963 -0.08095272
000210 18 ec f0 3c c2 a9 ba 3d 73 14 e5 bd cc ed db bd
       0.029409453 0.0911441 -0.11185541 -0.107387155
000220 ac 34 ff bd b0 ad 4b bc 7f 11 0a 3d 07 5c c8 bc
       -0.12461218 -0.012431547 0.03370809 -0.024457945
000230 b6 53 d7 3c a0 a6 3d 3c 75 94 d1 3d e9 08 9d bd
       0.026285034 0.011575371 0.10233394 -0.07667715
000240 23 18 2d be a6 7c c0 3d ef a2 4d bd 4b 5e af bc
       -0.16903739 0.09398775 -0.050204214 -0.021407267
000250 7a e3 f9 3d a9 66 be bd 45 c4 bd 3d da 54 93 bd
       0.12201591 -0.092969246 0.09265951 -0.071939185
000260 49 b9 12 bd ca 17 d6 bd b0 7d ab 3b 58 63 97 3d
       -0.035821233 -0.10453756 0.005233489 0.07391995
000270 a4 30 09 3e 08 ad 58 3d 20 c9 44 3d c3 4a fc bc
       0.13397461 0.05289939 0.04804337 -0.030797368
000280 c8 21 d6 3d 15 cb cf 3d f8 e2 2b bd e9 bc d3 3c
       0.10455662 0.10146157 -0.0419645 0.025846915
000290 e8 23 65 bd 76 5e 60 3a 58 3d 09 3e 92 0e 0c be
       -0.055942446 0.00085589977 0.13402307 -0.13677433
0002a0 3d b4 c2 bc dc 8b 17 be d5 22 85 3c 0e ab 94 bd
       -0.023767585 -0.14799446 0.01625196 -0.072591886
0002b0 5c 62 95 bd f6 2f 41 3d 17 a4 98 3c 61 4b 9b 3b
       -0.07294151 0.04716488 0.018632932 0.0047392105
0002c0 88 fc 20 bd ea 61 18 be 57 c1 f3 3c 29 68 f3 bc
       -0.039303333 -0.14881101 0.029755278 -0.029712753
0002d0 52 ce 9f 3d e4 38 29 be de 4f 41 3d 82 24 94 3d
       0.07803024 -0.16525608 0.047195308 0.07233526
0002e0 8e a0 87 bd 40 d3 aa 3d 73 09 b1 bc c2 3d ce bd
       -0.0662242 0.08341074 -0.021610951 -0.10070373
0002f0 23 d8 59 bd 5a 67 e7 3d a0 f8 e5 3b 79 d4 b9 bd
       -0.05318464 0.112990096 0.007018164 -0.09073729
000300 6f 18 9d bd 9c 94 72 bd 1a 88 63 3d a0 f4 d8 bd
       -0.07670676 -0.059223756 0.05554972 -0.105935335
000310 34 43 09 3d ed 47 99 bd c3 19 59 3d d0 b7 16 bc
       0.033511356 -0.07484422 0.053003084 -0.009199098
000320 ba c0 e2 bd 2d b7 08 be 6d 09 95 bd 60 59 db bd
       -0.11071916 -0.13351126 -0.072771885 -0.10710406
000330 45 b7 a9 bd 92 96 a2 3d 11 fe bd bc b6 01 6d 3b
       -0.08286909 0.07938875 -0.023192437 0.003616435
000340 19 52 ff 3d 82 ab 0b be ae d8 06 be 88 a0 bd bc
       0.12466831 -0.13639644 -0.13168594 -0.023147836
000350 40 27 15 3b b6 3d e1 bd d4 17 e9 bd 78 2c 2b bd
       0.002275899 -0.109980986 -0.11381498 -0.041790456
000360 e2 c0 64 3c 74 41 6f bd 21 5c bf bd ea 5b ba bd
       0.0139620025 -0.05841203 -0.09343744 -0.090995625
000370 b5 2f b2 3d 3e 90 85 3d c6 64 d5 bd 54 24 b2 3d
       0.08700506 0.06521653 -0.10419612 0.08698335
000380 00 1e 43 3c c8 9d 7c 3c a0 42 dd bd 78 72 3e bc
       0.011909008 0.015418477 -0.10803723 -0.011623971
000390 68 0b df bd e3 55 fa 3d 22 26 ff 3d ae fb 8c bc
       -0.108908474 0.12223413 0.12458445 -0.017209854
0003a0 51 76 c7 bc 24 7f e8 bc 17 59 ac bd f6 08 fd 3b
       -0.02434841 -0.028380938 -0.0841543 0.0077220155
0003b0 1f e1 ed bc fc d5 b1 bc 64 61 a0 3c ba be 9f 3c
       -0.02903801 -0.021708481 0.01957769 0.019500125
0003c0 28 7f 34 3d 9c 50 60 bc f4 92 87 3c 2c 08 82 bd
       0.04406658 -0.013691094 0.016549565 -0.06349215
0003d0 88 4a 8b 3d 1b 75 c4 bd f3 b6 9e 3d d8 8a 9a 3c
       0.06801325 -0.095926486 0.077497385 0.018865034
0003e0 aa c7 b6 bd 64 26 bf bd 64 a5 a3 bc 50 d0 a4 bd
       -0.08924802 -0.09333494 -0.019976325 -0.08047545
0003f0 15 e6 7c bd f8 36 c2 bd 40 6c 6c bb 13 b9 b3 bd
       -0.06174286 -0.09483141 -0.0036075264 -0.087755345

dense2.bias f4 [64]
000000 78 64 a1 3c 19 59 aa 3c b7 33 9f bd 58 c4 ce bd
       0.019701228 0.020794438 -0.07773536 -0.10096043
000010 9a 21 cf 3d c2 af 1b 3e ac 35 e0 bd 38 94 99 3d
       0.10113831 0.15203765 -0.10947737 0.074989736
000020 4a df 9c 3e 91 1e 47 3d 81 d7 8a 3b 94 b0 cc 3d
       0.30639106 0.048613135 0.004237116 0.09994617
000030 80 9d b5 bc 00 8b 3b 3d 0d 93 19 3d 68 64 52 3e
       -0.022169828 0.045786858 0.037493754 0.20546114
000040 49 6e 5a bd c6 67 8a 3d f7 28 8b 3e 92 9d af 3d
       -0.053327832 0.067580745 0.2717969 0.08574976
000050 b5 56 6b 3c 7e 83 58 3e 7d f5 a7 3d c6 a1 15 3d
       0.014363934 0.2114391 0.0820112 0.036531232
000060 1d 4f 90 3d 31 b0 d1 3e f4 d7 d5 bd 2d 73 18 bd
       0.0704634 0.40954736 -0.104415804 -0.037219215
000070 da da 87 3d d4 27 8a bd 11 a2 ee bc e6 b5 2e bd
       0.066335395 -0.06745878 -0.029130014 -0.04265394
000080 ce f5 8f bd f2 61 a3 bc fd 95 4d bd 54 74 f9 3c
       -0.070293054 -0.019944165 -0.050191868 0.030450977
000090 73 e0 3c 3d 41 49 16 3e ef 7b ed bd e8 c0 3c 3e
       0.04611249 0.14676382 -0.11595904 0.18432963
0000a0 a2 94 8c 3d c8 de 0e 3e 39 b3 ad bd a4 59 ed bd
       0.06864287 0.13952172 -0.0848145 -0.11589363
0000b0 f0 e2 5c bd ba 6e c1 3c 62 77 03 bd bd 13 a3 bc
       -0.053927362 0.023612369 -0.032096274 -0.019906873
0000c0 05 47 89 3e 20 22 ab 3d c9 16 36 bd f2 53 0d be
       0.26811996 0.08356118 -0.044455323 -0.13801554
0000d0 91 c6 bb bd 97 12 7b 3c fe 18 17 be 3e a5 f7 bd
       -0.09168733 0.015324256 -0.14755628 -0.12092064
0000e0 ee 4f 96 bd 36 71 08 3d 0e 34 89 3d c0 39 33 bd
       -0.07339464 0.03331109 0.06699382 -0.043756247
0000f0 c4 19 04 be 68 2f 3f 3d 76 9b 16 be e8 4e e6 3c
       -0.12900454 0.04667607 -0.14707741 0.028113797

dense3.weight f4 [4, 64]
000000 b6 7b f8 3d 5b 86 fe bc ac 16 2e 3c 25 c4 a5 3d
       0.12132971 -0.031069925 0.010625523 0.08094052
000010 d0 9d a7 3c d6 14 f8 bc b0 80 bd 3c 94 90 d8 bd
       0.020460993 -0.030283373 0.023132652 -0.10574451
000020 89 60 f6 bd 46 c6 e4 3b be 8d f3 bd a5 1a 87 bd
       -0.12030131 0.006981644 -0.118922696 -0.06596879
000030 40 a0 76 3d 92 6c e9 3c e4 f4 0c be cf ca e9 bd
       0.06021142 0.028494153 -0.13765293 -0.11415636
000040 0e 8d 94 bd c0 c5 5f bd 5d 6e 58 be 48 33 97 bc
       -0.072534665 -0.05463195 -0.2113585 -0.01845707
000050 67 92 90 bd 9e 21 65 bd 80 91 a2 bd 43 3d 7a bd
       -0.07059174 -0.055940263 -0.07937908 -0.06109358
000060 ee 6f a7 bd 84 17 3e be 82 0b c5 3d 9d ce 7c bd
       -0.08175646 -0.18563658 0.096213356 -0.06172048
000070 d4 31 d9 3d e1 db 80 3d bc 93 51 bd 76 5c 72 3c
       0.10605207 0.062919386 -0.05116628 0.014792552
000080 55 73 db bc d0 a5 ee 3c e7 79 f4 bd 90 95 6f 3d
       -0.026788393 0.0291318 -0.119373135 0.058492243
000090 82 7a ab bd d7 f5 5c bc 51 1d 7b 3c 0c 18 25 be
       -0.08372976 -0.013486347 0.015326814 -0.16122454
0000a0 f4 3e e3 bd 34 fe 0e be 1a 0b c8 3d 62 bf 98 3d
       -0.11095992 -0.13964158 0.097677425 0.074583784
0000b0 f8 07 4c bd 9d c9 31 bd c2 83 5c bc 73 9c 98 bc
       -0.049812287 -0.043405164 -0.013459148 -0.018629288
0000c0 c5 12 b8 bd 68 98 f2 3d e8 93 2a 3c a8 bc f3 bd
       -0.08987955 0.118454754 0.01041124 -0.11901218
0000d0 fd c4 39 3d 01 9f 33 3b 30 87 23 3e 58 75 79 bd
       0.04535388 0.0027408006 0.15969539 -0.060902923
0000e0 00 f8 f4 3c 7c 7c 3a 3d d0 d8 3e bd 24 29 87 bd
       0.029903412 0.045528874 -0.046593487 -0.06599644
0000f0 3d 93 16 3b 6f 77 6b bc da 32 e2 bd 08 94 38 bd
       0.0022975944 -0.014371737 -0.110448554 -0.04506305
000100 36 e7 fe 3d b2 46 11 be 8c e6 23 bc 38 5f 32 bb
       0.12446444 -0.14187124 -0.010003697 -0.00272174
000110 90 46 4d bc 60 eb 39 be e4 08 f3 bd 00 f2 43 3d
       -0.01252903 -0.18156195 -0.1186693 0.04783821
000120 ac 60 8b bd 62 6e 55 3d 12 25 c5 bc e0 f9 b6 3c
       -0.06805548 0.052107222 -0.024065528 0.022335947
000130 b0 7a 7c 3c 34 30 7b 3d 27 9f ed bd 5c 8d 90 bd
       0.01541011 0.061325267 -0.116026215 -0.07058212
000140 ba 83 64 3d 36 b2 71 3c fb ff 49 bd c4 e7 9d 3d
       0.055789687 0.014751961 -0.049316388 0.077102214
000150 e9 9f 0b be a9 5a 2c bd f0 f5 6d bd e2 53 99 bd
       -0.1363522 -0.042078648 -0.058095872 -0.074867025
000160 55 4c 33 be 64 8e 16 be b9 36 76 3c d4 1e d4 bd
       -0.17509587 -0.14702755 0.015027695 -0.103574425
000170 05 af 54 bd 1a 7b 15 be ba 7b 72 bc 41 d3 5a bd
       -0.051924724 -0.14597741 -0.0148000065 -0.053424124
000180 45 4b 34 bd be 1f 53 bd eb 1c de 3c f2 05 ae bc
       -0.044017095 -0.051543944 0.027113399 -0.02124307
000190 4b 7f 0c 3e 76 1f be bd 6e 8b c1 bc 1f 8c e9 bc
       0.13720433 -0.092833444 -0.023626056 -0.028509198
0001a0 f1 65 c1 3d a8 ed cc bc b9 ae 0e bd 5e 03 44 3d
       0.09443272 -0.025015667 -0.034834597 0.047854774
0001b0 30 ff 9d bc 9e 7b 14 3d a7 57 3c bd 3a 03 87 bd
       -0.019286722 0.036250703 -0.04598203 -0.06592412
0001c0 9e e2 af bc 00 05 90 ba 17 c4 52 bd 86 65 5c bd
       -0.021470364 -0.0010987818 -0.051456537 -0.053807758
0001d0 0a b4 61 3d b3 77 7c 3d d3 97 e3 bc 77 9a 16 be
       0.05510334 0.06163759 -0.027782356 -0.14707361
0001e0 b0 a2 b3 bd b4 f7 16 3c 20 10 60 bd 78 89 12 3d
       -0.087712646 0.00921433 -0.054702878 0.03577563
0001f0 81 25 8a 3c d9 b8 a8 3d 3a f4 d6 bd 98 74 b5 bc
       0.016863586 0.08238382 -0.10495801 -0.022150323
000200 d4 aa 5c bd 7f 32 62 bd 6c 2a 8d 3c 55 57 8e 3d
       -0.053873852 -0.055223938 0.017232142 0.06950251
000210 09 7e 72 3d 08 a9 fd bc 88 5d 0d bd ae d5 89 bd
       0.059202228 -0.03096439 -0.034513026 -0.06730209
000220 77 4f 39 be fb db a4 bd 77 04 74 bd 62 4d 3b 3d
       -0.1809672 -0.080497704 -0.05957457 0.045728095
000230 68 9a b5 bc cc ef 41 bd 79 88 be 3a 8f 7a e9 bd
       -0.022168353 -0.04734783 0.0014536522 -0.11400329
000240 86 26 06 3d 39 f1 3b 3d 8b 1a 51 be a0 82 d8 bc
       0.032751583 0.045884345 -0.20420282 -0.026429474
000250 9a 5d 88 bd c8 e2 6d bd 32 23 fd 3d c9 d4 51 bd
       -0.06658478 -0.058077604 0.123602286 -0.05122832
000260 02 82 de bc ab a9 d0 bd e8 25 cd 3d 73 0b 7b 3d
       -0.027161602 -0.101886116 0.10016996 0.061290216
000270 c6 1e 48 3d 82 d1 59 bd 8d 14 14 bd ca fb 8f bc
       0.048857473 -0.053178318 -0.03615241 -0.017576117
000280 80 5b 27 bd 04 dc de 3d 6f 43 d0 bc e0 7e a3 bd
       -0.040858746 0.108818084 -0.02542278 -0.07983184
000290 ef 33 49 3d 6d 4b e7 bd ac 94 ad 3d b5 55 a8 bd
       0.049121793 -0.11293683 0.084756225 -0.08219472
0002a0 a4 1b b0 bd ba d0 10 be b0 39 06 3d a4 e3 cc bd
       -0.08599022 -0.14142123 0.03276986 -0.100043565
0002b0 69 aa 4b 3d 91 7e 39 be 89 ab 09 3d 70 e2 3f bc
       0.049723063 -0.18114688 0.033610854 -0.011711702
0002c0 45 16 dd bd f8 1d a3 bd 67 72 93 bd 14 21 5d bd
       -0.10795263 -0.079647005 -0.07199555 -0.053986624
0002d0 59 d9 aa bc e0 f1 06 bd 4e ff a4 bb d6 d0 d4 bd
       -0.020855593 -0.032945514 -0.0050353175 -0.10391395
0002e0 1b b8 fd bc 4f fc 09 3d ee 4f fa bd 40 2d ec 3b
       -0.030971577 0.033687886 -0.12222277 0.0072075427
0002f0 ed fe 97 bd f0 07 54 bd 98 b1 26 3d 06 e5 97 bd
       -0.0742167 -0.051765382 0.04069671 -0.0741673
000300 64 7f f3 3d 8b 00 0a bd ae a6 c7 3d ca ca fe 3c
       0.11889532 -0.033691924 0.097485885 0.031102557
000310 00 88 87 bd 31 83 c9 bd 38 e6 26 3d 5a 31 91 3d
       -0.06617737 -0.09839476 0.040746897 0.07089491
000320 e4 2b 3c be 5e 44 8c 3d c9 8b 85 bd f2 c0 1d 3d
       -0.18376118 0.068489775 -0.065208025 0.038514085
000330 a0 39 a8 bb 80 ee 1c 3d 24 99 18 be 54 d3 3e bd
       -0.0051338226 0.03831339 -0.14902169 -0.046588257
000340 78 b2 a8 bd dc 23 8d bb 53 75 dd bd f8 64 be 3c
       -0.08237165 -0.0043072533 -0.108133934 0.023241505
000350 51 0c 5b 3c c5 a3 0b be 18 cb f2 bc 8a 9a 80 bd
       0.013369636 -0.13636692 -0.029637858 -0.06279476
000360 3f 3d b9 bc 9f 9b 31 be 60 a0 34 bd 40 99 92 bc
       -0.022612212 -0.17344521 -0.044098258 -0.01789534
000370 f1 19 15 3e 2d b1 0e bd ce 87 8e bd 63 0d 2c 3d
       0.14560677 -0.034836937 -0.069594964 0.042004954
000380 b2 93 5d bd 30 16 1f bd cf d0 bb bb 08 4b f8 3c
       -0.05409593 -0.03883952 -0.005731679 0.030309215
000390 af ab f5 3d a1 8e ef bd ac 8f b8 3d b4 11 09 be
       0.11995637 -0.11697126 0.09011778 -0.1338566
0003a0 ac 58 c6 bd ca 99 41 bd 70 c0 cd bd 68 ef fc bc
       -0.096848816 -0.047265805 -0.1004647 -0.030875877
0003b0 ac 6f 22 bd 6c 33 57 bd d8 aa a4 3d e6 df fa bd
       -0.03965728 -0.052539274 0.08040398 -0.122497365
0003c0 ae 61 cf bd 6c a2 bf 3d 24 71 9f bd e4 98 32 3d
       -0.10126053 0.093571514 -0.07785252 0.04360284
0003d0 70 30 fe bc 9f a2 26 bd d9 4f 6b bd 2e 7c b8 3d
       -0.031028956 -0.04068243 -0.057449196 0.090080604
0003e0 f0 22 0c 3d f7 b7 4a 3d 1e ac cb 3d 00 ae 80 bb
       0.034213006 0.04949185 0.09944938 -0.0039269924
0003f0 af e6 6a 3c 1e a5 ed 3c 19 55 7a bd 40 6c e0 bc
       0.014337226 0.029009398 -0.06111631 -0.027395368

dense3.bias f4 [4]
000000 8e 23 3a be 0b 72 72 3d c3 c2 c0 bd 62 03 b3 bd
       -0.18177626 0.05919079 -0.09412148 -0.087408796
