Reinforcment_Learning_DQN/agent_output/weights/episode_106_weights.pt (torch, 21495 bytes, 6 tensors)

dense1.weight f4 [64, 5]
0	0xbc96ae40	-0.018393636
1	0x3e9d33d8	0.30703616
2	0xbe082a03	-0.13297276
3	0x3f41c5f9	0.7569271
4	0x3fd772c3	1.6831897
5	0x3e4008a3	0.18753295
6	0xbeaf5446	-0.34243983
7	0x3e6fdea7	0.23424779
8	0xbf312dca	-0.69210494
9	0xbfb66931	-1.4250852
10	0x3e525edf	0.20544003
11	0xbd563fc7	-0.052306917
12	0xbdc840a6	-0.09777956
13	0xbf2e1e77	-0.68015236
14	0xbfae5c2e	-1.3621881
15	0xbce8c56e	-0.028414454
16	0x3e2ecb4b	0.17069738
17	0xbdeef6bf	-0.11668157
18	0x3f3ee592	0.74569046
19	0x3e91da4e	0.28486866
20	0x3e6a84ba	0.22902194
21	0xbed95cbe	-0.4245357
22	0x3ea55b3a	0.32296163
23	0xbf2a2e9d	-0.66477376
24	0xbfe8c7d1	-1.8185979
25	0xbed42f41	-0.41442302
26	0xbec709fc	-0.38874805
27	0xbd95e5ec	-0.07319245
28	0xbe10077e	-0.14065358
29	0x3e363504	0.17793661
30	0xbe901c5a	-0.2814663
31	0xbe253c62	-0.16136315
32	0xbe3f6882	-0.1869221
33	0x3e1145d4	0.14186794
34	0xbed9c256	-0.4253108
35	0x3d477d71	0.048703615
36	0x3ea257aa	0.31707507
37	0xbe914582	-0.28373343
38	0x3f617b2e	0.8807858
39	0x3f49efce	0.7888154
40	0xbe9d9911	-0.30780843
41	0x3ed8c8a5	0.4234058
42	0x3e10bf0d	0.1413538
43	0x3eceefc1	0.40417293
44	0x3e9b4842	0.30328566
45	0x3dd60825	0.10450772
46	0xbe2b9cfb	-0.16759102
47	0x3e37e02e	0.17956612
48	0xbf98cecd	-1.193811
49	0xc001827e	-2.0235896
50	0x3e2d37bc	0.16915792
51	0x3bc29efe	0.0059393635
52	0x3eb73013	0.35778865
53	0xbecc8433	-0.3994461
54	0xbff8d200	-1.9439087
55	0x3cc219e9	0.023693996
56	0x3e41b1b1	0.1891544
57	0x3e2aa3bc	0.16664022
58	0xbf4e8d32	-0.80684197
59	0xbfd01a16	-1.6257961
60	0xbf25863a	-0.6465794
61	0x3ea6993e	0.3253879
62	0x3e8d3f58	0.2758739
63	0x3e561ad6	0.20908675
64	0x3e81b84b	0.25335917
65	0xbe2b01be	-0.16699883
66	0x3e7771bd	0.24164481
67	0xbcc38ec3	-0.023871785
68	0x3f627cd0	0.884717
69	0xbdec0f34	-0.11526337
70	0x3e7e48d4	0.24832469
71	0xbe5c09a4	-0.21488053
72	0xbdd04e4e	-0.101711854
73	0xbde17cb9	-0.11010117
74	0x3ef7a34f	0.48366782
75	0x3d3e6f16	0.04649266
76	0x3e96cbfb	0.294525
77	0xbef543f7	-0.47903416
78	0x3fa53b72	1.2908766
79	0x3e9906c8	0.29887986
80	0xbce2f217	-0.027703328
81	0x3c72fe63	0.014831158
82	0xbc0f9ae5	-0.008764957
83	0xbef853f5	-0.48501554
84	0x3d988867	0.07447892
85	0x3d676b72	0.056498952
86	0x3ee88836	0.4541642
87	0xbea5b9ff	-0.32368466
88	0x3ea62894	0.32452834
89	0x3fd3065c	1.6486316
90	0x3eb63363	0.3558608
91	0xbda8d31a	-0.082433894
92	0x3e9fcaff	0.3120956
93	0xbe782cb3	-0.24235801
94	0xbfc3e269	-1.530347
95	0xbe9133dd	-0.2835988
96	0x3e7ee958	0.24893701
97	0x3d5ffa0e	0.05468183
98	0x3efb04e6	0.49027175
99	0x3f5895d9	0.8460365
100	0x3ea9f3ab	0.33193716
101	0xbd9577ac	-0.07298216
102	0xbb8ab6b5	-0.004233206
103	0xbfa66493	-1.2999443
104	0xbf2fb06f	-0.6862859
105	0xbdf0d57b	-0.11759468
106	0xbe2283e5	-0.15870626
107	0x3e78f3a9	0.24311699
108	0xbf72ff33	-0.94920653
109	0xbfd3adde	-1.6537435
110	0x3e24a4fa	0.16078559
111	0xbe957c9e	-0.29196638
112	0xbd50a3fa	-0.05093763
113	0x3ec1daa4	0.37862122
114	0x3d974e65	0.073879994
115	0xbf02c9e7	-0.5108933
116	0x3dec5799	0.115401454
117	0x3e2b86b3	0.16750602
118	0xbe224853	-0.15847902
119	0x3cadd425	0.021219322
120	0x3edafb9b	0.42770085
121	0xbf1f6da4	-0.62276673
122	0xbe42112e	-0.18951866
123	0x3f25caa9	0.6476236
124	0xbe4e8206	-0.20166788
125	0xbe0b0510	-0.1357615
126	0x3ec0ff60	0.37694836
127	0xbde5c6d0	-0.11219561
128	0x3e9abdaa	0.30222827
129	0x3fe63b63	1.7986873
130	0xbda2168b	-0.07914456
131	0xbdf8af4e	-0.12142812
132	0x3d7eab7a	0.06217525
133	0xbecce0e5	-0.4001533
134	0xbeebc73b	-0.46050438
135	0xbeb2639f	-0.3484163
136	0xbeba6302	-0.36403662
137	0xbd8da954	-0.069170624
138	0xbe5eccf0	-0.21757865
139	0xbdd9338c	-0.10605535
140	0x3d310500	0.04321766
141	0xbea7df6c	-0.32787645
142	0x3ec24878	0.37945914
143	0xbee7bfec	-0.45263612
144	0xbfecba5b	-1.8494371
145	0xbe24bcf1	-0.160877
146	0x3f0073de	0.501768
147	0xbe6ae4d3	-0.22938852
148	0x3f086924	0.5328543
149	0x3f9153d4	1.1353707
150	0x3dfb10f1	0.12259091
151	0x3e142638	0.14467704
152	0xbdd1994f	-0.102343194
153	0x3e8bc1cb	0.2729629
154	0x3f5bea09	0.85903984
155	0xbe0f3d23	-0.13988166
156	0x3ed73739	0.4203432
157	0xbe555e4a	-0.2083675
158	0x3f48a56a	0.783774
159	0x3f26bded	0.65133554
160	0xbeb859d0	-0.36006021
161	0xbd81fcd7	-0.063470535
162	0x3c2f577f	0.010702013
163	0xbe6de2af	-0.23231004
164	0xbec7abc9	-0.3899825
165	0xbabbddd0	-0.0014333073
166	0x3e380a7c	0.1797275
167	0x3d0424b4	0.032261565
168	0x3d2cee04	0.042219177
169	0xbf69fa01	-0.913971
170	0xbe9b9f41	-0.3039494
171	0xbdf79af8	-0.12090105
172	0xbeac7026	-0.33679312
173	0x3e0e2b94	0.13883811
174	0x3e74c6d8	0.23903978
175	0xbe32eb20	-0.17472506
176	0xbe5c4a6e	-0.21512768
177	0xbec5b9a4	-0.38618195
178	0x3ec49058	0.38391376
179	0x3ea91828	0.33026242
180	0xbeae5083	-0.340458
181	0xbdaf77e4	-0.08567789
182	0x3e3d7bbb	0.1850423
183	0xbd66cd08	-0.056347877
184	0x3e889d3f	0.2668247
185	0xbe55efde	-0.20892283
186	0xbea75a0c	-0.32685888
187	0x3e952f0b	0.29137453
188	0xbe2e935e	-0.17048404
189	0x3ec5831e	0.38576597
190	0x3ed17d86	0.4091608
191	0xbefec786	-0.497616
192	0x3e1e5423	0.15461783
193	0xbe8c70c9	-0.27429798
194	0xbfddb6ab	-1.7321371
195	0x3e89ab29	0.26888397
196	0xbed0d97d	-0.4079093
197	0x3e84b357	0.25918075
198	0xbf7f1d38	-0.9965396
199	0xbfea32f8	-1.8296804
200	0x3e3ef368	0.1864754
201	0xbea85314	-0.32875884
202	0x3e7b7771	0.24557282
203	0xbf40a28a	-0.75248015
204	0xbfe849ed	-1.814756
205	0xbda4f6c5	-0.0805488
206	0x3c378950	0.011202171
207	0xbb5f29bb	-0.0034051973
208	0x3ef5c16c	0.47999132
209	0xbe9e64a9	-0.30936173
210	0xbefa2871	-0.4885898
211	0xbd4b6381	-0.04965544
212	0x3e8af2c6	0.27138346
213	0x3e11846d	0.14210673
214	0x3f59232b	0.8481929
215	0xbdd43b2e	-0.1036285
216	0xbe81d661	-0.2535887
217	0x3e145dc4	0.14488894
218	0xbeac0fb2	-0.33605725
219	0xbf0bfbfe	-0.54681385
220	0xbe8cb51c	-0.27481925
221	0xbd4a9cf0	-0.049466074
222	0x3eaf7efe	0.34276575
223	0xbeb1af92	-0.34704262
224	0xbf8d4d86	-1.1039283
225	0xbe9c78a3	-0.3056079
226	0xbb76fea9	-0.003768841
227	0x3e9d64aa	0.30740863
228	0x3e109a8d	0.14121456
229	0x3f37bf45	0.7177623
230	0xbe32cdcb	-0.17461316
231	0x3dde1c5c	0.10845253
232	0x3c9e35fe	0.019312855
233	0x3e805293	0.25063
234	0xbf45d884	-0.772835
235	0xbd329f23	-0.043608796
236	0xbe85316e	-0.26014274
237	0x3eb7f5c5	0.35929695
238	0xbeb07aad	-0.34468594
239	0xbf9c98a4	-1.2234082
240	0xbeefb3ef	-0.46816966
241	0x3d3bcc2a	0.045849003
242	0x3ba8e5c3	0.005154343
243	0x3e826c74	0.25473368
244	0xbea810c5	-0.32825294
245	0xbc8f6c0d	-0.017507577
246	0x3dc126ef	0.09431254
247	0x3e54eacf	0.20792697
248	0xbf0527f2	-0.52014077
249	0xbf84f710	-1.0387897
250	0xbea51b36	-0.32247323
251	0x3e8c6d53	0.27427158
252	0x3e4fb5ca	0.20284191
253	0xbe80759e	-0.25089735
254	0xbf1ebf8d	-0.62011033
255	0x3d85b4c2	0.065286174

dense1.bias f4 [64]
0	0xbebc7908	-0.3681109
1	0x3f185e11	0.59518534
2	0xbec752ef	-0.3893046
3	0xbea4c1bd	-0.3217906
4	0xbe16ab3d	-0.1471376
5	0x3e319fd8	0.17346132
6	0xbdbb5380	-0.09146786
7	0xbe9311de	-0.2872457
8	0x3ddcd306	0.10782437
9	0x3e8bd3a8	0.27309918
10	0xbe9af764	-0.3026687
11	0xbdb3c5b5	-0.08777944
12	0x3e2d7f87	0.16943179
13	0xbef8ca8e	-0.48592037
14	0xbe932891	-0.28741887
15	0x3ebf3854	0.37347662
16	0x3d71dffa	0.05905149
17	0xbee4d549	-0.44693974
18	0x3f04115f	0.51589006
19	0xbcfbf1d0	-0.030754954
20	0x3ed44974	0.4146229
21	0x3e5b734f	0.21430705
22	0x3dc715ca	0.09720953
23	0x3de5e5ea	0.11225493
24	0xbdeb10fe	-0.114778504
25	0xbe7b49ee	-0.2453992
26	0x3deb0a5d	0.11476586
27	0xbd178620	-0.036993146
28	0xbce3e8df	-0.027821003
29	0x3d4ba9cc	0.049722478
30	0xbe79e6af	-0.24404405
31	0x3e6bd3f9	0.2303008
32	0x3eb9bc45	0.3627645
33	0x3edaf692	0.42766243
34	0x3e89df30	0.2692809
35	0x3e4d5308	0.20051205
36	0x3e7dacb4	0.24772912
37	0xbe1ea178	-0.15491283
38	0xbde0bd07	-0.10973554
39	0x3e5cf095	0.2157615
40	0x3d5323a6	0.05154767
41	0xbe5cc8bb	-0.21560948
42	0xbf0e540a	-0.55596983
43	0x3df5e840	0.12007189
44	0xbe92f9e9	-0.2870629
45	0xbd3a149a	-0.045429803
46	0xbe3e9156	-0.18610129
47	0x3f127a40	0.5721779
48	0xbd299f11	-0.041411463
49	0xbeda2920	-0.426095
50	0xbebc2242	-0.36744887
51	0xbf22eb9d	-0.6364077
52	0xbeadf4bd	-0.33975783
53	0xbe52e9df	-0.20597027
54	0x3e274117	0.16333424
55	0x3e70c414	0.23512298
56	0xbed64b0c	-0.4185413
57	0x3ea1074f	0.3145089
58	0x3bcc5499	0.0062356708
59	0x3dfd1631	0.12357748
60	0xbd05a4f1	-0.032628004
61	0x3ee1e8ce	0.44122928
62	0xbe3a300a	-0.18182388
63	0xbe1a20ae	-0.15051529

dense2.weight f4 [64, 64]
0	0xbe26c1e2	-0.16284898
1	0x3e18ea45	0.14933117
2	0xbd2a9533	-0.041646194
3	0x3d5b9c92	0.053616114
4	0x3e91bdc4	0.28465092
5	0xbbcbf5e0	-0.006224379
6	0xbd8c8ea8	-0.06863147
7	0xbd971a44	-0.07378057
8	0x3e28f997	0.16501461
9	0x3ea66a75	0.32503095
10	0x3e061194	0.13092643
11	0x3d48f2c2	0.049059637
12	0xbd7ebf8a	-0.062194385
13	0x3dc04431	0.093880065
14	0xbdc26d70	-0.0949353
15	0x3ea9d00b	0.33166537
16	0xbd77dc76	-0.060512982
17	0xbde08707	-0.109632544
18	0x3e08375e	0.13302371
19	0xbded5fd5	-0.11590544
20	0xbd98c290	-0.07458985
21	0x3c61352e	0.013745589
22	0xbd997794	-0.07493511
23	0xbd285b8a	-0.041102923
24	0x3d1a99e8	0.037744433
25	0xbeb96e07	-0.36216757
26	0x3d025021	0.031814698
27	0x3d93007c	0.07177827
28	0x3e3d292c	0.18472737
29	0xbd93e9e4	-0.072223455
30	0xbcbd1bf9	-0.023084627
31	0xbe82659f	-0.25468156
32	0x3d67cd29	0.05659214
33	0x3c160b9c	0.009158041
34	0x3da29938	0.079393804
35	0xbddd952e	-0.108194694
36	0xbea42574	-0.32059824
37	0xbe86dabd	-0.2633876
38	0x3d4b0219	0.049562547
39	0x3e0338d9	0.12814654
40	0x3e04a6fa	0.12954322
41	0x3d7f2adc	0.062296733
42	0xbe31cd42	-0.17363456
43	0x3b6ffdf2	0.003661987
44	0x3e4e74e1	0.20161773
45	0x3df54e94	0.11977878
46	0x3e26e39c	0.16297764
47	0x3de615fd	0.11234663
48	0xbce29f1b	-0.027663758
49	0xba53b1db	-0.0008075514
50	0x3e21b5b7	0.15791975
51	0x3bc9117f	0.006136119
52	0xbd1a9be4	-0.037746325
53	0x3dbae4de	0.09125684
54	0x3dd9c63b	0.106335126
55	0x3d479fb1	0.048736278
56	0xbdb00fe0	-0.08596778
57	0xbc9a9944	-0.01887191
58	0x3d2d122e	0.042253666
59	0x3d723aa2	0.059137948
60	0x3ddfebdb	0.10933658
61	0x3df57d24	0.11986759
62	0xbd288eb8	-0.041151732
63	0x3d50dc6c	0.05099146
64	0xbe254e20	-0.16143084
65	0x3d18e0da	0.03732381
66	0xbc00ad0c	-0.007853758
67	0xbdbc487d	-0.091935135
68	0x3d0ec66b	0.034857195
69	0xbd7fdd54	-0.062466934
70	0x3dad38d0	0.08458102
71	0xbd14a13d	-0.03628658
72	0x3cb729bb	0.022358766
73	0xbd9d1bed	-0.07671342
74	0x3c1a68d0	0.009424403
75	0xbdc96b4b	-0.09834918
76	0xbd781c2b	-0.060573738
77	0xbcc76668	-0.024340823
78	0xbc915c0e	-0.01774409
79	0xbd11bb8c	-0.03557925
80	0xbe211ebc	-0.1573438
81	0x3cbebcf5	0.023283461
82	0xbe1c2e45	-0.15252025
83	0x3cbffaed	0.02343508
84	0xbd84339d	-0.06455157
85	0xbd074c90	-0.033032
86	0xbe15015f	-0.14551304
87	0x3dbdd25f	0.09268641
88	0x3dcebff1	0.10095204
89	0xbdf6ed5f	-0.12056994
90	0x3ba4bedd	0.0050276355
91	0xbdce31d0	-0.10068095
92	0x3db3c042	0.08776905
93	0xbe0eb57b	-0.13936417
94	0xbde41c22	-0.111381784
95	0xbda8fbe9	-0.08251173
96	0x3daeb4e8	0.08530599
97	0xbd9365d4	-0.071971565
98	0x3dece1da	0.11566515
99	0x3d30c1e4	0.04315366
100	0x3d619c59	0.055080745
101	0xbd2732d7	-0.04081997
102	0x3db44ed0	0.08804095
103	0xbdb76ac9	-0.089559145
104	0xbda7d427	-0.08194762
105	0xbd112b5a	-0.035441734
106	0xbd1fdaa3	-0.039026868
107	0xbdcc0517	-0.09961908
108	0x3dc51b7c	0.09624383
109	0x3e2d50b8	0.16925323
110	0x3d081a01	0.033227924
111	0xbcecb8eb	-0.02889677
112	0xbda7c148	-0.08191162
113	0xbc6a9c6d	-0.014319521
114	0xba362892	-0.00069487945
115	0xbd28948e	-0.041157298
116	0xbd8da3c0	-0.069159985
117	0x3cc7bf47	0.0243832
118	0xbdd83f22	-0.10558917
119	0x3d9c36eb	0.07627662
120	0x3e0e67e6	0.13906822
121	0xbe4774f2	-0.19478205
122	0xbe02be37	-0.12767874
123	0x3def3889	0.11680705
124	0xbd0c4d22	-0.034253247
125	0x3df12008	0.117736876
126	0x3d9fe4d7	0.078073196
127	0x3ca798a0	0.02045852
128	0xbe0180bd	-0.12646766
129	0xbad891f0	-0.0016522985
130	0x3d25db1a	0.040492155
131	0xbdbfdae4	-0.09367922
132	0x3d16d310	0.03682238
133	0xbbb695e0	-0.0055720657
134	0xbd27d21c	-0.04097186
135	0x3bcec319	0.0063098785
136	0xbc8d761e	-0.017268237
137	0xbaf617ff	-0.0018775462
138	0xbda14344	-0.07874158
139	0xbdd1d3d3	-0.102454804
140	0xbdf9aa32	-0.12190665
141	0xbe0cfaeb	-0.13767593
142	0x3d9df382	0.07712461
143	0xbd528b1f	-0.051402207
144	0x3db1cdd5	0.086818375
145	0x3da71641	0.081585415
146	0xbc4b2a8d	-0.012400282
147	0xbd24c525	-0.040227074
148	0x3dd40b02	0.10353662
149	0xbe45ac0a	-0.19303909
150	0xbd9eddb4	-0.0775713
151	0xbe2e9dd5	-0.17052396
152	0xbd568783	-0.052375328
153	0xbd8e372c	-0.06944117
154	0x3ba73af1	0.005103462
155	0x3dc83b2a	0.0977691
156	0xbd2cd140	-0.042191744
157	0xbd631ca4	-0.055447236
158	0x3be04840	0.0068445504
159	0x3d635e35	0.055509765
160	0xbd3ecb48	-0.046580583
161	0x3af35e9d	0.0018567626
162	0xbcd126f0	-0.025531262
163	0x3d4286e0	0.047491908
164	0x3d8db306	0.06918912
165	0x3d1aae8c	0.037764117
166	0xbe054ed2	-0.13018349
167	0xbe0cbd79	-0.13744153
168	0xbdebda52	-0.11516251
169	0xbd98f1bf	-0.074679844
170	0x3d703a80	0.05864954
171	0x3deffb9c	0.117179126
172	0xbe3d6e1c	-0.18499035
173	0x3d38163c	0.04494308
174	0xbe235074	-0.15948659
175	0xbd4932e1	-0.049120788
176	0xbdde4786	-0.10853486
177	0xbc36620b	-0.011131774
178	0x3d05a4f4	0.032628015
179	0xbd837515	-0.06418816
180	0xbdf6f74a	-0.120588854
181	0xbdc5caaf	-0.096577995
182	0xbdf8c001	-0.12145997
183	0xbdf36cc4	-0.1188598
184	0x3c0130c7	0.007885165
185	0xbe09fd54	-0.13475543
186	0xbcf665ac	-0.030077778
187	0x3d36cade	0.044627063
188	0x3d565cbf	0.052334543
189	0x3d27ee8c	0.04099898
190	0xbb670222	-0.0035249074
191	0x39c9c000	0.0003848076
192	0xbbacbf60	-0.005271837
193	0x3da6dd04	0.08147624
194	0xbd56fe60	-0.052488685
195	0x3db1b2e5	0.086766995
196	0x3d5fc4de	0.054631107
197	0xbdc44ad8	-0.09584588
198	0xbda4f778	-0.080550134
199	0x3dab3379	0.08359427
200	0xbd4dfb24	-0.050288334
201	0xbe18f648	-0.14937699
202	0x3cb90439	0.022585021
203	0x3d0fedca	0.035138883
204	0xbde40f5c	-0.11135742
205	0xbdb767bc	-0.08955333
206	0x3d9ff720	0.07810807
207	0xbd8c94e0	-0.06864333
208	0xbc912dd4	-0.017722048
209	0xbd67e080	-0.056610584
210	0xbe07f143	-0.13275628
211	0xbcfff8ed	-0.031246627
212	0xbd826e5e	-0.06368707
213	0xbd90a444	-0.07062581
214	0xbe074c5b	-0.13212721
215	0x3d0c2ee0	0.03422439
216	0xbde262b7	-0.110539846
217	0xbdf2e68f	-0.11860382
218	0xbd706137	-0.05868646
219	0x3cbe27e0	0.023212373
220	0xbd8e8da1	-0.06960607
221	0x3d2c66a0	0.04209006
222	0xbdbf967c	-0.093548745
223	0xbde6cb42	-0.11269237
224	0xbc418340	-0.011811078
225	0xbd85d4e7	-0.065347485
226	0xbdbe09b2	-0.09279193
227	0x3cf7b3b0	0.030237049
228	0xbbb8a260	-0.005634591
229	0x3d170acc	0.03687553
230	0x3da33b89	0.0797034
231	0xbc67b460	-0.014142126
232	0x3dbdc5f7	0.092662744
233	0xbdd62c86	-0.10457711
234	0xbdff4bda	-0.124656394
235	0xbd1ed98a	-0.03878168
236	0xbdda6a95	-0.1066486
237	0xbd29c524	-0.041447774
238	0x3c811996	0.01575927
239	0xbd791f3e	-0.06082081
240	0x3df0ec7c	0.11763856
241	0xbe06eb3d	-0.13175674
242	0x3dc90735	0.09815828
243	0x3dc418cb	0.095750414
244	0x3c991c00	0.01869011
245	0xbd94cf0a	-0.07266052
246	0x3d1f404b	0.038879674
247	0xbb179440	-0.0023129135
248	0xbd468781	-0.04846907
249	0x3d012e6b	0.03153841
250	0x3c6d80c4	0.014496032
251	0xbced0204	-0.028931625
252	0x3beffe12	0.0073239887
253	0xbd85ed80	-0.0653944
254	0xbdf564aa	-0.11982091
255	0xbd73e3f4	-0.059543565

dense2.bias f4 [64]
0	0x3eb8fc7d	0.36130133
1	0xbe1045f6	-0.14089188
2	0x3d32caab	0.04365031
3	0x3da828d5	0.08210913
4	0x3dcd4f89	0.10024936
5	0xbd547c5c	-0.05187641
6	0x3cd06cee	0.025442567
7	0xbb8e1840	-0.004336387
8	0xbdd88dc1	-0.105739124
9	0x3e6014d0	0.2188294
10	0x3da46463	0.0802696
11	0x3d834497	0.06409567
12	0xbd499a55	-0.049219448
13	0x3d41c685	0.047308464
14	0xbd524f90	-0.051345408
15	0x3ca4cfaf	0.020118563
16	0x3d07eee9	0.033186827
17	0xbd7beb19	-0.061503503
18	0xbcff8e38	-0.031195745
19	0xbe1ef0d9	-0.15521564
20	0x3d2cbafd	0.042170513
21	0x3e850f83	0.25988397
22	0x3d998357	0.07495754
23	0x3d468fd2	0.048477
24	0x3e6a16e7	0.22860299
25	0xbdb98c95	-0.09060017
26	0x3e85733b	0.26064476
27	0x3cf26ab6	0.0295919
28	0x3dda1a96	0.10649602
29	0xbd582a5c	-0.052774772
30	0x3d23de4b	0.040006917
31	0x3d3269d4	0.043557957
32	0x3b4e66e1	0.0031494426
33	0x3e28a0d7	0.16467606
34	0x3d158efc	0.036513314
35	0xbe01ce98	-0.12676466
36	0xbd5d2638	-0.053991526
37	0x3d05b85b	0.03264652
38	0xbe050159	-0.12988795
39	0xbe1c9fd4	-0.15295345
40	0x3d4ee8d9	0.05051503
41	0x3e11e3bc	0.1424703
42	0x3bb362b4	0.005474413
43	0xbca4ba9a	-0.02010851
44	0xbe2540fd	-0.16138072
45	0x3d8c1bbf	0.0684123
46	0xbdb7034f	-0.08936178
47	0xbdb2413d	-0.087038495
48	0x3d82e723	0.06391742
49	0xbd99a2b2	-0.07501735
50	0xbdda3eef	-0.10656535
51	0xbd87ffd0	-0.06640589
52	0xbe12c88c	-0.14334315
53	0xbe06adac	-0.13152188
54	0x3d86dd58	0.06585187
55	0xbd73ddaa	-0.059537567
56	0xbd8c5c2f	-0.0685352
57	0x3d14d36b	0.036334436
58	0xbb96c5ea	-0.00460123
59	0x3daf85b8	0.08570427
60	0x3cf8a086	0.030349981
61	0x3d47eaad	0.04880779
62	0x3dd388c6	0.10328822
63	0x3af41e8e	0.0018624829

dense3.weight f4 [4, 64]
0	0xbd75bd96	-0.059995256
1	0x3c35a872	0.011087524
2	0xbd85767e	-0.06516741
3	0xbbc65120	-0.0060521513
4	0xbe088122	-0.1333051
5	0x3de79870	0.11308372
6	0x3d979ccc	0.074029535
7	0x3d5bd2d5	0.053667862
8	0xbd47026d	-0.048586298
9	0xbe12b044	-0.14325052
10	0xbe376dbb	-0.17912953
11	0x3a9caf02	0.0011954012
12	0xbd8a5e42	-0.067562595
13	0xbd09c9e9	-0.033639822
14	0x3c3b5631	0.011434124
15	0xbdc94705	-0.09827999
16	0x3d986ee6	0.07443027
17	0xbdd5cdb2	-0.10439624
18	0x3dcd4afe	0.10024069
19	0x3bfece46	0.0077760546
20	0xbde9bf53	-0.11413445
21	0xbdc5ba28	-0.09654647
22	0xbe1c4ba9	-0.15263237
23	0x3ba2dce0	0.004970178
24	0xbe72c1d9	-0.2370676
25	0xbd41cd62	-0.04731501
26	0xbdaac89e	-0.08339046
27	0x3d7da9cb	0.061929505
28	0x3dab0996	0.08351438
29	0x3d856550	0.065134645
30	0xbd22efdb	-0.039779525
31	0x3bf58da0	0.0074936897
32	0xbdc10683	-0.0942507
33	0xbdb26e9e	-0.08712505
34	0x3d258a68	0.040415198
35	0xbe027902	-0.12741473
36	0xbcbfbfee	-0.023406949
37	0x3da365cc	0.079784006
38	0x3dac1d50	0.084040284
39	0xbde21fb0	-0.110412
40	0xbc4b26c3	-0.012399378
41	0xbdeda172	-0.11603059
42	0x3dc406e7	0.09571629
43	0xbd1207e0	-0.03565204
44	0x3ddfcb86	0.10927491
45	0xbc928c50	-0.017889172
46	0xbd99aa7f	-0.07503223
47	0x3d8ac416	0.06775682
48	0xbdb6f4e5	-0.08933429
49	0xbd980c81	-0.0742426
50	0x3af106e7	0.0018388898
51	0x3d9b253b	0.075754605
52	0x3c947e00	0.018126488
53	0xbdeb69e0	-0.114948034
54	0x3cce982e	0.02521905
55	0x3d6c4c42	0.057689913
56	0x3dc3c910	0.09559834
57	0xbd2d5382	-0.042315967
58	0xbd776af5	-0.060404737
59	0xbdf2bcd2	-0.11852421
60	0xbd33c4e6	-0.04388895
61	0xbd5b69d8	-0.053567737
62	0xbdd77ff8	-0.10522455
63	0xbdddbd05	-0.10827068
64	0xbe1486da	-0.14504567
65	0x3d477e67	0.04870453
66	0xbd50b5bf	-0.050954577
67	0x3da39604	0.079875976
68	0xbe285276	-0.16437706
69	0x3dac7552	0.084208146
70	0x3d551241	0.05201936
71	0xbdc35cb4	-0.09539166
72	0x3dd25745	0.102705516
73	0xbe6004b1	-0.2187679
74	0xbdc1a526	-0.09455328
75	0x3c8e19fb	0.017346373
76	0xbd93862f	-0.07203328
77	0x3cf7af6c	0.030235015
78	0x3dc0d16a	0.094149426
79	0xbd1edbb8	-0.03878376
80	0x3d7700cf	0.060303506
81	0x3dde9bbc	0.10869548
82	0x3db29cb4	0.08721295
83	0xbb3620e1	-0.0027790593
84	0xbe1a5234	-0.1507042
85	0xbe7dd2ad	-0.24787398
86	0xbe05ed0d	-0.13078709
87	0xbdd752b2	-0.1051382
88	0xbe519a24	-0.20468956
89	0xbd5899b0	-0.052880943
90	0xbde88c8a	-0.11354931
91	0x3e28efbc	0.16497701
92	0x3c8a9988	0.016918913
93	0x3df6f006	0.120574996
94	0x3dba0816	0.090835735
95	0xbdf1f17e	-0.11813639
96	0x3d3b7adc	0.045771465
97	0xbe48863a	-0.19582453
98	0x3ad45600	0.0016199946
99	0xbd2374f1	-0.039906446
100	0x3da5087d	0.0805826
101	0x3d04fd73	0.03246827
102	0xbd5dea44	-0.05417849
103	0x3d21d916	0.03951367
104	0xbdce06b9	-0.10059876
105	0xbdf787fd	-0.120864846
106	0xbc0f6cb8	-0.008753948
107	0x3dc2d438	0.09513134
108	0xbd96e7c5	-0.07368425
109	0xbdbcb9d6	-0.09215133
110	0xbdb58fd7	-0.08865326
111	0x3dc83a95	0.09776799
112	0x3d086790	0.03330189
113	0xbde0eedc	-0.10983059
114	0xbd7f0264	-0.06225814
115	0x3db5b482	0.0887232
116	0x3d9d6db3	0.07686939
117	0xbc1765c0	-0.009240568
118	0x3dac9ecf	0.08428728
119	0x3d30f610	0.043203413
120	0xbd0c8482	-0.034306057
121	0xbd877d36	-0.06615679
122	0x3dfe3498	0.12412375
123	0x3d8e46be	0.06947087
124	0xbb0745cf	-0.0020640974
125	0x3d914bac	0.070945114
126	0xbd966921	-0.073442705
127	0xbd92c4ef	-0.07166468
128	0xbd44c073	-0.048035096
129	0x3ce78cbb	0.028265348
130	0xbde80846	-0.11329703
131	0x3b7749f9	0.00377333
132	0xbdb823a3	-0.08991172
133	0x3d9b3be6	0.07579784
134	0xb9cba8ea	-0.00038845028
135	0x3dbd2a5b	0.09236594
136	0x3d8a779d	0.06761096
137	0x3d09bee2	0.033629306
138	0xbdb8f629	-0.09031326
139	0x3bab315d	0.0052243904
140	0xbd287901	-0.041131023
141	0xbe040fe5	-0.12896688
142	0x3da60b6a	0.08107646
143	0xbcfaf671	-0.03063509
144	0xbd55f0a0	-0.05223143
145	0x3dc3e3eb	0.09564956
146	0x3cc1ba68	0.023648456
147	0x3ce7dd2d	0.028303707
148	0xbda3ffcb	-0.08007773
149	0xbb2c3e0f	-0.0026282107
150	0xbd95e860	-0.07319713
151	0x3ce12cd8	0.027487203
152	0xbd59d0f8	-0.053177804
153	0x3df99810	0.12187207
154	0xbda46dc4	-0.08028749
155	0x3c907267	0.017632676
156	0x3caf93c0	0.021432757
157	0xbd3f1a34	-0.04665585
158	0xbe0702e8	-0.13184702
159	0xbdc43f86	-0.09582429
160	0xbdc16953	-0.09443917
161	0xbd316b76	-0.043315373
162	0xbcccf153	-0.025017416
163	0x3dda82ab	0.10669454
164	0x3e2d7ff8	0.16943347
165	0x3d3bc690	0.04584366
166	0xbd226fb7	-0.03965732
167	0x3d3f9fd6	0.04678329
168	0x3d6e0b41	0.0581162
169	0xbdf2e901	-0.11860848
170	0x3dac75da	0.08420916
171	0x3d14376b	0.036185663
172	0x3e0cde14	0.13756591
173	0x3dc4b85b	0.096054755
174	0xbb451462	-0.0030071964
175	0xbc0be56b	-0.008538584
176	0xbd37437f	-0.044742104
177	0xbd5ecbbe	-0.054393522
178	0x3da07620	0.078350306
179	0xbdb3bfd3	-0.08776822
180	0x3d78be57	0.060728397
181	0x3d060dcb	0.032727998
182	0x3cdc9318	0.026925609
183	0x3cbd8830	0.023136228
184	0xbbc7604d	-0.006084478
185	0xbe021c6e	-0.12706158
186	0x3d88beee	0.06677042
187	0xbd9ceee2	-0.07662751
188	0x3cc50a9b	0.024052909
189	0x3d3046ee	0.043036394
190	0xbe044b48	-0.12919343
191	0xbe26b87b	-0.16281311
192	0xbe878c43	-0.264742
193	0x3d283872	0.041069455
194	0x3ce966a5	0.028491328
195	0xbc90a210	-0.017655402
196	0xbd430b46	-0.047618173
197	0x3abed500	0.0014559329
198	0x3cc976f8	0.024592862
199	0x3cf9c61f	0.03048998
200	0x3ca955ea	0.02067085
201	0xbdeb7267	-0.1149643
202	0xbabff0f8	-0.0014643958
203	0x3cdd9dcf	0.027052788
204	0xbd8b4050	-0.06799376
205	0xbe531f0e	-0.20617315
206	0x3e3ed85c	0.18637222
207	0xbdc91c5f	-0.098198645
208	0x3d619588	0.055074245
209	0xbd818e44	-0.06325963
210	0x3d045db4	0.032315925
211	0xbd3876e6	-0.045035265
212	0xbe87d7e8	-0.2653191
213	0xbe4f5adb	-0.20249502
214	0xbd9155cb	-0.07096442
215	0xbcae7ba5	-0.021299193
216	0xbe52fa9c	-0.20603412
217	0xbb7888d3	-0.003792335
218	0xbd0aa024	-0.03384413
219	0x3d2a30a8	0.04155031
220	0xbd66db94	-0.05636175
221	0xbd430e54	-0.047621086
222	0xbc5647a3	-0.013078603
223	0xbdb8f5c4	-0.09031251
224	0x3d1736b2	0.036917396
225	0xbcabbb48	-0.020963326
226	0xbbdc3d20	-0.006721154
227	0x3dd3a2dc	0.10333797
228	0xbde86138	-0.11346668
229	0x3da4f1a8	0.08053905
230	0x3cc1df6b	0.023666104
231	0x3df5a8af	0.119950645
232	0x3dd2f1b9	0.10300011
233	0xbe739219	-0.237862
234	0xbb8394ed	-0.004015556
235	0xba9cab80	-0.0011952966
236	0x3d3d4764	0.04621066
237	0x3d240e04	0.04005243
238	0x3dce8830	0.100845695
239	0xbcf23688	-0.029567018
240	0xbdb77bb6	-0.08959143
241	0xbe8abe6e	-0.2709841
242	0x3ae586cc	0.0017511486
243	0xbdb927aa	-0.090407684
244	0xbb7e3100	-0.003878653
245	0x3da4bb80	0.08043575
246	0x3d98e71d	0.07465956
247	0x3cb05935	0.021526912
248	0x3d806928	0.06270057
249	0xbbe00e8a	-0.0068376707
250	0x3ded1088	0.11575419
251	0x3c07a8b7	0.008279971
252	0xbda629e3	-0.08113458
253	0x3dcbd5cd	0.09952889
254	0xbccb8a6a	-0.024846274
255	0xbdc66204	-0.09686664

dense3.bias f4 [4]
0	0x3d5f531b	0.054522615
1	0x3d8b3722	0.06797625
2	0x3e5e9927	0.2173811
3	0xbecffc99	-0.40622404
