Reinforcment_Learning_DQN/agent_output/weights/episode_91_weights.pt (torch, 21487 bytes, 6 tensors)

dense1.weight f4 [64, 5]
000000 ba 1f b6 3d 1b b8 33 be f7 8f ca 3d d1 71 08 c0
       0.0889277 -0.175507 0.0989074 -2.1319468
000010 5b 70 0b c0 f7 8f a4 3e 3d 48 a3 be 41 d6 d1 bd
       -2.1787326 0.32141086 -0.3189105 -0.10245944
000020 2c 71 7f 3d db ef e3 3e 10 e3 22 be ba e6 14 be
       0.06236379 0.44518933 -0.1590693 -0.1454114
000030 28 80 49 be 04 9d 56 3e 82 d2 e2 3e 0e bb a9 3d
       -0.19677794 0.20958334 0.4430123 0.08287631
000040 f2 36 0c bf cd b0 c1 3d db 8d fc 3e 14 d8 25 3e
       -0.5477134 0.0945755 0.49326977 0.16195709
000050 96 78 34 be 75 99 70 be dc 7d 97 be 00 62 96 3b
       -0.17624125 -0.23496039 -0.2958821 0.004589319
000060 14 ea 32 be f7 38 64 3e 25 45 a3 be f2 55 e1 3d
       -0.17472106 0.22287355 -0.3188869 0.11002721
000070 c8 14 ae bf ca 1c 06 c0 4e 2b a4 be 3c 1e d8 be
       -1.3600092 -2.0955071 -0.3206429 -0.42210567
000080 68 53 b8 be a0 7c d5 bc 40 62 a1 be cf 61 09 3e
       -0.36001134 -0.026060402 -0.3152027 0.13416217
000090 57 41 0f 3f 53 d1 47 be 4f 6f f0 3d e0 f2 02 bf
       0.55959076 -0.19513445 0.117399804 -0.5115185
0000a0 1f 8e 0f bf a3 0f 4f bd 8b e3 c6 3e 19 c7 00 bf
       -0.56076235 -0.05055202 0.38845477 -0.503038
0000b0 0c 56 d2 be c7 62 b7 be 60 f0 76 3c d0 a1 d0 be
       -0.41081274 -0.3581755 0.015071958 -0.40748453
0000c0 c0 ff bd 3e 0c fc ae 3e 1c bf df be ea d8 08 bd
       0.37109184 0.34176672 -0.43700492 -0.03340999
0000d0 78 31 a5 3e 62 0c 31 bf 74 2e 21 bf 72 49 45 be
       0.32264304 -0.6915952 -0.62961507 -0.19266298
0000e0 1a f9 c6 be be 01 8d 3e e6 4f 37 bf d3 89 84 bf
       -0.38861924 0.27540392 -0.7160629 -1.0354561
0000f0 d9 90 59 be d4 fe 20 3e 80 b4 cf bd 3c 75 bf bd
       -0.21246661 0.15722209 -0.101418495 -0.093485326
000100 a4 ab c2 3e 45 53 8b 3e fb 36 0a 3e 5a 08 8e be
       0.38021576 0.27211967 0.13497536 -0.27740747
000110 aa 30 8d bf 13 ac bf bf 4f fc 79 be 52 0b b7 be
       -1.1030476 -1.4974388 -0.24412654 -0.35750824
000120 0b 46 95 3e ff 22 f5 be e3 3b 32 be e7 4a f5 3d
       0.29155 -0.47878262 -0.17405657 0.11977177
000130 0d ab e9 3d d4 41 61 be a7 34 68 3d fe 09 21 3f
       0.114095785 -0.21997768 0.05669084 0.6290587
000140 2c d7 98 3e 32 9e e7 ba bc 28 c2 be 88 d5 3b be
       0.29851663 -0.0017671047 -0.37921703 -0.18343174
000150 58 66 c6 3e 66 30 80 3d 5c 4d 41 3e c4 18 1b 3e
       0.38749957 0.06259231 0.18877167 0.15146166
000160 a4 d3 a9 bf 89 8e 0c c0 da 6e 07 bf e6 d9 f4 bd
       -1.3267713 -2.1961997 -0.5290352 -0.11955623
000170 1b dd 66 3e c7 a9 07 bf 82 77 9e be 8d 09 bb 3d
       0.22545283 -0.52993435 -0.30950552 0.09132681
000180 5b 11 ae 3e a4 6f 42 bd 61 9c b1 bf 5c a1 db bf
       0.33997616 -0.04746975 -1.3875848 -1.7158618
000190 49 3f 59 3e e7 4e c9 be eb 4f 17 3e 82 8b 83 bf
       0.21215548 -0.3931801 0.1477658 -1.027695
0001a0 b9 d2 bd bf 55 3d 6b 3e d4 15 e7 be 25 6f 64 3e
       -1.4829932 0.22972615 -0.4513384 0.22308023
0001b0 64 41 c5 bf e1 ec 10 c0 80 3d 69 bb 6b 8f d4 be
       -1.5410581 -2.264458 -0.0035589635 -0.4151567
0001c0 b4 1a 9d be 68 d6 5c 3e 9e 8a b8 3e 2a 05 24 be
       -0.30684435 0.21566164 0.36043257 -0.16017595
0001d0 fe d5 ae 3e 1a 81 8b be 0d 02 45 be d8 29 c6 be
       0.34147638 -0.27246934 -0.19239064 -0.387038
0001e0 88 d0 d4 3d 52 46 be be c3 25 90 3e b2 23 e0 bf
       0.10391337 -0.37163025 0.2815381 -1.7510893
0001f0 8a de 02 c0 2d c7 80 3d 32 7a 10 3e 47 5b 65 bd
       -2.0448327 0.0628799 0.14109114 -0.055995252
000200 1a 44 e6 bf c9 38 08 c0 b7 d9 95 be 08 95 bd 3e
       -1.7989533 -2.128466 -0.29267666 0.37027764
000210 53 be ae 3e d9 f5 d1 bf dd f2 d0 bf 1c 8c e6 3d
       0.3412958 -1.6403152 -1.6324116 0.112571925
000220 0a b9 a7 3e 1e ec c4 3d e7 7a cf bf 0b aa d8 bf
       0.3275836 0.09615348 -1.6209382 -1.6926893
000230 bf b1 55 3e 70 05 c0 be 91 54 11 3e ed 58 bf bf
       0.20868586 -0.37504148 0.14192416 -1.4949013
000240 41 b3 e0 bf 81 43 d7 bd 81 e1 51 bf eb e9 a0 3e
       -1.7554704 -0.10510922 -0.81984717 0.31428465
000250 54 59 3a be fc 10 1c be b8 02 61 bd 27 d4 c5 be
       -0.18198138 -0.15240854 -0.054934233 -0.38638422
000260 50 4c d8 3c a6 3f c9 be ca 39 c3 3e 27 39 7e 3e
       0.026403576 -0.39306372 0.38130027 0.2482649
000270 fc 29 8b 3e 16 0d 17 be 2b 81 cb bf c9 f9 e8 bf
       0.2718047 -0.14751086 -1.5898794 -1.8201228
000280 6e 18 b3 be ce dd 03 3f 93 bb 65 3e 6d 77 cf be
       -0.34979576 0.5151032 0.22434835 -0.40520802
000290 73 12 64 bf e4 fd 80 3e 32 43 c4 be 9b 34 c5 3d
       -0.8909065 0.25193703 -0.38332516 0.09629174
0002a0 97 95 9b bf 16 14 9a bf 63 74 9d bc 42 5b 37 3e
       -1.2155026 -1.203738 -0.019220537 0.17905906
0002b0 32 9a 02 bf f3 13 31 3f 2e eb 71 be cd b7 35 3e
       -0.51016533 0.69171065 -0.2362487 0.17745896
0002c0 a6 d7 5b 3e 47 f8 94 be fb d0 fb be c6 4b 74 bf
       0.21468982 -0.2909567 -0.49182877 -0.9542812
0002d0 a5 44 c6 be 40 2b 96 3d 1a e8 83 be 58 58 41 be
       -0.38724247 0.07332468 -0.25763017 -0.18881357
0002e0 0d be 81 be 68 04 95 3e 0f 72 ab 3e ff d8 f9 be
       -0.2534031 0.29104924 0.33485457 -0.48798367
0002f0 92 cd d2 be fa f0 d0 3e 67 d3 b8 bd e4 b4 76 3e
       -0.41172463 0.4080885 -0.09024697 0.24092442
000300 b9 f9 25 3e 8b f3 72 bf 36 79 ff bf 30 52 a2 bc
       0.16208543 -0.9490287 -1.9958866 -0.01981458
000310 56 16 13 be c4 35 a6 be ec 2f de 3e a4 aa 85 3e
       -0.14363989 -0.32462895 0.43395936 0.2610675
000320 ad 26 4f 3e 6e 17 da be 0f 3d 49 3e f0 6d e1 bf
       0.20229597 -0.42596 0.19652198 -1.7611675
000330 7e 99 fe bf 7f 52 1a 3e d2 89 af be 1a 73 c7 be
       -1.9890592 0.15070532 -0.34284836 -0.38955003
000340 b4 f6 17 3e 54 8e 51 3e 6c cc ea 3d 23 4f ed be
       0.14840204 0.2046445 0.11464772 -0.4634944
000350 86 d8 73 3d 07 15 5c 3d 7d dd 83 be 45 09 e1 3c
       0.059532665 0.05373099 -0.2575492 0.02747024
000360 30 54 58 3e b0 e3 2c 3d c2 e7 88 bf c3 73 00 c0
       0.21125865 0.042209327 -1.0695727 -2.0070655
000370 f9 0e 7e 3c 20 87 69 3e 9c c3 33 be 48 3a 1f bf
       0.015506499 0.22805452 -0.17555088 -0.62198305
000380 96 02 36 bf 5d f4 87 be ad 22 75 be 38 a8 87 3d
       -0.71097696 -0.26553622 -0.23939009 0.06623882
000390 74 eb 84 be 0a f8 be 3e 60 85 9c be 91 66 8a be
       -0.25960886 0.37298614 -0.30570507 -0.27031377
0003a0 32 e0 b6 3e 96 33 6c bf 17 9f dc be bb c8 91 3d
       0.35717922 -0.92266214 -0.43090126 0.071183644
0003b0 8c 09 b1 be 51 3f 8c 3e f6 7d cc bf d6 3b f7 bf
       -0.34577596 0.27392057 -1.597594 -1.9315135
0003c0 a2 f6 59 3d 48 34 f5 be b8 d3 2c be 49 ac ef bd
       0.053213723 -0.4789145 -0.1687764 -0.11702783
0003d0 39 6b d8 be 26 5f 67 be 0a 56 af 3d 5c bf 3a 3e
       -0.42269304 -0.2259489 0.085613325 0.1823706
0003e0 18 66 f8 bf a2 47 1c c0 d6 86 e8 3d ec 6c 97 3e
       -1.9406157 -2.4418721 0.11353843 0.29575288
0003f0 ae b7 ae bd c3 9e 3b be b3 74 95 bf 8d 2f 64 be
       -0.08531128 -0.18322282 -1.1676239 -0.22283764

dense1.bias f4 [64]
000000 32 6f 9f 3e 8a a5 cf be 1c 11 b4 3e d6 d1 ae 3e
       0.31139523 -0.40555984 0.35169303 0.34144467
000010 de e6 04 be 13 d9 42 3e 68 31 d8 3e e5 b7 04 3f
       -0.12978694 0.1902812 0.42225194 0.518431
000020 33 b5 e6 3e dc 1d 5d 3e 13 e0 e9 3e 9c e7 44 be
       0.4506012 0.21593422 0.45678768 -0.19228977
000030 ac f4 0f 3e 49 26 38 3e b0 d4 72 be f0 81 50 be
       0.14058179 0.17983355 -0.23713946 -0.20362067
000040 84 a4 88 be 7b 26 68 3c 7d 13 8f bd 69 80 93 be
       -0.26688015 0.014169331 -0.06986139 -0.28808907
000050 b7 d7 23 3e c9 5c bb 3e 00 bb 12 3c 23 8b 3e 3d
       0.16000257 0.36594227 0.008955717 0.04651941
000060 6e 48 06 3f ff 6b 82 3e b4 6f dc bd bd fc 67 bd
       0.5245427 0.2547302 -0.10763493 -0.056637514
000070 d2 80 8a 3e 39 e3 b7 be 8d a7 55 be 61 52 d5 3d
       0.27051407 -0.35915545 -0.20864697 0.10416103
000080 0b 23 a7 3d d4 c9 ff bd ac 9a d4 3e 79 9e 55 ba
       0.08160981 -0.124896675 0.41524255 -0.00081489194
000090 bf 4c 4a be af f6 11 bf 3e ad fc 3d 0f 3f d3 be
       -0.19755839 -0.57017034 0.12337731 -0.41259047
0000a0 9c 4a 00 3f 02 1a 95 3e 80 45 35 3e 56 aa 5a bb
       0.50113845 0.29121405 0.17702293 -0.0033365688
0000b0 d6 d6 f0 3d c0 79 c1 bb cf a6 1d 3e ee 72 20 be
       0.11759727 -0.0059044063 0.15395664 -0.15668842
0000c0 e2 07 ae be ed fd fe 3d 3a b8 8e bd e3 30 d1 3e
       -0.3399039 0.12450776 -0.06968732 0.4085761
0000d0 36 6d d0 3e 3b 03 ac 3e 50 04 50 3e aa 2a bf 3e
       0.4070832 0.33596215 0.20314145 0.37337238
0000e0 d2 9c ab 3e 2a be 56 be c0 2a be be 62 b1 71 3e
       0.33518082 -0.2097098 -0.3714199 0.23602822
0000f0 bf 73 ec 3c f3 92 cc 3e c1 e3 ad be 9a 98 82 3e
       0.028863786 0.39955863 -0.33962825 0.2550705

dense2.weight f4 [64, 64]
000000 ea a3 d1 3d 8d cd 26 be 98 1e d0 bd 24 9d ba 3d
       0.10236342 -0.16289349 -0.10162085 0.091120034
000010 6c d0 0b bd f1 0f aa 3d 88 1b ff bc f5 19 16 be
       -0.034134313 0.08303822 -0.031141058 -0.1465834
000020 05 ed 5b 3d 6e 91 84 3d de 90 fd bb c8 a9 ef 3d
       0.053692836 0.06473051 -0.007738217 0.11702305
000030 d2 50 a7 bd 54 6b a8 be 2a 06 fc 3d be 4e 46 be
       -0.08169712 -0.32894385 0.12305863 -0.19365975
000040 b2 96 33 be e6 1e 68 bc 73 d8 1a 3d 6f ff 18 be
       -0.17537954 -0.014167523 0.03780408 -0.1494119
000050 18 3c 36 bd 90 3b 88 3d aa 8d cf 3d 9b 8c 41 be
       -0.044490904 0.06651986 0.10134442 -0.18901293
000060 24 7a fa 3d 9b 9c 61 3c e4 2b 13 be 9d 87 3d be
       0.12230328 0.013770248 -0.14372212 -0.18508764
000070 fb 41 ca 3d d9 c1 93 3d 36 f9 b0 3d e4 a3 b2 bd
       0.09875866 0.07214708 0.08641283 -0.08722666
000080 3f 43 14 bd a7 6c c2 bd af be a4 3d 70 a3 85 be
       -0.036196943 -0.0949338 0.080441825 -0.26101255
000090 8c 93 95 bd 62 97 90 bd 0c 17 c0 bc 30 cb 99 bd
       -0.07303533 -0.07060124 -0.02344849 -0.07509458
0000a0 8d 0f 06 3e 04 88 b4 3d 6e 14 cd 3d 83 c8 4d be
       0.1309187 0.088150054 0.10013662 -0.2009602
0000b0 04 b1 c9 bb 3c 78 3e bd b1 10 28 3d 89 b5 31 3d
       -0.006155135 -0.046501383 0.041031543 0.043386016
0000c0 b4 c8 bc 3d 18 e6 2b bd 90 3a 60 be c8 d7 51 3d
       0.092179686 -0.04196748 -0.2189734 0.051231176
0000d0 5a 0e f0 bd 88 84 4e be 54 60 68 3d 14 fe c4 bd
       -0.11721487 -0.20167744 0.05673249 -0.09618774
0000e0 48 75 e9 bd bc f3 62 bd 3e db f8 bd 49 19 aa be
       -0.11399323 -0.055408224 -0.12151192 -0.33222416
0000f0 98 9b 73 3d da 63 d4 bd 9a b6 e4 3d 9d 56 c9 bd
       0.059474558 -0.10370608 0.11167641 -0.09830973
000100 a7 96 9c 3c fc ed 9c bd 00 44 a9 3d a9 77 3e 3c
       0.019114805 -0.076625794 0.08264923 0.011625209
000110 ce 00 ec bd 4d 91 7b 3d a0 d4 f4 3d 80 f4 e8 3a
       -0.11523591 0.061417866 0.119546175 0.0017773062
000120 b1 a9 ae bd 00 a1 51 3d 42 14 0f 3d ba 07 1e be
       -0.0852846 0.051178932 0.03493143 -0.15432635
000130 e8 e6 31 bd 53 6a 6e bd 5f 2d 61 3c da 33 8a bd
       -0.0434331 -0.058206867 0.0137437275 -0.06748171
000140 52 35 4c bd eb 67 13 be fa 8e b6 bc c5 d4 0a bd
       -0.049855538 -0.1439511 -0.022284973 -0.03389432
000150 d2 3c 69 bd 18 c0 59 3c 40 1f c7 3b 10 9e aa bd
       -0.05694277 0.013290428 0.0060767233 -0.08330929
000160 01 ce 09 bc 23 61 0c be 9b c1 cc 3d 22 58 15 be
       -0.008410932 -0.1370893 0.09997865 -0.14584401
000170 9c 95 75 3d 0c ef 2c be 06 65 ba bd 78 6e 6f 3d
       0.05995713 -0.16888064 -0.091013 0.05845496
000180 8a c4 bd bc fc 10 5e bc 32 6f d4 bd c0 7b 8d bc
       -0.023165006 -0.013553854 -0.10372771 -0.017270923
000190 40 84 24 3c 4d 26 a5 bd 9a dd bf bc ea e2 f7 3d
       0.0100412965 -0.08063946 -0.023421098 0.12103827
0001a0 7d 1c e1 bd 64 bc 37 bd f4 ef 98 3d cc 79 e1 3c
       -0.10991762 -0.044857398 0.074676424 0.027523898
0001b0 5c 95 c5 3d 9c b5 14 bd 4a f7 ff 3d 98 de 35 3c
       0.09647629 -0.03630601 0.124983385 0.011100434
0001c0 da 6f ad bd 18 91 4e 3d 7e 91 00 be 3d d7 2e be
       -0.084685996 0.05043134 -0.12555501 -0.17074294
0001d0 b0 67 ed 3d 04 27 29 be 58 07 c5 bc 20 f7 12 be
       0.115920424 -0.1651879 -0.024051353 -0.14352083
0001e0 08 21 eb 3c 20 a7 c5 bd 60 48 8a bd 08 71 3a bd
       0.028702274 -0.09651017 -0.06752086 -0.04551795
0001f0 53 ad 0e bc eb 0e d9 bd 28 d9 05 bd 42 9e 18 bd
       -0.008708316 -0.105985485 -0.0326778 -0.0372603
000200 cb 22 34 bc f3 2d 58 bd 02 27 90 3d 00 ac 2e 3c
       -0.010994623 -0.052778196 0.0703869 0.010661125
000210 64 4e 38 bd 88 c8 bd bd e0 79 91 3b 84 5c f1 bc
       -0.044996634 -0.09266764 0.0044395775 -0.02946306
000220 e6 7a dc bd 72 07 e2 bd 00 9a e0 39 dc fe 24 bd
       -0.107656285 -0.11036576 0.00042839348 -0.040282115
000230 30 2d 2b 3c 8d 89 87 3c a0 a0 24 bc 30 ce a3 bd
       0.010447785 0.016545082 -0.010048062 -0.079983115
000240 4d e2 47 bc ce 05 09 bd 30 e6 3e 3d c0 fd 7a 3d
       -0.01219995 -0.0334528 0.046606243 0.06127715
000250 79 00 67 3b 9c f2 2e be f0 ea 8d bd 5a 43 d8 3d
       0.0035248084 -0.17084736 -0.069295764 0.10559721
000260 17 95 8f 3d 69 df 1f 3d 09 4f 8d 3c b4 85 fb bd
       0.070108585 0.03903142 0.017249601 -0.12281361
000270 4c aa 1b be f4 82 67 bd 80 a6 21 3c bc ce 19 be
       -0.15201682 -0.05652137 0.009866357 -0.15020269
000280 6b 0a 97 bd 4f a6 17 bc 4b e0 85 bd 21 80 9f 3d
       -0.07375034 -0.00925596 -0.06536921 0.077881105
000290 b8 d0 8a 3c 3d aa 84 3d df 88 55 bd 00 2a 03 3d
       0.016945228 0.06477783 -0.052132484 0.032022476
0002a0 19 a9 b3 3b 46 c1 e6 bd fc 25 d5 3d 03 90 08 be
       0.0054828045 -0.11267333 0.104076356 -0.13336186
0002b0 6f 8a a2 3d 90 59 bf bc 58 35 c0 3d 49 ac f4 bd
       0.0793656 -0.023358136 0.093851745 -0.11946923
0002c0 94 67 20 bd a1 7b b5 bd df 05 c8 bd b8 8f 89 3c
       -0.03916128 -0.08861471 -0.09766745 0.016792163
0002d0 d6 8e 97 3d 9b 6b 7b 3c c0 3e c4 3d 84 6e 18 be
       0.07400291 0.015345479 0.09582281 -0.14885908
0002e0 f0 97 b5 3c 1e 31 bd 3d 34 e7 08 bd a2 a3 de bd
       0.022167176 0.09237884 -0.033423617 -0.10871054
0002f0 8f 08 77 bc a1 77 90 bd 2c 4a b4 bd d7 f5 5c bd
       -0.015077724 -0.070540674 -0.0880321 -0.05394539
000300 f2 9c ee 3c 70 74 ae bd aa 5e bb 3d 03 ea 04 bd
       0.029127572 -0.085183024 0.09148915 -0.032449733
000310 32 d3 91 3d f7 9c ed 3d b0 6b 53 3c 64 28 28 bd
       0.071203604 0.11602204 0.012904093 -0.041054145
000320 49 33 d8 3d 9e 00 f2 3d fd 01 c7 ba a7 5c 9c 3c
       0.10556657 0.11816524 -0.0015183088 0.019087149
000330 90 0f f2 3d 3c c7 aa bd 4f 8a 08 3d 38 0b 9a 3d
       0.118193746 -0.08338782 0.033335026 0.07521671
000340 94 0e af 3d 67 b0 8f bd a9 57 68 bd e1 65 d1 bd
       0.085477024 -0.07016068 -0.056724224 -0.1022451
000350 fa 61 75 bd f2 2f 53 3c e2 2c d9 3d e8 c3 3e 3d
       -0.05990789 0.012889849 0.10604264 0.04657355
000360 fe 55 fa bc 95 ee d3 bc 7a 50 d7 bd 2f 7c 01 bd
       -0.030558582 -0.0258706 -0.105133966 -0.03161257
000370 f8 29 20 bd 70 28 d9 bd 7c 39 84 bd 00 82 b6 bc
       -0.039102525 -0.10603416 -0.06456277 -0.022278786
000380 3a 2c b5 3c c0 34 c8 3d 68 47 b7 bd 76 ba fe bd
       0.022115815 0.09775686 -0.089491665 -0.12437908
000390 00 84 17 ba b4 3a b0 bd e2 2e 57 bd 80 61 f2 bc
       -0.00057798624 -0.08604947 -0.052534945 -0.029587507
0003a0 f8 ca 5a bd 50 58 2e bd 7f 2d b1 3d 90 06 e5 bd
       -0.053416222 -0.04256469 0.08651256 -0.11182892
0003b0 a4 af 58 bd b6 98 81 3d 9f ca 15 bd 3a 68 c9 bd
       -0.05290188 0.063279554 -0.036570188 -0.09834333
0003c0 40 9a 4d 3c 2b 8b c3 3d 30 45 9c bc 4f 8b e6 3d
       0.012548983 0.095480286 -0.01907596 0.1125704
0003d0 40 ed 9c bc d8 3f f6 3c 14 b5 15 3d a6 12 a1 3b
       -0.019156098 0.03005974 0.036549643 0.004915553
0003e0 8c 41 da 3d be bb 83 bd c0 8b b1 bb 08 b4 7d 3d
       0.10657033 -0.06432293 -0.005418271 0.06193927
0003f0 a8 cf 50 3d 57 fc d4 bc 6c c0 ef bd 6b b4 34 3d
       0.050979286 -0.025999231 -0.117066234 0.044117372

dense2.bias f4 [64]
000000 9c ac 46 bd e9 54 6f 3d 18 3b a9 bd 62 41 ae 3c
       -0.048504457 0.058430586 -0.08263224 0.021271411
000010 8f e5 8c bc 80 dc ea bd d3 fa 88 3e ca 55 62 3d
       -0.017199306 -0.11467838 0.26753864 0.055257596
000020 99 1b a7 3d 36 94 bd 3d 24 ae 7b 3e 9e 18 4f 3d
       0.08159561 0.092567846 0.24578148 0.050560586
000030 b8 3d a1 bb ab 5b c9 3d 4b 70 c9 3d 1a 01 fa 3d
       -0.0049206875 0.098319374 0.09835871 0.12207241
000040 e2 37 2b 3e 08 00 d3 bd 60 89 d1 3d 69 c5 3c bd
       0.16720536 -0.1030274 0.1023128 -0.046086702
000050 06 75 42 bd c5 de a9 bc 0c a8 db 3c ce 38 90 3e
       -0.047474883 -0.020736108 0.02681353 0.2816834
000060 d2 2e 6c 3d 57 5f f6 3b a4 d5 74 3d 40 5c 62 3c
       0.05766184 0.0075186896 0.059774056 0.013815939
000070 77 f7 6b 3c 76 a9 e9 3c 57 71 bf 39 8f 71 03 be
       0.014402262 0.028523188 0.00036514804 -0.12836288
000080 78 1e e2 bd 39 c0 25 be b3 d0 96 3d 0d 85 a6 bd
       -0.11040968 -0.16186608 0.07364025 -0.08130846
000090 27 ff 16 be 89 38 7a 3e 91 f7 ad 3d 89 e9 0d 3e
       -0.1474577 0.24435629 0.08494485 0.13858618
0000a0 50 54 05 be ba 44 87 3e 1a cf b5 bd 23 b8 74 3e
       -0.13020444 0.26419622 -0.08877392 0.23898368
0000b0 5c 29 32 bd 3c 1c 84 3d 91 17 df 3d b5 c4 3b 3d
       -0.043496475 0.06450698 0.10893167 0.04584189
0000c0 7e d1 de bd e1 01 bd bc c8 89 9f 3e e9 f9 1e be
       -0.10879801 -0.023072185 0.31159806 -0.1552502
0000d0 39 21 60 3d d0 65 de bc e6 fa 1a be bc 0f 17 3d
       0.054719184 -0.027148157 -0.15134773 0.03688024
0000e0 e2 68 ae bd 18 e3 22 be 10 f4 29 3d b0 39 c3 3c
       -0.085160986 -0.15906942 0.04149252 0.023831218
0000f0 3e 50 52 3d c3 a4 02 3e 1a 19 5e 3e e3 38 08 3d
       0.051346056 0.12758164 0.21689263 0.033257376

dense3.weight f4 [4, 64]
000000 86 74 bf bd 90 8c 9e bd 9f 12 98 3d 68 d6 01 3d
       -0.09348397 -0.07741654 0.07425427 0.031698614
000010 c7 41 dd 3c be dc 40 3d 1b 1d c5 bd 5a 07 f7 bd
       0.027008904 0.047085516 -0.09624692 -0.12061949
000020 b7 d1 4f be 2c a0 77 bd 12 2f b1 bd f9 32 7e 3d
       -0.20294844 -0.060455486 -0.08651556 0.06206033
000030 39 e1 45 3d 08 d8 59 3d 40 0a fe bd b5 58 8b bd
       0.048310492 0.05318454 -0.12404299 -0.06804029
000040 33 89 52 bd 7c c2 60 3d 15 1c a1 bd 1a d8 f3 bd
       -0.051400375 0.054872975 -0.07866684 -0.119064525
000050 39 8c 5e ba cc 3f 5f bd ca 20 41 bd b8 0c b1 bd
       -0.0008489523 -0.0545042 -0.04715041 -0.08645004
000060 d0 d0 bb 3d bb f9 33 3d b4 20 ce 3d b0 f0 b4 3d
       0.09170687 0.043939333 0.100648314 0.0883497
000070 22 35 ad 3d 33 be b9 3d 03 12 f1 3c f2 21 fa 3c
       0.084574 0.09069481 0.029427534 0.030533765
000080 5d 56 37 bd dc 6b c0 3b 39 66 a0 3d 3f c6 7b bd
       -0.044760097 0.005872233 0.078319974 -0.06146836
000090 df d7 a6 3d 37 7c da bd 54 38 dd bd cb c4 47 be
       0.08146643 -0.10668223 -0.10801759 -0.19508664
0000a0 14 fe 67 3d 9c e6 35 be b1 66 8a 3d 11 38 60 bd
       0.056638792 -0.17763752 0.06757868 -0.05474097
0000b0 68 9e 99 3d ca 54 f7 bd 98 bd d1 3d 3d a0 6e bd
       0.07500917 -0.12076719 0.1024124 -0.058258284
0000c0 48 f4 3c bd c4 4f 36 bc ed 12 9b bd 4b 14 cd 3c
       -0.046131402 -0.011127416 -0.07571969 0.02503409
0000d0 0d ca 2c 3d 3e 28 bb bd a9 0f 43 3d 8b 4f 5c bd
       0.04218488 -0.09138535 0.047622357 -0.053786796
0000e0 5b 4b 03 bd 5d e5 a5 3d 84 d2 1d bd 2e 1c b4 bd
       -0.032054286 0.08100388 -0.03853084 -0.08794437
0000f0 d6 67 fe 3c e3 87 12 be 50 2b f8 bd a1 d4 92 3d
       0.031055372 -0.14309649 -0.12117636 0.07169462
000100 4c 0f c7 bc c6 71 fd bd 1f 86 dc bd 68 7a 8a 3d
       -0.024299286 -0.12375216 -0.10767769 0.067616284
000110 67 eb a5 bd 0e 62 3b bd cb b7 06 bd 48 cb b8 bc
       -0.0810154 -0.04574781 -0.032890122 -0.02255787
000120 a8 ae 6c be 38 ab 1f bd 45 9c 23 be 21 59 0e 3d
       -0.23113501 -0.038981646 -0.15977581 0.03475297
000130 9e 16 e8 3c 80 2b 45 3c d4 40 20 be fa 78 41 bd
       0.028331097 0.012034297 -0.1564973 -0.047234513
000140 f9 26 bc bd ea 5f 9c bd 7d 41 95 bd ad 38 ed bd
       -0.09187121 -0.07635482 -0.072878815 -0.11583076
000150 f2 d4 65 bd 6a 94 12 3d 0c dd 36 bd d1 5d e7 bd
       -0.056111284 0.03578607 -0.0446444 -0.11297191
000160 ec 4c 5a bd 82 62 77 bd 32 cb 96 3d c0 1a 6a bb
       -0.053296015 -0.06039668 0.07362975 -0.003572151
000170 e4 01 c0 bd 3c 3c 89 3d 0f 49 ac 3a 88 c6 c0 bd
       -0.093753606 0.06700942 0.0013144332 -0.09412867
000180 f9 30 e7 bd e5 e0 f8 bd 9f 5f 9e 3d 07 72 3b be
       -0.11288638 -0.1215227 0.07733082 -0.18305217
000190 08 42 c8 3d 23 a6 25 be 87 3c 05 be 58 86 30 be
       0.097782195 -0.16176657 -0.1301137 -0.17238748
0001a0 e4 07 2d bd 29 ce 31 be 78 e5 1b 3d 85 7d f8 bd
       -0.042243853 -0.173638 0.038060635 -0.12133316
0001b0 aa 4b 81 bd e0 44 49 3d 64 41 fd bc 93 c8 07 be
       -0.0631326 0.04913795 -0.03091497 -0.13260107
0001c0 50 d0 a4 bc c0 f2 d8 bd d6 b9 33 be d0 22 40 3c
       -0.020118862 -0.10593176 -0.1755136 0.01172705
0001d0 f8 ed 6f 3d e8 0f 9f 3d 41 a4 15 3b f0 a2 b1 bd
       0.058576554 0.07766706 0.0022833499 -0.08673656
0001e0 12 3b 8f bd ea 6e 04 3d 41 4f 84 3d a8 a0 cc bd
       -0.06993689 0.03233234 0.06460429 -0.0999158
0001f0 13 a1 ad 3d 2d 5f cb bd 33 73 5a be 7e 63 e2 bd
       0.08477988 -0.09930263 -0.21333008 -0.11054133
000200 2e ee 45 bd ec 0f 75 3d 36 31 48 3d 78 1b d2 3d
       -0.04832285 0.059829637 0.048875056 0.102591455
000210 9b 9d b6 3d 17 b4 1f 3d fa e0 47 bc c0 8b 3d 3b
       0.089167796 0.038990106 -0.012199635 0.0028922409
000220 9f c1 0a be 20 e7 f9 bc cc 9b 81 bd 2b 23 38 bb
       -0.13550423 -0.030505717 -0.06328544 -0.0028097134
000230 dc c4 fa 3c ac 56 40 bd 66 eb 00 bd 38 77 3e bd
       0.030611448 -0.046957657 -0.031474493 -0.046500415
000240 b1 40 2f bd b2 a0 ad bd a4 dd 22 3c fa d4 7e bd
       -0.042786304 -0.08477916 0.009940539 -0.06221483
000250 3f ab 5e bd 76 01 88 3d ca 56 93 3d 47 63 8e 3d
       -0.05436253 0.06640904 0.07194288 0.069525294
000260 ac 18 ec 3d 64 27 bd bd 80 6e 51 3d e8 94 96 bc
       0.11528143 -0.09236029 0.05113077 -0.01838155
000270 60 18 98 3c 8b bc e8 bc 45 4a a7 bd be 3b 16 bd
       0.01856631 -0.028410217 -0.08168463 -0.03667807
000280 16 9e d2 bd 1b c0 d4 3d a5 09 b8 bd d8 33 12 be
       -0.10284059 0.10388204 -0.089862145 -0.1427759
000290 55 cf 9a 3d bd f1 40 bd 65 31 a6 bd f8 de 85 bd
       0.07559077 -0.04710554 -0.0811489 -0.065366685
0002a0 40 b0 fa 3c 10 88 24 bd 20 60 01 3e 8b 5e 05 be
       0.03060162 -0.04016882 0.12634325 -0.13024347
0002b0 99 d4 a4 3b 6a ec d7 bd 71 63 c2 bb 4b 19 a5 bd
       0.0050302264 -0.10543139 -0.0059322645 -0.08061465
0002c0 6c d5 b2 3d 7f 80 9b bd 01 df c4 bd 68 4a af 3d
       0.08732113 -0.07592868 -0.09612847 0.08559114
0002d0 eb 5d 37 ba 1c f2 d3 3d e5 aa 25 3e 84 c7 96 3d
       -0.0006994891 0.10348913 0.16178472 0.07362273
0002e0 6e 55 7a 3c 9a 1e af bc 46 9c 50 bd d6 77 c8 bd
       0.015279157 -0.021376897 -0.050930284 -0.09788482
0002f0 63 86 2c bd bf d6 a3 bd 90 ca 4c bc 81 58 25 bd
       -0.04212035 -0.07999944 -0.012499467 -0.040367607
000300 85 eb ed 3d ad f4 63 bd 35 2b 1c be 0b d8 71 3c
       0.116171874 -0.055653263 -0.15250857 0.014760981
000310 f4 af fc 3c 04 67 83 bc 7e 22 34 be 45 f4 92 3d
       0.03084562 -0.016040333 -0.17591283 0.07175497
000320 35 ff 76 bb 80 9b ab bd d3 b6 2a be 45 eb 16 bd
       -0.0037688736 -0.08379269 -0.16671304 -0.036845464
000330 e8 b2 89 3c 83 1c 80 3c 38 f1 6f bc 54 af ba bc
       0.016808942 0.015638595 -0.014644913 -0.022788681
000340 ac 57 03 be f0 b2 27 3c 4d e4 06 be 7e 0a cf 3d
       -0.12826413 0.010235533 -0.13173027 0.10109423
000350 20 f9 47 bc 73 46 59 3d d4 1b 7a 3c 3e fd 06 be
       -0.012205392 0.0530457 0.015265424 -0.13182542
000360 e0 d0 2b 3d 59 8f 0d bc 8b a8 8c 3c 9c bd 09 3d
       0.041947246 -0.008640134 0.017170211 0.03362809
000370 08 55 b3 3c 85 37 5a 3d bc dd 08 bc 42 0f a8 3d
       0.021891132 0.053275604 -0.008353647 0.08206035
000380 ba 20 e0 3b 03 72 a7 bc bd 47 09 bd 12 ed 80 bc
       0.006839839 -0.020440107 -0.03351568 -0.015738044
000390 ab e3 f4 3d bc 8a 04 be 47 59 c5 bd e9 6a 95 bd
       0.11957487 -0.12943548 -0.09636169 -0.07295782
0003a0 ee a3 a6 bd 3c d4 31 be fe 74 be 3d 1b 10 30 be
       -0.08136736 -0.17366117 0.09299658 -0.17193644
0003b0 b8 7e 6b 3b fc de 9b bc 9c 91 b4 3a 90 fc 1a be
       0.0035933685 -0.019027226 0.0013776305 -0.15135407
0003c0 fc ba 24 bd 41 ac 39 3d 62 da 67 be a3 89 2e bc
       -0.040217385 0.04533029 -0.226419 -0.010652932
0003d0 7e 97 7d 3d 28 be 89 3d 86 e8 21 3d b3 0c 68 3d
       0.061912052 0.067257226 0.039528392 0.056652736
0003e0 2f cb 94 3d ea fc e0 3c e9 be c1 bd 00 e0 7b bc
       0.07265317 0.027464349 -0.09460241 -0.01537323
0003f0 1e 19 95 3d e8 de a4 bd 39 ab da bd 35 b1 f3 b9
       0.07280181 -0.080503285 -0.106771894 -0.000464806

dense3.bias f4 [4]
000000 5a 8b 7e bd c2 dc d5 bd 1c c3 1b bc 4d fe 87 be
       -0.062144615 -0.10442497 -0.009506967 -0.26561204
