Reinforcment_Learning_DQN/agent_output/weights/episode_116_weights.pt (torch, 21495 bytes, 6 tensors)

dense1.weight f4 [64, 5]
0.010707644 -0.21645032 0.21852222 -2.0748239 -1.9610174 0.14276163 0.056960203 -0.5188022
0.1609724 0.01811391 0.37026176 -0.35223126 -0.40895507 -0.15271762 0.24208975 -0.17769083
0.4035476 -0.2576789 0.97460747 -0.25781143 -0.24894562 0.07859802 -0.2790072 -0.25302148
0.41807365 0.35098985 -0.34161803 -0.24449511 -0.091459766 0.89963835 -0.27287588 0.5643563
-0.14292848 -0.32156983 -1.2659662 -0.24308567 0.11284238 -0.30942625 0.018941075 -0.01117596
-0.03731984 -0.13660195 -0.23960707 0.085775256 0.3837394 0.41302675 -0.40317374 -0.46913278
0.016434703 -0.10359157 -0.29842082 -0.37525427 0.32681003 -0.85309273 -1.2451334 0.107968844
-0.53826857 0.077897795 -0.1326687 0.20895469 -0.045050345 0.15559795 -0.26057816 1.0170617
0.18679498 0.12982309 -0.34519017 -0.25634617 -0.3856709 -0.3100477 0.34215525 -0.42883942
-0.050808426 -0.22921549 -0.59101033 -0.18667004 0.04179815 0.09050621 -1.4445616 -2.5618742
-0.16331202 -0.24012212 0.23375952 -0.7869042 -1.167812 0.3927284 -0.34304246 -0.4436082
-0.08191316 -0.026749566 0.18263318 0.16140385 -0.16247758 -0.4514941 0.86425954 0.30993706
-0.4427008 0.09158486 -1.7367955 -1.4042214 -0.14694038 -0.42034695 -0.22037071 0.21020007
-0.05344984 0.25951585 0.048284896 -0.39355487 -0.14037879 0.59021264 -0.45344162 0.28729314
0.19938627 1.9271576 1.9210833 0.00020632162 -0.33538732 0.3169975 -2.3348606 -1.7510736
-0.5636832 0.119455725 0.33231887 1.8865638 1.2396727 -0.3640235 -0.41041481 -0.054895103
0.03340748 0.40988022 0.33748123 -0.38677424 -0.32951856 0.45902714 0.61161065 -0.43128663
-0.44697422 -0.076223165 -0.29065385 -0.37622395 0.24420649 -0.49305758 0.2275983 -1.4989264
-2.2110517 0.30261207 -0.175498 -0.31430078 -0.110312544 -0.008945017 -0.3769735 0.13458383
-0.14627308 0.30833876 0.38640767 -0.12630485 0.09811477 0.038439184 -1.8733613 -1.9416841
-0.4183154 -0.2817872 0.042927455 0.20297861 -0.038559556 0.20598157 -0.25219122 -0.2350777
0.341132 -0.20097226 -0.41531622 -0.13701656 -0.19761074 -0.04972577 -0.4076615 -0.35836828
0.2953577 0.09312406 0.65930086 0.9699631 -0.22930264 -0.3161273 0.046544373 0.2609197
-0.4320491 -0.12878327 -0.47102442 0.30081874 -0.84588945 -1.2877585 0.33158362 -0.48031756
-0.21685281 0.6392748 -0.3192323 -0.16326079 0.21485305 0.022940164 -1.5437418 -1.2235112
-0.13142931 0.16117626 0.021187175 -2.0931888 -2.7510989 0.016998589 0.106105514 0.10756732
-1.3205295 -3.0451822 0.2414115 0.28332528 -0.23783115 -1.1822076 -1.7298412 0.20035626
0.28766683 -0.08771438 -0.8787983 -0.5856386 -0.3874598 -0.0015501215 0.31156123 1.2508854
0.94845587 0.25833225 -0.5292255 0.24981532 -1.4304435 -2.0625906 0.31698412 -0.35733703
0.0496035 -1.6976931 -2.6248317 0.2987732 0.14434086 -0.38734695 -0.55688334 1.1061926
-0.5108789 -0.1555786 0.19800065 0.41953456 0.38063484 -0.09951298 -0.047400434 0.1566513
-2.175385 -2.5938184 -0.44699815 -0.23734826 0.19339253 -0.07213314 -0.26912203 0.24149251
00000000: 1d6f 2f3c 27a5 5dbe 4ac4 5f3e eac9 04c0
00000010: 9e02 fbbf 1b30 123e 1a4f 693d 39d0 04bf
00000020: f3d5 243e 9f63 943c f392 bd3e a857 b4be
00000030: 8f62 d1be 0262 1cbe 60e6 773e 96f4 35be
00000040: cb9d ce3e 7dee 83be e07f 793f dcff 83be
00000050: 9aeb 7ebe 00f8 a03d 08da 8ebe 088c 81be
00000060: c00d d63e f1b4 b33e 8fe8 aebe ed5c 7abe
00000070: 424f bbbd b34e 663f 63b6 8bbe a879 103f
00000080: d85b 12be cda4 a4be 2e0b a2bf 73eb 78be
00000090: e819 e73d 1e6d 9ebe 502a 9b3c 601b 37bc
000000a0: b0dc 18bd 62e1 0bbe 8e5b 75be f0aa af3d
000000b0: 7e79 c43e 3e78 d33e ca6c cebe 2c32 f0be
000000c0: 12a2 863c d127 d4bd 9dca 98be 5421 c0be
000000d0: a553 a73e 4964 5abf 8860 9fbf c51e dd3d
000000e0: f8cb 09bf e188 9f3d 4eda 07be 38f8 553e
000000f0: b686 38bd 1255 1f3e 806a 85be 142f 823f
00000100: 2f47 3f3e 58f0 043e c4bc b0be ce3f 83be
00000110: a876 c5be 92be 9ebe f92e af3e d790 dbbe
00000120: 7f1c 50bd 77b7 6abe 744c 17bf 6e26 3fbe
00000130: 8934 2b3d 525b b93d 65e7 b8bf bff5 23c0
00000140: 443b 27be 93e2 75be a85e 6f3e 8e72 49bf
00000150: dd7a 95bf b213 c93e 43a3 afbe 9d20 e3be
00000160: 16c2 a7bd e821 dbbc 3104 3b3e 0d47 253e
00000170: 8660 26be 3c2a e7be 1d40 5d3f 12b0 9e3e
00000180: aea9 e2be d890 bb3d 514f debf 87bd b3bf
00000190: 8a77 16be b737 d7be dca8 61be b03e 573e
000001a0: 38ee 5abd 43df 843e 62c6 453d 0680 c9be
000001b0: 75bf 0fbe 2d18 173f 8029 e8be 1618 933e
000001c0: ea2b 4c3e 1aad f63f 0fe6 f53f 0a58 5839
000001d0: e3b7 abbe 7f4d a23e 5b6e 15c0 2e23 e0bf
000001e0: 8b4d 10bf 34a5 f43d b325 aa3e ec7a f13f
000001f0: 98ad 9e3f 4a61 babe e421 d2be b0d9 60bd
00000200: 48d6 083d d2db d13e 57ca ac3e 4607 c6be
00000210: a8b6 a8be 9b05 eb3e 8492 1c3f 9ad1 dcbe
00000220: ced9 e4be e41a 9cbd 95d0 94be 6da0 c0be
00000230: 4411 7a3e 0b72 fcbe 870f 693e d2dc bfbf
00000240: df81 0dc0 f8ef 9a3e bfb5 33be 08ec a0be
00000250: 8beb e1bd 1f8e 12bc ac02 c1be 58d0 093e
00000260: 9cc8 15be 94de 9d3e 3ad7 c53e 0f56 01be
00000270: 66f0 c83d 6872 1d3d 4eca efbf 1b89 f8bf
00000280: 702d d6be 6946 90be b3d4 2f3d a0d9 4f3e
00000290: a0f0 1dbd d5ec 523e 351f 81be 35b8 70be
000002a0: daa8 ae3e accb 4dbe 54a4 d4be 124e 0cbe
000002b0: 785a 4abe 40ad 4bbd 02b9 d0be 0c7c b7be
000002c0: 2039 973e d4b7 be3d f1c7 283f 804f 783f
000002d0: 50ce 6abe 70db a1be 50a5 3e3d 4497 853e
000002e0: 8a35 ddbe c3df 03be 1d2a f1be ea04 9a3e
000002f0: 368c 58bf 45d5 a4bf 54c5 a93e 2fec f5be
00000300: aa0e 5ebe 83a7 233f 6b72 a3be d62d 27be
00000310: 7002 5c3e 03ed bb3c 5599 c5bf 049c 9cbf
00000320: 6895 06be 640b 253e ba90 ad3c cef6 05c0
00000330: 0112 30c0 a040 8b3c d94d d93d 414c dc3d
00000340: 1c07 a9bf 44e4 42c0 9434 773e 0310 913e
00000350: 028a 73be 9452 97bf 706b ddbf 312a 4d3e
00000360: 1149 933e 99a3 b3bd edf8 60bf 69ec 15bf
00000370: 2261 c6be 722d cbba f484 9f3e 031d a03f
00000380: 01ce 723f 2044 843e 537b 07bf 96cf 7f3e
00000390: c618 b7bf 7c01 04c0 be4b a23e e1f4 b6be
000003a0: 0a2d 4b3d 024e d9bf 3efd 27c0 cdf8 983e
000003b0: 17ce 133e 5752 c6be e88f 0ebf b897 8d3f
000003c0: f6c8 02bf ff4f 1fbe afc0 4a3e 3ccd d63e
000003d0: 92e2 c23e 76cd cbbd f526 42bd 3369 203e
000003e0: 8239 0bc0 1f01 26c0 f1dc e4be 6c0b 73be
000003f0: b108 463e 8aba 93bd 5dca 89be d049 773e

dense1.bias f4 [64]
-0.014831729 -0.2650579 -0.37120107 0.27298194 0.12523293 -0.26320383 0.5702313 -0.29093763
0.08423066 -0.17913462 0.11798067 -0.28621322 -0.16094372 0.41421366 -0.039475497 0.7101007
0.23478204 0.28750497 -0.04771202 0.122696996 -0.36193094 0.023765197 -0.15762688 0.47694463
-0.43999746 0.29935598 -0.13345928 0.24864459 0.6138561 -0.30395946 0.04604426 0.5327296
-0.010991357 -0.1218116 -0.031143397 0.13795285 -0.15612864 -0.12728716 0.1792861 -0.22844434
-0.100649305 0.5022004 0.43095842 0.31514305 -0.287255 0.11932139 0.5669876 -0.051768254
0.18640876 0.48200879 0.3786999 0.49473163 0.27776182 0.6079506 -0.0010484735 0.14662895
0.78923047 -0.24173298 0.49404383 0.30428803 -0.23997211 -0.30387002 -0.2449454 0.23746173
00000000: c800 73bc abb5 87be 110e bebe 4ac4 8b3e
00000010: 103d 003e a7c2 86be aefa 113f c7f5 94be
00000020: 2081 ac3d 116f 37be d99f f13d 8a8a 92be
00000030: 6ece 24be d013 d43e 0fb1 21bd 29c9 353f
00000040: b46a 703e da33 933e ae6d 43bd 9048 fb3d
00000050: 034f b9be 3baf c23c f168 21be 1632 f43e
00000060: 5947 e1be 3045 993e 8da9 08be b09c 7e3e
00000070: ac25 1d3f 93a0 9bbe e898 3c3d f860 083f
00000080: 1815 34bc 5c78 f9bd 7020 ffbc 8343 0d3e
00000090: 30e0 1fbe 9157 02be c796 373e 50ed 69be
000000a0: 3921 cebd 3590 003f 95a6 dc3e 6e5a a13e
000000b0: 1613 93be c65e f43d 1926 113f f30a 54bd
000000c0: f0e1 3e3e dbc9 f63e f4e4 c13e 774d fd3e
000000d0: cc36 8e3e a7a2 1b3f ef6c 89ba e625 163e
000000e0: 020b 4a3f da88 77be 50f3 fc3e a4cb 9b3e
000000f0: 40bb 75be da94 9bbe f8d2 7abe 2b29 733e

dense2.weight f4 [64, 64]
-0.10077861 -0.06268776 0.005856417 -0.05118838 0.07068607 0.06503695 -0.08851568 0.107932374
0.012456834 -0.0511299 -0.060063675 -0.023511287 0.053697772 -0.07943772 -0.059402663 -0.10349723
0.07034725 -0.037271734 -0.056868836 0.009286531 -0.11005999 0.06202441 -0.07046308 0.031272918
-0.048486892 -0.11460887 -0.11334284 0.02377382 0.06797575 -0.074532926 0.012234166 0.11454798
-0.011579558 -0.09436995 0.117210105 -0.009025381 -0.11287756 0.067330875 -0.13639271 -0.112384446
-0.0012882805 -0.10913605 0.050630935 -0.07426641 -0.08222986 0.121396214 -0.074286565 0.014129218
-0.08413883 0.04870632 -0.10524153 -0.12572159 -0.035012826 0.018428788 0.06470115 0.04795446
-0.115633056 0.088786006 -0.036084123 -0.0018341243 -0.008861668 -0.11295283 -0.04469344 0.13010062
0.03749427 -0.21550031 -0.060053237 0.14541341 -0.08260164 -0.014161115 0.3504643 -0.0128382
0.035313413 -0.06741271 -0.16133665 -0.03071861 0.21499693 0.04197912 -0.0728308 0.04549716
-0.07466437 -0.1420137 -0.10078409 -0.14498764 -0.0020985454 -0.19310415 -0.04845147 -0.10113062
0.05786371 0.068053395 -0.14048953 0.097556874 -0.1372728 -0.029375594 -0.07270604 0.15386672
-0.109287545 -0.12774198 0.03869851 0.27114055 -0.0066328943 -0.06342299 0.021224229 0.041631788
0.17199233 0.06459466 -0.017232765 0.090176396 -0.010499786 -0.14100601 -0.14093128 -0.24828485
-0.034986038 0.0005338246 0.029609183 -0.14032629 0.046462625 0.055224515 -0.17390251 -0.19681576
0.11319447 0.04535736 0.12689282 -0.012174502 0.020106753 0.02476284 -0.085838765 0.254015
0.019930443 -0.2674381 0.020035457 -0.11790618 0.029409453 0.045035668 -0.15910757 -0.107387155
-0.12461218 -0.06257193 0.0050835893 0.039302178 0.026285034 0.011575371 0.05920394 -0.08886676
-0.19308269 0.036835108 -0.12606794 -0.054992024 0.12201591 -0.16778784 0.06092367 -0.07822285
-0.06813764 -0.10453756 -0.03242116 0.07391995 0.107992224 -0.0011905511 0.04804337 -0.05561702
0.10455662 0.04544645 -0.0419645 0.011968143 -0.055942446 -0.03915698 0.12485622 -0.16410965
-0.05519255 -0.1909603 -0.041709978 -0.124636486 -0.10713955 0.031417735 -0.0231929 -0.07087156
-0.039303333 -0.14651076 -0.0010872422 -0.065100744 0.07803024 -0.19889392 0.04410334 0.03364129
-0.118825346 0.08341074 -0.05040334 -0.10070373 -0.10759373 0.112990096 0.007018164 -0.11867443
-0.07670676 -0.059223756 0.05554972 -0.105935335 0.033511356 -0.07484422 0.053003084 -0.009199098
-0.11071916 -0.13351126 -0.072771885 -0.10710406 -0.08286909 0.07938875 -0.023192437 0.003616435
0.12466831 -0.13639644 -0.13168594 -0.023147836 0.002275899 -0.109980986 -0.11381498 -0.041790456
0.0139620025 -0.05841203 -0.09343744 -0.090995625 0.08700506 0.06521653 -0.10419612 0.08698335
0.011909008 0.015418477 -0.10803723 -0.011623971 -0.108908474 0.12223413 0.12458445 -0.017209854
-0.02434841 -0.028380938 -0.0841543 0.0077220155 -0.02903801 -0.021708481 0.01957769 0.019500125
0.04406658 -0.013691094 0.016549565 -0.06349215 0.06801325 -0.095926486 0.077497385 0.018865034
-0.08924802 -0.09333494 -0.019976325 -0.08047545 -0.06174286 -0.09483141 -0.0036075264 -0.087755345
00000000: 0465 cebd 7162 80bd 30e7 bf3b e8aa 51bd
00000010: dcc3 903d 1832 853d b547 b5bd a60b dd3d
00000020: c017 4c3c 966d 51bd 5405 76bd be9a c0bc
00000030: 32f2 5b3d 3eb0 a2bd 3550 73bd 5bf6 d3bd
00000040: 3812 903d 3faa 18bd 4cef 68bd 8926 183c
00000050: 2267 e1bd 4f0d 7e3d f34e 90bd 0818 003d
00000060: 319a 46bd 0eb8 eabd 4a20 e8bd 50c1 c23c
00000070: df36 8b3d b8a4 98bd d071 483c 2298 ea3d
00000080: 30b8 3dbc 0845 c1bd da0b f03d 31df 13bc
00000090: 5a2c e7bd c5e4 893d 88aa 0bbe d129 e6bd
000000a0: 85db a8ba b982 dfbd 6262 4f3d fd18 98bd
000000b0: 2168 a8bd 949e f83d 8e23 98bd 3c7e 673c
000000c0: fb50 acbd 4780 473d df88 d7bd 29bd 00be
000000d0: 9c69 0fbd f8f7 963c 0982 843d e56b 443d
000000e0: 06d1 ecbd 70d5 b53d f2cc 13bd 0067 f0ba
000000f0: 8830 11bc d053 e7bd 7810 37bd 1939 053e
00000100: 9793 193d 1dac 5cbe 62fa 75bd 41e7 143e
00000110: 0c2b a9bd 0504 68bc 0f70 b33e 5057 52bc
00000120: cca4 103d ad0f 8abd 6f35 25be 98a5 fbbc
00000130: 2828 5c3e 4cf2 2b3d 5128 95bd 3b5b 3a3d
00000140: a2e9 98bd 0a6c 11be e467 cebd a477 14be
00000150: c087 09bb 18bd 45be 0c75 46bd 921d cfbd
00000160: 7f02 6d3d 945f 8b3d 7ddc 0fbe e6cb c73d
00000170: 3e91 0cbe 16a5 f0bc e8e6 94bd 3d8f 1d3e
00000180: 26d2 dfbd cbce 02be 5482 1e3d efd2 8a3e
00000190: c058 d9bb eae3 81bd 6fde ad3c 1886 2a3d
000001a0: c21e 303e 354a 843d ba2b 8dbc 67ae b83d
000001b0: 4b07 2cbc e163 10be 4a50 10be 623e 7ebe
000001c0: 854d 0fbd 5df0 0b3a f58e f23c b2b1 0fbe
000001d0: 984f 3e3d 1a33 623d 8013 32be 128a 49be
000001e0: 81d2 e73d a4c8 393d 31f0 013e 9077 47bc
000001f0: ebb6 a43c 70db ca3c 3ccc afbd 410e 823e
00000200: 2b45 a33c a6ed 88be 6621 a43c cc78 f1bd
00000210: 18ec f03c 5277 383d 18ed 22be cced dbbd
00000220: ac34 ffbd b625 80bd 3d94 a63b 52fb 203d
00000230: b653 d73c a0a6 3d3c d57f 723d c7ff b5bd
00000240: 78b7 45be 69e0 163d f417 01be 513f 61bd
00000250: 7ae3 f93d 93d0 2bbe 198b 793d 4d33 a0bd
00000260: bf8b 8bbd ca17 d6bd 0dcc 04bd 5863 973d
00000270: 072b dd3d 440c 9cba 20c9 443d acce 63bd
00000280: c821 d63d 0f26 3a3d f8e2 2bbd 0816 443c
00000290: e823 65bd 1263 20bd 9eb4 ff3d 5c0c 28be
000002a0: 9511 62bd 198b 43be 15d8 2abd 6a41 ffbd
000002b0: fb6b dbbd e2af 003d 09ff bdbc 1c25 91bd
000002c0: 88fc 20bd eb06 16be cb81 8eba 8a53 85bd
000002d0: 52ce 9f3d d9aa 4bbe b4a5 343d 73cb 093d
000002e0: b45a f3bd 40d3 aa3d bc73 4ebd c23d cebd
000002f0: 1a5a dcbd 5a67 e73d a0f8 e53b 940b f3bd
00000300: 6f18 9dbd 9c94 72bd 1a88 633d a0f4 d8bd
00000310: 3443 093d ed47 99bd c319 593d d0b7 16bc
00000320: bac0 e2bd 2db7 08be 6d09 95bd 6059 dbbd
00000330: 45b7 a9bd 9296 a23d 11fe bdbc b601 6d3b
00000340: 1952 ff3d 82ab 0bbe aed8 06be 88a0 bdbc
00000350: 4027 153b b63d e1bd d417 e9bd 782c 2bbd
00000360: e2c0 643c 7441 6fbd 215c bfbd ea5b babd
00000370: b52f b23d 3e90 853d c664 d5bd 5424 b23d
00000380: 001e 433c c89d 7c3c a042 ddbd 7872 3ebc
00000390: 680b dfbd e355 fa3d 2226 ff3d aefb 8cbc
000003a0: 5176 c7bc 247f e8bc 1759 acbd f608 fd3b
000003b0: 1fe1 edbc fcd5 b1bc 6461 a03c babe 9f3c
000003c0: 287f 343d 9c50 60bc f492 873c 2c08 82bd
000003d0: 884a 8b3d 1b75 c4bd f3b6 9e3d d88a 9a3c
000003e0: aac7 b6bd 6426 bfbd 64a5 a3bc 50d0 a4bd
000003f0: 15e6 7cbd f836 c2bd 406c 6cbb 13b9 b3bd

dense2.bias f4 [64]
0.001989903 0.11935964 -0.11925687 -0.10096043 0.10113831 0.23497774 -0.10947737 0.05164088
0.47044447 0.04814425 0.16363873 0.077183254 -0.035442952 0.045786858 0.21847923 0.42408094
-0.053327832 0.045111276 0.39968887 0.08574976 -0.009877601 0.3682304 0.0820112 0.20957214
0.230495 0.56796354 -0.13595653 -0.06896092 0.01252564 -0.035183847 -0.051299654 -0.050703973
-0.03438254 -0.019944165 -0.0075046243 0.030450977 -0.009001906 0.3177675 -0.13824674 0.43422505
0.113013685 0.25941876 -0.0848145 -0.11589363 -0.053927362 0.040667713 -0.032096274 -0.019906873
0.41717952 0.08356118 -0.032643806 -0.13801554 -0.103007644 0.013561843 -0.14755628 -0.15267916
-0.07339464 0.03331109 0.06699382 -0.043756247 -0.15885788 -0.04089091 -0.14707741 -0.0036519638
00000000: 0869 023b d472 f43d f23c f4bd 58c4 cebd
00000010: 9a21 cf3d 019e 703e ac35 e0bd 6385 533d
00000020: 19de f03e e832 453d e990 273e 4112 9e3d
00000030: a12c 11bd 008b 3b3d 05b9 5f3e 2321 d93e
00000040: 496e 5abd 9ac6 383d 05a4 cc3e 929d af3d
00000050: a9d5 21bc b288 bc3e 7df5 a73d 149a 563e
00000060: e206 6c3e 0f66 113f 3038 0bbe 623b 8dbd
00000070: 5838 4d3c f01c 10bd 961f 52bd f8ae 4fbd
00000080: b5d4 0cbd f261 a3bc 5ae9 f5bb 5474 f93c
00000090: bb7c 13bc 6cb2 a23e 8e90 0dbe bf52 de3e
000000a0: b873 e73d 89d2 843e 39b3 adbd a459 edbd
000000b0: f0e2 5cbd 3093 263d 6277 03bd bd13 a3bc
000000c0: 8e98 d53e 2022 ab3d 83b5 05bd f253 0dbe
000000d0: acf5 d2bd 7e32 5e3c fe18 17be ed57 1cbe
000000e0: ee4f 96bd 3671 083d 0e34 893d c039 33bd
000000f0: a4ab 22be 3a7d 27bd 769b 16be c955 6fbb

dense3.weight f4 [4, 64]
0.101796724 -0.025192013 0.03163397 0.08094052 0.020460993 0.010579874 0.023132652 -0.09795792
-0.1505996 0.010060161 -0.24139342 -0.03667381 0.06021142 0.028494153 -0.2216968 -0.11072984
-0.072534665 -0.0425107 -0.21455806 -0.01845707 -0.06739685 -0.12996444 -0.07937908 -0.055472888
-0.011954438 -0.18414359 0.096213356 -0.06172048 0.08646078 0.06615549 -0.088498525 -0.084786914
-0.05049273 0.0291318 -0.15241255 0.058492243 -0.09766049 -0.047743477 0.093563005 -0.18678144
-0.12359426 -0.12456051 0.097677425 0.074583784 -0.049812287 -0.058024455 -0.013459148 -0.018629288
-0.115514316 0.118454754 -0.2073649 -0.11901218 0.042281687 0.027055182 0.15969539 -0.060902923
0.029903412 0.045528874 -0.046593487 -0.06599644 0.005423076 -0.013024479 -0.110448554 -0.04506305
0.10768115 -0.14944737 -0.012281344 -0.00272174 -0.01252903 -0.2829745 -0.1186693 0.06571696
-0.07149813 0.07536664 -0.20608573 -0.009724461 -0.01635348 0.061325267 -0.31064254 -0.098376736
0.055789687 0.015805071 -0.03134033 0.077102214 -0.12578388 -0.13102953 -0.058095872 -0.10636312
-0.1900086 -0.1738955 -0.009982435 -0.103574425 -0.068079405 -0.19549477 -0.043640766 -0.08646278
-0.07451336 -0.051543944 -0.05855936 -0.02124307 0.16044445 -0.10872781 -0.026681816 -0.03960327
0.14481099 -0.009046497 -0.034834597 0.047854774 -0.019286722 0.07242669 -0.04598203 -0.06592412
-0.0077338405 -0.0010987818 -0.06422806 -0.053807758 0.03690697 0.06296448 -0.027782356 -0.11531387
-0.087712646 0.00921433 -0.054702878 0.03577563 0.004722476 0.08170299 -0.10495801 -0.022150323
-0.011843971 -0.07925058 0.041532487 0.06950251 0.059202228 -0.0046402207 -0.034513026 -0.038714696
-0.15031736 -0.10005725 0.08310085 0.022887776 -0.0053084427 -0.04734783 0.110081 -0.038728256
0.032751583 0.030689871 -0.18979925 -0.026429474 -0.055477418 -0.08795715 0.123602286 -0.0075690495
-0.07492048 -0.07451499 0.10016996 0.02969924 0.089842096 -0.033762272 -0.015479219 -0.029310906
-0.031777233 0.108818084 0.12393547 -0.07983184 0.058902614 -0.113435924 0.09029739 -0.050727382
-0.14801916 -0.13822961 0.03276986 -0.100043565 0.049723063 -0.22301868 0.033610854 -0.011711702
-0.096120656 -0.079647005 -0.09705215 -0.053986624 -0.0017814236 -0.05742113 -0.0050353175 -0.10391395
-0.030971577 0.033687886 -0.12222277 0.0072075427 -0.0676742 -0.061775986 0.04069671 -0.042401545
0.11889532 -0.111230515 0.10133259 0.031102557 -0.06617737 -0.06661855 0.040746897 0.028748726
-0.24209961 0.014537616 -0.10846992 0.05209267 -0.0051338226 0.03831339 -0.2499621 -0.1361227
-0.08237165 -0.0034843418 -0.1905293 0.023241505 -0.0019361979 -0.16505384 -0.029637858 -0.18114296
-0.07872607 -0.22375044 -0.044098258 -0.01789534 0.17643343 -0.018016342 -0.022687161 0.0063919183
-0.067033015 -0.03883952 -0.057939693 0.030309215 0.08750345 -0.21780472 0.15753855 -0.21571751
-0.16723302 -0.1127744 -0.1004647 -0.030875877 -0.03965728 -0.11134304 0.08040398 -0.122497365
-0.17252931 0.093571514 -0.27504382 0.04360284 -0.06279472 -0.06936782 -0.057449196 0.090080604
0.034213006 0.04949185 0.09944938 -0.0039269924 0.0063487464 -0.012225135 -0.06111631 -0.027395368
00000000: cd7a d03d 7b5f cebc 9f92 013d 25c4 a53d
00000010: d09d a73c 3557 2d3c b080 bd3c 299e c8bd
00000020: c836 1abe 60d3 243c d62f 77be 4737 16bd
00000030: 40a0 763d 926c e93c 7c04 63be 54c6 e2bd
00000040: 0e8d 94bd b31f 2ebd 1cb5 5bbe 4833 97bc
00000050: 5c07 8abd 6615 05be 8091 a2bd 8a37 63bd
00000060: 8cdc 43bc 2390 3cbe 820b c53d 9dce 7cbd
00000070: 5912 b13d 887c 873d b73e b5bd c3a4 adbd
00000080: 77d1 4ebd d0a5 ee3c 0912 1cbe 9095 6f3d
00000090: 3902 c8bd aa8e 43bd f69d bf3d a243 3fbe
000000a0: fd1e fdbd 9519 ffbd 1a0b c83d 62bf 983d
000000b0: f807 4cbd 0dab 6dbd c283 5cbc 739c 98bc
000000c0: c592 ecbd 6898 f23d 7757 54be a8bc f3bd
000000d0: 902f 2d3d d4a2 dd3c 3087 233e 5875 79bd
000000e0: 00f8 f43c 7c7c 3a3d d0d8 3ebd 2429 87bd
000000f0: 0fb4 b13b a064 55bc da32 e2bd 0894 38bd
00000100: ef87 dc3d bb08 19be b137 49bc 385f 32bb
00000110: 9046 4dbc 09e2 90be e408 f3bd 9d96 863d
00000120: 9d6d 92bd d359 9a3d 2308 53be 5853 1fbc
00000130: bcf7 85bc 3430 7b3d 8a0c 9fbe be79 c9bd
00000140: ba83 643d a379 813c b85e 00bd c4e7 9d3d
00000150: 7dcd 00be 9b2c 06be f0f5 6dbd e8d4 d9bd
00000160: 9d91 42be a911 32be 5e8d 23bc d41e d4bd
00000170: 376d 8bbd c82f 48be a9c0 32bd 6613 b1bd
00000180: 769a 98bd be1f 53bd f1db 6fbd f205 aebc
00000190: 8d4b 243e b0ac debd d393 dabc 0a37 22bd
000001a0: 5549 143e c237 14bc b9ae 0ebd 5e03 443d
000001b0: 30ff 9dbc 7254 943d a757 3cbd 3a03 87bd
000001c0: 286c fdbb 0005 90ba 008a 83bd 8665 5cbd
000001d0: c32b 173d 85f3 803d d397 e3bc ae29 ecbd
000001e0: b0a2 b3bd b4f7 163c 2010 60bd 7889 123d
000001f0: 00bf 9a3b e653 a73d 3af4 d6bd 9874 b5bc
00000200: 370d 42bc 214e a2bd f81d 2a3d 5557 8e3d
00000210: 097e 723d fe0c 98bb 885d 0dbd 4d93 1ebd
00000220: cbec 19be d1ea ccbd c730 aa3d 257f bb3c
00000230: 72f2 adbb ccef 41bd 2672 e13d 85a1 1ebd
00000240: 8626 063d 5369 fb3c bc5a 42be a082 d8bc
00000250: 4a3c 63bd e122 b4bd 3223 fd3d ca05 f8bb
00000260: e96f 99bd 519b 98bd e825 cd3d d24b f33c
00000270: 22ff b73d 4f4a 0abd 8d9c 7dbc 6d1d f0bc
00000280: d828 02bd 04dc de3d e1d1 fd3d e07e a3bd
00000290: de43 713d 1851 e8bd d7ed b83d 84c7 4fbd
000002a0: 5692 17be 108c 0dbe b039 063d a4e3 ccbd
000002b0: 69aa 4b3d 025f 64be 89ab 093d 70e2 3fbc
000002c0: e8da c4bd f81d a3bd 47c3 c6bd 1421 5dbd
000002d0: a87e e9ba 6b32 6bbd 4eff a4bb d6d0 d4bd
000002e0: 1bb8 fdbc 4ffc 093d ee4f fabd 402d ec3b
000002f0: c598 8abd d108 7dbd 98b1 263d 3ead 2dbd
00000300: 647f f33d d3cc e3bd 7687 cf3d caca fe3c
00000310: 0088 87bd 4e6f 88bd 38e6 263d 7382 eb3c
00000320: f6e8 77be 2e2f 6e3c 7a25 debd 205f 553d
00000330: a039 a8bb 80ee 1c3d 11f6 7fbe c063 0bbe
00000340: 78b2 a8bd 8e59 64bb 1d1a 43be f864 be3c
00000350: 05c8 fdba e003 29be 18cb f2bc 8a7d 39be
00000360: 223b a1bd d61e 65be 60a0 34bd 4099 92bc
00000370: f7aa 343e 0297 93bc 6dda b9bc 4c73 d13b
00000380: 9b48 89bd 3016 1fbd 2c52 6dbd 084b f83c
00000390: 0235 b33d 3308 5fbe c951 213e 0de5 5cbe
000003a0: 223f 2bbe 44f6 e6bd 70c0 cdbd 68ef fcbc
000003b0: ac6f 22bd d207 e4bd d8aa a43d e6df fabd
000003c0: 86ab 30be 6ca2 bf3d 8bd2 8cbe e498 323d
000003d0: 859a 80bd b710 8ebd d94f 6bbd 2e7c b83d
000003e0: f022 0c3d f7b7 4a3d 1eac cb3d 00ae 80bb
000003f0: 2509 d03b ef4b 48bc 1955 7abd 406c e0bc

dense3.bias f4 [4]
-0.11914264 -0.09240952 -0.078530714 -0.18600549
00000000: 0e01 f4bd 3441 bdbd b6d4 a0bd 3978 3ebe
