Reinforcment_Learning_DQN/agent_output/weights/episode_25_weights.pt (torch, 22511 bytes, 6 tensors)

dense1.weight f4 [64, 5]
00000000: fa7d 11be 49c3 d2be 3bfd 503e 1622 823e
00000010: a445 afbd 64ee b7be f2d3 883e 44a5 3bbe
00000020: 0a90 c83e b80d cf3e d43a fbbc 76f4 ac3d
00000030: f1b3 95bc 6b35 873b df90 6cbe bc97 833e
00000040: 100e 4a3d 7ba9 cdbe e9b8 743e 7bc6 30be
00000050: 7af2 643e ec00 83be e24a 413e 7971 4c3e
00000060: 320b 2e3e 8dbe d4be 88a5 2f3e 586b abbd
00000070: f843 283e c3e1 87be 14e2 b0be 91b5 3abe
00000080: 904b 183d 4092 5dbe 3431 9c3e f1a8 953e
00000090: fbea d4bc db8e b2bd a503 d5be dba6 0e3e
000000a0: 485d ac3d 223a d8be ef53 b9be 8045 39be
000000b0: bcdd 87bd f7c2 2cbe fc7d f03e b42a 86be
000000c0: a45b 81be 80bd 5b3e a040 babd 207b 6c3d
000000d0: 741f e8bd 7289 c13e fee1 babe 9ebf be3d
000000e0: 14c3 49bd d103 483e 0ae3 db3e 24b9 a73d
000000f0: 50fa debe b2b6 983d 5bf5 ce3e b5ca a6bc
00000100: 02ba 3d3d 2e0b c5bd d003 483e 64ec 7c3e
00000110: 0d6d 10be ae79 033d cdcf 033e 1935 91bd
00000120: 84ed efbe 3b41 b4be 5c1c 56be d491 0cbe
00000130: 549c e33d c8b0 ad3e cbf0 da3e dab2 4abe
00000140: 8357 97be 6822 333e a0da 07be a838 9cbe
00000150: f4ba 173e b56f a93d f068 0b3e 8299 05be
00000160: a308 03bf d884 423e cb7c 05bd 923d 65be
00000170: 1531 a83e 2685 c63e de4b fcbe 00cd f8bb
00000180: c0b0 d13b 4084 e8bb e470 a4be fbad 66be
00000190: ac94 debd fc2e 2c3e 057c c3be 4b44 d63e
000001a0: 92b0 d3bd a7b0 8ebe d4af bdbe 3e8b 823e
000001b0: 6128 c9be e14f 7cbe ebdd 0b3e 59fd 30be
000001c0: b1b0 0a3e 34dc 373e 3a4c 9dbd e747 b63e
000001d0: cf47 b5be 5cec 68be be1c c1be 5b67 ea3d
000001e0: 6990 a53d 5191 543e 9fa3 133d 4ada 8abd
000001f0: f88d ce3e ff11 79be e8b2 69be 4c91 e8bd
00000200: 40f8 963b a01b a23e 90bb aabe 00f8 413a
00000210: c08f a8bc 409f 093e ccff 78be 8dc6 61be
00000220: 2311 82be 7c60 c13e a8bf 363e 2e76 623e
00000230: a927 6bbe 56b8 28be c058 0cbe c8c1 6c3e
00000240: 4047 df3b 4bc0 943e ae80 e739 bd96 5cbe
00000250: b349 f53d 821b 613e a587 cdbe da38 833e
00000260: dff9 3e3e 11dd 35be 1f58 c03e e8b5 2fbe
00000270: 48f6 acbe 30c1 8f3c 40bc 94be 06d4 b43e
00000280: ca05 78bd 9859 f3bd 0c07 963e 8ea6 c7be
00000290: 9a42 70be bd85 5fbe 5a94 963e 4e4b c13d
000002a0: 316b 9b3c ab4f fabe 5436 bb3e 1af0 7c3e
000002b0: 7228 7ebe 29f2 363e 4628 f03e 1c76 b4be
000002c0: 9a6d 573d 93de d73e d245 e33e 6a97 ddbe
000002d0: 64e8 27bc 9adf 4bbe 09e4 5b3e 18e6 183f
000002e0: c0d3 eabe 3d2f 163e 8d27 74bc 5048 2bbd
000002f0: e81a 613d c9e7 133f 19a1 aabe f14b aa3e
00000300: 0734 fd3d db8d ffbe 017c f83d ec97 8bbd
00000310: 4d2e 913e 9ae7 7b3e a727 b5be a286 9bbe
00000320: a3d6 c3be 6af5 c03e ff51 aa3e 9a0b a43d
00000330: 2ff8 5abe 1138 b1bd eea5 3d3e 3365 6dbd
00000340: ad01 a73e 883b 9dbd 37ca 973e 47cd 40be
00000350: df04 0dbe 3325 aabe 931b 2bbe 6e81 1d3d
00000360: 591e 5abc 81c4 5d3d 4a47 d93d a2b7 25bf
00000370: de3b 42be fe44 ab3e 6c31 223e adc1 753d
00000380: 64c9 a43d d638 7bbe 08d8 cc3d 44b1 27be
00000390: 94f1 b3bd 18c8 0cbd 30f5 22be c405 1e3e
000003a0: b086 bfbe c118 b2be f0ec 603d 25ba 203e
000003b0: 581c 0abe 4648 093e f1a2 cbbd c67e e73e
000003c0: a1ef b53d 365e 98be 3b0a 7c3e 76f2 e5bd
000003d0: 1d25 673d 18f1 133e 06c7 a1be 7574 b9bd
000003e0: 7407 e4bd 382c cb3e ddfc babe 44f8 a0be
000003f0: 7cef 32be 18a3 13bd ce9c 18be 7efa 033e
-0.14208212 -0.41164616 0.204091 0.2541663 -0.08558205 -0.35924065 0.267242 -0.18324763
0.39172393 0.40440154 -0.0306677 0.08445065 -0.01827428 0.004126241 -0.23102139 0.25701702
0.049329817 -0.40168366 0.23898663 -0.17263214 0.22358122 -0.2558664 0.18876222 0.19965161
0.16996458 -0.4155163 0.17152989 -0.083700836 0.16432178 -0.2653943 -0.34547484 -0.18233325
0.037181437 -0.21637821 0.3050629 0.29230455 -0.025990954 -0.08718654 -0.41604343 0.13930838
0.084162295 -0.42231852 -0.3619685 -0.18092918 -0.06634089 -0.16871248 0.46971118 -0.26204455
-0.2526523 0.21459007 -0.090943575 0.05773461 -0.11334124 0.37800175 -0.36500543 0.09313892
-0.049258307 0.19532706 0.42946655 0.0818961 -0.43550348 0.07456721 0.40421566 -0.02036033
0.04631997 -0.09621273 0.19532704 0.24699551 -0.141041 0.032098465 0.12872238 -0.07090206
-0.46860898 -0.35206017 -0.20909256 -0.13727504 0.111138016 0.33923936 0.42761835 -0.19794789
-0.29558954 0.17493594 -0.13266993 -0.30511975 0.1481741 0.082732596 0.13614249 -0.1304684
-0.51185054 0.18995988 -0.032589715 -0.22386768 0.32849947 0.3877346 -0.49276632 -0.0075927973
0.006399244 -0.0070958436 -0.3211738 -0.22527306 -0.10868201 0.16814798 -0.38180557 0.41848978
-0.103364125 -0.2786915 -0.3704821 0.25496858 -0.3928862 -0.24639846 0.13658874 -0.17284144
0.13543965 0.17955095 -0.07680555 0.35601732 -0.35406348 -0.22746414 -0.3771724 0.11445495
0.08084185 0.20758559 0.036044713 -0.067799166 0.4034269 -0.24323271 -0.22822154 -0.11355838
0.0046072304 0.316617 -0.33346224 0.00073993206 -0.020576358 0.13439655 -0.24316329 -0.22048397
-0.254037 0.37768924 0.17846549 0.22115394 -0.22964348 -0.16476569 -0.1370573 0.23120797
0.0068139136 0.29052958 0.00044155627 -0.21541877 0.11976948 0.2198315 -0.4014255 0.25629312
0.18650006 -0.17760111 0.3756723 -0.17159235 -0.33781648 0.017548174 -0.29049873 0.3531801
-0.060552396 -0.11882323 0.2930225 -0.3899426 -0.23462906 -0.21828361 0.29410058 0.09438191
0.018972011 -0.48888907 0.36564887 0.24700966 -0.24820116 0.17865814 0.46905726 -0.3524636
0.05259476 0.42161998 0.44389206 -0.43279582 -0.010248277 -0.19909516 0.21473707 0.59726095
-0.45864677 0.14666457 -0.014902008 -0.04181701 0.0549573 0.5777555 -0.33326033 0.33261064
0.12363439 -0.49912915 0.12133027 -0.06816086 0.28355637 0.24600068 -0.35381815 -0.30376154
-0.38249692 0.37687236 0.33265683 0.08010025 -0.21383737 -0.08653272 0.18520328 -0.05795784
0.32618466 -0.0767737 0.29646465 -0.18828307 -0.1377139 -0.33231506 -0.16709737 0.038453512
-0.0133128995 0.05414248 0.106093004 -0.64733326 -0.1896815 0.33451074 0.15839165 0.059999157
0.08046225 -0.245334 0.10002142 -0.16376215 -0.08786312 -0.03437051 -0.15913844 0.15431887
-0.37407446 -0.3478451 0.05491346 0.15696009 -0.13487375 0.13406476 -0.09943188 0.45213908
0.08883596 -0.29759377 0.24613278 -0.112278864 0.05643188 0.14447439 -0.31597155 -0.090554155
-0.11134234 0.39682174 -0.36521044 -0.31439412 -0.17474169 -0.03604421 -0.14903566 0.12888524

dense1.bias f4 [64]
00000000: d575 1a3e 0421 e43e 579a 993e 4ffd 49be
00000010: 9493 1e3d 98a9 9d3e 7df6 b43e a740 353e
00000020: a071 25be 9860 29be 1251 bd3e 4f37 dcbe
00000030: eedd 993e b6aa febe e0b5 8fbd c718 f53d
00000040: e601 55be f4e2 783c 75a6 47be 201e b5bc
00000050: 4963 37be 6956 eabe 5874 9dbe 442c 993d
00000060: a2b6 6dbe d869 da3d 52e4 983e 0bda a43e
00000070: cf8d d5be d8b5 dfbe 2a35 813e 8099 cd3e
00000080: fed7 48bd 8713 453e c86d 9abe e3b2 073c
00000090: 4acc b53e 7de3 cc3c e39a a73e 4dbc 16be
000000a0: 3e8a ddbe 4499 993e 6c21 e83d 761a eebe
000000b0: 0f09 bebe 7234 aa3e 3ace 31be ee85 77be
000000c0: 26b4 cfbe dc03 7db9 c69f ad3e a2f6 a83e
000000d0: 9899 623e dfb0 cb3e 67e1 08bf c860 4c3e
000000e0: 548a c13e c370 88bd dfbe dfbe 57bb 813e
000000f0: a907 c43d 4e15 7cbe db59 783e ca4d a73c
0.15084012 0.4455644 0.30000564 -0.19725536 0.03871496 0.30793452 0.35344306 0.17700444
-0.16156626 -0.16540754 0.36975914 -0.43010947 0.3005213 -0.49739617 -0.07017112 0.119676165
-0.20801505 0.015190829 -0.19497092 -0.022109091 -0.17908968 -0.4576905 -0.30752826 0.07479146
-0.232142 0.10664719 0.29861695 0.32197604 -0.41709754 -0.43693423 0.25235873 0.40156174
-0.04903411 0.1924573 -0.3016188 0.008282396 0.35507423 0.025010819 0.32735357 -0.14720269
-0.43269533 0.29999745 0.113345 -0.46504563 -0.37116286 0.33243138 -0.17363825 -0.24172184
-0.4056713 -0.00024129398 0.3391096 0.33000666 0.22128904 0.3978338 -0.53468937 0.19958794
0.37800848 -0.066621326 -0.4370031 0.2533824 0.095717736 -0.24617502 0.24253027 0.020422835

dense2.weight f4 [64, 64]
00000000: bb17 47be 5457 233d 05f7 5e3d d701 5cbd
00000010: 6c23 dd3b 80ec 0e3c 4894 dfbc 77fc 60bd
00000020: a0b1 a5bc 3c52 1fbc ba27 d6bd 36e5 803d
00000030: c333 a9bd e062 7f3d 8ebd e3bd d4fc aa3d
00000040: d05f 943c 61cb 7d3d a55f dc3d 000a 3a3d
00000050: b360 3dbd daa3 f93b dcaa f63d 8d5a eb3d
00000060: 11e1 e5bd 302e b63c 747d e6bd fe86 05bd
00000070: 3a1b e5bd 7f0d e3bd 12ac aa3c f695 9c3d
00000080: 3a84 7abd a344 a6bd 4f5c b3ba b66e e13d
00000090: 9445 0a3d b3af 883d 2ef4 e5bd 429c 3cbc
000000a0: 0906 9d3d 55e3 d1bc f0f7 30bb 653e d03c
000000b0: a15a 633d 2006 893b 9865 68bd c4d3 8d3c
000000c0: 4205 b93d 854d 92bd 6ac2 c2bd 2065 843b
000000d0: 508e f13c 45d8 ab3c 34f6 2f3c 0bde e0bd
000000e0: d862 f23c f4ba e13b 36ba 59bc 0310 3f3d
000000f0: 6564 df3c 27e1 2dbd ff88 a3bc d644 4fbd
00000100: 9d2f 7dbd dc4d b4bd ae7b cf3d feff b0bd
00000110: 7a85 013d 7a50 e9bd 705f 01bd efae 573c
00000120: a8a6 ce3d c93d 1ebd 7cd2 7d3d 6c43 fa3c
00000130: 04b2 14bd 8736 b63d cb2b f6bd bdc4 463d
00000140: 6057 c3bd 4ad9 71bd 2c2e dfbb f0f4 2dbd
00000150: c226 b23d f739 80bc b008 e53a 1ff0 a3bd
00000160: e5a1 8f3d 54e9 cbbd faf0 a73d b74d 9fbd
00000170: ccd7 d83d 9a59 14be 2f4c 56bd c86f 333d
00000180: 4bc8 ecbc 5b1b 5a3d a045 1bbe 5fd7 ce3c
00000190: 078c a63d 8a43 d4bd 5973 81bd c686 dfbd
000001a0: faab 67bd e0be efbd ca68 dbb9 3ea0 1a3d
000001b0: 09e8 933d 00c2 ba3b fa14 823d 3383 3dbd
000001c0: e534 9cbd 5452 eb3c d01c f83d 2eff 6a3d
000001d0: beb7 9bbd 0b99 d53c 3f86 853d b371 32bd
000001e0: a866 ecbc 795e 41bd b610 9a3d 7d8d 80bc
000001f0: 70ba 2ebd 289b 07be 8a4f 70bd cd15 08be
00000200: a659 863d 4864 f8bc 080f e53d 1ed6 a43a
00000210: 48ba adbc 8012 bf3b 7649 93bd feae a3bd
00000220: d0fe 0f3d bd69 9e3d deb6 bdbd 806b 01bd
00000230: 4082 13bd dc48 cc3d 57c3 b3bc 5d04 c5bd
00000240: b820 adbd 6a92 a43d 301f e1bd f0c4 b5bc
00000250: a566 14bd 545b 71bd e5a2 1fbb 368e a1bd
00000260: 6826 da3d 9cdd 9d3d fec9 babd d0f1 193d
00000270: 068b cf3d b95f 1d3d 980c d53c f4be 3ebd
00000280: 5c4f 833d 9d81 2f3d e77a cdbc 4466 983d
00000290: 9812 25bd a66f 1cbc 5a16 cebd c083 c93c
000002a0: e86f e7bd c354 40bd 07fd 5fbc 0878 01be
000002b0: 16b3 1dbc 1c2a c03d e0c8 acbb 2125 933c
000002c0: 1e07 8b3d 6033 ae3c d8ed b3bd 1c16 36bd
000002d0: 724d f1bd 7407 af3d e66e 543c aaa4 9dbd
000002e0: 2643 ddbd 6037 e8bc f6f9 05be f1e0 a43c
000002f0: 7457 afbd 9825 19bd 89e5 c9bd 7a13 a63d
00000300: da03 d6bd 1289 84bd e46f 303d 901c 7d3d
00000310: 6dc3 96bc 1622 c43d 0216 0bbd 005a 4c3d
00000320: 8666 84bd 2e81 2f3d c076 cb3d accc 883c
00000330: f88c 773c 40ba bc3d 95f4 e4bb a104 65bd
00000340: 6e14 a8bd 4511 0a3d a8b9 893c d019 543c
00000350: b020 983d 4b54 7e3d a601 e43b e969 003d
00000360: c502 c8bd 80bc bf3a c0ee 5f3d 5397 02be
00000370: 440e c7bd f8d4 283c d4e2 17bb 781f 573d
00000380: a9c1 0dbe 7d57 f6bd d58e 96bd 29ee 023d
00000390: 7cde 903d 1cd6 bebd d0d5 d0bc 1ccc 2e3d
000003a0: f9e1 d0bd 9f23 0dbd 5490 603d 8768 73bd
000003b0: cd84 943d d0da f5bc 8ad4 bc3d 5883 a33c
000003c0: 01a2 743d e07c 0dbe fc29 d83d 555f 603d
000003d0: c0b0 eebd 295d 933d 1c91 28bd 770a b13d
000003e0: aadd 833d ffd4 0cbe 8faa 0cbe e024 0dbe
000003f0: 4d46 72ba e30f 903d 38de c63c 188d 5aba
-0.19442646 0.039878204 0.054434795 -0.053712692 0.0067486074 0.008723378 -0.027292386 -0.05492827
-0.0202263 -0.009724196 -0.10456796 0.062937185 -0.08261826 0.062350154 -0.11120139 0.083490044
0.018112093 0.061961535 0.1076043 0.045419693 -0.046234798 0.0076184096 0.120443076 0.114918806
-0.11224569 0.02223882 -0.11254397 -0.03259944 -0.11186834 -0.110865586 0.020834003 0.0764579
-0.061161257 -0.0811856 -0.0013684126 0.110074446 0.03375776 0.06674137 -0.11228214 -0.011511864
0.07667167 -0.025621096 -0.002700325 0.025420377 0.055506352 0.0041816384 -0.056737512 0.017312892
0.09034206 -0.07143692 -0.09509738 0.0040403754 0.029486805 0.020977149 0.010739852 -0.10979851
0.029588148 0.0068887416 -0.013289025 0.04664613 0.027269552 -0.04245105 -0.019962786 -0.050602756
-0.061812986 -0.08803913 0.10131012 -0.08642577 0.031621434 -0.11392303 -0.031585157 0.013164266
0.10090381 -0.03863314 0.06196831 0.030549727 -0.03630258 0.08897119 -0.120200716 0.048527468
-0.0953815 -0.059045114 -0.006810924 -0.04246992 0.08698799 -0.01565264 0.0017473903 -0.08004784
0.07013301 -0.09956613 0.082002595 -0.07778495 0.10588035 -0.14487305 -0.052318748 0.043807775
-0.0289041 0.053248744 -0.15163279 0.025249181 0.08132177 -0.103644446 -0.06320829 -0.10914378
-0.056560494 -0.117063284 -0.0004184901 0.037750475 0.072219916 0.005699396 0.06351657 -0.0462677
-0.07627276 0.02872578 0.121148705 0.057372265 -0.076034054 0.026073953 0.06519746 -0.043565463
-0.028857544 -0.047209237 0.075227186 -0.015692467 -0.04265827 -0.13242781 -0.058669604 -0.13289566
0.06560068 -0.030321255 0.111845076 0.0012576019 -0.02120699 0.005831063 -0.07191746 -0.079923615
0.035155118 0.07735012 -0.09263395 -0.03159666 -0.036012888 0.09974834 -0.021943731 -0.09619973
-0.08453506 0.08035739 -0.10992277 -0.022188634 -0.036230702 -0.058924988 -0.0024358567 -0.07888453
0.10651857 0.07708284 -0.09120558 0.037584126 0.101339385 0.038421366 0.026006982 -0.046568826
0.06411621 0.04284822 -0.025083018 0.074413806 -0.040300936 -0.009548103 -0.10062857 0.024598956
-0.11300641 -0.046955835 -0.013671166 -0.12643445 -0.009625217 0.09383032 -0.0052729696 0.01796204
0.06788467 0.021264732 -0.087855995 -0.04445468 -0.1178235 0.085463434 0.012965893 -0.07697423
-0.10803823 -0.028346717 -0.13083634 0.020126792 -0.08561602 -0.037389368 -0.098582335 0.081091836
-0.104499534 -0.064714566 0.043075457 0.061794817 -0.018403733 0.09576814 -0.033956535 0.04989052
-0.06464867 0.042847805 0.09934759 0.016699158 0.015109293 0.09215212 -0.0069871643 -0.055912618
-0.08207022 0.033707876 0.01681216 0.012945607 0.0742811 0.062092107 0.0069582043 0.031351004
-0.09766153 0.0014628321 0.05467105 -0.12753038 -0.09719518 0.010304682 -0.0023175972 0.052520245
-0.13843407 -0.12028406 -0.07351462 0.03196541 0.070736855 -0.09318182 -0.025492579 0.042675123
-0.10199351 -0.0344578 0.054825142 -0.059425857 0.07251892 -0.030011564 0.09220226 0.01996009
0.05972481 -0.13817167 0.10554883 0.054778416 -0.11654806 0.07195503 -0.041154012 0.08644574
0.064387634 -0.13753127 -0.13736938 -0.13783598 -0.0009242043 0.0703428 0.024275884 -0.00083370646

dense2.bias f4 [64]
00000000: b4e2 f6bd da61 2b3d b2ad 9f3d 627d 27bd
00000010: 00d8 be3d 60d5 d7bc 71d4 403d 8f62 68bb
00000020: c480 ccba 2159 353c 49b9 adbd 2cb8 953d
00000030: c67c e53d 736d e5bc e49c d7b9 6bd5 2cbb
00000040: 828d 283d ef07 8bbd 3af2 453d 38ea 02bb
00000050: ee4a d83d 5cbd a03d 4dd5 8c3d 5d69 b93d
00000060: 168e 60bd bd77 e0bd 9cda c2bd dbe5 4ebd
00000070: d250 913d 06b9 c33d 9061 8abd 7079 663d
00000080: a4a5 893b 7184 a7bc 13d6 a3bd d010 95bc
00000090: 675d 233d 0979 693d 8868 9e3d b24a c23b
000000a0: 1a2c eebd 795f b53d 0765 0c3e 2133 ffbd
000000b0: fba8 fbbd 686f 983d b45f f53b a0bd f5bb
000000c0: e119 7f3d fe69 ebbd e38d 3d3d ef48 4abc
000000d0: 216f c1bc df7b c4bd 3574 9dbd 8fc9 babc
000000e0: 17aa 9c3a 4996 05bd c2a6 a83d b835 b9bd
000000f0: 7368 c8bd e4ef 343b f3f0 993d 0cba 073d
-0.12054959 0.041841365 0.077968016 -0.04089106 0.093185425 -0.026346862 0.0470776 -0.0035459136
-0.001560234 0.011068613 -0.08482606 0.073105186 0.11205439 -0.028006291 -0.00041124888 -0.0026372324
0.041150577 -0.067886226 0.04832671 -0.001997603 0.10561167 0.078486174 0.068766214 0.090532996
-0.054823004 -0.10960338 -0.09514353 -0.050512176 0.070954934 0.09556775 -0.0675689 0.056268156
0.004200654 -0.020448895 -0.07999816 -0.018196493 0.039883997 0.057000194 0.077347815 0.0059293145
-0.116295055 0.088561006 0.13710414 -0.12460924 -0.1228809 0.07443124 0.0074882153 -0.0074994117
0.06228054 -0.11494826 0.04627789 -0.01234649 -0.02361256 -0.09593939 -0.0768818 -0.022801189
0.0011952546 -0.032614026 0.082349315 -0.09043449 -0.09785547 0.0027608806 0.075166605 0.033136413

dense3.weight f4 [8, 64]
00000000: c488 443d aec4 b2bc 2873 e3bc 95c8 983d
00000010: 1e4d ae3d fa4b b63d c1af 7cbd 4e13 e73d
00000020: a73a 62bd 6152 5abc e5c6 37bd da9d e7bb
00000030: a832 ba3d 8939 a1bd 4041 a63c 5cb1 5ebd
00000040: 0bf0 963d df13 a8bd fb08 7dbd b9d9 c1bc
00000050: ec09 70bd 083b ebbd a1ce 69bc 3a67 e43c
00000060: c2d5 9ebd b108 a53d 5666 75bd 4d16 30bd
00000070: ee61 5ebd 0c68 a6bd 2295 8cbd 0745 9db9
00000080: dc14 d83d 5c0c b9bd ee57 e23b 8afd de3c
00000090: d800 023d 7a19 c73d 5f64 a5bd e840 ddbd
000000a0: 2ce5 fdbd 0c1e 4f3d fe4a 13bd a43c 4e3d
000000b0: 13d9 5bbd f7fe 04bd efd9 bd3c cee9 ed3d
000000c0: 7b23 9b3d 7836 683d 461c 6d3d 68af 5a3d
000000d0: f23b c6bd 0456 4b3d ecbe a2bd 37dc afbd
000000e0: 25db df3d 786c 9bbd 13e4 7dbd 4013 d13b
000000f0: 8b16 18be 1ea4 203d 0452 a6bc 1a31 8d3d
00000100: 81ab f4bd b827 903d 0082 e2ba 4633 59bd
00000110: 440d ffbd f24f 9bbd 6d0b b8bd e682 813c
00000120: f209 3b3d f828 a0bd 15d9 3f3d 1edf 55bd
00000130: b006 d83d baef 9bbc 449f 3cbd 7e80 e5bd
00000140: a1ad 54bd eb9d b7bd 47c6 e4bd 1591 55bd
00000150: c0e1 4bbc fb8a 433d 5642 ea3c 04db 513d
00000160: eaca 293d 36b3 c13d 9afe 8fbc 3180 c73d
00000170: 0889 0f3d 0f17 e8bd 57d7 0dbd 24ac a53d
00000180: 6ed6 cebc 4481 9c3d dafc 213d d865 a53d
00000190: c312 06bd 4c10 473d b2ed 473d 4889 06bd
000001a0: 50a7 7d3c 664f ac3d e06b 8abd cbcb 5bbd
000001b0: 2867 c3bd 1d83 8cbd 2a64 963b f861 d33d
000001c0: 5904 b93d 1093 6dbd 3b9b a4bd 7174 563d
000001d0: 7a3a 40ba 04bd dbbd 6e9c e6bc 91fa 24be
000001e0: 95fd 753d 65f5 29bc db37 92bd 8807 bf3c
000001f0: 2122 55bd 204a b7bd f5b4 d1bd b604 cf3d
00000200: 4e27 a73d 2eb0 2ebd ead6 963d af3d b63d
00000210: 54b6 02bd 8017 a3bd 33fe 623d 28ea 273c
00000220: 54e3 e03d 5539 37bd 171b 123d c6d5 aa3c
00000230: 485e e0bc f86d b0bd 68c3 a4bd c0d7 d43d
00000240: e831 a33d 244d 89bc a640 a1bd c7c1 f8bb
00000250: a814 7d3d abab ce3d 1ec1 143d 282b 223d
00000260: f3fa 02bd 11b5 803d 0a25 35bd c341 cb3d
00000270: c4cd c2bd e328 b6bd 7e8c 4c3d e9cf b63d
00000280: 2626 3f3c b706 40bd 5d15 45bd d636 143d
00000290: d72c 8dbd 0042 9abc d5bc 6abd 0bd9 bb3d
000002a0: 9a42 e03d 0825 96bd 8cdd b3bd efc7 efbd
000002b0: c986 7bbd 8f29 003e d6dc a53d e8b9 423d
000002c0: af31 9a3d 802d b23a 3784 863a 0795 0d3d
000002d0: 68a6 bebb e47d 70bd 9f88 413d 1fa0 45bc
000002e0: ef60 783d 6d06 3abd 1e35 4dbd 3023 4f3c
000002f0: 4b5a bcbd 61b9 fdbc 95d7 5cbd 7cfc 40bd
00000300: 38d6 7d3b df69 9c3c e4f5 373d 67ae c13c
00000310: 7ca6 43bd 5077 9f3d 79e6 ab3d dd7c d03d
00000320: c7cb 48bc 2853 dabd f04a 2dba 1692 d2bd
00000330: 0867 c6bc 2424 433d fea9 e93d e1af 85bb
00000340: ce36 ba3d 5d12 aabd d06e ddbd 9a11 943d
00000350: 9061 78bd bd87 d23c 88da 47bd a105 e63d
00000360: f100 96bd 90ce 143d 59e1 babd fd12 a13d
00000370: 51bf 1f3d 9c8e a13d b4f0 cbbd 8bb1 003d
00000380: 2e67 993d 6047 8ebb cfd5 953d f485 b53d
00000390: 875b ee3d 7812 11bd 54ee a03d 65c6 d03c
000003a0: 6cef ff3d 9971 393d 4d6a f5bd 0b68 293d
000003b0: 3e04 20bd ae60 a13d 6197 a6bd 26d1 b1bd
000003c0: d136 b73d 2052 e0bc a02c 443a 455c c13c
000003d0: 42f3 7e3d 361d 3abd 3eed fe3d 2d28 a73d
000003e0: b99e ba3d d546 ecbd bc99 f2bc 56de c23d
000003f0: e274 a4bd 4d76 93bd 8bb4 163b 18f3 ee3c
0.047981992 -0.0218223 -0.027764872 0.07460133 0.08510803 0.0890121 -0.06169105 0.11282979
-0.055231716 -0.013325305 -0.044867415 -0.007068378 0.09091693 -0.07872302 0.020294785 -0.05436836
0.07370003 -0.08206915 -0.061776143 -0.023663389 -0.058603212 -0.11485869 -0.014270456 0.027881254
-0.07755615 0.080582984 -0.05991205 -0.042990018 -0.05429261 -0.08125314 -0.06864382 -0.00029996803
0.105508536 -0.090355605 0.0069074547 0.027220506 0.031739086 0.09721656 -0.08075785 -0.108033955
-0.12397227 0.050565764 -0.03596019 0.0503508 -0.053673815 -0.032469716 0.023175208 0.1161686
0.07575127 0.05669257 0.05788829 0.053389937 -0.096794024 0.049642578 -0.07946572 -0.085869245
0.109304704 -0.07589048 -0.061985087 0.0063804686 -0.1485235 0.039219014 -0.02030278 0.06894131
-0.11946774 0.07038826 -0.0017281175 -0.053027414 -0.12453702 -0.07583608 -0.08986554 0.015809488
0.04566378 -0.07820314 0.046837885 -0.052214734 0.105481505 -0.019035209 -0.046050325 -0.112061486
-0.051923398 -0.08965667 -0.11170631 -0.052140314 -0.01244396 0.047739964 0.028596085 0.05123426
0.04145328 0.0945801 -0.017577458 0.097412474 0.035042793 -0.11332523 -0.034629192 0.08089474
-0.025248732 0.07641843 0.03954778 0.08076066 -0.032732736 0.048599526 0.04881067 -0.032845765
0.015481785 0.084135816 -0.06758857 -0.05366115 -0.0954116 -0.068609454 0.004589577 0.103214204
0.090340324 -0.058001578 -0.0803742 0.05235714 -0.00073329324 -0.10729411 -0.028150763 -0.16111208
0.060056288 -0.010373448 -0.0713956 0.02331902 -0.0520345 -0.08949685 -0.10239593 0.101083204
0.08161794 -0.042648487 0.0736521 0.08898484 -0.031912163 -0.07963467 0.055418205 0.010248698
0.109808594 -0.04473241 0.035670366 0.020853888 -0.027388707 -0.08614725 -0.08045083 0.103927135
0.07968503 -0.016760416 -0.07873659 -0.0075914594 0.061787277 0.10091337 0.036316983 0.03959194
-0.031977605 0.06284536 -0.044224776 0.099246524 -0.09511903 -0.08894517 0.04993867 0.089263745
0.01166681 -0.046881404 -0.048116077 0.036185108 -0.06893318 -0.0188303 -0.05730899 0.09172257
0.10950203 -0.07331282 -0.08782491 -0.11708056 -0.061407838 0.12515853 0.08098762 0.047540575
0.07529008 0.0013593882 0.0010262792 0.03456595 -0.005818177 -0.05871381 0.047249433 -0.012062102
0.060639318 -0.045416284 -0.050099485 0.012642667 -0.091969095 -0.030972185 -0.053916533 -0.047115788
0.003873242 0.019093452 0.044912234 0.023642732 -0.047766194 0.07786429 0.083935685 0.10180066
-0.012255616 -0.10660392 -0.0006610593 -0.1028177 -0.024219051 0.04764189 0.114093766 -0.0040798043
0.090924844 -0.08304284 -0.108121514 0.0722992 -0.060639918 0.02569949 -0.048792392 0.112315424
-0.07324398 0.036329806 -0.09125013 0.0786495 0.039000813 0.07888529 -0.0995802 0.03141932
0.07490383 -0.0043420047 0.073161714 0.0886344 0.11638551 -0.035418004 0.078579575 0.025485227
0.12496838 0.04527435 -0.11983166 0.04135899 -0.039066546 0.07879768 -0.08134342 -0.0868247
0.08946002 -0.02738291 0.0007483456 0.023603568 0.062243707 -0.045438014 0.12447594 0.0816196
0.09112305 -0.11536948 -0.029614322 0.095150635 -0.08030106 -0.072002985 0.0022995796 0.02916865

dense3.bias f4 [8]
00000000: 0327 fcbc 83c7 04be 3fba d43d a57b ebbd
00000010: f340 ecbc b7cc fabd 8eed 17bd 8daa 863c
-0.030780321 -0.12966733 0.10387086 -0.11498193 -0.028839564 -0.122460775 -0.037091784 0.016438747
