Reinforcment_Learning_DQN/agent_output/weights/episode_88_weights.pt (torch, 21487 bytes, 6 tensors)

dense1.weight f4 [64, 5]
0	0x3d5f9480	0.05458498
1	0xbe99d4b8	-0.30045104
2	0xbebe82c0	-0.3720913
3	0x3e8661b8	0.26246428
4	0xbe920c74	-0.28525126
5	0x3bcadfe9	0.006191243
6	0xbe8dc680	-0.27690506
7	0x3eabb981	0.33539966
8	0xbf0a5915	-0.5404218
9	0xbff0da61	-1.8816644
10	0xbe925ea5	-0.28587833
11	0xbe472e8a	-0.19451347
12	0x3ed365b5	0.41288534
13	0xbf1dc084	-0.6162188
14	0xbea403bd	-0.32034102
15	0xbeb6b548	-0.35685182
16	0xbed5937d	-0.41714087
17	0xbe03ce72	-0.12871721
18	0x3e70c414	0.23512298
19	0x3e9129e4	0.28352273
20	0x3c66287b	0.014047737
21	0x3dc21f49	0.094786234
22	0x3e04bc6b	0.12962501
23	0xbe927890	-0.28607607
24	0x3e31d912	0.17367962
25	0x3e4d8025	0.20068415
26	0xbdf5b770	-0.119978786
27	0xbcc7697b	-0.02434229
28	0xbe87f90c	-0.26557195
29	0xbf3a3030	-0.7272978
30	0xbe87cae1	-0.26521972
31	0xbe19693e	-0.14981553
32	0x3e75000d	0.239258
33	0xbe6c2dc5	-0.23064335
34	0x3be89822	0.007098214
35	0xbee46e5d	-0.4461545
36	0xbece09af	-0.40241763
37	0xbbcebb40	-0.006308943
38	0x3daaf4f0	0.08347499
39	0x3ee2f984	0.4433099
40	0xbef3c8dc	-0.4761418
41	0x3e2dd68e	0.16976377
42	0x3c83f739	0.016109096
43	0x3d9d5910	0.07683003
44	0xbebc00eb	-0.3671945
45	0x3eb06152	0.3444925
46	0xbeca9cdc	-0.395728
47	0xbe7e2985	-0.24820526
48	0x3e83e6e3	0.2576209
49	0xbe7cb233	-0.24677353
50	0x3e729f4f	0.23693584
51	0xbf118f2e	-0.568591
52	0x3ec62cd3	0.38706073
53	0xbf07c975	-0.53041774
54	0xbff5b93a	-1.9197152
55	0x3e1f6439	0.15565576
56	0xbe3ddd91	-0.18541552
57	0x3e28d9a3	0.16489272
58	0xbf4c47da	-0.79797137
59	0xbf9f9849	-1.2468349
60	0xbbdbfdec	-0.0067136195
61	0xbde28b41	-0.11061717
62	0x3eadf14b	0.33973154
63	0xbf2cee6d	-0.6755131
64	0xbf793e8f	-0.9736108
65	0x3e91b921	0.28461555
66	0xbea6e022	-0.32592875
67	0xbebc44ac	-0.36771142
68	0xbe80bf97	-0.2514617
69	0x3d859dfd	0.065242745
70	0xbd93a41f	-0.07209038
71	0xbeb837fd	-0.35980216
72	0x3ee41d1f	0.44553468
73	0xbf9a1268	-1.2036867
74	0xbf98d4f5	-1.1939989
75	0xbdae7097	-0.085175686
76	0xbe97b69c	-0.29631507
77	0x3eda6517	0.4265525
78	0xbf0489a0	-0.517725
79	0xbf6ac1da	-0.91702044
80	0x3ec5dee0	0.38646603
81	0xbedf222a	-0.43580753
82	0x3c91dda4	0.017805882
83	0xbcd115d4	-0.025523104
84	0xbf459627	-0.7718224
85	0xbedcea04	-0.4314729
86	0xbd831588	-0.06400591
87	0xbdf9a06c	-0.12188801
88	0xbe9138c8	-0.28363633
89	0x3db48398	0.08814162
90	0xbec855d4	-0.39127982
91	0xbe89bcfa	-0.2690199
92	0x3e7f0b07	0.2490655
93	0x3dc2e583	0.09516432
94	0xbee4a64f	-0.44658133
95	0xbed59d9f	-0.41721818
96	0x3e73d8cc	0.2381317
97	0xbda11c04	-0.07866672
98	0x3b6c9e00	0.0036104918
99	0xbe26a8aa	-0.16275278
100	0xbd91d88c	-0.07121381
101	0xbedb1edc	-0.4279698
102	0xbea46cd9	-0.32114294
103	0xbc2ae0e0	-0.010429591
104	0x3dcdc5b0	0.100474715
105	0x3e8dd32c	0.27700174
106	0xbe2fc76d	-0.17165919
107	0xbef9294e	-0.48664325
108	0xbd08d9b3	-0.03341074
109	0x3c0a1d58	0.008429848
110	0xbd7da578	-0.06192538
111	0xbe0f5152	-0.13995865
112	0xbc4199c0	-0.011816442
113	0x3ebb2f00	0.36559296
114	0xbe73fae2	-0.23826173
115	0xbe6c3ef8	-0.23070896
116	0xbd4fd0be	-0.05073618
117	0x3e8a522b	0.27015814
118	0xbeeced8c	-0.46274984
119	0xbf8a8e2b	-1.0824636
120	0xbda7fe7b	-0.08202835
121	0x3c4d29fa	0.012522215
122	0x3c35ff1f	0.011108189
123	0xbf1345ac	-0.57528186
124	0x3ebf3d0b	0.3735126
125	0xbdbe6b94	-0.09297863
126	0xbe4dc31c	-0.2009396
127	0x3de5b9f0	0.112171054
128	0xbe6e3779	-0.23263349
129	0x3dc76fe4	0.09738138
130	0x3e9350a2	0.28772455
131	0xbe5ddb07	-0.21665584
132	0xbe705ea5	-0.23473604
133	0x3ea2afc7	0.31774732
134	0xbb856bff	-0.004071712
135	0x3e95c324	0.29250443
136	0xbf183168	-0.5945039
137	0x3eaa843a	0.33304006
138	0xbfa9125e	-1.320873
139	0xbfcc64aa	-1.596822
140	0x3e89e820	0.2693491
141	0xbe9078b2	-0.28217083
142	0xbec54994	-0.38532698
143	0x3ebde207	0.37086508
144	0xbeb9022e	-0.36134475
145	0x3d686488	0.0567365
146	0xbe1c276b	-0.15249412
147	0x3cf4ae62	0.029868308
148	0x3f17656f	0.5913915
149	0x3d7d49dd	0.06183802
150	0x3c5d483e	0.013505993
151	0xbd2f5b18	-0.042811483
152	0xbd0804e6	-0.033207797
153	0xbcb5ab1f	-0.022176323
154	0xbdaee5a3	-0.085398935
155	0x3e38a7d0	0.18032765
156	0xbe105fb4	-0.14099008
157	0xbe8e2a7c	-0.27766788
158	0x3e5c57d8	0.21517885
159	0x3d85aa62	0.065266386
160	0x3e867b1b	0.26265797
161	0xbd81c193	-0.063357495
162	0xbf076377	-0.52886146
163	0xbdeae451	-0.11469329
164	0xbeb9e07c	-0.3630408
165	0xba70b4a7	-0.0009182193
166	0x3d7cd95a	0.06173072
167	0xbeed7fa0	-0.46386433
168	0xbe2728c7	-0.16324149
169	0xbef5884e	-0.47955555
170	0x3e8d30ac	0.27576196
171	0xbf08d657	-0.53452057
172	0x3e8b135f	0.27163216
173	0xbef6896a	-0.48151714
174	0xbfb2f533	-1.3981079
175	0x3e0b4b08	0.13602841
176	0x3ee150fe	0.44007105
177	0xbeb81c33	-0.35959014
178	0x3e8a0fd3	0.26965198
179	0x3f8fac43	1.1224445
180	0xbe836338	-0.25661635
181	0x3e55d1d9	0.20880832
182	0x3dc2d21b	0.09512731
183	0x3f0a4afc	0.5402067
184	0x3fa60547	1.297036
185	0x3e5a2999	0.21304931
186	0xbe753f93	-0.23950033
187	0x3e824eed	0.2545084
188	0xbef10c68	-0.47079778
189	0xbfa21eeb	-1.2665685
190	0xbebaede6	-0.36509627
191	0x3e901db9	0.28147677
192	0x3ebfcb83	0.37459955
193	0xbe49f384	-0.197218
194	0xbef45447	-0.4772055
195	0x3e878df4	0.2647549
196	0xbec111c1	-0.37708858
197	0x3d812dde	0.063075766
198	0xbe9e5cc5	-0.30930153
199	0xbf471368	-0.77763987
200	0x3d8bdd3e	0.06829308
201	0x3ee28692	0.44243294
202	0xbee402c1	-0.4453335
203	0x3efa6cb4	0.4891106
204	0x3f516720	0.8179798
205	0xbe39e71c	-0.18154567
206	0xbe050fd2	-0.12994316
207	0x3e8e3787	0.2777674
208	0xbf67a208	-0.90481615
209	0xbf827e9a	-1.0194886
210	0xbe4b0f33	-0.19830017
211	0xbca19150	-0.01972261
212	0xbeb39e7e	-0.35081857
213	0x3ebf300c	0.37341344
214	0x3ead7900	0.33881378
215	0xbcc37d90	-0.023863584
216	0xbe993d2a	-0.29929477
217	0xbe3fedae	-0.18743011
218	0x3cb14a90	0.021642
219	0xbe95cfd4	-0.29260123
220	0xbed8eda1	-0.42368796
221	0x3e2cc321	0.16871311
222	0x3e654d18	0.2239269
223	0xbdba3839	-0.09092755
224	0x3e974f77	0.29552814
225	0xbdc9fd83	-0.09862807
226	0x3e43e72b	0.19131152
227	0xbe384c7a	-0.17997923
228	0x3f14cda1	0.58126265
229	0x3eab3998	0.33442378
230	0xbec892cf	-0.39174506
231	0x3e87c228	0.26515317
232	0xbec4f1e5	-0.384658
233	0xbd609910	-0.05483347
234	0x3e8f48ae	0.27985138
235	0xbeff66a5	-0.49883
236	0x3e33f1c6	0.17572698
237	0x3e330f26	0.17486247
238	0x3f42e28d	0.7612694
239	0x3eb6f9c5	0.35737434
240	0x3e11ce52	0.14238861
241	0xbe7db35b	-0.2477545
242	0x3dd6d238	0.10489315
243	0xbeea0589	-0.45707348
244	0xbf63aee2	-0.88938725
245	0xbb478cc2	-0.0030448888
246	0x3c08075a	0.008302534
247	0xbd677cb7	-0.05651542
248	0xbe546724	-0.2074247
249	0xbe5e7581	-0.21724512
250	0xbd36ab43	-0.04459692
251	0xbca25803	-0.019817358
252	0x3dfa7e67	0.122311406
253	0xbe0b004b	-0.1357433
254	0xbf56567f	-0.8372573
255	0xbe66005a	-0.22461072

dense1.bias f4 [64]
0	0xbe13a5c4	-0.14418703
1	0x3f010521	0.5039845
2	0x3ee2158d	0.44157067
3	0x3e9422ac	0.28932703
4	0xbdebbc15	-0.11510483
5	0x3e969be6	0.29415816
6	0x3e6ebc3f	0.23313998
7	0x3e5758b8	0.21029937
8	0x3d6b6a70	0.057474554
9	0x3d06a70d	0.032874156
10	0x3ecaf8e6	0.3964302
11	0x3d398dbb	0.04530118
12	0xbec76d36	-0.3895051
13	0xbeb26c10	-0.3484807
14	0x3efa27fd	0.48858634
15	0x3c69756d	0.014249188
16	0x3e5c95eb	0.21541564
17	0x3e7e6e00	0.24846649
18	0xbeb4ca01	-0.35310367
19	0x3ecf7564	0.4051925
20	0xbdc08144	-0.093996555
21	0xbebdfdb6	-0.3710763
22	0x3d05eef8	0.0326986
23	0xbe23bc4f	-0.15989803
24	0xbe8dc393	-0.27688274
25	0x3b33cafb	0.0027434218
26	0x3d9d999e	0.07695316
27	0x3ebecc84	0.37265408
28	0xbdda2b7c	-0.10652825
29	0xbe57360a	-0.21016708
30	0xbec0a396	-0.37624806
31	0xbdd12f06	-0.10214047
32	0x3ce99a5d	0.028515989
33	0xbdce5f70	-0.10076797
34	0x3eda0bd8	0.4258716
35	0xbd4c364f	-0.04985648
36	0xbdce40a5	-0.10070924
37	0xbe9977f3	-0.29974326
38	0x3e16224f	0.14661525
39	0x3e8b904e	0.27258533
40	0x3e590ebb	0.21197025
41	0xbd2db634	-0.04241009
42	0x3d7ece90	0.062208712
43	0xbe79f963	-0.2441154
44	0xbd692941	-0.05692411
45	0xbe72e4d7	-0.23720108
46	0xbeded24c	-0.4351982
47	0xbe04130a	-0.12897888
48	0xbea5f5c8	-0.3241408
49	0xbe83995b	-0.25702938
50	0xbec70ea1	-0.38878348
51	0x3ed766ae	0.42070526
52	0x3cdc9870	0.026928157
53	0xbeae6eca	-0.340689
54	0xbd963d2d	-0.07335887
55	0xbeb0378e	-0.34417385
56	0xbecfbf9e	-0.4057588
57	0x3f028f75	0.5100015
58	0xbf061a59	-0.52383953
59	0x3e49c60b	0.19704454
60	0x3d63a525	0.055577416
61	0xbe0cc252	-0.13746002
62	0x3e2f8127	0.17139111
63	0xbe3c0d79	-0.18364514

dense2.weight f4 [64, 64]
0	0xbce65cf8	-0.028120503
1	0x3d8fd52a	0.0702308
2	0x3e017dae	0.12645599
3	0x3de92f0c	0.113859266
4	0xbe2155f2	-0.15755442
5	0xbd8b8fbf	-0.06814527
6	0x3ea08eac	0.3135885
7	0xbd5fac54	-0.054607704
8	0x3b17c64b	0.0023158963
9	0x3d447c7d	0.047970284
10	0x3dbdd530	0.09269178
11	0xbd00003e	-0.03125023
12	0x3c15c89c	0.009142067
13	0xbcf73d88	-0.030180708
14	0x3d9d513b	0.07681509
15	0x3e23f4c6	0.16011342
16	0xbcc2992a	-0.023754675
17	0xbdc6a564	-0.096995145
18	0x3eb5108f	0.35364196
19	0xbd49f3e0	-0.049304843
20	0x3da9778a	0.082747534
21	0x3d057eed	0.03259175
22	0x3d6452b8	0.05574295
23	0x3cf08a48	0.029362813
24	0xbdc231e3	-0.094821714
25	0x3daa6329	0.083196945
26	0xbdeab806	-0.11460881
27	0x3d70ccdd	0.058789123
28	0xbdea8984	-0.1145201
29	0x3df5b888	0.11998087
30	0x3dd2b843	0.102890514
31	0x3c916a6e	0.017750945
32	0xbdea6d06	-0.11446576
33	0xb98cb3b2	-0.00026836764
34	0x3dcb9fbe	0.09942578
35	0xbba894af	-0.0051446776
36	0xbbff2f0b	-0.0077875904
37	0xbb20cefe	-0.002453744
38	0xbe06945b	-0.1314253
39	0xbdb26b13	-0.08711829
40	0xbe4ed81c	-0.20199627
41	0x3e564c8f	0.20927642
42	0xbde720b8	-0.112855375
43	0x3c0041d0	0.007828191
44	0xbd6a0a81	-0.057138924
45	0x3dd8901e	0.10574363
46	0xbc230010	-0.009948745
47	0x3db61a6f	0.088917606
48	0xbe0a6bb8	-0.13517654
49	0x3d1aa8a9	0.037758503
50	0xbe26d012	-0.1629031
51	0xbd8bcd80	-0.068263054
52	0x3dc350d6	0.095369026
53	0xbc3a363d	-0.0113654705
54	0xbd6d6b2d	-0.05796354
55	0xbdb7fe6e	-0.089840755
56	0xbdf06dbe	-0.11739682
57	0xbd0f37d2	-0.034965344
58	0xbdc7e8c6	-0.09761195
59	0xbe6a64e0	-0.22890043
60	0xbd21b272	-0.03947682
61	0xbc89b14e	-0.016808178
62	0x3e9ed0b8	0.31018615
63	0x3ca6b63f	0.020350574
64	0x3c066f90	0.0082053095
65	0xbdcaf502	-0.09910013
66	0x3c7ab2b0	0.0153013915
67	0x3adee700	0.0017006099
68	0x3d86e35a	0.065863326
69	0xbe12d145	-0.14337642
70	0x3d5945bc	0.05304502
71	0xbd733234	-0.05937405
72	0xbd14a488	-0.03628972
73	0xbd0e89b9	-0.03479931
74	0x3d26f9c5	0.040765543
75	0xbd98fdf4	-0.07470313
76	0xbe0aa95c	-0.13541168
77	0x3d462434	0.04837437
78	0xbe531316	-0.2061275
79	0xbd3d3f1f	-0.046202775
80	0x3cfaebf4	0.03063009
81	0x3c3ef4c0	0.011655033
82	0x3dcfa10c	0.10138139
83	0x3c309120	0.010776788
84	0xbdbf8900	-0.093523026
85	0xbc8e13c5	-0.017343411
86	0xbc795c20	-0.015219718
87	0xbdf18734	-0.11793366
88	0xbd7324c5	-0.059361238
89	0xbd586fd0	-0.052841008
90	0xb8df24a4	-0.000106402935
91	0x3dd1ec4b	0.102501474
92	0xbd8942c4	-0.06702188
93	0xbd39dc27	-0.04537597
94	0xbdcf8440	-0.101326466
95	0xbcc8c7bc	-0.024509303
96	0xbe18d799	-0.14925994
97	0x3db050dd	0.086091734
98	0x3d5256ab	0.051352184
99	0xbc8751d2	-0.016518507
100	0x3c5c51cb	0.013447235
101	0x3c8ba85f	0.017048059
102	0xbdd22683	-0.10261252
103	0xbe074331	-0.13209225
104	0xbd1bf5f8	-0.03807637
105	0x3c22e9c0	0.009943426
106	0xbd1a4bb4	-0.037669852
107	0x3cd3c680	0.025851488
108	0xbd08db73	-0.033412408
109	0xbd32db66	-0.043666266
110	0xbdb4d5d6	-0.088298485
111	0x3ceb59f1	0.02872941
112	0xbd95b65e	-0.073101744
113	0xbcb0f562	-0.021601383
114	0x3d40e075	0.04708906
115	0x3d99a878	0.07502836
116	0xbd6fbae0	-0.058527827
117	0x3d89b6d0	0.06724322
118	0xbe016a5d	-0.1263823
119	0x3c819066	0.015815925
120	0x3df5c590	0.12000573
121	0xbe16465d	-0.14675279
122	0xbd488a26	-0.048959874
123	0xbcb99a8d	-0.022656703
124	0x3d84eda1	0.064906366
125	0x3d78b398	0.06071815
126	0xbe0110b2	-0.12604025
127	0x3d485ed1	0.04891855
128	0x3dc2df6a	0.09515269
129	0x3db3161a	0.0874445
130	0xbe13ba7e	-0.1442661
131	0xbd2fd824	-0.042930737
132	0xbd5b7bbc	-0.0535848
133	0xbd4ec56f	-0.050481256
134	0xbb886416	-0.004162322
135	0x3dd1ef4e	0.10250722
136	0xbcaf5897	-0.021404548
137	0x3db6178a	0.088912085
138	0xbe0c6768	-0.13711321
139	0xbe180c43	-0.14848427
140	0x3d7cbd7f	0.061704155
141	0x3d8f8e38	0.07009548
142	0xbda93929	-0.082628556
143	0xbd96cc5e	-0.07363199
144	0xbe1115cb	-0.1416847
145	0xbc004e10	-0.007831112
146	0x3d7696c4	0.060202375
147	0xbd4834a8	-0.048878342
148	0x3db6ff88	0.089354575
149	0xbdbfc36e	-0.09363447
150	0x3d82ea1c	0.06392309
151	0xbd3a53e1	-0.04549015
152	0xbdd931e9	-0.10605223
153	0x3da2f307	0.0795651
154	0xbc678540	-0.01413089
155	0x3dc90329	0.09815056
156	0x3d45ebe0	0.04832065
157	0xbe050d43	-0.1299334
158	0xbd76cc3a	-0.06025336
159	0x3c79fbe0	0.015257806
160	0x3c58ce65	0.013232802
161	0x3df01138	0.11722034
162	0x3d59886c	0.053108618
163	0xbdb9502e	-0.09048496
164	0x3d9c02ef	0.07617747
165	0xbc8273f0	-0.015924424
166	0xbe2002c6	-0.15626058
167	0x3dcb8fe4	0.09939554
168	0x3ce3cbd2	0.02780715
169	0x3d79b467	0.06096306
170	0xbdc33ed8	-0.09533471
171	0x3cf66e10	0.030081779
172	0x3d8fec4d	0.07027493
173	0xbdf03b0c	-0.11730012
174	0x3d91712a	0.071016625
175	0x3d5955cf	0.05306035
176	0xbdd9cb72	-0.10634507
177	0x3c5b0ac0	0.013369262
178	0x3cfbcbee	0.03073689
179	0xbd94ff46	-0.07275252
180	0x3df82500	0.12116432
181	0xbbde0360	-0.0067753047
182	0x3dacd477	0.08438962
183	0x3dc0a269	0.09405977
184	0x3dbfc992	0.09364618
185	0xbc7c6580	-0.015405059
186	0xbd09f67a	-0.033682324
187	0xbd064008	-0.03277591
188	0xbd3f8050	-0.046753228
189	0x3d49b436	0.04924413
190	0xbca281a4	-0.019837208
191	0x3d96b320	0.07358384
192	0x3d9480ba	0.07251115
193	0xbd755cf9	-0.05990312
194	0xbdd1a90d	-0.10237322
195	0xbd8e8338	-0.06958622
196	0x3cecdfe2	0.02891535
197	0xbd924712	-0.07142462
198	0x3da6d3c4	0.0814586
199	0xbd992cd2	-0.07479252
200	0x3d887544	0.06662992
201	0x3c3e2e43	0.011607709
202	0xbddda62c	-0.108227104
203	0xbe2fcbe9	-0.1716763
204	0xbe3ba2bd	-0.18323798
205	0x3d43bf08	0.047789603
206	0xbd0d62af	-0.03451794
207	0xbda32f65	-0.07968024
208	0xbe0632f5	-0.13105376
209	0x3de43362	0.11142613
210	0x3d582ddf	0.05277812
211	0xbd229108	-0.039689094
212	0x3db13500	0.08652687
213	0x3cf518ef	0.029919116
214	0x3c17e4c0	0.009270847
215	0xbe39761c	-0.18111461
216	0xbd8d6477	-0.06903928
217	0xbd94a3c6	-0.072578
218	0x3cf79126	0.03022058
219	0xbcb97760	-0.02263993
220	0x3c28869d	0.010286001
221	0x3d31ef52	0.043441124
222	0x3cb14b38	0.021642312
223	0xbd8d20ae	-0.06890999
224	0x3d055b60	0.032557845
225	0x3df2e6eb	0.1186045
226	0x3c09bd4f	0.008406951
227	0x3dbc7d82	0.09203626
228	0xbab980cf	-0.0014152768
229	0xbdeece65	-0.116604604
230	0x3cdeca19	0.027195977
231	0x3d9920b3	0.0747694
232	0xbd89a273	-0.06720438
233	0xbe25acf4	-0.16179258
234	0xbd9dcb68	-0.07704812
235	0xbd55d39c	-0.05220376
236	0xbdd46d7e	-0.103724465
237	0x3e8ffb98	0.28121638
238	0xbd31bfa0	-0.04339564
239	0xbd5c6830	-0.0538103
240	0xbce7567f	-0.028239487
241	0xbdbe5fab	-0.09295591
242	0xbd3b9ddd	-0.045804847
243	0x3cd6edf0	0.026236504
244	0x3da2fff6	0.07958977
245	0xbde61eac	-0.11236319
246	0x3d5aefe0	0.05345142
247	0x3cb732a4	0.022363015
248	0x3d880dba	0.06643243
249	0xbe4de7ae	-0.2010791
250	0x3e0e93e9	0.13923611
251	0x3e349ef7	0.17638765
252	0xbd352815	-0.04422768
253	0x3cce9487	0.025217308
254	0x3d1e6f69	0.038680468
255	0xbe49b5f6	-0.19698319

dense2.bias f4 [64]
0	0xbdb783d2	-0.089606896
1	0xbc685503	-0.014180425
2	0xbd8ef1fc	-0.069797486
3	0xbe0910d2	-0.13385323
4	0xbd1487ef	-0.03626245
5	0x3c6bf634	0.014401961
6	0xbe17e990	-0.14835191
7	0xbe1d223a	-0.15345088
8	0x3e8183b4	0.25295794
9	0x3e166af8	0.14689243
10	0xbd2c64f0	-0.04208845
11	0xbdaccb03	-0.08437159
12	0xbd966857	-0.0734412
13	0xbd80ea4f	-0.06294691
14	0xbde3ba28	-0.11119491
15	0x3d5c551c	0.053792104
16	0xbace9dd1	-0.0015763586
17	0x3c8d44fb	0.017244807
18	0x3dd8d7b8	0.1058802
19	0x3da46e8f	0.080289
20	0xbdfaf6a2	-0.12254073
21	0xbdd69b88	-0.10478884
22	0xbe27c7dc	-0.16384834
23	0x3d393532	0.045216747
24	0xbba596fa	-0.005053398
25	0xbe2691f4	-0.16266614
26	0xbe289af4	-0.1646536
27	0xbdb75d79	-0.08953375
28	0xbd344c8b	-0.04401831
29	0x3e410f4d	0.18853493
30	0x3dda91d2	0.10672344
31	0xbb8d1bb1	-0.0043062796
32	0xbd219774	-0.039451078
33	0x3d3d33a1	0.046191815
34	0xbd944f11	-0.07241643
35	0xbdc6c77b	-0.09706017
36	0x3dab8d71	0.08376587
37	0x3e3f0360	0.18653631
38	0xbc0de91e	-0.0086615365
39	0xbcb86e1f	-0.022513447
40	0xbce4c404	-0.027925499
41	0x3dc5553e	0.09635399
42	0xbcaca0a4	-0.021072693
43	0xbd2edb67	-0.042689707
44	0x3ca44144	0.020050652
45	0xbc4402df	-0.011963575
46	0xbcfb6f0e	-0.030692603
47	0x3c9dc5ea	0.019259412
48	0xbe52b265	-0.20575865
49	0x3e05531e	0.13019988
50	0xbd20cf1f	-0.039260026
51	0x3dd273a4	0.10275963
52	0x3da9a81e	0.08284019
53	0xbe2d7949	-0.16940798
54	0xbc2ac90c	-0.01042391
55	0x3b1a7c47	0.002357261
56	0x3e65966b	0.22420661
57	0x3b9ec801	0.0048456197
58	0x3da8f475	0.082497515
59	0x3e81e8c2	0.25372893
60	0x3df6a6e3	0.1204355
61	0x3e091276	0.13385949
62	0x3e023887	0.12716876
63	0x3db03926	0.0860465

dense3.weight f4 [4, 64]
0	0xbcf88d1b	-0.030340722
1	0xbd6758c4	-0.056481138
2	0xbd68ae13	-0.056806635
3	0xbd9ed6e3	-0.0775583
4	0x3d876c44	0.06612447
5	0xbd88cdab	-0.06679853
6	0x3d400c72	0.04688687
7	0x3d8c9454	0.06864229
8	0xbde00ab0	-0.109395385
9	0xbe1ec46b	-0.15504615
10	0xbb54b2fa	-0.003245531
11	0x3d93d1e1	0.072177656
12	0x3dd33b01	0.103139885
13	0xbd70af37	-0.058760848
14	0x3d03d204	0.03218271
15	0x3df4e289	0.11957271
16	0xbd185cc9	-0.03719786
17	0x3c579541	0.0131581435
18	0xbe29ff7e	-0.16601369
19	0xbe0596e4	-0.13045841
20	0xbcf6eec8	-0.030143157
21	0x3dab54a2	0.08365752
22	0xbdbeaaed	-0.09309945
23	0x3d6f88da	0.05848012
24	0xbb8130c8	-0.0039425828
25	0x3b0c1976	0.002137748
26	0x3c6784db	0.014130796
27	0x3d61dc0e	0.0551415
28	0x3cf16cc2	0.029470805
29	0xbdea2609	-0.11433036
30	0xbe020bdc	-0.12699836
31	0x3d03a92c	0.032143757
32	0xbdf4fe78	-0.119625986
33	0xbcd77e65	-0.026305387
34	0xbb435ea4	-0.002981105
35	0x3e289894	0.16464454
36	0xbdd83db7	-0.10558646
37	0xbe089d29	-0.13341202
38	0xbdd84d08	-0.105615675
39	0xbcba9ce4	-0.02277989
40	0xbd826f1c	-0.06368849
41	0x3cff5325	0.031167576
42	0x3dae15c9	0.08500249
43	0xbd03f382	-0.03221465
44	0xbe24da5f	-0.16098927
45	0xbd9f70e7	-0.07785206
46	0xbe05179e	-0.1299729
47	0x3db0ea84	0.0863848
48	0x3d380cba	0.044934012
49	0x3de8a597	0.11359709
50	0x3d5ef84e	0.05443602
51	0x3db3b9c5	0.08775667
52	0xbd3ac609	-0.045599017
53	0x3ca3eec9	0.020011323
54	0x3d376910	0.04477793
55	0xbdb448bb	-0.08802935
56	0x3e1e62f4	0.15467435
57	0xbd7616f3	-0.06008048
58	0xbd9ccf28	-0.076566994
59	0xbde01deb	-0.109432064
60	0xbd95a315	-0.07306496
61	0x3e3f00e3	0.18652682
62	0x3e20831c	0.15675014
63	0xbd795e46	-0.06088092
64	0xbda4ebc6	-0.08052783
65	0x3d76eff0	0.060287416
66	0xbd7a8a10	-0.061166823
67	0xbda91ed2	-0.08257832
68	0xbd7d2cf8	-0.061810464
69	0xbd28adaa	-0.041181244
70	0x3d5c28e3	0.05374993
71	0x3cc65508	0.024210468
72	0xbdd783ea	-0.105232075
73	0xbe4cd4db	-0.20003073
74	0x3cd15980	0.025555372
75	0xbd784438	-0.060611933
76	0x3dbfecc6	0.09371333
77	0x3da9eeb5	0.08297483
78	0xbaf57bb4	-0.0018728883
79	0x3e073634	0.1320427
80	0x3d952267	0.07281952
81	0x3d99822f	0.07495534
82	0xbe0990ba	-0.13434115
83	0xbcc2bfc8	-0.023773089
84	0xbd2e4203	-0.042543422
85	0xbdf4457d	-0.11927316
86	0xbcc60c9e	-0.024175938
87	0xbbea3464	-0.0071473587
88	0xbe33b511	-0.1754954
89	0xbc139c88	-0.009009488
90	0x3c9eedf0	0.019400567
91	0x3de7fdf2	0.11327733
92	0x3d2c9daf	0.042142566
93	0xbe157326	-0.14594707
94	0xbe1e88ff	-0.15481947
95	0xbdec63da	-0.11542483
96	0xbda96748	-0.082716525
97	0xbd9e1a6c	-0.07719883
98	0xbda3d624	-0.079998285
99	0x3e1aa37c	0.15101427
100	0xbe3d67b9	-0.18496598
101	0xbe5d4f0b	-0.21612184
102	0x3d4fd850	0.0507434
103	0x3dad468c	0.084607214
104	0x3e1472a1	0.14496852
105	0xbd9678aa	-0.073472336
106	0x3d57f165	0.052720446
107	0xbd87721e	-0.06613563
108	0xbd3333b3	-0.043750476
109	0x3d412209	0.0471516
110	0xbd0f73c4	-0.035022512
111	0xbdc997bc	-0.09843394
112	0xbc1125db	-0.008859123
113	0x3e08e3d7	0.13368164
114	0xbdd0b802	-0.10191347
115	0x3ce2f59e	0.02770501
116	0xbc868510	-0.016420871
117	0xbd9152bf	-0.07095861
118	0x3d9eca0f	0.07753383
119	0x3cef378e	0.029201295
120	0x3ded8b61	0.1159885
121	0x3bc35dde	0.0059621176
122	0x3dd12cfc	0.10213658
123	0xbd830502	-0.063974395
124	0xbd341486	-0.043964885
125	0x3e0a1b5f	0.13487004
126	0x3e1714f9	0.14754094
127	0x3b5f1bbc	0.003404363
128	0xbe168679	-0.14699735
129	0x3d8bf9dd	0.06834767
130	0xbca5c649	-0.020236151
131	0xbd441bd7	-0.047878113
132	0x3cb0d152	0.021584187
133	0x3db9f42d	0.09079776
134	0xbd820499	-0.06348533
135	0x3d28b815	0.04119118
136	0xbce9c1b8	-0.028534755
137	0xbd1016f8	-0.035178155
138	0x3c7395f1	0.014867292
139	0xba4a17f8	-0.000770926
140	0x3cc1c9e4	0.02365584
141	0x3dce6b04	0.10079005
142	0x3cf90ca9	0.030401545
143	0x3e197f48	0.1498996
144	0x3d45eaa2	0.048319466
145	0xbd4ba691	-0.049719397
146	0xbe0215c4	-0.12703615
147	0xbce7de7a	-0.028304327
148	0xbdb09659	-0.086224265
149	0x3d8e1e4d	0.06939373
150	0x3ccb9862	0.024852935
151	0x3c847cc0	0.016172767
152	0xbe5e3c0d	-0.21702595
153	0x3c348746	0.01101858
154	0x3cc0c66f	0.02353212
155	0x3d543a0c	0.05181317
156	0x3dec6877	0.115433626
157	0xbd2dae7d	-0.042402733
158	0xbd989c47	-0.074516825
159	0x3d5df575	0.054189164
160	0xbc027d18	-0.007964395
161	0x3de2b729	0.11070091
162	0xbc61bcfa	-0.013777966
163	0x3da3fedd	0.08007596
164	0xbd1e82b9	-0.038698886
165	0xbd28dabc	-0.041224226
166	0xbd9c5824	-0.07633999
167	0x3d51b454	0.051197365
168	0x3d5c001b	0.053711038
169	0xbd667042	-0.0562594
170	0x3d9c0438	0.07617992
171	0xbc79a4f0	-0.015237078
172	0xbdfd76e0	-0.12376189
173	0x3d0cc4b7	0.03436729
174	0x3d968fb0	0.07351625
175	0x3d41790b	0.047234576
176	0x3d3b7b57	0.045771923
177	0x3e1d7799	0.15377654
178	0x3d1ed1e2	0.03877438
179	0xbd85695f	-0.065142386
180	0xbdde0398	-0.10840529
181	0x3d645b9f	0.05575144
182	0xbd3e33cf	-0.046436127
183	0xbd12f0b1	-0.035874072
184	0x3e3aade6	0.182304
185	0x3d29e283	0.041475784
186	0xbc7c802f	-0.015411421
187	0xbd33ed4d	-0.04392748
188	0xbd7a12bb	-0.06105302
189	0xbdac002a	-0.08398469
190	0x3e261b1a	0.16221276
191	0x3c60ace7	0.013713098
192	0x3b563e23	0.0032690845
193	0x3caab086	0.020836126
194	0xbce4c1a6	-0.02792437
195	0xbda6e904	-0.08149913
196	0x3dc20656	0.09473865
197	0x3db0d527	0.086344056
198	0x3d19a701	0.037512783
199	0xbdbbb5b8	-0.091655195
200	0xbe1550fc	-0.14581674
201	0xbd5e42ab	-0.0542628
202	0xbc1e4a8c	-0.009661328
203	0x3c88a660	0.016680896
204	0x3b2595c9	0.002526628
205	0x3dd3fe7b	0.10351273
206	0xbd0ce497	-0.034397688
207	0x3d4df477	0.050281968
208	0xbddab9a0	-0.106799364
209	0x3c8c6dae	0.017142143
210	0xbe43a49c	-0.19105762
211	0xbe2d880a	-0.16946426
212	0xbd62dee8	-0.05538836
213	0x3da5f607	0.081035666
214	0x3e16ecd3	0.14738779
215	0xb9df85c7	-0.00042633546
216	0xbe26d725	-0.16293009
217	0xbcf43f7c	-0.029815428
218	0xbbefc120	-0.0073167235
219	0x3af45400	0.0018640757
220	0x3dc7aae8	0.09749395
221	0xbe58a498	-0.21156538
222	0xbd138bb7	-0.036021914
223	0xbcbe0390	-0.023195058
224	0x3c3bb420	0.011456519
225	0xbe093f77	-0.13403116
226	0x3cccd9cc	0.025006197
227	0x3e0e219d	0.1388001
228	0xbe0459b4	-0.12924844
229	0xbe4b54f2	-0.19856623
230	0xbdbc0ef0	-0.091825366
231	0x3d4403a4	0.047855034
232	0x3dd42cc5	0.103601016
233	0xbd8ffc72	-0.07030572
234	0xbd941f29	-0.07232506
235	0xbddc5550	-0.107584596
236	0xbda282d4	-0.0793511
237	0xbd1ecd23	-0.038769852
238	0xbe07e99d	-0.1327271
239	0x3d21ed2c	0.039532825
240	0xbcf2eac8	-0.029652968
241	0x3dd6eff0	0.10494983
242	0xbc65908a	-0.014011512
243	0x3df3e197	0.11908262
244	0xbdbfe7f6	-0.09370415
245	0xbb34b33f	-0.002757266
246	0x3d0a0eb0	0.033705413
247	0x3dabcec9	0.083890505
248	0xbd16ef23	-0.036849152
249	0xbe2f9bb8	-0.17149246
250	0xbd8256bc	-0.063641995
251	0xbe111f5a	-0.14172116
252	0xbe0610a0	-0.1309228
253	0xbcbe9834	-0.023265935
254	0x3e4e82fe	0.20167157
255	0xbdfa3e4a	-0.12218912

dense3.bias f4 [4]
0	0xbdc04715	-0.09388558
1	0xbd6af2a7	-0.057360318
2	0xbd035a32	-0.03206844
3	0xbe547d71	-0.20750977
