Reinforcment_Learning_DQN/agent_output/weights/episode_472_weights.pt (torch, 21495 bytes, 6 tensors)

dense1.weight f4 [64, 5]
00000000: 609f 9f3d 4cac 1dbe 93bc e13d d50b 68c0
00000010: 93e6 9ec0 f852 c13e 69bb 00bf 86bc 88bd
00000020: 8342 87be 54fe 393f 10e3 22be bae6 14be
00000030: 2880 49be 049d 563e 82d2 e23e ad03 8f3e
00000040: 228f 2ebf 1c11 0e3e bb23 053d 14d8 253e
00000050: 9678 34be 7599 70be dc7d 97be 0062 963b
00000060: 14ea 32be 3929 463e f6fa acbe bc04 f53d
00000070: ddc4 14c0 2be2 92c0 4e2b a4be 3c1e d8be
00000080: 6853 b8be a07c d5bc 4062 a1be c7e8 1b3e
00000090: 346b 403f 05e4 41be efa3 b23f c993 f43f
000000a0: b15b 49bf c4e6 883d 2243 a63e 9f09 84bf
000000b0: 06e5 6bbf c762 b7be 60f0 763c d0a1 d0be
000000c0: c0ff bd3e 0cfc ae3e 6ee8 20bf cfd4 dbbc
000000d0: dca8 8e3e 8314 e8bf ca9b d6bf edb9 a5be
000000e0: 73da 25bf 6ae5 513e e64f 37bf d389 84bf
000000f0: d990 59be d4fe 203e 80b4 cfbd 3c75 bfbd
00000100: a4ab c23e f62d 5e3e c6d7 fabd 2519 35bf
00000110: 5150 a5be 5b6b 20c0 275b bbbe 7852 e4be
00000120: 4b31 643e 0a32 06bf 10be 60be 10f7 723e
00000130: ed29 8e3e 16ee 60bd 27c3 cc3f 0982 1c40
00000140: dd56 c13e e2e6 343d 32da 9abe c3a4 7dbe
00000150: 5696 2c3f 1c8a eabd 90aa f73d f7f0 28bc
00000160: 9558 5bc0 33a3 42c0 1c69 22bf 1996 983d
00000170: 6bf8 723e 8164 68bf 7ebe 26bf bc59 97bd
00000180: cf82 853e cc84 bbbd 3ad6 5bc0 784c f6bf
00000190: 37be 5e3e 8fbf cdbe 76ee e43d e29f f6bf
000001a0: ff6e 73c0 965a 8a3e 368c e3be b842 2f3e
000001b0: 0f62 4cc0 cf57 a0c0 803d 69bb 6b8f d4be
000001c0: b41a 9dbe 68d6 5c3e 9e8a b83e 2901 45be
000001d0: fea6 113f 9f87 ffbd d47f ac3e c122 cf3e
000001e0: 933c 253e 3bc2 9ebe ac40 353e 363b 4dc0
000001f0: b3bd 89c0 896f 85bd 716d d53d 396e b5bc
00000200: fe4c 7fc0 e29a 8ac0 e87f 8ebe 528c de3e
00000210: a15a 4e3e ac1b 8bc0 fecf 18c0 9a39 9bbc
00000220: 9438 ba3e 6d54 aa3c 6c9b 61c0 85ea b4bf
00000230: 11ff 503e 4ab3 bcbe e1d9 273e a2d9 36c0
00000240: a424 93c0 c4f5 ccbc ec60 a3bf 730d 533e
00000250: 5243 7bbe fc10 1cbe b802 61bd 27d4 c5be
00000260: 504c d83c a63f c9be ca39 c33e bc4c c2bb
00000270: dc51 c43c 19f2 a3bd 1d76 22c0 6a54 57c0
00000280: 6452 6cbe 73b7 3d3f 5731 7c3e 497e 7b3f
00000290: 1cce b63f 7bbb 7e3e 96e0 debe fa58 b73d
000002a0: 90c4 aabf f49b 4ec0 fc1b d8bd 7fcb cc3d
000002b0: ac19 11bf 019b 253f 122d 9cbe e8dc 1e3e
000002c0: 6578 c0bc 5a4f 3bbf 380c 043f 68cb c1bf
000002d0: a544 c6be 402b 963d 1ae8 83be 5858 41be
000002e0: 0dbe 81be 736f 5e3e 3ea9 8f3d 81bf 48bf
000002f0: 7720 8ebe c5cf 013f b70b a7bd a5bf ff3e
00000300: a639 f53d 30d6 f1bf 077a a8be 3052 a2bc
00000310: 5616 13be c435 a6be ec2f de3e a4aa 853e
00000320: 1d9c 7b3e 3384 cebe 2c71 1f3e e06a 49c0
00000330: 8117 93c0 7f52 1a3e d289 afbe 1a73 c7be
00000340: b4f6 173e 548e 513e 9ee0 af3e a884 17bf
00000350: 95fe aa3d 200c adbe 6801 74be 3430 99bd
00000360: 8412 123e b067 61bd 11f2 53c0 c885 6ac0
00000370: 071c 9cbd 7e2f ff3e ee39 f6bd 5598 b4bf
00000380: f4a8 3b3f 5df4 87be ad22 75be 38a8 873d
00000390: 74eb 84be 0af8 be3e 77a8 e4be ccd8 81bc
000003a0: 7947 ba3e 35a0 c7bf a172 8fbf d110 ca3d
000003b0: b198 90be b328 413e 8988 54c0 dd23 92c0
000003c0: a2f6 593d 4834 f5be b8d3 2cbe 49ac efbd
000003d0: 396b d8be bee5 c9be 1a39 be3d 7ece 3f3d
000003e0: 0759 19c0 2768 37c0 68d8 aebd ad46 f23d
000003f0: 7ad5 e0bd f2cd 483f e297 87be 4e59 b1be
0.0779407 -0.15397757 0.11022296 -3.6257222 -4.9656463 0.37758613 -0.50285965 -0.06676583
-0.26417932 0.726537 -0.1590693 -0.1454114 -0.19677794 0.20958334 0.4430123 0.27932492
-0.68187153 0.13873714 0.03250478 0.16195709 -0.17624125 -0.23496039 -0.2958821 0.004589319
-0.17472106 0.19351663 -0.33785218 0.11963794 -2.3245156 -4.5901084 -0.3206429 -0.42210567
-0.36001134 -0.026060402 -0.3152027 0.15225516 0.7516358 -0.18934639 1.3956279 1.91076
-0.78655535 0.0668464 0.32473093 -1.0315436 -0.9214634 -0.3581755 0.015071958 -0.40748453
0.37109184 0.34176672 -0.6285466 -0.026834873 0.27863204 -1.813126 -1.6766293 -0.32368413
-0.6478645 0.20497671 -0.7160629 -1.0354561 -0.21246661 0.15722209 -0.101418495 -0.093485326
0.38021576 0.2169722 -0.12248187 -0.7074149 -0.3228784 -2.5065525 -0.3659298 -0.4459417
0.22284429 -0.52420104 -0.21947503 0.2372706 0.27766362 -0.054914556 1.5997056 2.4454367
0.37761584 0.0441655 -0.30244595 -0.24769883 0.67416894 -0.114521235 0.12093079 -0.010311357
-3.4272816 -3.041211 -0.63441634 0.07450504 0.23727576 -0.90778357 -0.6513442 -0.07390162
0.26076362 -0.09156188 -3.4349504 -1.9242086 0.21752249 -0.4018521 0.11178295 -1.9267542
-3.8036497 0.27022237 -0.4444291 0.17115295 -3.193485 -5.010719 -0.0035589635 -0.4151567
-0.30684435 0.21566164 0.36043257 -0.19238724 0.56895435 -0.124770395 0.33691275 0.40456203
0.16136388 -0.3100756 0.17700452 -3.206739 -4.3044066 -0.06515414 0.10421265 -0.022147285
-3.9890742 -4.3314066 -0.2783196 0.4346643 0.2015176 -4.347128 -2.3876948 -0.018948365
0.3637129 0.02079221 -3.5251112 -1.413407 0.204098 -0.36855537 0.16391708 -2.8570333
-4.5982227 -0.025019534 -1.2763953 0.20610599 -0.245374 -0.15240854 -0.054934233 -0.38638422
0.026403576 -0.39306372 0.38130027 -0.0059295576 0.023964815 -0.08005161 -2.538459 -3.3645272
-0.23078305 0.74108046 0.24628197 0.9823957 1.428165 0.24876206 -0.4353072 0.08952518
-1.3341236 -3.2282686 -0.105522126 0.09999751 -0.566798 0.6468964 -0.30503136 0.15513957
-0.023494909 -0.73167956 0.51581144 -1.51402 -0.38724247 0.07332468 -0.25763017 -0.18881357
-0.2534031 0.21722202 0.07014702 -0.7841721 -0.27759144 0.50707656 -0.08156531 0.499509
0.11973886 -1.889349 -0.329056 -0.01981458 -0.14363989 -0.32462895 0.43395936 0.2610675
0.24571271 -0.40335235 0.15570515 -3.1471481 -4.596619 0.15070532 -0.34284836 -0.38955003
0.14840204 0.2046445 0.34351057 -0.5918679 0.08349339 -0.33798313 -0.23828661 -0.07479897
0.14264876 -0.055030525 -3.3116496 -3.6644154 -0.07622533 0.4984092 -0.12022768 -1.4108988
0.73304677 -0.26553622 -0.23939009 0.06623882 -0.25960886 0.37298614 -0.44659778 -0.015850447
0.36382654 -1.5595766 -1.1206857 0.09866489 -0.28241494 0.18863182 -3.3208334 -4.566878
0.053213723 -0.4789145 -0.1687764 -0.11702783 -0.42269304 -0.39433092 0.09288235 0.046827786
-2.3960588 -2.865732 -0.0853737 0.118298866 -0.109782174 0.7843925 -0.26483065 -0.34638447

dense1.bias f4 [64]
00000000: 84f7 053f a6d9 c2be 1c11 b43e edae e63e
00000010: dee6 04be 20f5 973e 6831 d83e 330b a23e
00000020: b75d ce3e dc1d 5d3e 5acf 023f f8f7 94be
00000030: acf4 0f3e ef8e 62bd b31b a4be 38ca 7abe
00000040: c454 40be 6b32 4bbd 0584 42bd 9e10 64be
00000050: b411 8e3e 13a6 0d3f 00bb 123c c586 213e
00000060: aa3b 2e3f ad19 0a3f 7c12 69bc cc1a 70bd
00000070: 20ec f03e 12da dcbe 8da7 55be a4e0 c43d
00000080: b13f 10bd aba4 66bd c079 ab3e c871 64be
00000090: bf4c 4abe 5ebe 2abf 132e 1d3e 0f3f d3be
000000a0: d6eb 353f 021a 953e 1905 9b3e 30e4 323e
000000b0: 36a2 363e c079 c1bb 611a 513e ea23 3e3d
000000c0: e207 aebe 5e33 4f3d f36f b8be 5ab1 133f
000000d0: 366d d03e f46d 6b3e 5004 503e 17aa 133f
000000e0: d29c ab3e 2abe 56be c02a bebe c46a 6d3e
000000f0: babc 833e 7128 303f c1e3 adbe bbab a53e
0.52330804 -0.38056678 0.35169303 0.45055333 -0.12978694 0.29679203 0.42225194 0.3164917
0.40305874 0.21593422 0.51097643 -0.29095435 0.14058179 -0.055312093 -0.32052383 -0.24491203
-0.18782336 -0.04960863 -0.047489185 -0.22271964 0.2774788 0.55331534 0.008955717 0.15774067
0.6805979 0.5394543 -0.014225598 -0.058619305 0.4705515 -0.43135124 -0.20864697 0.09613159
-0.03521699 -0.056309383 0.33491325 -0.22309029 -0.19755839 -0.6669673 0.15349607 -0.41259047
0.7106298 0.29121405 0.30277327 0.17469859 0.17835316 -0.0059044063 0.20420219 0.04642097
-0.3399039 0.050586097 -0.3602291 0.5769249 0.4070832 0.22991163 0.20314145 0.5768141
0.33518082 -0.2097098 -0.3714199 0.23185259 0.25729924 0.6881171 -0.33962825 0.32357582

dense2.weight f4 [64, 64]
00000000: fd83 cc3d fe80 86be 981e d0bd b2c9 dc3d
00000010: 6cd0 0bbd fcdd a23d 881b ffbc a6b3 86be
00000020: 0ebe 633d 6e91 843d 4c8a 013d 1612 f93d
00000030: d250 a7bd f138 adbe 6b74 0d3e 12d0 86be
00000040: 5a89 c3be 7e14 3ebd f5e0 553d 021e b6be
00000050: 6a35 36bd 85bc 5c3d aa8d cf3d 9b8c 41be
00000060: 60ad c83d 6b82 95bd 9ce1 47be 15f3 9cbe
00000070: 883c b63d 5ec1 6b3e 36f9 b03d 3c54 c0be
00000080: 106b 26be 304d c8bd afbe a43d 70a3 85be
00000090: 8c93 95bd 6297 90bd aa8d 27be 30cb 99bd
000000a0: 52c3 013e 0488 b43d ef7b 123e ff42 5dbe
000000b0: 994a a6bd 3c78 3ebd 5d7c ac3d ec84 f33c
000000c0: b4c8 bc3d c654 acbc 88bf ccbe 25c1 e83c
000000d0: 5a0e f0bd 4eed f4be 5460 683d dc24 cebd
000000e0: 4875 e9bd bcf3 62bd 3edb f8bd 3caf 01bf
000000f0: d8b0 3e3d 1274 e8bd 9ab6 e43d f34e 22be
00000100: a796 9c3c fced 9cbd 0044 a93d a977 3e3c
00000110: ce00 ecbd 4d91 7b3d a0d4 f43d 80f4 e83a
00000120: b1a9 aebd 00a1 513d 4214 0f3d ba07 1ebe
00000130: e8e6 31bd 536a 6ebd 5f2d 613c da33 8abd
00000140: 5235 4cbd eb67 13be fa8e b6bc c5d4 0abd
00000150: d23c 69bd 18c0 593c 401f c73b 109e aabd
00000160: 01ce 09bc 2361 0cbe 9bc1 cc3d 2258 15be
00000170: 9c95 753d 0cef 2cbe 0665 babd 786e 6f3d
00000180: 8ac4 bdbc fc10 5ebc 326f d4bd c07b 8dbc
00000190: 4084 243c 4d26 a5bd 9add bfbc eae2 f73d
000001a0: 7d1c e1bd 64bc 37bd f4ef 983d cc79 e13c
000001b0: 5c95 c53d 9cb5 14bd 4af7 ff3d 98de 353c
000001c0: da6f adbd 1891 4e3d 7e91 00be 3dd7 2ebe
000001d0: b067 ed3d 0427 29be 5807 c5bc 20f7 12be
000001e0: 0821 eb3c 20a7 c5bd 6048 8abd 0871 3abd
000001f0: 53ad 0ebc eb0e d9bd 28d9 05bd 429e 18bd
00000200: cb22 34bc f32d 58bd 0227 903d 00ac 2e3c
00000210: 644e 38bd 88c8 bdbd e079 913b 845c f1bc
00000220: e67a dcbd 7207 e2bd 009a e039 dcfe 24bd
00000230: 302d 2b3c 8d89 873c a0a0 24bc 30ce a3bd
00000240: 4de2 47bc ce05 09bd 30e6 3e3d c0fd 7a3d
00000250: 7900 673b 9cf2 2ebe f0ea 8dbd 5a43 d83d
00000260: 1795 8f3d 69df 1f3d 094f 8d3c b485 fbbd
00000270: 4caa 1bbe f482 67bd 80a6 213c bcce 19be
00000280: 6b0a 97bd 4fa6 17bc 4be0 85bd 2180 9f3d
00000290: b8d0 8a3c 3daa 843d df88 55bd 002a 033d
000002a0: 19a9 b33b 46c1 e6bd fc25 d53d 0390 08be
000002b0: 6f8a a23d 9059 bfbc 5835 c03d 49ac f4bd
000002c0: 9467 20bd a17b b5bd df05 c8bd b88f 893c
000002d0: d68e 973d 9b6b 7b3c c03e c43d 846e 18be
000002e0: f097 b53c 1e31 bd3d 34e7 08bd a2a3 debd
000002f0: 8f08 77bc a177 90bd 2c4a b4bd d7f5 5cbd
00000300: a7e0 2cbb dc82 efbd aa5e bb3d 6c83 83bd
00000310: 32d3 913d b48e ac3d b06b 533c 9f22 95bd
00000320: 4933 d83d 9e00 f23d fd01 c7ba a75c 9c3c
00000330: 900f f23d a8d5 ebbd 4f8a 083d 95f9 313d
00000340: 4800 5c3d 7cbd d0bd a957 68bd 253a 09be
00000350: 57bf bbbd 62a1 9abc e22c d93d e8c3 3e3d
00000360: 9147 7fbd 7e13 6cbd 7a50 d7bd 27cc 81bd
00000370: 6523 91bd 7028 d9bd 7c39 84bd dc5d 5dbd
00000380: 3a2c b53c 5c26 873d 6847 b7bd 76ba febd
00000390: 0084 17ba 1f49 f1bd e22e 57bd 8061 f2bc
000003a0: d273 aebd 5058 2ebd 273e 603d 9006 e5bd
000003b0: a4af 58bd b698 813d 9fca 15bd 3f3b 05be
000003c0: 409a 4d3c 2b8b c33d 743f 50bd 4f8b e63d
000003d0: 40ed 9cbc 859e dfba 14b5 153d f0f0 dbbc
000003e0: 8c41 da3d bebb 83bd c08b b1bb 512e f73c
000003f0: ca66 9d3c 57fc d4bc 6cc0 efbd 255e 4a3c
0.09986112 -0.26270288 -0.10162085 0.10780658 -0.034134313 0.079524964 -0.031141058 -0.26308936
0.055601172 0.06473051 0.03162603 0.12161653 -0.08169712 -0.33832505 0.13813941 -0.2633062
-0.38190728 -0.04640626 0.05221649 -0.3556977 -0.044484533 0.053890724 0.10134442 -0.18901293
0.09798694 -0.07300266 -0.19519657 -0.30654207 0.08898264 0.23022982 0.08641283 -0.37564266
-0.16251779 -0.09780347 0.080441825 -0.26101255 -0.07303533 -0.07060124 -0.16362634 -0.07509458
0.12672165 0.088150054 0.1430509 -0.21607588 -0.08119697 -0.046501383 0.08422158 0.029726468
0.092179686 -0.021036517 -0.39989877 0.028412411 -0.11721487 -0.478373 0.05673249 -0.10065624
-0.11399323 -0.055408224 -0.12151192 -0.5065801 0.04655537 -0.11350264 0.11167641 -0.15850429
0.019114805 -0.076625794 0.08264923 0.011625209 -0.11523591 0.061417866 0.119546175 0.0017773062
-0.0852846 0.051178932 0.03493143 -0.15432635 -0.0434331 -0.058206867 0.0137437275 -0.06748171
-0.049855538 -0.1439511 -0.022284973 -0.03389432 -0.05694277 0.013290428 0.0060767233 -0.08330929
-0.008410932 -0.1370893 0.09997865 -0.14584401 0.05995713 -0.16888064 -0.091013 0.05845496
-0.023165006 -0.013553854 -0.10372771 -0.017270923 0.0100412965 -0.08063946 -0.023421098 0.12103827
-0.10991762 -0.044857398 0.074676424 0.027523898 0.09647629 -0.03630601 0.124983385 0.011100434
-0.084685996 0.05043134 -0.12555501 -0.17074294 0.115920424 -0.1651879 -0.024051353 -0.14352083
0.028702274 -0.09651017 -0.06752086 -0.04551795 -0.008708316 -0.105985485 -0.0326778 -0.0372603
-0.010994623 -0.052778196 0.0703869 0.010661125 -0.044996634 -0.09266764 0.0044395775 -0.02946306
-0.107656285 -0.11036576 0.00042839348 -0.040282115 0.010447785 0.016545082 -0.010048062 -0.079983115
-0.01219995 -0.0334528 0.046606243 0.06127715 0.0035248084 -0.17084736 -0.069295764 0.10559721
0.070108585 0.03903142 0.017249601 -0.12281361 -0.15201682 -0.05652137 0.009866357 -0.15020269
-0.07375034 -0.00925596 -0.06536921 0.077881105 0.016945228 0.06477783 -0.052132484 0.032022476
0.0054828045 -0.11267333 0.104076356 -0.13336186 0.0793656 -0.023358136 0.093851745 -0.11946923
-0.03916128 -0.08861471 -0.09766745 0.016792163 0.07400291 0.015345479 0.09582281 -0.14885908
0.022167176 0.09237884 -0.033423617 -0.10871054 -0.015077724 -0.070540674 -0.0880321 -0.05394539
-0.002637902 -0.11694881 0.09148915 -0.06421551 0.071203604 0.08425656 0.012904093 -0.07281994
0.10556657 0.11816524 -0.0015183088 0.019087149 0.118193746 -0.11515361 0.033335026 0.04345091
0.053711206 -0.10192391 -0.056724224 -0.13401087 -0.091673546 -0.018875781 0.10604264 0.04657355
-0.06232411 -0.057635777 -0.105133966 -0.06337767 -0.07086829 -0.10603416 -0.06456277 -0.05404459
0.022115815 0.06599113 -0.089491665 -0.12437908 -0.00057798624 -0.11781525 -0.052534945 -0.029587507
-0.08518185 -0.04256469 0.054746773 -0.11182892 -0.05290188 0.063279554 -0.036570188 -0.13010882
0.012548983 0.095480286 -0.050841764 0.1125704 -0.019156098 -0.0017060792 0.036549643 -0.026848286
0.10657033 -0.06432293 -0.005418271 0.030173453 0.019214053 -0.025999231 -0.117066234 0.012351547

dense2.bias f4 [64]
00000000: c287 f8bd e954 6f3d 183b a9bd 3cf0 2bbc
00000010: 8fe5 8cbc 80dc eabd 6201 a53e ca55 623d
00000020: 80e0 833d 1420 1a3d f2ba 6d3e 9e18 4f3d
00000030: 54db 30bd 9434 ea3c 55ef 153c 28a1 ad3d
00000040: ef5a cd3d 0800 d3bd 78e6 2d3d 2c6a 2dbe
00000050: 826a b6bd c5de a9bc f7e1 2f3b 04b4 e03e
00000060: 872f 8b3b ac52 60bc 4197 c53e 9d0b 93bc
00000070: 77f7 6b3c 76a9 e93c 0ecf 47bc 8fc9 47be
00000080: a025 0dbe 39c0 25be 0cc7 343d 2b8a bebd
00000090: 0979 8cbe 83c6 f73e 1af0 87bd db8a 433e
000000a0: 5054 05be 9aa0 cc3e 0419 f1bd b2f5 313e
000000b0: 6159 6ebd 9c1b 063d f6d3 9f3d ff5e e73d
000000c0: e8a5 14be 4943 29bd 8313 cd3e e9f9 1ebe
000000d0: 77fa 3d3d a64f 71bd 54f5 32be bc0f 173d
000000e0: 0959 f3bd 18e3 22be 10f4 293d b039 c33c
000000f0: bb67 a03c 7c31 f2bd 9886 ce3e d285 c43a
-0.12135269 0.058430586 -0.08263224 -0.010494288 -0.017199306 -0.11467838 0.32227618 0.055257596
0.06439304 0.03762825 0.23215845 0.050560586 -0.043177918 0.028589524 0.0091512995 0.08478004
0.1002711 -0.1030274 0.04245612 -0.16935033 -0.089070335 -0.020736108 0.0026837566 0.4388734
0.004247609 -0.0136915855 0.3859196 -0.017949874 0.014402262 0.028523188 -0.012195362 -0.19510482
-0.13783884 -0.16186608 0.04413514 -0.09303697 -0.27436092 0.4839364 -0.066375926 0.19095938
-0.13020444 0.3996628 -0.117723495 0.17378882 -0.058190707 0.032741174 0.078041 0.11297416
-0.14516413 -0.041323934 0.4005395 -0.1552502 0.04638144 -0.05891385 -0.17476398 0.03688024
-0.118822165 -0.15906942 0.04149252 0.023831218 0.019580713 -0.11825845 0.40337062 0.0014993495

dense3.weight f4 [4, 64]
00000000: ae7f c1bd 908c 9ebd 9f12 983d a3f9 813d
00000010: c741 dd3c bedc 403d 798a edbd 5a07 f7bd
00000020: 9d60 b3be e690 d7bc 7313 20be f932 7e3d
00000030: 249a 413d 8c7f 92bd 1192 0dbe 4e1a 2fbd
00000040: f3ff 91bd 7cc2 603d 5999 b3bd e6e8 06be
00000050: 6b8c 83bd cc3f 5fbd d318 22bc 5322 c4bc
00000060: d0d0 bb3d bbf9 333d db06 a03e 8ac4 673d
00000070: 2235 ad3d 33be b93d ab4c d43c f738 603c
00000080: cfb5 40bd dc6b c03b fcac 803d 3fc6 7bbd
00000090: bf79 303c c6df 2bbe a64c 1d3e 74ac 48be
000000a0: 14fe 673d 1b94 a6be b166 8a3d 664a cabd
000000b0: 689e 993d ca54 f7bd 98bd d13d e1dd 51bd
000000c0: 48f4 3cbd aad9 75bc 9802 13be 4b14 cd3c
000000d0: bed2 243d 3e28 bbbd 208b 593e 8b4f 5cbd
000000e0: 0d24 bdbc 5de5 a53d 84d2 1dbd 2e1c b4bd
000000f0: d667 fe3c 3dea 61be 4ee4 13be a1d4 923d
00000100: 153a c8bd c671 fdbd 1f86 dcbd 687a 8a3d
00000110: 67eb a5bd 0e62 3bbd 1bdd bbbd 48cb b8bc
00000120: b32d b7be e6e3 90bd 4fca 79be 2159 0e3d
00000130: 6a6b f03c 2440 aabd a97b fbbd 7926 4cbd
00000140: 6826 06be ea5f 9cbd 65bc 14bd 509d e2bd
00000150: e185 f0bc 6a94 123d 0cdd 36bd 9c7e 29be
00000160: 5823 d9bd 8262 77bd f99f 9f3e c01a 6abb
00000170: e401 c0bd 3c3c 893d 8573 073d f553 7cbd
00000180: c91f aabd e5e0 f8bd 9819 bd3d 0772 3bbe
00000190: 7d95 84bd 22eb 3dbe 6e64 b13e 35d7 49be
000001a0: e407 2dbd 7b76 7bbe 78e5 1b3d a1b3 77be
000001b0: aa4b 81bd e044 493d 6441 fdbc eb50 90be
000001c0: 7c84 54bd f91e c9bd 1b4f a1be d022 403c
000001d0: 2110 e53d e80f 9f3d 4c26 813d f0a2 b1bd
000001e0: e850 aabd ea6e 043d 414f 843d a8a0 ccbd
000001f0: 13a1 ad3d 857d 83be 8147 b4be 7e63 e2bd
00000200: 84e8 ce3d ec0f 753d 3631 483d 290e 913d
00000210: 9b9d b63d 17b4 1f3d cea1 c2bd c08b 3d3b
00000220: 323d 1cbe b399 87bd 1562 3ebe 2b23 38bb
00000230: 98e7 b2bc eb10 d53c 771b acbd 4db1 4e3c
00000240: 53a6 a0bc b2a0 adbd ae4b d1bd ed89 0dbc
00000250: 06da 75bd 7601 883d bad2 b73c 9fdc 4d3e
00000260: 2834 773d c835 febd 49f2 a03e e894 96bc
00000270: 6018 983c 8bbc e8bc 6c94 f5bd 0731 36bd
00000280: fe5c 93bd 1bc0 d43d de08 3dbd d9e2 11be
00000290: 9765 ef3d d553 1abe f470 1a3e 892c 55be
000002a0: 40b0 fa3c e08f 5abc 8afa fe3d 3d3e 38be
000002b0: be48 67bb 00de 96bd 167b d23c 8c8d 77be
000002c0: fc63 1d3d d7c3 82bd 1e27 e1bd 684a af3d
000002d0: 1ab3 a83b 1cf2 d33d 9457 f73d 84c7 963d
000002e0: 9f67 5e3d 9a1e afbc 469c 50bd d677 c8bd
000002f0: 8702 2dbc 46fd 83be 449e 14be 3eb5 34bc
00000300: 51da 1f3e adf4 63bd 352b 1cbe 0bd8 713c
00000310: f4af fc3c 0467 83bc eb2e cfbd 45f4 923d
00000320: 2037 62bc 809b abbd 5feb 26be 45eb 16bd
00000330: 4914 763d 6f48 dd3c 3d8e 95bd 3bef 913c
00000340: 31bc f5bd f0b2 273c 7923 adbd e90f 063e
00000350: 20f9 47bc 7346 593d 319e 403d a195 16be
00000360: e0d0 2b3d f271 bd3c 54b4 593e 9cbd 093d
00000370: 0855 b33c 8537 5a3d 6b6e 8cbc acaa c03d
00000380: 9199 e1bc 0372 a7bc bd47 09bd e7a9 80bc
00000390: cc14 4e3e abf9 8abe 2866 91be 3001 82be
000003a0: eea3 a6bd fb5f 87be fe74 be3d 10dc 80be
000003b0: d4cc 353c fcde 9bbc 9c91 b43a fb76 b8be
000003c0: 707a 0abc 9c05 263d d1e8 90be a389 2ebc
000003d0: a053 8a3d 905f 113d 54a6 4e3d b30c 683d
000003e0: a9cd 833d eafc e03c e9be c1bd 00e0 7bbc
000003f0: 1e19 953d 7ac5 15be 5f62 2bbe 35b1 f3b9
-0.09448181 -0.07741654 0.07425427 0.063464426 0.027008904 0.047085516 -0.11598677 -0.12061949
-0.35034648 -0.02631421 -0.1563242 0.06206033 0.04726614 -0.07153234 -0.13825251 -0.042749695
-0.071288966 0.054872975 -0.08769483 -0.13174781 -0.06423267 -0.0545042 -0.009893614 -0.023942148
0.09170687 0.043939333 0.3125523 0.05658392 0.084574 0.09069481 0.025915464 0.0136854565
-0.047048386 0.005872233 0.06282994 -0.06146836 0.010771214 -0.16784582 0.1536127 -0.19597036
0.056638792 -0.3253487 0.06757868 -0.098774716 0.07500917 -0.12076719 0.1024124 -0.05123699
-0.046131402 -0.015005508 -0.14356458 0.02503409 0.040240042 -0.09138535 0.21244478 -0.053786796
-0.02308848 0.08100388 -0.03853084 -0.08794437 0.031055372 -0.22062011 -0.1444256 0.07169462
-0.09776703 -0.12375216 -0.10767769 0.067616284 -0.0810154 -0.04574781 -0.09173032 -0.02255787
-0.35777053 -0.07074718 -0.24393581 0.03475297 0.029348094 -0.08313015 -0.12279446 -0.049841378
-0.13100588 -0.07635482 -0.03631248 -0.11065161 -0.029360713 0.03578607 -0.0446444 -0.16552204
-0.106024444 -0.06039668 0.31176737 -0.003572151 -0.093753606 0.06700942 0.033069152 -0.061603505
-0.08306844 -0.1215227 0.09233397 -0.18305217 -0.06473825 -0.18546727 0.34646934 -0.19711001
-0.042243853 -0.24556915 0.038060635 -0.24189617 -0.0631326 0.04913795 -0.03091497 -0.28186736
-0.05188416 -0.09820361 -0.31505665 0.01172705 0.11184717 0.07766706 0.06306133 -0.08673656
-0.08316213 0.03233234 0.06460429 -0.0999158 0.08477988 -0.256817 -0.35210803 -0.11054133
0.101029426 0.059829637 0.048875056 0.07082779 0.089167796 0.038990106 -0.09503518 0.0028922409
-0.15257719 -0.06621113 -0.18592103 -0.0028097134 -0.021838948 0.026009044 -0.08403676 0.012615514
-0.01961056 -0.08477916 -0.10219513 -0.008638841 -0.060022376 0.06640904 0.02243935 0.20103692
0.060352474 -0.12412602 0.3143485 -0.01838155 0.01856631 -0.028410217 -0.119912 -0.04448035
-0.07195471 0.10388204 -0.046151035 -0.14246692 0.116892986 -0.15071042 0.1508215 -0.2081777
0.03060162 -0.013339967 0.1245013 -0.17992492 -0.003529116 -0.07366562 0.025693458 -0.2417509
0.03842543 -0.0638501 -0.10993789 0.08559114 0.0051483037 0.10348913 0.12077251 0.07362273
0.05429804 -0.021376897 -0.050930284 -0.09788482 -0.010559685 -0.2577917 -0.14513499 -0.01102954
0.15610625 -0.055653263 -0.15250857 0.014760981 0.03084562 -0.016040333 -0.10116371 0.07175497
-0.013807088 -0.08379269 -0.16300724 -0.036845464 0.06007794 0.027012078 -0.073025204 0.01781427
-0.11998785 0.010235533 -0.084540315 0.13092007 -0.012205392 0.0530457 0.047025863 -0.14705516
0.041947246 0.023125622 0.21260196 0.03362809 0.021891132 0.053275604 -0.017142495 0.09407553
-0.027539046 -0.020440107 -0.03351568 -0.015706016 0.20125121 -0.27143607 -0.28398252 -0.2539153
-0.08136736 -0.26440415 0.09299658 -0.25167894 0.011096198 -0.019027226 0.0013776305 -0.36028275
-0.008452043 0.040532693 -0.28302625 -0.010652932 0.067542315 0.035491526 0.05045159 0.056652736
0.06435711 0.027464349 -0.09460241 -0.01537323 0.07280181 -0.14626113 -0.16736744 -0.000464806

dense3.bias f4 [4]
00000000: ad9a 313f bcce 143f ba93 243f a140 29be
0.6937664 0.5812795 0.6428791 -0.1652856
