Reinforcment_Learning_DQN/agent_output/weights/episode_110_weights.pt (torch, 21495 bytes, 6 tensors)

dense1.weight f4 [64, 5]
-0.0010230704 0.31893933 -0.12624624 0.7558588 1.7001814 0.17845848 -0.34137717 0.24318874
-0.6917751 -1.4486785 0.19579688 -0.05734257 -0.108954795 -0.6613994 -1.3679292 -0.043487146
0.16625498 -0.11716832 0.7179851 0.31744963 0.21818312 -0.4243775 0.33160663 -0.66875494
-1.8462799 -0.41442302 -0.38874805 -0.07319245 -0.14065358 0.17793661 -0.2814663 -0.16136315
-0.1869221 0.14186794 -0.4253108 0.058477372 0.32128766 -0.28650758 0.9060343 0.8533381
-0.324029 0.41306323 0.12659194 0.41598296 0.30911177 0.093954414 -0.16952012 0.18819624
-1.1973617 -2.054643 0.15138666 -0.0023847066 0.36345056 -0.41070464 -1.9857662 0.005414839
0.17601712 0.1698849 -0.8179787 -1.6667384 -0.66655993 0.30539134 0.25886256 0.20908675
0.25669017 -0.17614543 0.23909338 -0.03164168 0.8879412 -0.10118992 0.24016953 -0.23100027
-0.13786158 -0.06824045 0.5157391 0.050661176 0.29537016 -0.47585496 1.3126072 0.2702438
-0.027703328 0.014831158 -0.008764957 -0.48501554 0.07447892 0.080594465 0.48012498 -0.29628238
0.3243268 1.7067817 0.34268492 -0.086557336 0.31508675 -0.24647537 -1.5729957 -0.29421434
0.24211219 0.049369633 0.48998833 0.8550161 0.32042763 -0.07226711 -0.009870601 -1.3017973
-0.6970576 -0.11158379 -0.15160307 0.25487733 -0.94920653 -1.6513364 0.19823071 -0.25594473
-0.028967964 0.42988116 0.07087873 -0.49959266 0.1253409 0.17498589 -0.15847902 0.02094795
0.44570205 -0.60814184 -0.19197522 0.69148225 -0.20173603 -0.13350809 0.3814296 -0.11478772
0.3029342 1.8297381 -0.07915348 -0.121583626 0.062048335 -0.4001533 -0.46050438 -0.3484163
-0.36403662 -0.069170624 -0.21757865 -0.10605535 0.031552333 -0.3308722 0.38750386 -0.46046954
-1.8647643 -0.16221678 0.507758 -0.2297108 0.50680375 1.1914678 0.10932002 0.13334054
-0.1061542 0.25682303 0.86575866 -0.12531757 0.4372819 -0.20103957 0.77377844 0.70942056
-0.36006021 -0.063470535 0.010702013 -0.23231004 -0.3899825 -0.022926372 0.17197512 0.021069746
0.023654006 -0.9522117 -0.3039494 -0.12090105 -0.33679312 0.13883811 0.23903978 -0.17472506
-0.21512768 -0.38618195 0.38391376 0.33026242 -0.3410168 -0.08778734 0.18322113 -0.056347877
0.26620156 -0.24712016 -0.35514465 0.25302488 -0.17048404 0.38521704 0.40377933 -0.4935527
0.16186848 -0.27212194 -1.7516344 0.25800353 -0.4079591 0.2646149 -0.9968421 -1.8573046
0.17565103 -0.3302325 0.24926402 -0.7569759 -1.8427303 -0.0805488 0.011202171 -0.0034051973
0.47999132 -0.30936173 -0.47144488 -0.03615086 0.28083867 0.14210673 0.8479093 -0.08828768
-0.24699372 0.15897854 -0.33605725 -0.54681385 -0.26804245 -0.042578615 0.3554295 -0.34857944
-1.1085435 -0.29639262 -0.020332903 0.3147419 0.13309667 0.709227 -0.17053923 0.11654057
0.02989944 0.25063 -0.7726782 -0.04137399 -0.2600902 0.37035096 -0.34894845 -1.2353579
-0.46816966 0.045849003 0.005154343 0.25473368 -0.32825294 -0.028310215 0.08932104 0.2140588
-0.5357424 -1.0544791 -0.3167759 0.2759121 0.20675118 -0.23892847 -0.62647057 0.08831521
00000000: 8c18 86ba 044c a33e b246 01be f67f 413f
00000010: 8b9f d93f d2bd 363e fdc8 aebe 7806 793e
00000020: 2c18 31bf 4c6e b9bf fa7e 483e 0be0 6abd
00000030: b123 dfbd 7951 29bf 4e18 afbf 941f 32bd
00000040: bf3e 2a3e f2f5 efbd dfcd 373f c288 a23e
00000050: 656b 5f3e 0248 d9be 58c8 a93e 8633 2bbf
00000060: e652 ecbf 412f d4be fc09 c7be ece5 95bd
00000070: 7e07 10be 0435 363e 5a1c 90be 623c 25be
00000080: 8268 3fbe d445 113e 56c2 d9be f885 6f3d
00000090: d17f a43e 1fb1 92be ddf1 673f 5e74 5a3f
000000a0: 21e7 a5be 067d d33e 51a1 013e b8fb d43e
000000b0: e643 9e3e 2c6b c03d af96 2dbe 84b6 403e
000000c0: 2643 99bf 457f 03c0 1b05 1b3e bd48 1cbb
000000d0: 3116 ba3e e147 d2be 962d febf f66e b13b
000000e0: d53d 343e 4ff6 2d3e 0d67 51bf af57 d5bf
000000f0: aca3 2abf 415c 9c3e a289 843e d61a 563e
00000100: e56c 833e 785f 34be e5d4 743e b59a 01bd
00000110: 1d50 633f a93c cfbd 00ef 753e 568b 6cbe
00000120: 962b 0dbe a6c1 8bbd 7a07 043f 1882 4f3d
00000130: c23a 973e 43a3 f3be 8303 a83f 655d 8a3e
00000140: 17f2 e2bc 63fe 723c e59a 0fbc f553 f8be
00000150: 6788 983d b60e a53d f1d2 f53e 53b2 97be
00000160: 2a0e a63e d377 da3f 6674 af3e f944 b1bd
00000170: 0d53 a13e 0a64 7cbe ec57 c9bf 43a3 96be
00000180: 42ec 773e d037 4a3d c0df fa3e 56e2 5a3f
00000190: 170f a43e c700 94bd 4db8 21bc 4ba1 a6bf
000001a0: 5e72 32bf 0b86 e4bd d63d 1bbe 487f 823e
000001b0: 33ff 72bf fe5e d3bf fefc 4a3e 300b 83be
000001c0: 394e edbc 6219 dc3e de28 913d 9cca ffbe
000001d0: 5d59 003e 802f 333e 5348 22be 099b ab3c
000001e0: 0f33 e43e 2faf 1bbf 2795 44be fb04 313f
000001f0: e493 4ebe 58b6 08be be4a c33e d315 ebbd
00000200: 311a 9b3e dc34 ea3f 381b a2bd d600 f9bd
00000210: 6526 7e3d e5e0 ccbe 3bc7 ebbe 9f63 b2be
00000220: 0263 babe 54a9 8dbd f0cc 5ebe 8c33 d9bd
00000230: 053d 013d 1568 a9be e866 c63e aac2 ebbe
00000240: 99b0 eebf 281c 26be 6efc 013f 4f39 6bbe
00000250: e4bd 013f 0482 983f 2de3 df3d 6c8a 083e
00000260: 6067 d9bd 4f7e 833e 5ca2 5d3f 4053 00be
00000270: 6ae3 df3e 51dd 4dbe 5816 463f 969c 353f
00000280: d059 b8be d7fc 81bd 7f57 2f3c afe2 6dbe
00000290: c9ab c7be 16d0 bbbc 3f1a 303e 769a ac3c
000002a0: 0cc6 c13c 25c4 73bf 419f 9bbe f89a f7bd
000002b0: 2670 acbe 942b 0e3e d8c6 743e 20eb 32be
000002c0: 6e4a 5cbe a4b9 c5be 5890 c43e 2818 a93e
000002d0: c199 aebe d9c9 b3bd 529e 3b3e 08cd 66bd
000002e0: 924b 883e 110d 7dbe 85d5 b5be 7a8c 813e
000002f0: 5e93 2ebe 2b3b c53e 2abc ce3e f1b2 fcbe
00000300: dac0 253e 9153 8bbe 8e35 e0bf 0a19 843e
00000310: 04e0 d0be 9b7b 873e 0b31 7fbf 28bc edbf
00000320: dddd 333e 3c14 a9be 113f 7f3e 2cc9 41bf
00000330: 96de ebbf c5f6 a4bd 5089 373c bb29 5fbb
00000340: 6cc1 f53e a964 9ebe 3961 f1be ed12 14bd
00000350: 16ca 8f3e 6d84 113e 9510 593f 2cd0 b4bd
00000360: eceb 7cbe 45cb 223e b20f acbe fefb 0bbf
00000370: dc3c 89be ea66 2ebd dbfa b53e 0179 b2be
00000380: c1e4 8dbf c6c0 97be 3091 a6bc da25 a13e
00000390: 7e4a 083e e78f 353f d6a1 2ebe d3ac ee3d
000003a0: acef f43c 9352 803e 3dce 45bf c677 29bd
000003b0: 8b2a 85be a49e bd3e 5fa9 b2be 3520 9ebf
000003c0: efb3 efbe 2acc 3b3d c3e5 a83b 746c 823e
000003d0: c510 a8be d3ea e7bc f3ed b63d 3b32 5b3e
000003e0: 6a26 09bf 2cf9 86bf 7330 a2be 5a44 8d3e
000003f0: 95b6 533e aaa9 74be 6060 20bf 9bde b43d

dense1.bias f4 [64]
-0.3593719 0.60436994 -0.3963895 -0.33049843 -0.13921565 0.17346132 -0.09146786 -0.289409
0.09137041 0.27953026 -0.30508202 -0.09319926 0.14818797 -0.49480093 -0.31345892 0.37856054
0.05905149 -0.42747927 0.515698 -0.04031746 0.40953967 0.22703294 0.13011569 0.12127837
-0.10798064 -0.24512272 0.11468361 -0.036993146 -0.021793935 0.04964832 -0.2596278 0.2436093
0.3627645 0.41289866 0.2692809 0.20051205 0.24603848 -0.19436717 -0.10052641 0.22004348
0.054444715 -0.21560948 -0.54404336 0.13811271 -0.27387103 -0.039756764 -0.17830427 0.5855154
-0.041411463 -0.42858437 -0.36109182 -0.61504376 -0.33975783 -0.20022014 0.16065557 0.23512298
-0.409249 0.30546615 -0.002494068 0.14163037 -0.027006589 0.44122928 -0.19538745 -0.15051529
00000000: 98ff b7be fdb7 1a3f 91f3 cabe 1737 a9be
00000010: 8c8e 0ebe d89f 313e 8053 bbbd 6b2d 94be
00000020: 6920 bb3d 971e 8f3e b633 9cbe 41df bebd
00000030: 96be 173e 8c56 fdbe b07d a0be b0d2 c13e
00000040: fadf 713d 90de dabe c904 043f ec23 25bd
00000050: 2faf d13e 537b 683e 0c3d 053e cb60 f83d
00000060: f424 ddbd 7301 7bbe 3edf ea3d 2086 17bd
00000070: 3289 b2bc 095c 4b3d efed 84be b774 793e
00000080: 45bc b93e 7467 d33e 30df 893e 0853 4d3e
00000090: 83f1 7b3e 3008 47be cae0 cdbd 1453 613e
000000a0: 6c01 5f3d bbc8 5cbe 6d46 0bbf 6b6d 0d3e
000000b0: d338 8cbe fdd7 22bd 6595 36be 56e4 153f
000000c0: 119f 29bd 696f dbbe 07e1 b8be 8273 1dbf
000000d0: bdf4 adbe 8206 4dbe e582 243e 14c4 703e
000000e0: 1689 d1be 0f66 9c3e 8473 23bb 8d07 113e
000000f0: ec3c ddbc cee8 e13e a613 48be ae20 1abe

dense2.weight f4 [64, 64]
-0.17262234 0.14495319 -0.056465305 0.043821566 0.28115743 -0.006224379 -0.06863147 -0.08461118
0.17981966 0.32421738 0.1290196 0.04989791 -0.055055894 0.10528379 -0.109119624 0.32747957
-0.060512982 -0.122069664 0.12614557 -0.099131964 -0.087549545 0.032662462 -0.09007499 -0.03826513
0.01600138 -0.37508819 0.031838503 0.07177827 0.19149217 -0.08976439 -0.037212834 -0.26923737
0.05659214 0.0059336787 0.079393804 -0.108194694 -0.3170996 -0.24741456 0.037243143 0.12136463
0.12583768 0.062296733 -0.17056702 0.009926669 0.23162064 0.15061556 0.16370654 0.13044149
-0.027663758 0.0074043875 0.18530473 -0.0067371265 -0.037746325 0.12566003 0.09510407 0.048736278
-0.10221716 -0.02846963 0.038292233 0.036260363 0.09561254 0.11986759 -0.056281663 0.05099146
-0.16143084 0.03732381 -0.007853758 -0.091935135 0.034857195 -0.062466934 0.08458102 -0.03628658
0.022358766 -0.07671342 0.009424403 -0.09834918 -0.060573738 -0.024340823 -0.01774409 -0.03557925
-0.1573438 0.023283461 -0.15252025 0.02343508 -0.06455157 -0.033032 -0.14551304 0.09268641
0.10095204 -0.12056994 0.0050276355 -0.10068095 0.08776905 -0.13936417 -0.111381784 -0.08251173
0.08530599 -0.071971565 0.11566515 0.04315366 0.055080745 -0.04081997 0.08804095 -0.089559145
-0.08194762 -0.035441734 -0.039026868 -0.09961908 0.09624383 0.16925323 0.033227924 -0.02889677
-0.08191162 -0.014319521 -0.00069487945 -0.041157298 -0.069159985 0.0243832 -0.10558917 0.07627662
0.13906822 -0.19478205 -0.12767874 0.11680705 -0.034253247 0.117736876 0.078073196 0.02045852
-0.12646766 -0.0016522985 0.040492155 -0.09367922 0.03682238 -0.0055720657 -0.04097186 0.0063098785
-0.017268237 -0.0018775462 -0.07874158 -0.102454804 -0.12190665 -0.13767593 0.07712461 -0.051402207
0.086818375 0.081585415 -0.012400282 -0.040227074 0.10353662 -0.19303909 -0.0775713 -0.17052396
-0.052375328 -0.06944117 0.005103462 0.0977691 -0.042191744 -0.055447236 0.0068445504 0.055509765
-0.046580583 0.0018567626 -0.025531262 0.047491908 0.06918912 0.037764117 -0.13018349 -0.13744153
-0.11516251 -0.074679844 0.05864954 0.117179126 -0.18499035 0.04494308 -0.15948659 -0.049120788
-0.10853486 -0.011131774 0.032628015 -0.06418816 -0.120588854 -0.096577995 -0.12145997 -0.1188598
0.007885165 -0.13475543 -0.030077778 0.044627063 0.052334543 0.04099898 -0.0035249074 0.0003848076
-0.005271837 0.08147624 -0.052488685 0.086766995 0.054631107 -0.09584588 -0.080550134 0.08359427
-0.050288334 -0.14937699 0.022585021 0.035138883 -0.11135742 -0.08955333 0.07810807 -0.06864333
-0.017722048 -0.056610584 -0.13275628 -0.031246627 -0.06368707 -0.07062581 -0.13212721 0.03422439
-0.110539846 -0.11860382 -0.05868646 0.023212373 -0.06960607 0.04209006 -0.093548745 -0.11269237
-0.011811078 -0.065347485 -0.09279193 0.030237049 -0.005634591 0.03687553 0.0797034 -0.014142126
0.092662744 -0.10457711 -0.124656394 -0.03878168 -0.1066486 -0.041447774 0.01575927 -0.06082081
0.11763856 -0.13175674 0.09815828 0.095750414 0.01869011 -0.07266052 0.038879674 -0.0023129135
-0.04846907 0.03153841 0.014496032 -0.028931625 0.0073239887 -0.0653944 -0.11982091 -0.059543565
00000000: e9c3 30be 9c6e 143e 2a48 67bd 3e7e 333d
00000010: def3 8f3e e0f5 cbbb a88e 8cbd a048 adbd
00000020: a522 383e d2ff a53e b71d 043e c061 4c3d
00000030: 4a82 61bd 079f d73d 1c7a dfbd 67ab a73e
00000040: 76dc 77bd a9ff f9bd 4e2c 013e b305 cbbd
00000050: 2d4d b3bd 13c9 053d 3d79 b8bd e6bb 1cbd
00000060: 5315 833c 8f0b c0be 1769 023d 7c00 933d
00000070: 8616 443e 64d6 b7bd 7c6c 18bd 7bd9 89be
00000080: 29cd 673d 4e6f c23b 3899 a23d 2e95 ddbd
00000090: e15a a2be 3e5a 7dbe 448c 183d 058e f83d
000000a0: 98db 003e dc2a 7f3d 1fa9 2ebe 78a3 223c
000000b0: f62d 6d3e f73a 1a3e b0a2 273e 7492 053e
000000c0: 1b9f e2bc 81a0 f23b 86c0 3d3e 1dc3 dcbb
000000d0: e49b 1abd 06ad 003e ecc5 c23d b19f 473d
000000e0: 3b57 d1bd 2439 e9bc 51d8 1c3d bf85 143d
000000f0: 82d0 c33d 247d f53d 9a87 66bd 6cdc 503d
00000100: 204e 25be dae0 183d 0cad 00bc 7d48 bcbd
00000110: 6bc6 0e3d 54dd 7fbd d038 ad3d 3da1 14bd
00000120: bb29 b73c ed1b 9dbd d068 1a3c 4b6b c9bd
00000130: 2b1c 78bd 6866 c7bc 0e5c 91bc 8cbb 11bd
00000140: bc1e 21be f5bc be3c 452e 1cbe edfa bf3c
00000150: 9d33 84bd 904c 07bd 5f01 15be 5fd2 bd3d
00000160: f1bf ce3d 5fed f6bd ddbe a43b d031 cebd
00000170: 42c0 b33d 7bb5 0ebe 221c e4bd e9fb a8bd
00000180: e8b4 ae3d d465 93bd dae1 ec3d e4c1 303d
00000190: 599c 613d d732 27bd d04e b43d c96a b7bd
000001a0: 27d4 a7bd 5a2b 11bd a3da 1fbd 1705 ccbd
000001b0: 7c1b c53d b850 2d3e 011a 083d ebb8 ecbc
000001c0: 48c1 a7bd 6d9c 6abc 9228 36ba 8e94 28bd
000001d0: c0a3 8dbd 47bf c73c 223f d8bd eb36 9c3d
000001e0: e667 0e3e f274 47be 37be 02be 8938 ef3d
000001f0: 224d 0cbd 0820 f13d d7e4 9f3d a098 a73c
00000200: bd80 01be f091 d8ba 1adb 253d e4da bfbd
00000210: 10d3 163d e095 b6bb 1cd2 27bd 19c3 ce3b
00000220: 1e76 8dbc ff17 f6ba 4443 a1bd d3d3 d1bd
00000230: 32aa f9bd ebfa 0cbe 82f3 9d3d 1f8b 52bd
00000240: d5cd b13d 4116 a73d 8d2a 4bbc 25c5 24bd
00000250: 020b d43d 0aac 45be b4dd 9ebd d59d 2ebe
00000260: 8387 56bd 2c37 8ebd f13a a73b 2a3b c83d
00000270: 40d1 2cbd a41c 63bd 4048 e03b 355e 633d
00000280: 48cb 3ebd 9d5e f33a f026 d1bc e086 423d
00000290: 06b3 8d3d 8cae 1a3d d24e 05be 79bd 0cbe
000002a0: 52da ebbd bff1 98bd 803a 703d 9cfb ef3d
000002b0: 1c6e 3dbe 3c16 383d 7450 23be e132 49bd
000002c0: 8647 debd 0b62 36bc f4a4 053d 1575 83bd
000002d0: 4af7 f6bd afca c5bd 01c0 f8bd c46c f3bd
000002e0: c730 013c 54fd 09be ac65 f6bc deca 363d
000002f0: bf5c 563d 8cee 273d 2202 67bb 00c0 c939
00000300: 60bf acbb 04dd a63d 60fe 56bd e5b2 b13d
00000310: dec4 5f3d d84a c4bd 78f7 a4bd 7933 ab3d
00000320: 24fb 4dbd 48f6 18be 3904 b93c caed 0f3d
00000330: 5c0f e4bd bc67 b7bd 20f7 9f3d e094 8cbd
00000340: d42d 91bc 80e0 67bd 43f1 07be edf8 ffbc
00000350: 5e6e 82bd 44a4 90bd 5b4c 07be e02e 0c3d
00000360: b762 e2bd 8fe6 f2bd 3761 70bd e027 be3c
00000370: a18d 8ebd a066 2c3d 7c96 bfbd 42cb e6bd
00000380: 4083 41bc e7d4 85bd b209 bebd b0b3 f73c
00000390: 60a2 b8bb cc0a 173d 893b a33d 60b4 67bc
000003a0: f7c5 bd3d 862c d6bd da4b ffbd 8ad9 1ebd
000003b0: 956a dabd 24c5 29bd 9619 813c 3e1f 79bd
000003c0: 7cec f03d 3deb 06be 3507 c93d cb18 c43d
000003d0: 001c 993c 0acf 94bd 4b40 1f3d 4094 17bb
000003e0: 8187 46bd 6b2e 013d c480 6d3c 0402 edbc
000003f0: 12fe ef3b 80ed 85bd aa64 f5bd f4e3 73bd

dense2.bias f4 [64]
0.36100867 -0.14089188 0.04365031 0.08210913 0.10053249 -0.05187641 0.025442567 -0.004336387
-0.105739124 0.21644433 0.09585946 0.06409567 -0.051433835 0.054636978 -0.048315812 0.020118563
0.033186827 -0.061503503 -0.031195745 -0.15521564 0.034577835 0.2609559 0.0866033 0.048477
0.22757122 -0.09060017 0.27564892 0.032010283 0.10649602 -0.052774772 0.057913892 0.043557957
0.0031494426 0.18550985 0.036513314 -0.12676466 -0.0760544 0.03264652 -0.12988795 -0.16337933
0.05051503 0.15119712 0.005474413 -0.02010851 -0.16141418 0.0684123 -0.08936178 -0.087038495
0.06391742 -0.07540472 -0.10656535 -0.06640589 -0.14334315 -0.13152188 0.06585187 -0.059537567
-0.0685352 0.047984846 -0.00460123 0.08570427 0.030349981 0.034570478 0.12242766 0.00037578316
00000000: 21d6 b83e f645 10be abca 323d d528 a83d
00000010: fae3 cd3d 5c7c 54bd ee6c d03c 4018 8ebb
00000020: c18d d8bd 95a3 5d3e f751 c43d 9744 833d
00000030: 49ac 52bd 06cb 5f3d cde6 45bd afcf a43c
00000040: e9ee 073d 19eb 7bbd 388e ffbc d9f0 1ebe
00000050: 7da1 0d3d 039c 853e 125d b13d d28f 463d
00000060: 6e08 693e 958c b9bd db21 8d3e 371d 033d
00000070: 961a da3d 5c2a 58bd 1e37 6d3d d469 323d
00000080: e166 4e3b 4bf6 3d3e fc8e 153d 98ce 01be
00000090: 69c2 9bbd 5bb8 053d 5901 05be e94c 27be
000000a0: d9e8 4e3d 6bd3 1a3e b462 b33b 9aba a4bc
000000b0: c249 25be bf1b 8c3d 4f03 b7bd 3d41 b2bd
000000c0: 23e7 823d ca6d 9abd ef3e dabd d0ff 87bd
000000d0: 8cc8 12be acad 06be 58dd 863d aadd 73bd
000000e0: 2f5c 8cbd c28b 443d eac5 96bb b885 af3d
000000f0: 86a0 f83c c699 0d3d 5abb fa3d c304 c539

dense3.weight f4 [4, 64]
-0.05709975 0.011087524 -0.06516741 -0.0060521513 -0.13097696 0.11308372 0.074029535 0.053667862
-0.048586298 -0.13840012 -0.17568901 0.0011954012 -0.067562595 -0.026311036 0.020308983 -0.09827999
0.07443027 -0.10439624 0.10024069 0.0077760546 -0.13820739 -0.08897809 -0.15919304 0.004970178
-0.24256827 -0.04731501 -0.08312582 0.091440655 0.08351438 0.065134645 -0.036483314 0.0074936897
-0.0942507 -0.085175574 0.040415198 -0.12741473 0.0053049657 0.079784006 0.084040284 -0.09849213
-0.012399378 -0.12098706 0.09571629 -0.03565204 0.10924012 -0.017889172 -0.07503223 0.06775682
-0.08933429 -0.08662476 0.0018388898 0.075754605 0.018126488 -0.114948034 0.02521905 0.057689913
0.09559834 -0.042196773 -0.060404737 -0.11852421 -0.04388895 -0.024291137 -0.12031877 -0.10626359
-0.14435989 0.04870453 -0.050954577 0.079875976 -0.20143588 0.084208146 0.05201936 -0.09539166
0.102705516 -0.23106731 -0.13973346 0.017346373 -0.07130432 -0.015888156 0.100670084 -0.03878376
0.060303506 0.10869548 0.08721295 -0.0027790593 -0.14352247 -0.2628498 -0.11097221 -0.1051382
-0.19066493 -0.052880943 -0.14695095 0.1507032 0.016918913 0.120574996 0.07922107 -0.11813639
0.045771465 -0.23213103 0.0016199946 -0.039906446 0.09966602 0.03246827 -0.05417849 0.05606307
-0.10059876 -0.1130013 -0.008753948 0.09513134 -0.07368425 -0.09215133 -0.08865326 0.09776799
0.03330189 -0.10278357 -0.06225814 0.0887232 0.07686939 -0.009240568 0.08428728 0.043203413
-0.034306057 -0.06613468 0.12412375 0.06947087 -0.0020640974 0.0562299 -0.038845085 -0.10369964
-0.044649705 0.028265348 -0.11329703 0.00377333 -0.12967075 0.07579784 -0.00038845028 0.09236594
0.06761096 0.031329453 -0.11846684 0.0052243904 -0.04021739 -0.13570194 0.07070526 -0.03063509
-0.05223143 0.09564956 0.023648456 0.028303707 -0.085820206 -0.0051308568 -0.075308174 0.027487203
-0.055112477 0.12187207 -0.11160969 -0.03952138 0.021432757 -0.04665585 -0.15646517 -0.09582429
-0.09443917 -0.07802332 -0.025017416 0.10669454 0.15284373 0.04584366 -0.03965732 0.037836067
0.0581162 -0.11837761 0.08420916 0.036185663 0.13760084 0.096054755 -0.0030071964 -0.008538584
-0.044742104 -0.019984404 0.078350306 -0.08776822 0.060728397 0.032727998 0.026925609 0.023136228
-0.006084478 -0.1789247 0.06677042 -0.07662751 0.024052909 0.043036394 -0.12979567 -0.20327039
-0.27466458 0.041069455 0.028491328 -0.017655402 -0.049569312 0.0014559329 0.024592862 0.03048998
0.02067085 -0.11433496 -0.0042990814 0.027052788 -0.06807756 -0.23507339 0.18721984 -0.098198645
0.055074245 -0.06325963 0.032315925 -0.045035265 -0.2881004 -0.20633946 -0.0710577 -0.021299193
-0.2063858 -0.003792335 -0.035394784 0.04155031 -0.05636175 -0.047621086 -0.013078603 -0.09031251
0.036917396 -0.021119047 -0.006721154 0.10333797 -0.114388995 0.08053905 0.023666104 0.12123465
0.10300011 -0.24243441 -0.004015556 -0.0011952966 0.04621066 0.04005243 0.100845695 -0.029567018
-0.08959143 -0.30867898 0.0017511486 -0.090407684 -0.003878653 0.08043575 0.07465956 0.021526912
0.06270057 -0.0105998255 0.11575419 0.008279971 -0.08113458 0.09952889 -0.021830378 -0.102329776
00000000: 6de1 69bd 72a8 353c 7e76 85bd 2051 c6bb
00000010: d31e 06be 7098 e73d cc9c 973d d5d2 5b3d
00000020: 6d02 47bd c3b8 0dbe d2e7 33be 02af 9c3a
00000030: 425e 8abd 3e8a d7bc 065f a63c 0547 c9bd
00000040: e66e 983d b2cd d5bd fe4a cd3d 46ce fe3b
00000050: 3d86 0dbe 253a b6bd 8003 23be e0dc a23b
00000060: d163 78be 62cd 41bd df3d aabd 3d45 bb3d
00000070: 9609 ab3d 5065 853d 876f 15bd a08d f53b
00000080: 8306 c1bd 8870 aebd 688a 253d 0279 02be
00000090: 47d5 ad3b cc65 a33d 501d ac3d 3eb6 c9bd
000000a0: c326 4bbc 10c8 f7bd e706 c43d e007 12bd
000000b0: 49b9 df3d 508c 92bc 7faa 99bd 16c4 8a3d
000000c0: e5f4 b6bd 5268 b1bd e706 f13a 3b25 9b3d
000000d0: 007e 943c e069 ebbd 2e98 ce3c 424c 6c3d
000000e0: 10c9 c33d 86d6 2cbd f56a 77bd d2bc f2bd
000000f0: e6c4 33bd 35fe c6bc b069 f6bd baa0 d9bd
00000100: 14d3 13be 677e 473d bfb5 50bd 0496 a33d
00000110: 3545 4ebe 5275 ac3d 4112 553d b45c c3bd
00000120: 4557 d23d e99c 6cbe 4a16 0fbe fb19 8e3c
00000130: 0008 92bd e127 82bc 1e2c ce3d b8db 1ebd
00000140: cf00 773d bc9b de3d b49c b23d e120 36bb
00000150: 8ef7 12be 4094 86be 6645 e3bd b252 d7bd
00000160: ab3d 43be b099 58bd 4f7a 16be f151 1a3e
00000170: 8899 8a3c 06f0 f63d a83e a23d 7ef1 f1bd
00000180: dc7a 3b3d c2b3 6dbe 0056 d43a f174 23bd
00000190: b31d cc3d 73fd 043d 44ea 5dbd 64a2 653d
000001a0: b906 cebd 3a6d e7bd b86c 0fbc 38d4 c23d
000001b0: c5e7 96bd d6b9 bcbd d78f b5bd 953a c83d
000001c0: 9067 083d 3180 d2bd 6402 7fbd 82b4 b53d
000001d0: b36d 9d3d c065 17bc cf9e ac3d 10f6 303d
000001e0: 8284 0cbd 9e71 87bd 9834 fe3d be46 8e3d
000001f0: cf45 07bb 5351 663d 061c 1fbd 7a60 d4bd
00000200: 9ce2 36bd bb8c e73c 4608 e8bd f949 773b
00000210: 69c8 04be e63b 9b3d eaa8 cbb9 5b2a bd3d
00000220: 9d77 8a3d 5053 003d be9e f2bd 5d31 ab3b
00000230: fdba 24bd 73f5 0abe ebcd 903d 71f6 fabc
00000240: a0f0 55bd ebe3 c33d 68ba c13c 2ddd e73c
00000250: 81c2 afbd bf20 a8bb 2c3b 9abd d82c e13c
00000260: 9fbd 61bd 1098 f93d 9f93 e4bd 2ce1 21bd
00000270: c093 af3c 341a 3fbd 6838 20be 863f c4bd
00000280: 5369 c1bd b1ca 9fbd 53f1 ccbc ab82 da3d
00000290: 1183 1c3e 90c6 3b3d b76f 22bd fef9 1a3d
000002a0: 410b 6e3d f66f f2bd da75 ac3d 6b37 143d
000002b0: 3ce7 0c3e 5bb8 c43d 6214 45bb 6be5 0bbc
000002c0: 7f43 37bd 55b6 a3bc 2076 a03d d3bf b3bd
000002d0: 57be 783d cb0d 063d 1893 dc3c 3088 bd3c
000002e0: 4d60 c7bb 0938 37be eebe 883d e2ee 9cbd
000002f0: 9b0a c53c ee46 303d 28e9 04be 1d26 50be
00000300: d6a0 8cbe 7238 283d a566 e93c 10a2 90bc
00000310: 3109 4bbd 00d5 be3a f876 c93c 1fc6 f93c
00000320: ea55 a93c 7328 eabd 4fdf 8cbb cf9d dd3c
00000330: 3f6c 8bbd 14b7 70be 8fb6 3f3e 5f1c c9bd
00000340: 8895 613d 448e 81bd b45d 043d e676 38bd
00000350: e581 93be a74a 53be b386 91bd a57b aebc
00000360: cd56 53be d388 78bb 1ffa 10bd a830 2a3d
00000370: 94db 66bd 540e 43bd a347 56bc c4f5 b8bd
00000380: b236 173d da01 adbc 203d dcbb dca2 d33d
00000390: c744 eabd a8f1 a43d 6bdf c13c df49 f83d
000003a0: b9f1 d23d ba40 78be ed94 83bb 80ab 9cba
000003b0: 6447 3d3d 040e 243d 3088 ce3d 8836 f2bc
000003c0: b67b b7bd 2c0b 9ebe cc86 e53a aa27 b9bd
000003d0: 0031 7ebb 80bb a43d 1de7 983d 3559 b03c
000003e0: 2869 803d e4aa 2dbc 8810 ed3d b7a8 073c
000003f0: e329 a6bd cdd5 cb3d 9fd5 b2bc 4692 d1bd

dense3.bias f4 [4]
0.11328765 0.118636146 0.19093166 -0.43156272
00000000: 5b03 e83d 82f7 f23d 9783 433e caf5 dcbe
