Reinforcment_Learning_DQN/agent_output/weights/episode_202_weights.pt (torch, 21495 bytes, 6 tensors)

dense1.weight f4 [64, 5]
00000000: 03a5 2ebe f44f ae3e f17b d03e bc50 afbf
00000010: b8e1 48bf 1693 683e 946c 08bf 9c9a 623c
00000020: 68ca 0d3f e69f a53e 7b84 a1be 83a9 d3be
00000030: efda 813e ac00 80bf daa8 a8bf 299e 5ebe
00000040: d010 29be 00d7 113c a239 953e 4082 293c
00000050: 8ca5 e8bd 4212 19be b826 7a3d e191 babf
00000060: 0643 4bbf 053d 83be a0ce e53c f39a dbbe
00000070: b0f9 da3d 3868 0c3d c06e a7be ff08 253f
00000080: 37dc 8dbc a1ae 073f bd3b be3f bfaa c23e
00000090: 06c5 d7be 2b43 f93d 2ce0 83bf fbce d3bf
000000a0: 733e 99be 001c 113e c1b6 e4be b4dc 533e
000000b0: f810 6a3e a20a 5d3e 5e5f b83c 91d4 05be
000000c0: 98a5 c3be cfbd 833e b92d 2e3e 3f63 88bd
000000d0: 9652 d8be 97e5 863f a594 f83d c5e6 a7be
000000e0: ce13 ec3e 1172 b93c 04db 19be eae3 ff3f
000000f0: 6670 0e3d bc20 91be 1d61 f43e 8252 9cbf
00000100: 9b2b 23c0 c85c 12be 20b9 10bc b02f d8bd
00000110: 806c e0bc 2049 5a3e 693c 433d 313c 40be
00000120: 8290 89bd 63e4 0cbf a652 f43e 596f 993e
00000130: 855a dabe 8730 b53e 29db 02bf 2a55 06c0
00000140: 4da4 373e 3dc8 bdbe 6f22 c33e 3875 40bf
00000150: ce5d 14c0 2906 583e 44b2 00be 1033 c1be
00000160: 39ab 73be 6baf edbc 5749 a43e d9eb a8be
00000170: 857f ab3d 494c 94bf 89eb c9bf 2e37 6dbe
00000180: c91d 1b3f 221a 23be 5ff4 293f 9ac3 4440
00000190: 4aa3 87be 4c1a 0b3f da1a 8abe 4815 0540
000001a0: 3f5f f83e f851 1dbe 3167 ee3e 4964 4ebe
000001b0: a45d 9e3c 95ad 1d40 18f2 b5be 2e8a 33be
000001c0: b041 e8bd 153c cfbe 7455 473e 25f4 f3bc
000001d0: 3b91 9e3e cc0a 983c 4b17 80bf 1af7 783f
000001e0: caf2 a1be 40fa 373e ff8c 9cbe 5048 d83e
000001f0: 4275 a3be eff2 bebd 46b1 3bbe 95ce 1b3e
00000200: f2e5 4ebf 7001 f4bf 8fb8 a9bd db3b ce3e
00000210: f2c7 d4be 3c8a e83f 22f2 503f 4eb9 01bf
00000220: 2d38 abbc 05e7 ce3e e97d 2ebf a8fd 82bf
00000230: 0c74 36be 08d4 1a3e f71b bbbe 9c70 88be
00000240: 3490 643e b364 51be c2ab 153f 28ea e63c
00000250: 67ca 61be 39c0 f23f 36ac ddbe 1665 8d3e
00000260: 1788 c9be b00b 8fbd 405f 49bd a02c 87be
00000270: fbc6 8ebe 3bcc 433e 7644 93be ae63 82bf
00000280: 586b 3dbe 90ee 663d b361 dbbe c33c 6bbe
00000290: acca a5be 8857 833e ad91 babe 7bf1 aabe
000002a0: 4943 0c3e 6d59 2cbf be84 8a3e 04ab 1cbe
000002b0: 2f6f 1cbf b069 963f 701b 02bf ce76 5a3d
000002c0: 2298 f93d c350 2cbe 2371 183f 48eb cf3f
000002d0: f21b 16bf 4952 083e 9a21 b73e 89bf 703e
000002e0: 9887 e4be c0ad 48be 1a70 2abe 4843 b13d
000002f0: 79ba 97bc 6c79 a6bf dc5e 17be f8f8 373e
00000300: db1e 82bd baa2 83be 6dfe 953e a55f 36bd
00000310: 85e7 6b3d 31a6 bd3e 4852 bebf 4448 f1bf
00000320: f7ae c8bd de55 e3bb 36de 953e a53f 73be
00000330: b96b 6abf ef98 99bd d9e2 c3be f725 ca3e
00000340: 9421 8fbf d750 d1bf 9573 18be 904e ed3e
00000350: 9284 afbd f698 263e 7f39 1540 8515 913d
00000360: 2ab6 b6be cfea f73e 5d58 6bbf 51be 30c0
00000370: 67b7 a2be e03c 5b3d 6dda d8be f805 46be
00000380: e40f 693e d4e1 07be 24ac c93e c688 39bd
00000390: 3f52 ac3e e4f9 1040 9615 86be c419 a9bd
000003a0: f531 c0be e863 b53d a295 46be 490d e0bd
000003b0: 1169 7dbe 79d6 983d ec97 65bf d545 c8bf
000003c0: 535d 82be d331 efbc b9d3 883e 3581 8ebe
000003d0: 22e8 adbf a94d e9bd 02fd 55be 052f be3e
000003e0: b8a9 83bf 044b 2dc0 3981 873e 5bd2 b9bd
000003f0: 581a 0dbf d7e4 7f3f 03a1 f2be 8c77 c8bd
-0.17055134 0.34045374 0.4071956 -1.3696513 -0.7846942 0.22712359 -0.5329068 0.013830807
0.5538697 0.32348555 -0.31546387 -0.41340265 0.25362346 -1.0000205 -1.317653 -0.21740021
-0.1651032 0.008901358 0.29145533 0.010345995 -0.113597006 -0.14948371 0.06107208 -1.4575769
-0.79399145 -0.25632492 0.028052628 -0.42891654 0.10692155 0.03427908 -0.32701683 0.6446685
-0.01731692 0.5300084 1.4861981 0.38020894 -0.42142504 0.121710144 -1.0302787 -1.654754
-0.29930457 0.14170837 -0.4467068 0.2068966 0.22858036 0.21586087 0.022506412 -0.13069369
-0.38212276 0.2573075 0.1700963 -0.06659555 -0.42250508 1.0538815 0.12137727 -0.3279325
0.4610886 0.022637399 -0.15024954 1.9991429 0.03477516 -0.28345287 0.47730342 -1.2212679
-2.5495365 -0.14293206 -0.0088332 -0.10555971 -0.027395487 0.21316957 0.047665033 -0.18772961
-0.06717016 -0.5503599 0.47719306 0.29967764 -0.42647186 0.35388586 -0.5111566 -2.098948
0.1793377 -0.37066832 0.38112208 -0.7517886 -2.3182254 0.210961 -0.12568003 -0.3773427
-0.23795785 -0.02901431 0.32087204 -0.32992437 0.08373932 -1.158578 -1.5775005 -0.2316558
0.60592324 -0.15927938 0.66388506 3.0744386 -0.26491767 0.54337 -0.2697361 2.079424
0.48510167 -0.153633 0.46563104 -0.20155443 0.01933176 2.4637196 -0.35536265 -0.1753318
-0.11340654 -0.40475526 0.19466192 -0.029779503 0.30970177 0.018559836 -1.0007108 0.9725205
-0.31630546 0.17966557 -0.3057632 0.4224267 -0.31925398 -0.0932368 -0.18329343 0.15215524
-0.8081962 -1.9062939 -0.08287155 0.4028004 -0.41558796 1.8167186 0.81619465 -0.5067338
-0.02090081 0.4041063 -0.68160874 -1.023366 -0.17817706 0.15119946 -0.36544773 -0.26648414
0.22320634 -0.2044857 0.58465207 0.028187826 -0.22049867 1.8964912 -0.4329545 0.27616185
-0.3936164 -0.06984651 -0.049163103 -0.26401234 -0.27886185 0.19120876 -0.2876317 -1.018667
-0.1849798 0.056379855 -0.42847976 -0.22972398 -0.3238119 0.2565272 -0.36439267 -0.3338736
0.13697542 -0.6732395 0.270544 -0.15299612 -0.6110715 1.1751003 -0.50823116 0.053335957
0.1218722 -0.16827683 0.5954763 1.6243677 -0.5863639 0.1331264 0.35767823 0.23510565
-0.446347 -0.1959753 -0.16644326 0.08655411 -0.018521534 -1.3005805 -0.1478228 0.17966068
-0.063535415 -0.25710088 0.29295674 -0.044524807 0.05759384 0.37040856 -1.486886 -1.8850179
-0.09798997 -0.0069377264 0.29271096 -0.23754747 -0.9157062 -0.07499873 -0.3825901 0.3948209
-1.1182122 -1.6352795 -0.14887841 0.46349 -0.08570208 0.16269287 2.3316343 0.07084183
-0.35685855 0.48421332 -0.91931707 -2.761616 -0.3178055 0.05352485 -0.42354146 -0.19338214
0.22759968 -0.1326974 0.39389145 -0.045296453 0.336565 2.265252 -0.26188344 -0.082568675
-0.37538114 0.08856946 -0.19393018 -0.10940034 -0.24747111 0.074627824 -0.8968494 -1.5646311
-0.25461826 -0.029198563 0.26724032 -0.27832952 -1.3586466 -0.113917656 -0.20897296 0.37145248
-1.0286169 -2.7077036 0.26465777 -0.09073325 -0.5511832 0.99958557 -0.47388467 -0.09788427

dense1.bias f4 [64]
00000000: 425e 05be 1bb7 eb3d b1ce 513e 1454 963e
00000010: 38ba 7bbe 2a32 c93e 74da 8abd 17c5 c73d
00000020: 1acc d73e caa5 243e 3829 cabe c72f 0b3e
00000030: 2011 ae3d d469 c83e bce3 0fbf 1a0c 50be
00000040: 2176 743e a33d 5bbe 8d86 02be dad5 babe
00000050: ae56 103e a421 7fbe f033 8cbd 9397 3a3e
00000060: e0a4 ba3c 1ac7 b7be 9adc 8bbe 32dc 6c3e
00000070: 7976 d0be d3af a63e 2927 a9be 7e88 db3e
00000080: 7466 533e 0de1 dabe 0915 89be 8d92 1cbf
00000090: 7c94 273e cf56 3d3e 31a5 18bf 4f33 b13e
000000a0: 3e28 96be 1edb 823e 450d 90be 9684 e03e
000000b0: 4c64 adbe cad9 13bf adac c8be 8896 a6bd
000000c0: b4c7 c93e 94e5 58be 9677 633e 682a 28bd
000000d0: a2b1 abbc 9798 e2be 7f88 d23e 3de8 383d
000000e0: 381e cdbd 131d 16bf 235d 82be b8e6 f13d
000000f0: 1635 c7be 5e03 93bd 77a0 d6be d0bc ecbe
-0.13024238 0.11509534 0.20489003 0.29361022 -0.24582756 0.39296085 -0.06779948 0.09754389
0.42147905 0.16078869 -0.39484572 0.13592444 0.0849936 0.3914324 -0.5620687 -0.20317116
0.23873188 -0.21410231 -0.1274664 -0.3649128 0.14095566 -0.24915177 -0.06845844 0.18221883
0.022783697 -0.3589409 -0.27316743 0.23130873 -0.40715387 0.32556018 -0.3303769 0.42877573
0.20644552 -0.42749825 -0.2677386 -0.6116112 0.16365236 0.18490146 -0.5962706 0.34609458
-0.29327577 0.25557798 -0.28135124 0.43851155 -0.33865583 -0.57754195 -0.3919424 -0.0813418
0.39410174 -0.21181327 0.22213587 -0.041056067 -0.020958725 -0.44257042 0.41119763 0.045143355
-0.100155294 -0.58638114 -0.25461683 0.11811584 -0.3890769 -0.071783766 -0.419193 -0.46237803

dense2.weight f4 [64, 64]
00000000: f71b 0c3e a032 e5be ffc1 493e 6405 d5bd
00000010: 0b7f 1a3c 84d0 713d 3503 cc3d ac24 013b
00000020: 0e7c f83d 1ae5 7ebc 0db3 71be b8c1 063e
00000030: ee5e 393e a006 933b 8cda 36be db70 993c
00000040: c5be ee3d c7e8 a7be f879 3cbe e094 b0be
00000050: d656 763f ba88 15be 00e8 e83d 5386 a2bd
00000060: 3839 0d3d f736 27bd f30f 913d 4084 3e3e
00000070: 0a3d f03d b200 d53d d8ae 5a3d 8c50 1f3e
00000080: 3a53 88bd 7b8c e6bd f96e 8bbe a47a b1bd
00000090: 2c46 043f 03f9 273d b5ab 553d 78e2 f13d
000000a0: b194 973e 1a54 4c3d c653 73bd 120b 1f3e
000000b0: 9a0c cb3d b870 6a3d 1050 703c 1368 c13d
000000c0: 6a66 4b3e 184e 433d 14a6 e2be e820 cdbd
000000d0: f88d 2cbd 7ea7 aabd 0489 2d3e 256f 553d
000000e0: f9ff 4f3d 1a7d 223e bea4 293e 00c6 13ba
000000f0: d890 5a3e 8889 e6bd 0910 dd3d 1943 6cbd
00000100: 0ce6 ac3e 8fe4 27be e5a7 adbe 96e7 8ebd
00000110: 41e8 ef3d 5c95 b8bd 49fb 413f ca54 36be
00000120: 283c fb3c e09d 033e abb3 28bd 36a7 453f
00000130: c8df c2be e6f0 e63d cdb4 e0bc 7900 53bc
00000140: b1ea ccbe 31ce 1dbe 868d 91bd 4938 873f
00000150: 0f01 40bf fd7e 173f f85d 383d ad6f e13e
00000160: a4c3 08bd 60db 0ebe f0c4 943d f109 aa3d
00000170: cccc 64bd 6872 6b3f c8c5 633d 7dec 9cbd
00000180: 8217 85bd d07b 54be 7d3d 5fbe b62d 953b
00000190: 19d5 513e d872 3fbd 1dfd a43e 6345 503d
000001a0: 7e1b 2fbd 584a 0bbf ef1a 333f d6d9 0dbf
000001b0: 0093 b4bc 2207 2d3f c4ee a4bd b62c 39bb
000001c0: e3ed 303d 6cd0 a4be 8a20 b9bd 5c0c 75bd
000001d0: 8888 2f3d 1ab4 db3d b351 813c 1588 a0be
000001e0: 73c4 9ebc b912 d13e c6e8 21be d0d9 29bd
000001f0: 02ae 283d 4914 603e fc53 aabe aab5 9a3e
00000200: d6c4 debd b293 7cbd d5e7 d83d 30d4 173d
00000210: 632c b7bc be3a f23d 0574 56be 6223 43be
00000220: 5076 c93d 3130 f2bd c400 a2bd 7327 8fbd
00000230: 5b63 533d 1610 8dbd 3b5b fabd 3939 ccbd
00000240: cc5a cabd 51d1 08bc 3c65 19be c690 d8bd
00000250: 87d2 6fbd 5389 09bd 4e6a 8f3d a2d9 57be
00000260: aa9d cc3d e3e6 14bd 5f51 123c 81ad 2bbd
00000270: 108a 0dbc 8ba6 e4bc bcf9 36bd 1cab ef3c
00000280: 7808 e83d 9f16 4bbb c63f 843d da47 9c3d
00000290: e89f 653e 558d 673d 2c9a 08be 5c6f 01be
000002a0: dd98 cb3b adbd b33d beda 02bd 8356 173d
000002b0: ac70 40bd 8358 44be a0e8 d9bc 68c9 a4bd
000002c0: 1183 4a3e c441 0f3d 417f 1f3c e6ca e4bd
000002d0: 9442 b13d a0bb f4bd 3c08 af3d aab0 873d
000002e0: f398 30bd 52b1 71bc 4093 9fbb 20e4 98bd
000002f0: 59e4 ebbb d8c4 dfbd 981d 0a3d 3b50 2dbe
00000300: 32d4 2739 7f16 37be 8646 b83e 567c b43d
00000310: 4a2c 99bc fc0f 8dbd a34b 88be 431f 823e
00000320: 6406 3b3d 48c2 ba3d 12a2 d7bc 29fd 8fbe
00000330: e36e 0f3e 24a8 1ebd 0e23 74bd 114e 523e
00000340: 2f46 1a3f 183a 5bbd 41e9 623e d364 4fbf
00000350: b61a dc3e 599f d8be 4ee5 f33d 661b f23d
00000360: 6025 ef3b 1c1c 1b3e a92b 973d 4f14 793e
00000370: 4c39 fbbd bea5 2fbe e4e9 4bbd cffc c63e
00000380: 70fe bfbc 6e83 76bd 3a0e b9bb b83e ffbd
00000390: eba6 413f 8e1a 133e 0e59 41bb ed7f 573e
000003a0: d2a5 f83e 4101 e63e 7daf 09be d11c a33e
000003b0: 1c1a 233d 8091 37be a4bc 90bd 6979 353e
000003c0: 337b fe3e 55be f13e 4107 9e3d fa36 fabd
000003d0: 605e 5dbd 7221 1d3e eed6 b03e afc4 ab3e
000003e0: 931e 73bd a27b d0bc 5a6b c13d 5864 b9bc
000003f0: ea32 783e ec53 9abd 854e 653e be68 183d
0.13682543 -0.44765186 0.1970291 -0.10401419 0.0094297035 0.059036747 0.09961549 0.0019705696
0.121330366 -0.015557552 -0.23603459 0.13159835 0.18102619 0.0044868737 -0.17856807 0.018730571
0.1165748 -0.32794783 -0.18405902 -0.34488583 0.9622625 -0.14602938 0.113723755 -0.079357766
0.034478396 -0.040823903 0.0708312 0.18605137 0.11730392 0.10400523 0.0533894 0.1555807
-0.06656499 -0.11257263 -0.27233103 -0.0866597 0.51669574 0.04100896 0.052165706 0.118107736
0.2960563 0.049884893 -0.059406064 0.15531567 0.09914513 0.057236403 0.014667526 0.09443679
0.19863287 0.047681898 -0.44267333 -0.10016042 -0.04212758 -0.08332728 0.16946799 0.05210795
0.050781224 0.15868035 0.1656675 -0.0005637109 0.21344316 -0.11256701 0.10794074 -0.057681177
0.33769262 -0.16395782 -0.33917156 -0.06977765 0.11714221 -0.09012863 0.75774056 -0.17805782
0.030668333 0.12853193 -0.04118697 0.7720827 -0.38061357 0.112764165 -0.027429963 -0.012878531
-0.40022805 -0.15410687 -0.071070716 1.0564052 -0.75001615 0.59178144 0.04501149 0.44030514
-0.033389702 -0.13950872 0.07264125 0.083026774 -0.055859372 0.91971445 0.05560854 -0.07662294
-0.064986244 -0.20750356 -0.218008 0.0045525683 0.20491447 -0.046740383 0.3222436 0.050847422
-0.042750828 -0.54410315 0.6996297 -0.55410516 -0.022042751 0.6758901 -0.080533534 -0.002825541
0.043195616 -0.32190263 -0.090394095 -0.05982624 0.042854816 0.10727711 0.015786028 -0.31353822
-0.019380784 0.40834597 -0.15811452 -0.041467488 0.04118157 0.21882738 -0.332672 0.30216724
-0.10877387 -0.06166429 0.105910935 0.037067592 -0.022360032 0.118276104 -0.20942695 -0.19056466
0.098370194 -0.11825598 -0.07910302 -0.06989946 0.051608425 -0.06887834 -0.12224432 -0.09971852
-0.098805994 -0.008350686 -0.14980024 -0.10574488 -0.058550384 -0.03357823 0.07002698 -0.21079114
0.099910095 -0.036353003 0.008930533 -0.041913513 -0.008638874 -0.027911445 -0.04467176 0.029256396
0.1132974 -0.0030988825 0.06457476 0.07630892 0.2242428 0.05653127 -0.13340062 -0.12640136
0.006213291 0.08776412 -0.03194689 0.03694774 -0.046982452 -0.1917439 -0.026600182 -0.08046228
0.1977656 0.03497483 0.00973493 -0.11171512 0.08655277 -0.11949849 0.085464925 0.06625493
-0.043114614 -0.014751749 -0.0048698485 -0.074653864 -0.007198852 -0.10926217 0.03371963 -0.16925137
0.0001600541 -0.17879675 0.35991305 0.08812778 -0.018697876 -0.068878144 -0.26620206 0.25414476
0.04566039 0.091190875 -0.026322398 -0.28122833 0.14007144 -0.03873457 -0.059603743 0.20537592
0.6026334 -0.0535222 0.22159292 -0.8101322 0.4298913 -0.42309073 0.11908971 0.11821632
0.0072981566 0.15147442 0.073813744 0.24324153 -0.12266788 -0.1715307 -0.049783602 0.38864753
-0.023436755 -0.060183935 -0.005647448 -0.124631345 0.7564532 0.14365599 -0.0029502544 0.21044894
0.4856401 0.44922832 -0.1344585 0.31857923 0.03981982 -0.17926598 -0.0706723 0.17722096
0.4970337 0.47215524 0.07716227 -0.12217517 -0.05404508 0.1534479 0.34538978 0.33548495
-0.05935533 -0.025449578 0.09444304 -0.022630855 0.24238172 -0.07535538 0.22393234 0.037209265

dense2.bias f4 [64]
00000000: 766e 893e 2c5d 403c f9c1 debd d5cc 9f3e
00000010: a745 6bbe 48f3 b93d 9d7c 383d 5bf4 14be
00000020: f16e 683d 7814 bd3c c4ec 3bbd 9180 29bb
00000030: 54cf 4e3d 6ca5 32be b0f9 853d 4108 993d
00000040: ff24 47be 9376 ef3d 710f b43b 0814 8cbc
00000050: b426 2cbe f877 f03d 424b 4fbe 5212 8e3d
00000060: cc0b 55bd 7c25 053e 9b28 943d 761a e03d
00000070: b3ef c13d c4e1 13bd 08de debc aa20 0e3d
00000080: 1839 eebd f222 dabd c0f0 0cbe fa02 a43d
00000090: acba 0ebe 2ce3 4dbc e8c6 c2bc 5165 d43d
000000a0: c68f 283d eb26 03be 3033 acbd 4d98 3ebe
000000b0: 497d 71bd c919 bd3d 4345 d83c 70d6 ab3b
000000c0: 07d7 2abe bcb2 df3d e07f 503d d900 77bb
000000d0: 8c9f 8abc 8050 f93c 9bfa 28bd a682 8ebc
000000e0: e5d0 06be 8458 0bbd 626a 0abe 4c7d 4d3e
000000f0: 63db 813d 6078 90be 04cd 00be fadf 323e
0.26842088 0.011740964 -0.10876841 0.31210962 -0.22975789 0.09079605 0.045040715 -0.14546339
0.056746427 0.02308105 -0.045880094 -0.0025863985 0.050490692 -0.17445916 0.06541765 0.074722774
-0.19447707 0.11692538 0.005495005 -0.017099395 -0.16811639 0.11741632 -0.20243552 0.06937088
-0.052013204 0.1300258 0.072343074 0.10942547 0.09469547 -0.03610398 -0.027205482 0.03469912
-0.116319835 -0.106511965 -0.13763714 0.0800838 -0.13938397 -0.012566369 -0.023776487 0.10370887
0.041152738 -0.12807815 -0.08408201 -0.18612786 -0.05895737 0.09233434 0.026400214 0.005244069
-0.16683589 0.10922763 0.0509032 -0.0037689714 -0.016921781 0.030433893 -0.04125462 -0.017396282
-0.13165624 -0.034019962 -0.13517144 0.20067328 0.06340673 -0.2821684 -0.12578207 0.17468253

dense3.weight f4 [4, 64]
00000000: 0623 c9bd fcb8 973e ce44 b6bd f4cd 6cbe
00000010: faeb 00bd 84f5 5ebd ebd8 f5bc dc0a bc3c
00000020: 8bb4 a6bd 3202 aebd b807 e03d 00b4 0dbe
00000030: 5093 fabc db59 103d 18a7 c43d 154e 7c3b
00000040: 634d 6dbe ec6e 22be da90 b23d 80be d8bc
00000050: eafc e1bc 7755 3fbe b3c5 81bd 0787 4ebc
00000060: c06f a7bc c8ed d8bd dc77 8e3c da88 a93d
00000070: 02d1 04be 0178 423d e049 8cbd 30f5 efbc
00000080: d999 e1bb 0d4d 183d 670b 4d3d ae67 833d
00000090: a1b4 993d a5a4 85be 704a d6bc c043 313d
000000a0: 1504 223d a350 333e 3cd2 08bc d85e 1abe
000000b0: 3190 71be 87c1 a63d 8ab1 6b3d 7584 c13d
000000c0: 7216 b2bd 4601 df3d ec9d d9bc 469a 25bc
000000d0: f13e 00bd 04c6 97bd b335 863c 983e aebc
000000e0: de52 c6bd 2096 203c 34d6 0abd e204 63be
000000f0: 9acd 1cbe 5cae 1ebe c494 9c3d d77f 38be
00000100: 758e 0cbe dd41 943e ee46 24bd 97a7 63be
00000110: 2173 1fbd 80ce 83bb 35ad 74be 7036 3bbd
00000120: dfc5 db3c cee9 c4bd 946a 813d 8780 49be
00000130: 622c e23d 901c b0bc 0296 b5bd 71ec c3bd
00000140: 1193 33be 76cf 8cbe 34c0 54bd e4a9 44bd
00000150: 07d9 293c 3087 13be 0183 623d 498e 92bd
00000160: c07f 8f3b 6fe6 27be 3bd5 84bc 8012 5fbb
00000170: 67b1 08be 81db 633d a868 353d 58cd 213d
00000180: 0937 7ebd 3dda ae3c 9a4e a1bd e49d c9bd
00000190: bae2 1d3d 21ee 79be aafe f1bd 72a2 85bc
000001a0: 02ad 4b3d 7596 443e c08e a2bd 0c6c eabd
000001b0: 49f8 4e3e 4c03 0cba e62d e0bd 67b0 583d
000001c0: a12b d5bd f889 ce3d 0e04 a6bd 3eb4 c33b
000001d0: c785 543d a049 dd3d 65c0 543d 6f6c a6ba
000001e0: 0343 523d 609f 6ebc e8ae 95bc 9ac2 78be
000001f0: 365a 80be b80a 47be e5ec 4b3d 6a11 45be
00000200: ab40 debd abad 973e 4e02 a4bd 94ed 53be
00000210: 22c5 e5bd 1ab6 83bb cb80 2c3a f84f e1bd
00000220: 26fa 39bd 149b bebd 3046 703c f188 f8bd
00000230: a8e5 693d 883f e43b 54b4 82bd ae6e adbd
00000240: aa41 0abe 2149 f6bd 5079 f13c 0c43 6fbd
00000250: 224e 31bd 58a6 21be 9c1a f83c b104 57bc
00000260: 4e64 cf3d c86d 08bd e549 ec3d 665e 84bd
00000270: 4420 01be 4836 f53c f616 b4bd 2e97 353e
00000280: 53fb ca39 d435 bb3b 522c b0bc 3ebd 97bd
00000290: aecf c03d 0f4a 92be 6852 c7bc 2dc9 123d
000002a0: 28d7 cbbc dc4b 603e 2315 09bc 79a6 f6bd
000002b0: d015 283e 5327 2bbd 708a d33d 84bd 493d
000002c0: a641 f2ba c00f 13bb 866d 80bd 70ae b5bd
000002d0: 31d5 413d 14e4 413d fba1 933d c9a6 043c
000002e0: bb54 ad3c 307b 2f3c ddb7 82bc d57d b3bd
000002f0: a76c 70be f56b 45be b742 bf3d 3ab0 963c
00000300: 92e9 5cbe c97e 3e3e e9d2 84bd ea81 69be
00000310: 64af cf3b 5896 1dbd fdc1 86be db83 a1bd
00000320: 2767 4d3d a049 cabd 30bc 833d 40fc 17be
00000330: a070 883b fa3b d13d 2a2b b1bd b2ba f23c
00000340: 20d1 26bc 600e 11be 6e8e b03d 5c59 d33d
00000350: a2ef 823d ae6e 65be 56b9 733d 07ef acbd
00000360: 7001 58bc d24d 55be cd4f 8fbd d8c0 7b3d
00000370: 819d 21be bd37 893d 9c89 da3d 209a 923e
00000380: 0a71 4bbd 8ed4 e7bc 6d78 10bc 9878 e83c
00000390: e10f 6fbd d83f a8be fc22 833d f452 c23c
000003a0: 5d36 9e3c 7a2c 04bc 3f2a 55be 3ac7 2dbd
000003b0: ebd3 183e c060 f3bd 7ef1 213d eb5a b6bc
000003c0: 5336 753c 4ec0 a13d f195 97bd 1fc8 a93c
000003d0: 7d72 00bd f49d 8abd 1fab 4b3d aeef 80bd
000003e0: f809 d13c 98c4 a2bd f7dd b63d 087c c4bd
000003f0: b55e 28be d9db 45bd f7f9 3d3d f9ac 08be
-0.09821133 0.2963332 -0.08899842 -0.2312544 -0.031475045 -0.05443336 -0.030010661 0.022954397
-0.081399046 -0.084965125 0.10938972 -0.13838196 -0.030587822 0.035241943 0.09602183 0.003849869
-0.23174052 -0.15862626 0.087190345 -0.026458025 -0.02758642 -0.18684946 -0.06336536 -0.012605435
-0.020439029 -0.10592228 0.017391138 0.082780555 -0.12970355 0.047477726 -0.06850028 -0.02929172
-0.006884795 0.037182856 0.050059702 0.0641626 0.07505155 -0.26102176 -0.026158541 0.043277502
0.039554674 0.17511229 -0.008350905 -0.15075243 -0.23590161 0.08142381 0.05754236 0.09449092
-0.08695687 0.10888915 -0.02656456 -0.010107582 -0.031310026 -0.07410815 0.016383028 -0.021270081
-0.096837744 0.009801418 -0.033895686 -0.22169831 -0.15312806 -0.154962 0.07645562 -0.18017517
-0.13726218 0.289565 -0.040106706 -0.22231899 -0.038928155 -0.0040224195 -0.23894198 -0.045706213
0.02682775 -0.09614907 0.06319156 -0.19677936 0.110436216 -0.021497995 -0.08866502 -0.09566582
-0.1753657 -0.2750203 -0.05194111 -0.048013583 0.010366685 -0.14407039 0.055300716 -0.07156045
0.0043792427 -0.16396497 -0.016214957 -0.0034038126 -0.13348924 0.055629257 0.04428926 0.03950247
-0.062064204 0.021344298 -0.0787632 -0.09844568 0.0385463 -0.24407245 -0.118161514 -0.016312812
0.04972554 0.1919802 -0.07937384 -0.114463896 0.20211901 -0.00053410674 -0.109462544 0.052902605
-0.10408712 0.10084909 -0.08106242 0.0059724143 0.051885393 0.108050585 0.051941294 -0.0012697111
0.05133344 -0.014564365 -0.018271878 -0.24292985 -0.25068825 -0.19437683 0.049786467 -0.19244924
-0.10852178 0.29624686 -0.08008252 -0.20696098 -0.11219241 -0.004019511 0.0006580471 -0.11001581
-0.045404576 -0.093069226 0.0146651715 -0.121354945 0.057103783 0.0069655813 -0.06382051 -0.08468376
-0.13501611 -0.12025667 0.029476792 -0.05841355 -0.043287404 -0.15786111 0.030286126 -0.013123677
0.101265535 -0.03330782 0.11537532 -0.064633176 -0.12609965 0.02993311 -0.08793442 0.17733452
0.00038715694 0.005713204 -0.021505509 -0.07409142 0.09414612 -0.28572127 -0.024331287 0.035836387
-0.024882868 0.21903938 -0.008366856 -0.12043471 0.16414571 -0.04178555 0.10329139 0.049253
-0.00184827 -0.0022439808 -0.0627089 -0.08871162 0.047322456 0.047336653 0.0720863 0.008096405
0.021158567 0.0107105225 -0.015956813 -0.08764235 -0.23478948 -0.19279464 0.09338897 0.018394578
-0.21573475 0.18603052 -0.064855404 -0.22803465 0.006338047 -0.038473457 -0.26319876 -0.078864776
0.050147202 -0.09877324 0.06432378 -0.1484232 0.0041638166 0.10216518 -0.08650811 0.029630039
-0.010181695 -0.1416564 0.08620916 0.10319778 0.063933626 -0.22405502 0.059502922 -0.08444028
-0.0131839365 -0.20830467 -0.06997643 0.061463207 -0.15782739 0.06700084 0.10670778 0.28633213
-0.04966835 -0.028299596 -0.008817774 0.028377816 -0.058364753 -0.3286121 0.06403157 0.023721196
0.019313032 -0.008067245 -0.20816897 -0.042426325 0.1492459 -0.11883688 0.039536946 -0.02226015
0.014966565 0.07898007 -0.07401646 0.020725308 -0.031359185 -0.067684084 0.04972374 -0.06295715
0.025517449 -0.079476535 0.08929055 -0.095939696 -0.16442378 -0.048305366 0.046380963 -0.13347234

dense3.bias f4 [4]
00000000: 90b5 b53d 8cc1 f1bb f861 653c 5b5a 35be
0.08872521 -0.007377809 0.014000408 -0.17710249
