Reinforcment_Learning_DQN/agent_output/weights/episode_102_weights.pt (torch, 21495 bytes, 6 tensors)

dense1.weight f4 [64, 5]
000000 d4 fb 22 be 44 ae a6 3e 8a 2e da 3e 62 98 59 bf
       -0.15916377 0.3255483 0.4261363 -0.8499814
000010 74 23 39 bf 25 dc 82 3e e9 63 c7 be 48 79 1f 3c
       -0.7231972 0.25558582 -0.38943413 0.009733506
000020 91 f2 cc 3e b0 5f a6 3d 4a f2 21 be 60 00 8a be
       0.40028813 0.0812372 -0.15815082 -0.2695341
000030 9a 11 cf 3e 68 7d 6f bf e8 cc 91 bf 29 9e 5e be
       0.40443116 -0.9355073 -1.1390657 -0.21740021
000040 d0 10 29 be 00 d7 11 3c a2 39 95 3e 40 82 29 3c
       -0.1651032 0.008901358 0.29145533 0.010345995
000050 48 88 8e bd d4 f0 e6 bd ba 54 dd 3d e1 91 ba bf
       -0.06959587 -0.11276403 0.10807176 -1.4575769
000060 b0 76 4b bf 05 3d 83 be a0 ce e5 3c f3 9a db be
       -0.7947798 -0.25632492 0.028052628 -0.42891654
000070 b0 f9 da 3d 38 68 0c 3d 0e 58 a3 be 91 29 17 3f
       0.10692155 0.03427908 -0.31903118 0.590478
000080 13 a6 19 3d 43 b7 e3 3e 86 1d 3d 3f d2 07 bc 3e
       0.037511896 0.44475755 0.73873174 0.36724716
000090 4e cf d9 be 99 7c 83 3d 86 be 2e bf 0b 99 8d bf
       -0.42540973 0.064202495 -0.68259466 -1.106233
0000a0 73 3e 99 be 00 1c 11 3e c1 b6 e4 be b4 dc 53 3e
       -0.29930457 0.14170837 -0.4467068 0.2068966
0000b0 f8 10 6a 3e 32 f1 95 3e 03 dc c6 3d 46 4b bc bd
       0.22858036 0.2928558 0.09709933 -0.09194045
0000c0 29 f0 f7 bd 84 53 86 3e d9 b1 29 3e 7f 08 b0 bc
       -0.12106354 0.26235592 0.1657175 -0.021488426
0000d0 d4 98 ab be 0d e0 22 3f da 21 b6 3b b6 62 8a be
       -0.33515036 0.63623124 0.0055582346 -0.27028435
0000e0 3c c6 f1 3e 4e 1a 9b 3d 1d 11 18 be eb 01 bb 3f
       0.47221553 0.075733766 -0.14850278 1.460996
0000f0 1e b7 a3 bc de dc ae be ff 98 e2 3e 0d 57 74 bf
       -0.019984778 -0.34152883 0.44257352 -0.9544533
000100 81 1b 00 c0 c8 5c 12 be 20 b9 10 bc b0 2f d8 bd
       -2.0016787 -0.14293206 -0.0088332 -0.10555971
000110 80 6c e0 bc 20 49 5a 3e c8 1b 8c 3d 32 90 37 be
       -0.027395487 0.21316957 0.06841236 -0.179261
000120 33 41 6a bd a7 18 04 bf a6 52 f4 3e b0 28 aa 3e
       -0.057191085 -0.51600116 0.47719306 0.33234167
000130 24 cb bd be d9 d6 ba 3e e1 48 ef bd dc 88 93 bf
       -0.37069046 0.3649204 -0.116838224 -1.1526141
000140 b6 78 3e 3e be db b6 be 7a 97 be 3e 7e f3 f7 be
       0.18600735 -0.35714525 0.37224942 -0.48427957
000150 ea 1a ba bf 15 5e 42 3e 19 6d f2 bd 0d 82 a0 be
       -1.4539464 0.18981202 -0.11837215 -0.3134922
000160 33 6a db be 14 9e 80 3d 87 87 b4 3e b9 7f 93 be
       -0.4285446 0.06280151 0.3525965 -0.28808382
000170 53 ff 56 3d 88 31 40 bf f8 a9 87 bf 96 28 4e be
       0.05248959 -0.7507558 -1.0598745 -0.2013267
000180 1c 22 12 3f 12 a7 b9 bd c9 f2 0f 3f ae 4d 06 40
       0.57083297 -0.09065069 0.56229836 2.0984912
000190 73 fe 85 be d6 e0 fa 3e 61 ce 8c be 2e 39 c3 3f
       -0.26170692 0.4899966 -0.27501205 1.5251825
0001a0 3b 61 ea 3e 6c 53 06 be ec ce de 3e f8 ef 13 be
       0.45777306 -0.1311776 0.43517244 -0.1444701
0001b0 e3 12 e8 bd bd 91 c2 3f 18 f2 b5 be 2e 8a 33 be
       -0.11331727 1.5200726 -0.35536265 -0.1753318
0001c0 b0 41 e8 bd 15 3c cf be 74 55 47 3e 8f 2f 19 bb
       -0.11340654 -0.40475526 0.19466192 -0.0023374294
0001d0 ed e5 9a 3e 4e 85 f6 3c 28 7f 2a bf 94 29 f5 3e
       0.30253544 0.030092862 -0.66600275 0.47883284
0001e0 ca f2 a1 be 40 fa 37 3e ff 8c 9c be 50 48 d8 3e
       -0.31630546 0.17966557 -0.3057632 0.4224267
0001f0 42 75 a3 be 4b d3 62 3c 07 27 d0 bd 7f aa 59 3e
       -0.31925398 0.0138443215 -0.10163694 0.21256445
000200 8d 98 21 bf d5 c0 bc bf b6 e6 49 bc 75 2c d4 3e
       -0.631234 -1.4746348 -0.012323072 0.41440168
000210 82 73 c7 be 71 65 94 3f 60 c7 29 3f ce 18 08 bf
       -0.38955313 1.1593457 0.6631985 -0.5316285
000220 18 8c 6b bd 15 38 bf 3e 26 5c 26 bf 9f c9 4b bf
       -0.05750665 0.37347475 -0.6498436 -0.79604524
000230 0c 74 36 be 08 d4 1a 3e f7 1b bb be 9c 70 88 be
       -0.17817706 0.15119946 -0.36544773 -0.26648414
000240 34 90 64 3e b0 07 43 be 1a 58 0b 3f dc 38 e3 3c
       0.22320634 -0.19045901 0.5443131 0.027737074
000250 6c 3d 3e be e6 8f 7f 3f 36 ac dd be 16 65 8d 3e
       -0.18578118 0.99828947 -0.4329545 0.27616185
000260 17 88 c9 be b0 0b 8f bd 40 5f 49 bd e8 41 1b be
       -0.3936164 -0.06984651 -0.049163103 -0.1516186
000270 e9 2a 77 be ad 6d 8a 3e 76 44 93 be 59 b0 82 bf
       -0.24137463 0.270368 -0.2876317 -1.0210067
000280 58 6b 3d be 90 ee 66 3d b3 61 db be c3 3c 6b be
       -0.1849798 0.056379855 -0.42847976 -0.22972398
000290 ac ca a5 be ca 74 8c 3e e5 cb b2 be 02 f3 72 be
       -0.3238119 0.27432853 -0.34921184 -0.23725513
0002a0 48 e8 3a 3d 8a 78 12 bf d3 44 8e 3e 8c 02 bc bd
       0.045631677 -0.5721518 0.27786884 -0.09180173
0002b0 14 c4 03 bf 06 26 54 3f e6 e8 cc be ec bb 16 3d
       -0.51471066 0.8287052 -0.40021437 0.03680031
0002c0 47 82 0b 3e d7 57 3e be 37 4c f2 3e 10 b3 af 3f
       0.13623916 -0.18588196 0.47323772 1.372652
0002d0 8e 73 18 bf 67 78 00 3e e8 bf a2 3e 89 bf 70 3e
       -0.5955132 0.1254593 0.31787038 0.23510565
0002e0 cc a8 58 be d0 33 07 be 63 81 f5 bd 21 4e 05 3e
       -0.21158141 -0.13203359 -0.11987569 0.13018085
0002f0 79 ba 97 bc 6c 79 a6 bf df fe 99 bd 9a 90 6e 3e
       -0.018521534 -1.3005805 -0.07519316 0.23297349
000300 90 9b f2 bc ab a1 4c be 2d 4c f5 bd 93 bb 2a bd
       -0.029615194 -0.19983546 -0.1197742 -0.04168279
000310 df 19 76 3d df dc bf 3e b0 48 8b bf 47 a8 a4 bf
       0.060083266 0.374732 -1.0881557 -1.2863854
000320 2a 2e 2e be 11 e5 ad bd 46 c6 45 3e 93 30 3f be
       -0.17009798 -0.084909566 0.19313917 -0.18670873
000330 f9 e4 06 bf dc dc b4 bd e0 be dc be 4b 94 c5 3e
       -0.52693135 -0.08831188 -0.43114376 0.385897
000340 a0 f9 80 bf 6f 5c b2 bf f4 08 1d be e4 e6 d8 3e
       -1.007618 -1.3934458 -0.15335447 0.42363656
000350 f7 0f 24 bd ce e6 18 3e aa e5 b5 3f 10 10 95 3d
       -0.040054288 0.14931795 1.4210713 0.07278454
000360 19 18 c0 be 95 31 eb 3e 38 22 13 bf 8e 56 03 c0
       -0.37518385 0.45936266 -0.5747409 -2.0521579
000370 67 b7 a2 be e0 3c 5b 3d 6d da d8 be f8 05 46 be
       -0.3178055 0.05352485 -0.42354146 -0.19338214
000380 e4 0f 69 3e e6 de f9 bd ef d3 b9 3e 06 7c 2a bc
       0.22759968 -0.12200718 0.36294505 -0.010405546
000390 bc 69 ad 3e ab e7 b2 3f 96 15 86 be c4 19 a9 bd
       0.3386973 1.397695 -0.26188344 -0.082568675
0003a0 f5 31 c0 be e8 63 b5 3d a2 95 46 be a5 df 2d bd
       -0.37538114 0.08856946 -0.19393018 -0.042449612
0003b0 86 b8 4c be 85 4f 17 3e f3 d0 5e bf 5e 20 b9 bf
       -0.19992265 0.14776428 -0.8703758 -1.4463003
0003c0 92 60 84 be 5b da b0 bd 0d ee 70 3e 3d 35 4c be
       -0.25854927 -0.08635398 0.23528309 -0.19942184
0003d0 df 3e 95 bf 6d 17 86 bd b9 59 49 be ea aa c4 3e
       -1.1659812 -0.06547437 -0.19663133 0.38411647
0003e0 f6 f4 3b bf c4 81 02 c0 56 75 86 3e f6 eb 60 bd
       -0.73420656 -2.0391703 0.26261395 -0.05491253
0003f0 2a fc f6 be 97 bf 3e 3f de 74 b0 be 8c 77 c8 bd
       -0.4823926 0.7451109 -0.34464163 -0.09788427

dense1.bias f4 [64]
000000 5e 32 0d be f5 da 2c 3e cb 7f b7 3e 14 54 96 3e
       -0.13788745 0.168804 0.35839686 0.29361022
000010 59 20 4a be 2a 32 c9 3e fa f4 06 bd d2 2a 65 3d
       -0.19738902 0.39296085 -0.03294847 0.05594904
000020 1a cc d7 3e f7 60 6d 3e 5b 1c b3 be 5a 5e 5f 3e
       0.42147905 0.2318152 -0.3498257 0.21813336
000030 7c 81 a1 bb d4 69 c8 3e f8 74 0c bf 20 f6 57 be
       -0.004928766 0.3914324 -0.5486598 -0.21089983
000040 27 42 4e 3e 8b ae 4e be 79 0d 01 be 08 30 95 be
       0.20142423 -0.2018377 -0.12602796 -0.29138207
000050 01 0c ab 3d 72 28 38 be f0 33 8c bd 7e 5f 5e 3e
       0.08351899 -0.17984179 -0.06845844 0.21716115
000060 e0 a4 ba 3c 24 6a 98 be 6e 1f 70 be a9 a0 4b 3e
       0.022783697 -0.2976848 -0.2344949 0.19885506
000070 79 76 d0 be ff 79 b4 3e 29 27 a9 be 62 24 04 3f
       -0.40715387 0.35249326 -0.3303769 0.51618016
000080 74 66 53 3e 51 7b c8 be 97 9d 53 be 83 26 19 bf
       0.20644552 -0.39156583 -0.20665585 -0.5982439
000090 40 b9 08 3e 95 d0 74 3e f0 58 05 bf 65 70 a2 3e
       0.13351917 0.23907693 -0.5208883 0.31726375
0000a0 a2 64 c5 be 72 d7 66 3e 94 b3 7a be e9 9e c5 3e
       -0.3855334 0.22543123 -0.24482566 0.385978
0000b0 4c 64 ad be d6 59 0a bf ad ac c8 be 6d 8b 31 bc
       -0.33865583 -0.5404333 -0.3919424 -0.010836464
0000c0 82 4a bb 3e 36 86 5e be 38 a5 7b 3e 68 2a 28 bd
       0.36580282 -0.21730885 0.24574745 -0.041056067
0000d0 ef 35 8b 3b 80 b4 d0 be 6e fa c1 3e 6d 37 23 3d
       0.0042483727 -0.4076271 0.37886375 0.03984778
0000e0 f5 bb 0b be 8c f7 07 bf 23 5d 82 be b8 e6 f1 3d
       -0.13645919 -0.531121 -0.25461683 0.11811584
0000f0 7d c6 bd be 77 40 fa bb 3b 5d bf be 01 57 ca be
       -0.37065497 -0.0076370793 -0.37375817 -0.39519504

dense2.weight f4 [64, 64]
000000 70 91 91 3d 7e e5 9d be 98 50 36 3e 64 05 d5 bd
       0.07107818 -0.3083915 0.17804182 -0.10401419
000010 a7 fc 39 3c 84 d0 71 3d 64 2d 6a 3d 43 d0 52 3d
       0.011351741 0.059036747 0.057172194 0.051468145
000020 0e 7c f8 3d 0b de e0 3c d4 19 9e bd 37 8a 2b 3d
       0.121330366 0.027449628 -0.0771977 0.04187986
000030 df 7d 1f 3e a0 06 93 3b 56 c5 33 be b4 b5 02 3d
       0.1557536 0.0044868737 -0.17555746 0.031911567
000040 0e d1 bc 3d 3f dc 23 be a2 b7 11 be 90 39 97 be
       0.092195615 -0.16001986 -0.14230207 -0.29536104
000050 d1 21 47 3f 80 d7 be bd 00 e8 e8 3d a6 87 cb bd
       0.77785975 -0.09318447 0.113723755 -0.09937982
000060 38 39 0d 3d be 08 08 bd fe 9f 21 3e 36 1a 1e 3e
       0.034478396 -0.033211462 0.15783688 0.15439686
000070 0a 3d f0 3d c8 5b 92 3d d8 ae 5a 3d e5 ab 0a 3e
       0.11730392 0.07146412 0.0533894 0.13542135
000080 3a 53 88 bd 24 29 50 bc 20 2e 5d bd 24 56 64 3c
       -0.06656499 -0.012705121 -0.053999066 0.013936553
000090 4a 12 d8 3e 0f d1 46 bc f2 3e b4 3c 65 84 66 3d
       0.42201453 -0.012134804 0.02200267 0.056278605
0000a0 78 c0 17 3e fe aa e6 3d 59 b0 5e bd 96 e9 04 3e
       0.14819515 0.11263083 -0.054367397 0.12979731
0000b0 9a 0c cb 3d cc d9 60 3d 10 50 70 3c 3f 78 b8 3d
       0.09914513 0.054895207 0.014667526 0.0900731
0000c0 c2 d6 7e 3d 1f ba 38 3b 5b 8c 71 be e8 20 cd bd
       0.062216528 0.0028187109 -0.23588698 -0.10016042
0000d0 0e 46 43 bd a6 a0 d7 bd d2 59 ee 3d be 2e bf 3c
       -0.04767423 -0.10528688 0.116382256 0.023337718
0000e0 64 67 e3 3d a6 79 06 3e be a4 29 3e 00 c6 13 ba
       0.111037046 0.13132343 0.1656675 -0.0005637109
0000f0 f2 f1 41 3e 3c 8b 69 bd dd 7e fc 3d a5 6c 2f bd
       0.18939951 -0.05701755 0.12328885 -0.04282822
000100 25 32 97 3e 30 f0 1e be fd c8 93 be 96 e7 8e bd
       0.29530445 -0.15521312 -0.2886428 -0.06977765
000110 fc 2c e8 3d 5c 95 b8 bd b2 fa 16 3f f8 62 39 be
       0.11336705 -0.09012863 0.5897628 -0.1810416
000120 28 3c fb 3c b0 65 a2 3d 0c 7a d1 bc 82 e5 27 3f
       0.030668333 0.079295516 -0.025570892 0.65584576
000130 a4 c6 a1 be e6 f0 e6 3d cd b4 e0 bc 70 1a 02 bd
       -0.31596863 0.112764165 -0.027429963 -0.031763494
000140 60 02 bd be f2 17 15 be 0c 5f 9d bd 15 78 4f 3f
       -0.36915874 -0.14559916 -0.076841444 0.81042606
000150 90 8b 0c bf 56 0f cd 3e f8 5d 38 3d f7 c2 b8 3e
       -0.54900455 0.40050763 0.04501149 0.36086246
000160 a4 c3 08 bd ac be 8e bd af 03 a7 bc 31 84 fa bc
       -0.033389702 -0.069699615 -0.020387499 -0.030580612
000170 cc cc 64 bd e8 2c 4a 3f c8 c5 63 3d bc f9 c5 bd
       -0.055859372 0.7897477 0.05560854 -0.09666774
000180 82 17 85 bd 02 f1 2c be 3e 7d 44 be d2 a4 7e 3b
       -0.064986244 -0.16888812 -0.19188401 0.0038855565
000190 27 82 b8 3d 6a af 1c bd 19 cf 91 3e ca ef 88 3d
       0.090091996 -0.038253225 0.28478315 0.06686361
0001a0 dc 01 3a 3d 67 ab ff be fe 64 0e 3f 56 c3 da be
       0.04541193 -0.49935457 0.5562285 -0.42727154
0001b0 00 93 b4 bc b3 5b 0a 3f c4 ee a4 bd ac 23 a5 3c
       -0.022042751 0.5404617 -0.080533534 0.020158611
0001c0 71 71 6e bd 2b 1c 8b be e4 a0 90 bd 5c 0c 75 bd
       -0.058213655 -0.27169928 -0.070619375 -0.05982624
0001d0 88 88 2f 3d f7 86 bd 3d 43 1c 66 3d 26 e8 84 be
       0.042854816 0.09254258 0.056179296 -0.25958365
0001e0 a8 52 36 be ef a4 94 3e c6 e8 21 be d0 d9 29 bd
       -0.17804968 0.29032084 -0.15811452 -0.041467488
0001f0 f0 76 d9 bc 8a 30 33 3e 86 9e 79 be bb 5a 68 3e
       -0.026545972 0.17498985 -0.24376878 0.22690861
000200 16 04 39 bd df 63 a6 3d 22 e8 04 3e 30 d4 17 3d
       -0.045169912 0.08124518 0.12979177 0.037067592
000210 20 c1 94 bd be 3a f2 3d 83 2c 1d be ab f8 bd bd
       -0.07263398 0.118276104 -0.15349011 -0.09275945
000220 50 76 c9 3d e8 b3 18 bd c4 00 a2 bd 40 77 0b bb
       0.098370194 -0.037280947 -0.07910302 -0.0021280795
000230 f1 10 d7 3d 16 10 8d bd 3b 5b fa bd d0 c0 f3 bc
       0.10501278 -0.06887834 -0.12224432 -0.029755026
000240 8b 9b 14 bd 51 d1 08 bc 9f 41 ac bd f3 51 7a bd
       -0.03628115 -0.008350686 -0.08410954 -0.06111331
000250 87 d2 6f bd b3 5d 9d bc 4e 6a 8f 3d e1 f2 06 be
       -0.058550384 -0.019209718 0.07002698 -0.13178588
000260 aa 9d cc 3d fc fe 5a 3c 5f 51 12 3c e5 1f 84 bd
       0.099910095 0.013366457 0.008930533 -0.06451396
000270 10 8a 0d bc c4 a1 63 3d bc f9 36 bd 66 00 88 3c
       -0.008638874 0.055574194 -0.04467176 0.016601752
000280 78 08 e8 3d 9f 16 4b bb c6 3f 84 3d da 47 9c 3d
       0.1132974 -0.0030988825 0.06457476 0.07630892
000290 eb 45 36 3e 2a 67 b7 bc c0 a1 79 bd 9d 7d 83 bd
       0.17800109 -0.02238806 -0.060945272 -0.06420443
0002a0 b3 46 d4 ba a7 84 ee 3d 20 79 39 3d f2 05 bc 3d
       -0.0016195386 0.11646395 0.04528153 0.091808215
0002b0 ac 70 40 bd 7c 7c f5 bd a0 e8 d9 bc 19 34 fb bd
       -0.046982452 -0.11986634 -0.026600182 -0.12265796
0002c0 40 b1 24 3e 97 2b ab 3d 41 7f 1f 3c e6 ca e4 bd
       0.1608324 0.083579235 0.00973493 -0.11171512
0002d0 94 42 b1 3d 64 9f 2e bd d9 39 0b 3e 8f c3 e4 3d
       0.08655277 -0.042632475 0.13596286 0.11170112
0002e0 f3 98 30 bd 6b 62 68 3d 40 93 9f bb 20 e4 98 bd
       -0.043114614 0.056734484 -0.0048698485 -0.074653864
0002f0 f7 0a 46 bc d8 c4 df bd d5 d3 8a 3d e1 b2 a2 bd
       -0.012087575 -0.10926217 0.06778685 -0.07944275
000300 6e 17 8c bd c1 2d ee bd 9b 79 99 3e 56 7c b4 3d
       -0.06840406 -0.116298206 0.2997559 0.08812778
000310 27 f4 fa bc fc 0f 8d bd 47 33 f1 bd e1 79 6b 3e
       -0.030633999 -0.068878144 -0.117773585 0.22995712
000320 64 06 3b 3d 9e 57 98 3d 42 24 1d bb 1f 76 14 be
       0.04566039 0.07438587 -0.002397791 -0.14498185
000330 d8 98 19 3e 24 a8 1e bd 62 35 48 bd e3 a3 24 3e
       0.14999712 -0.03873457 -0.048879035 0.16078143
000340 56 ad 10 3f 58 3d c0 bc 89 2e 55 3e 77 59 1d bf
       0.5651449 -0.023466751 0.20818533 -0.6146464
000350 c1 cf fc 3e 5b 1b 99 be 4e e5 f3 3d f8 bd be 3d
       0.49377254 -0.29903683 0.11908971 0.093135774
000360 60 25 ef 3b 09 41 16 3e bb d5 1a 3e 6e 77 3f 3e
       0.0072981566 0.14673246 0.15120594 0.18697903
000370 4c 39 fb bd e4 8f 3d be e4 e9 4b bd f4 1a b7 3e
       -0.12266788 -0.18511921 -0.049783602 0.3576275
000380 70 fe bf bc 9e 22 1c bd 33 e7 9b 3c 9f 9e af bd
       -0.023436755 -0.03811895 0.019031143 -0.085751764
000390 1a 07 29 3f 91 1b 89 3d 09 d5 ee b9 0a 47 0c 3e
       0.6602646 0.06694711 -0.0004555362 0.13698974
0003a0 91 52 94 3e ad 9f f8 3e 84 87 a8 bd bb bb a4 3e
       0.28969243 0.48559323 -0.082289726 0.32174477
0003b0 1c 1a 23 3d 99 50 19 be a4 bc 90 bd bc f6 29 3e
       0.03981982 -0.14972152 -0.0706723 0.16598028
0003c0 fe f2 b5 3e 21 7a d5 3e d5 ed ec 3d fa 36 fa bd
       0.3553695 0.4169474 0.115688 -0.12217517
0003d0 43 ff 1d bd d5 73 1b 3e 02 58 a0 3e df 50 95 3e
       -0.038573515 0.15180905 0.31317145 0.29163262
0003e0 a2 b6 da 3d 4b 58 28 bd 5a 6b c1 3d 58 64 b9 bc
       0.10679366 -0.041099828 0.09444304 -0.022630855
0003f0 ab 91 56 3e 84 c6 b5 bd 24 f0 58 3e 38 e5 7b 3c
       0.20954005 -0.088757545 0.21185356 0.015374474

dense2.bias f4 [64]
000000 4f ce 6d 3e 7b 6b 1c bd 4c 44 f3 bc a4 ae 76 3e
       0.23223232 -0.03818844 -0.029695652 0.24090058
000010 f4 4a 36 be 48 f3 b9 3d 2c 29 c6 3c 44 3c e9 bd
       -0.1780203 0.09079605 0.024189554 -0.11388448
000020 f1 6e 68 3d 78 14 bd 3c c4 ec 3b bd 79 8d 66 bc
       0.056746427 0.02308105 -0.045880094 -0.014071816
000030 54 cf 4e 3d 0d f9 17 be b0 f9 85 3d 41 08 99 3d
       0.050490692 -0.14841099 0.06541765 0.074722774
000040 73 29 d9 bd d7 4d ae 3d 71 0f b4 3b 08 14 8c bc
       -0.10603609 0.085109405 0.005495005 -0.017099395
000050 7d 9f 0b be d7 45 62 3d 42 4b 4f be 52 12 8e 3d
       -0.13635059 0.055242386 -0.20243552 0.06937088
000060 cc 0b 55 bd 0e 9a 97 3d d4 87 a0 3d 76 1a e0 3d
       -0.052013204 0.074024305 0.07838407 0.10942547
000070 25 a3 a1 3d c4 e1 13 bd 08 de de bc 1c ca 7a 3d
       0.078924455 -0.03610398 -0.027205482 0.061227903
000080 18 39 ee bd 88 14 99 bd f4 06 d2 bd fa 02 a4 3d
       -0.116319835 -0.07474619 -0.102552325 0.0800838
000090 ac ba 0e be 6a f3 67 bb e8 c6 c2 bc d0 d6 02 3e
       -0.13938397 -0.0035392889 -0.023776487 0.12777257
0000a0 7f 51 95 3d ec 08 26 bd 43 d8 9a bd e9 20 f0 bd
       0.07290935 -0.040535852 -0.0756078 -0.11725027
0000b0 82 a8 8b bc c9 19 bd 3d 43 45 d8 3c 70 d6 ab 3b
       -0.017048124 0.09233434 0.026400214 0.005244069
0000c0 d9 d8 08 be bc b2 df 3d 43 3d ad 3d d9 00 77 bb
       -0.13363971 0.10922763 0.0845895 -0.0037689714
0000d0 dc 08 39 3c 80 50 f9 3c 9b fa 28 bd a6 82 8e bc
       0.011293616 0.030433893 -0.04125462 -0.017396282
0000e0 e5 d0 06 be 84 58 0b bd 62 6a 0a be a9 7d 15 3e
       -0.13165624 -0.034019962 -0.13517144 0.14598717
0000f0 f7 a5 07 3e 5e b7 4a be 04 cd 00 be cf 8e db 3d
       0.13246904 -0.19796512 -0.12578207 0.10720598

dense3.weight f4 [4, 64]
000000 00 cc c9 bd cc 2c 7a 3e 8a 3c d8 bc 76 26 4e be
       -0.09853363 0.24431151 -0.026396055 -0.20131859
000010 9d b6 ff 3b 84 f5 5e bd b0 66 30 3d dc 0a bc 3c
       0.0078037516 -0.05443336 0.04306668 0.022954397
000020 8b b4 a6 bd 32 02 ae bd b8 07 e0 3d 71 38 fc bd
       -0.081399046 -0.084965125 0.10938972 -0.12315453
000030 50 93 fa bc db 59 10 3d 18 a7 c4 3d 15 4e 7c 3b
       -0.030587822 0.035241943 0.09602183 0.003849869
000040 31 21 2a be 7b b5 16 be da 90 b2 3d 80 be d8 bc
       -0.16614224 -0.14717667 0.087190345 -0.026458025
000050 ea fc e1 bc 62 64 2d be b3 c5 81 bd 07 87 4e bc
       -0.02758642 -0.16932824 -0.06336536 -0.012605435
000060 c0 6f a7 bc 84 cf ba bd c6 5c 3b 3d da 88 a9 3d
       -0.020439029 -0.09121612 0.045742773 0.082780555
000070 40 c2 18 be 01 78 42 3d e0 49 8c bd 83 a3 e9 ba
       -0.1491785 0.047477726 -0.06850028 -0.001782522
000080 d9 99 e1 bb 0d 4d 18 3d cc 58 a5 3d ae 67 83 3d
       -0.006884795 0.037182856 0.08073577 0.0641626
000090 a1 b4 99 3d 49 8f 45 be 70 4a d6 bc 2b 48 33 3d
       0.07505155 -0.1929294 -0.026158541 0.043769997
0000a0 15 04 22 3d ae 2b 27 3e a7 1c d6 3c 2d 3e 1a be
       0.039554674 0.16325256 0.02613671 -0.1506278
0000b0 8c 54 c8 bd 87 c1 a6 3d 8a b1 6b 3d 75 84 c1 3d
       -0.09781751 0.08142381 0.05754236 0.09449092
0000c0 ca f8 f2 bd 46 01 df 3d ec 9d d9 bc 46 9a 25 bc
       -0.11863859 0.10888915 -0.02656456 -0.010107582
0000d0 92 67 1c 3d 04 c6 97 bd b3 35 86 3c 98 3e ae bc
       0.03818471 -0.07410815 0.016383028 -0.021270081
0000e0 de 52 c6 bd 20 96 20 3c 34 d6 0a bd dd bf 54 be
       -0.096837744 0.009801418 -0.033895686 -0.20776315
0000f0 03 82 34 be 9d c5 b4 bd c4 94 9c 3d 44 70 24 be
       -0.1762772 -0.08826754 0.07645562 -0.16058451
000100 99 b0 de bd 57 18 80 3e 97 44 76 bd 4d a8 66 be
       -0.10873527 0.2501857 -0.060124006 -0.22525139
000110 43 c9 97 39 80 ce 83 bb 4c 79 63 be 70 36 3b bd
       0.00028950916 -0.0040224195 -0.2221424 -0.045706213
000120 df c5 db 3c ce e9 c4 bd 94 6a 81 3d 6c 47 3d be
       0.02682775 -0.09614907 0.06319156 -0.18484277
000130 62 2c e2 3d 90 1c b0 bc 02 96 b5 bd 71 ec c3 bd
       0.110436216 -0.021497995 -0.08866502 -0.09566582
000140 cb 90 bd bd d3 8a 60 be 34 c0 54 bd e4 a9 44 bd
       -0.09256133 -0.21927957 -0.05194111 -0.048013583
000150 07 d9 29 3c 89 73 24 be 01 83 62 3d 49 8e 92 bd
       0.010366685 -0.16059698 0.055300716 -0.07156045
000160 c0 7f 8f 3b 72 71 0b be 92 3b 20 3d 80 12 5f bb
       0.0043792427 -0.13617495 0.03911931 -0.0034038126
000170 fa e4 e9 bd 81 db 63 3d a8 68 35 3d 51 20 9f 3b
       -0.11420627 0.055629257 0.04428926 0.0048561473
000180 09 37 7e bd 3d da ae 3c 58 f1 c0 bc e4 9d c9 bd
       -0.062064204 0.021344298 -0.023552582 -0.09844568
000190 ba e2 1d 3d f7 3c 3e bd aa fe f1 bd d0 43 a8 bc
       0.0385463 -0.04644486 -0.118161514 -0.020540148
0001a0 02 ad 4b 3d c3 ea 1a 3e a4 b8 43 bd de fc aa bd
       0.04972554 0.15128617 -0.04778351 -0.08349012
0001b0 22 03 85 3d 4c 03 0c ba e6 2d e0 bd 67 b0 58 3d
       0.06494738 -0.00053410674 -0.109462544 0.052902605
0001c0 a1 2b d5 bd f8 89 ce 3d 0e 04 a6 bd 3e b4 c3 3b
       -0.10408712 0.10084909 -0.08106242 0.0059724143
0001d0 23 dc fb 3d a0 49 dd 3d 65 c0 54 3d 6f 6c a6 ba
       0.12297847 0.108050585 0.051941294 -0.0012697111
0001e0 03 43 52 3d 60 9f 6e bc e8 ae 95 bc 72 55 43 be
       0.05133344 -0.014564365 -0.018271878 -0.19075564
0001f0 7f c6 67 be fa e0 1a be e5 ec 4b 3d bf e0 05 be
       -0.22634314 -0.15124884 0.049786467 -0.13074015
000200 9f ed cf bd f1 6d 80 3e 4e 86 9b bd 5f 9f 30 be
       -0.101527445 0.2508388 -0.07593976 -0.17248295
000210 94 a2 0b be 1a b6 83 bb fa 2b a9 3c 2d 78 ec bd
       -0.13636237 -0.004019511 0.020650852 -0.11546359
000220 26 fa 39 bd 14 9b be bd 30 46 70 3c d8 bd 21 be
       -0.045404576 -0.093069226 0.0146651715 -0.15795076
000230 a8 e5 69 3d 46 e7 de 3b 54 b4 82 bd ae 6e ad bd
       0.057103783 0.0068024723 -0.06382051 -0.08468376
000240 61 d0 34 be 75 3c 3c be 50 79 f1 3c 0c 43 6f bd
       -0.17657615 -0.18382438 0.029476792 -0.05841355
000250 9a b3 99 bd 49 72 d5 bd 9c 1a f8 3c b1 04 57 bc
       -0.075049594 -0.10422189 0.030286126 -0.013123677
000260 4e 64 cf 3d c3 3c 3b bb c0 6a aa 3d 66 5e 84 bd
       0.101265535 -0.0028570152 0.08321142 -0.064633176
000270 4f 07 bf bd 48 36 f5 3c f6 16 b4 bd 9d 58 f0 3d
       -0.09327566 0.02993311 -0.08793442 0.11735652
000280 53 fb ca 39 4a 6c d5 bc 9c b4 34 bd 3e bd 97 bd
       0.00038715694 -0.026052613 -0.044117555 -0.07409142
000290 ae cf c0 3d c0 af 4a bd 68 52 c7 bc d9 e8 05 3d
       0.09414612 -0.049484015 -0.024331287 0.032692764
0002a0 28 d7 cb bc 7b 2f 28 3e 3a 3a 2d bb 1e 01 30 be
       -0.024882868 0.16424362 -0.002643241 -0.17187926
0002b0 b9 06 14 3e 53 27 2b bd 70 8a d3 3d 84 bd 49 3d
       0.1445569 -0.04178555 0.10329139 0.049253
0002c0 5b 08 1d bb c0 0f 13 bb 68 67 35 bd 70 ae b5 bd
       -0.002396128 -0.0022439808 -0.04428807 -0.08871162
0002d0 d4 9f 0f bd 14 e4 41 3d fb a1 93 3d c9 a6 04 3c
       -0.035064533 0.047336653 0.0720863 0.008096405
0002e0 bb 54 ad 3c 30 7b 2f 3c dd b7 82 bc 36 6b cd bd
       0.021158567 0.0107105225 -0.015956813 -0.100302145
0002f0 e9 0c 5b be d3 b2 5e be b7 42 bf 3d e8 9b 88 3d
       -0.21391644 -0.21747904 0.09338897 0.06670362
000300 86 a5 1b be 7f d3 31 3e 0c 20 8b bd 2d a4 4c be
       -0.15199861 0.17365836 -0.06793222 -0.19984503
000310 c9 a7 38 ba 58 96 1d bd 20 90 4a be db 83 a1 bd
       -0.0007044045 -0.038473457 -0.19781542 -0.078864776
000320 27 67 4d 3d a0 49 ca bd 30 bc 83 3d 91 d1 f3 bd
       0.050147202 -0.09877324 0.06432378 -0.11905206
000330 a0 70 88 3b 6f e6 ee 3d 2a 2b b1 bd b2 ba f2 3c
       0.0041638166 0.116650455 -0.08650811 0.029630039
000340 2b fa 2c 3d 64 ed b8 bd 6e 8e b0 3d 5c 59 d3 3d
       0.042230766 -0.09029654 0.08620916 0.10319778
000350 a2 ef 82 3d ed 94 1a be 56 b9 73 3d 07 ef ac bd
       0.063933626 -0.15095873 0.059502922 -0.08444028
000360 70 01 58 bc f2 a7 3b be bc 98 d3 bd d8 c0 7b 3d
       -0.0131839365 -0.18325785 -0.10331866 0.061463207
000370 ff 09 f0 bd bd 37 89 3d 9c 89 da 3d 57 8b 21 3e
       -0.117206566 0.06700084 0.10670778 0.1577581
000380 0a 71 4b bd 99 29 63 3b 80 7f 9a 3c 98 78 e8 3c
       -0.04966835 0.0034662245 0.018859625 0.028377816
000390 e1 0f 6f bd 71 f8 66 be fc 22 83 3d a9 40 0e 3d
       -0.058364753 -0.2255571 0.06403157 0.034729633
0003a0 4c e9 2d bc ec 5d 62 3d 51 17 12 be df 97 7f bc
       -0.010614704 0.055265352 -0.14266707 -0.015600174
0003b0 17 b0 04 3e c0 60 f3 bd 7e f1 21 3d eb 5a b6 bc
       0.12957798 -0.11883688 0.039536946 -0.02226015
0003c0 53 36 75 3c 4e c0 a1 3d 5c a4 d8 bd 1f c8 a9 3c
       0.014966565 0.07898007 -0.10578224 0.020725308
0003d0 47 bd f0 3d f4 9d 8a bd 1f ab 4b 3d ae ef 80 bd
       0.11754852 -0.067684084 0.04972374 -0.06295715
0003e0 f8 09 d1 3c 98 c4 a2 bd f7 dd b6 3d 0d 1f 70 bd
       0.025517449 -0.079476535 0.08929055 -0.058623362
0003f0 9e de fd bd 8e 92 0f 3b f7 f9 3d 3d 22 62 1c be
       -0.123959765 0.0021907422 0.046380963 -0.1527181

dense3.bias f4 [4]
000000 db 2a e1 3c db 0f 8c 3b 97 d7 2d bc 1d 5b 07 be
       0.027486255 0.004274351 -0.010610483 -0.1321835
