Reinforcment_Learning_DQN/agent_output/weights/episode_234_weights.pt (torch, 21495 bytes, 6 tensors)

dense1.weight f4 [64, 5]
-0.19555987 0.333966 0.3960645 -1.5602667 -0.77011293 0.22349262 -0.5748741 -0.062195852
0.5717309 0.24694787 -0.291084 -0.41165906 0.2742708 -1.0000205 -1.317653 -0.21740021
-0.1651032 0.008901358 0.29145533 0.010345995 -0.113597006 -0.14948371 0.06107208 -1.4575769
-0.79399145 -0.25632492 0.028052628 -0.42891654 0.10692155 0.03427908 -0.31656757 0.6700509
-0.021493563 0.57937104 1.6764152 0.38804737 -0.436532 0.10385249 -1.1884413 -1.7702059
-0.29930457 0.14170837 -0.4467068 0.2068966 0.22858036 0.16576725 -0.004932642 -0.15229127
-0.45573443 0.2966875 0.1628707 -0.086515345 -0.45473224 1.1016911 0.07603736 -0.3530549
0.44696987 0.015098019 -0.10294983 2.0623405 0.011927354 -0.31204882 0.46302274 -1.3188844
-2.7006652 -0.14293206 -0.0088332 -0.10555971 -0.027395487 0.21316957 0.047665033 -0.18772961
-0.06717016 -0.5503599 0.47719306 0.26877806 -0.467177 0.30851537 -0.6503311 -2.2958205
0.18491927 -0.379678 0.36901516 -0.85702705 -2.5354936 0.21200211 -0.12409111 -0.39969805
-0.20441419 -0.06700798 0.29048532 -0.37447944 0.0047831973 -1.2610925 -1.6834731 -0.24866126
0.61421 -0.15873067 0.69736665 3.2815392 -0.28195816 0.5576967 -0.24187389 2.2574744
0.4937588 -0.16349128 0.48408142 -0.1744335 0.02467748 2.667031 -0.35536265 -0.1753318
-0.11340654 -0.40475526 0.19466192 -0.028971221 0.33059502 0.026687933 -1.0824306 1.0817703
-0.31630546 0.17966557 -0.3057632 0.4224267 -0.31925398 0.010866082 -0.08162952 0.23641615
-0.86217684 -1.894456 -0.11504877 0.40289232 -0.380439 1.8597888 0.8927741 -0.4529603
0.01805209 0.45584893 -0.7101847 -1.2568476 -0.17817706 0.15119946 -0.36544773 -0.26648414
0.22320634 -0.20809089 0.5983231 0.04361538 -0.24311687 2.0419345 -0.4329545 0.27616185
-0.3936164 -0.06984651 -0.049163103 -0.31873944 -0.32399842 0.14107366 -0.2876317 -1.018667
-0.1849798 0.056379855 -0.42847976 -0.22972398 -0.3238119 0.2619832 -0.38124824 -0.33101282
0.09908421 -0.751921 0.28211847 -0.1548325 -0.63021976 1.2129481 -0.5418438 0.015172987
0.08673621 -0.20285805 0.5923606 1.6900347 -0.6244121 0.049750764 0.32466692 0.23510565
-0.6110846 -0.1959753 -0.16644326 0.08655411 -0.018521534 -1.3005805 -0.1620956 0.18898898
-0.025822002 -0.23241004 0.33709526 -0.08665178 0.020192005 0.3424467 -1.6192025 -2.0650406
-0.11480214 -0.050656166 0.2778547 -0.30949715 -1.1020437 -0.07711798 -0.3914582 0.38909248
-1.1432953 -1.7647008 -0.14920482 0.4792555 -0.0838683 0.1680534 2.5016716 0.15995851
-0.2943988 0.50078714 -1.0221032 -2.8577924 -0.3178055 0.05352485 -0.42354146 -0.19338214
0.22759968 -0.13433874 0.4095118 -0.032954976 0.33671302 2.428248 -0.26188344 -0.082568675
-0.37538114 0.08856946 -0.19393018 -0.10940034 -0.24747111 0.074627824 -0.8968494 -1.5646311
-0.30760795 -0.10148119 0.20739417 -0.30854255 -1.4936284 -0.09993792 -0.20609467 0.36794975
-1.156959 -2.8778615 0.23998572 -0.123571336 -0.6051524 1.0357562 -0.5370549 -0.09788427
00000000: d940 48be 97fd aa3e f7c8 ca3e d2b6 c7bf
00000010: 1f26 45bf 40db 643e f32a 13bf 14c1 7ebd
00000020: f55c 123f e7df 7c3e f608 95be fac4 d2be
00000030: 396d 8c3e ac00 80bf daa8 a8bf 299e 5ebe
00000040: d010 29be 00d7 113c a239 953e 4082 293c
00000050: 8ca5 e8bd 4212 19be b826 7a3d e191 babf
00000060: 0643 4bbf 053d 83be a0ce e53c f39a dbbe
00000070: b0f9 da3d 3868 0c3d 2515 a2be 7588 2b3f
00000080: 4513 b0bc a951 143f c694 d63f 25ae c63e
00000090: 1f81 dfbe 9db0 d43d d81e 98bf 1b96 e2bf
000000a0: 733e 99be 001c 113e c1b6 e4be b4dc 533e
000000b0: f810 6a3e e4be 293e 00a2 a1bb 3ef2 1bbe
000000c0: 0656 e9be 6de7 973e 94c7 263e f52e b1bd
000000d0: aad2 e8be 3704 8d3f 7ab9 9b3d 9dc3 b4be
000000e0: 3cd9 e43e ae5d 773c 5cd7 d2bd 63fd 0340
000000f0: f36a 433c ddc4 9fbe 5111 ed3e 34d1 a8bf
00000100: b3d7 2cc0 c85c 12be 20b9 10bc b02f d8bd
00000110: 806c e0bc 2049 5a3e 693c 433d 313c 40be
00000120: 8290 89bd 63e4 0cbf a652 f43e 479d 893e
00000130: d331 efbe baf5 9d3e 197c 26bf b9ee 12c0
00000140: 7a5b 3d3e 2865 c2be 8eef bc3e 2066 5bbf
00000150: 8745 22c0 1517 593e 7b23 febd 39a5 ccbe
00000160: f451 51be 7b3b 89bd 7eba 943e c5bb bfbe
00000170: 5ebc 9c3b 7b6b a1bf 0c7c d7bf 0fa1 7ebe
00000180: de3c 1d3f 4b8a 22be 9f86 323f bd04 5240
00000190: d25c 90be 36c5 0e3f caad 77be 767a 1040
000001a0: f4cd fc3e 426a 27be 85d9 f73e b29e 32be
000001b0: 6d28 ca3c a3b0 2a40 18f2 b5be 2e8a 33be
000001c0: b041 e8bd 153c cfbe 7455 473e 0e55 edbc
000001d0: c043 a93e a7a0 da3c 168d 8abf 7377 8a3f
000001e0: caf2 a1be 40fa 373e ff8c 9cbe 5048 d83e
000001f0: 4275 a3be a707 323c 612d a7bd 1317 723e
00000200: 9fb7 5cbf 897d f2bf b19e ebbd e747 ce3e
00000210: e7c8 c2be 8f0d ee3f d88c 643f 6aea e7be
00000220: fae1 933c 0865 e93e aace 35bf 62e0 a0bf
00000230: 0c74 36be 08d4 1a3e f71b bbbe 9c70 88be
00000240: 3490 643e c715 55be b42b 193f 0aa6 323d
00000250: a1f3 78be 0eaf 0240 36ac ddbe 1665 8d3e
00000260: 1788 c9be b00b 8fbd 405f 49bd d131 a3be
00000270: 1fe3 a5be 9d75 103e 7644 93be ae63 82bf
00000280: 586b 3dbe 90ee 663d b361 dbbe c33c 6bbe
00000290: acca a5be a922 863e f832 c3be 837a a9be
000002a0: aaec ca3d e57d 40bf d571 903e 698c 1ebe
000002b0: 1556 21bf e241 9b3f 46b6 0abf 1f98 783c
000002c0: c1a2 b13d 05ba 4fbe f2a4 173f 0f53 d83f
000002d0: 79d9 1fbf 75c7 4b3d be3a a63e 89bf 703e
000002e0: 0a70 1cbf c0ad 48be 1a70 2abe 4843 b13d
000002f0: 79ba 97bc 6c79 a6bf 64fc 25be 5486 413e
00000300: aa88 d3bc e6fc 6dbe c097 ac3e 7d76 b1bd
00000310: b469 a53c 2d55 af3e 0742 cfbf a029 04c0
00000320: 621d ebbd d77c 4fbd f942 8e3e 6976 9ebe
00000330: c50f 8dbf 08f0 9dbd 366d c8be 2137 c73e
00000340: 8057 92bf b7e1 e1bf 26c9 18be fa60 f53e
00000350: 25c3 abbd 3116 2c3e 631b 2040 2acc 233e
00000360: 71bb 96be 9633 003f 47d4 82bf 12e6 36c0
00000370: 67b7 a2be e03c 5b3d 6dda d8be f805 46be
00000380: e40f 693e 1890 09be 88ab d13e ccfb 06bd
00000390: a665 ac3e 6a68 1b40 9615 86be c419 a9bd
000003a0: f531 c0be e863 b53d a295 46be 490d e0bd
000003b0: 1169 7dbe 79d6 983d ec97 65bf d545 c8bf
000003c0: ca7e 9dbe 5fd5 cfbd 235f 543e 4af9 9dbe
000003d0: 372f bfbf 41ac ccbd 7b0a 53be e963 bc3e
000003e0: 3c17 94bf e22e 38c0 d1be 753e f812 fdbd
000003f0: 45eb 1abf a993 843f 6e7c 09bf 8c77 c8bd

dense1.bias f4 [64]
-0.14365093 0.055393856 0.22346503 0.29361022 -0.24582756 0.39296085 -0.06587129 0.091586635
0.42147905 0.11837616 -0.41092464 0.1091116 0.07407627 0.3914324 -0.5620687 -0.23493513
0.24692982 -0.21279444 -0.17417973 -0.38358223 0.15610184 -0.2537981 -0.06845844 0.18664886
0.022783697 -0.257786 -0.28449914 0.28443658 -0.40715387 0.32263 -0.3303769 0.37702784
0.20644552 -0.43671155 -0.26895934 -0.65551025 0.1251272 0.18490146 -0.59267396 0.32166678
-0.30734304 0.25102288 -0.28753883 0.51566464 -0.33865583 -0.58063626 -0.3919424 -0.0813418
0.33471498 -0.19942132 0.185286 -0.041056067 -0.020958725 -0.48782474 0.3779495 -0.0017996758
-0.0785807 -0.60053384 -0.25461683 0.11811584 -0.40644714 -0.11094309 -0.43050635 -0.48563203
00000000: 3b19 13be abe4 623d 04d4 643e 1454 963e
00000010: 38ba 7bbe 2a32 c93e 87e7 86bd c691 bb3d
00000020: 1acc d73e 336f f23d b764 d2be e775 df3d
00000030: 4db5 973d d469 c83e bce3 0fbf d692 70be
00000040: 2cdb 7c3e c9e6 59be 2c5c 32be e464 c4be
00000050: 29d9 1f3e d3f1 81be f033 8cbd e120 3f3e
00000060: e0a4 ba3c 87fc 83be dfa9 91be aca1 913e
00000070: 7976 d0be c22f a53e 2927 a9be cb09 c13e
00000080: 7466 533e a898 dfbe 0ab5 89be 85cf 27bf
00000090: 5821 003e cf56 3d3e 7bb9 17bf 82b1 a43e
000000a0: 115c 9dbe 1286 803e 4a38 93be 9902 043f
000000b0: 4c64 adbe 94a4 14bf adac c8be 8896 a6bd
000000c0: c35f ab3e 1a35 4cbe 9dbb 3d3e 682a 28bd
000000d0: a2b1 abbc 2ac4 f9be 9982 c13e 19e3 ebba
000000e0: ebee a0bd 96bc 19bf 235d 82be b8e6 f13d
000000f0: d719 d0be 2136 e3bd 546b dcbe c3a4 f8be

dense2.weight f4 [64, 64]
0.12682001 -0.32185683 0.16396254 -0.10401419 0.0094297035 0.059036747 0.060628843 0.071129166
0.121330366 -0.005435039 -0.23616648 0.1173172 0.2503767 0.0044868737 -0.17856807 0.0809255
0.2004173 -0.28297645 -0.11059125 -0.3954699 0.9734186 -0.20268871 0.113723755 -0.096159704
0.034478396 0.04462972 0.041136377 0.11635745 0.11730392 0.06937432 0.0533894 0.16289559
-0.06656499 0.028384725 -0.26039493 -0.096745595 0.48932934 0.04100896 0.07062764 0.13721602
0.3248726 0.029290967 -0.1008424 0.23230809 0.09914513 0.016083585 0.014667526 0.09443679
0.16135241 0.050548546 -0.43486622 -0.10016042 -0.04212758 -0.055469282 0.18683535 0.031455666
-0.005540209 0.12206146 0.1656675 -0.0005637109 0.16763546 -0.13590837 0.080140114 -0.06194211
0.36953327 -0.24909559 -0.33917156 -0.06977765 0.11714221 -0.09012863 0.80377674 -0.1985741
0.030668333 0.118066765 -0.074331336 0.7454214 -0.3983672 0.112764165 -0.027429963 -0.025199631
-0.4440094 -0.18798156 -0.099139996 1.1173306 -0.80032545 0.646961 0.04501149 0.45844465
-0.033389702 -0.14497776 0.09402699 0.18651648 -0.055859372 0.9599468 0.05560854 -0.07662294
-0.064986244 -0.24258614 -0.26172864 0.015382237 0.26975393 -0.046740383 0.33833066 0.05727788
-0.044447754 -0.5034058 0.7377945 -0.55130345 -0.022042751 0.7143793 -0.080533534 -0.002825541
0.10150713 -0.2869798 -0.13613841 -0.05982624 0.042854816 0.08247542 0.021780256 -0.27039096
0.06550776 0.44735712 -0.15811452 -0.041467488 0.07646926 0.20374502 -0.29430985 0.31558245
-0.10877387 -0.06166429 0.105910935 0.037067592 -0.022360032 0.118276104 -0.20942695 -0.19056466
0.098370194 -0.11825598 -0.07910302 -0.06989946 0.051608425 -0.06887834 -0.12224432 -0.09971852
-0.098805994 -0.008350686 -0.14980024 -0.10574488 -0.058550384 -0.03357823 0.07002698 -0.21079114
0.099910095 -0.036353003 0.008930533 -0.041913513 -0.008638874 -0.027911445 -0.04467176 0.029256396
0.1132974 -0.0030988825 0.06457476 0.07630892 0.2242428 0.05653127 -0.13340062 -0.12640136
0.006213291 0.08776412 -0.03194689 0.03694774 -0.046982452 -0.1917439 -0.026600182 -0.08046228
0.1977656 0.03497483 0.00973493 -0.11171512 0.08655277 -0.11949849 0.085464925 0.06625493
-0.043114614 -0.014751749 -0.0048698485 -0.074653864 -0.007198852 -0.10926217 0.03371963 -0.16925137
0.046402577 -0.22372262 0.3772027 0.08812778 -0.018697876 -0.068878144 -0.27828136 0.2688469
0.04566039 0.11259095 -0.04137175 -0.36429113 0.12661886 -0.03873457 -0.059603743 0.22097792
0.6052044 -0.065584965 0.22452761 -0.8050018 0.38849723 -0.4045792 0.11908971 0.15110052
0.0072981566 0.20297273 0.10055901 0.18406612 -0.12266788 -0.14252591 -0.049783602 0.39240462
-0.023436755 -0.07021976 -0.027402394 -0.10277063 0.7156079 0.14365599 0.053726576 0.23297924
0.43361863 0.44400242 -0.11262014 0.3202763 0.03981982 -0.14895461 -0.0706723 0.17722096
0.47616524 0.4721066 0.06533812 -0.12217517 -0.05404508 0.17178372 0.32122126 0.34610376
-0.056244984 0.004207294 0.09444304 -0.022630855 0.2519128 -0.038942207 0.2179876 0.06475364
00000000: 1bdd 013e 6bca a4be cce5 273e 6405 d5bd
00000010: 0b7f 1a3c 84d0 713d f355 783d 2bac 913d
00000020: 0e7c f83d 6918 b2bb a0d5 71be 0044 f03d
00000030: 6031 803e a006 933b 8cda 36be 45bc a53d
00000040: 313a 4d3e 4ae2 90be aa7d e2bd 087b cabe
00000050: f631 793f a18d 4fbe 00e8 e83d 61ef c4bd
00000060: 3839 0d3d a7cd 363d 9e7e 283d d14c ee3d
00000070: 0a3d f03d 2014 8e3d d8ae 5a3d 1ace 263e
00000080: 3a53 88bd 1587 e83c 7c52 85be 8e22 c6bd
00000090: 6089 fa3e 03f9 273d 39a5 903d 5b82 0c3e
000000a0: b455 a63e 9cf3 ef3c 7686 cebd 2ce2 6d3e
000000b0: 9a0c cb3d b9c1 833c 1050 703c 1368 c13d
000000c0: 9139 253e fe0b 4f3d c9a6 debe e820 cdbd
000000d0: f88d 2cbd c233 63bd c451 3f3e a8d7 003d
000000e0: a48a b5bb 5cfb f93d bea4 293e 00c6 13ba
000000f0: a1a8 2b3e 902b 0bbe 8020 a43d 03b7 7dbd
00000100: 7733 bd3e ea12 7fbe e5a7 adbe 96e7 8ebd
00000110: 41e8 ef3d 5c95 b8bd 50c4 4d3f 0257 4bbe
00000120: 283c fb3c fdcc f13d 073b 98bd f0d3 3e3f
00000130: c9f6 cbbe e6f0 e63d cdb4 e0bc 756f cebc
00000140: 3355 e3be 3d7e 40be e909 cbbd b004 8f3f
00000150: 21e2 4cbf 3c9f 253f f85d 383d 42b9 ea3e
00000160: a4c3 08bd 0d75 14be 3991 c03d 2dfe 3e3e
00000170: cccc 64bd 13bf 753f c8c5 633d 7dec 9cbd
00000180: 8217 85bd 8068 78be 4c01 86be c705 7c3c
00000190: 301d 8a3e d872 3fbd ad39 ad3e 369c 6a3d
000001a0: d90e 36bd 34df 00bf 1ae0 3c3f 3922 0dbf
000001b0: 0093 b4bc 90e1 363f c4ee a4bd b62c 39bb
000001c0: f8e2 cf3d 04ef 92be de67 0bbe 5c0c 75bd
000001d0: 8888 2f3d dfe8 a83d 826c b23c af70 8abe
000001e0: ef28 863d fe0b e53e c6e8 21be d0d9 29bd
000001f0: ea9b 9c3d 89a2 503e c8af 96be 0694 a13e
00000200: d6c4 debd b293 7cbd d5e7 d83d 30d4 173d
00000210: 632c b7bc be3a f23d 0574 56be 6223 43be
00000220: 5076 c93d 3130 f2bd c400 a2bd 7327 8fbd
00000230: 5b63 533d 1610 8dbd 3b5b fabd 3939 ccbd
00000240: cc5a cabd 51d1 08bc 3c65 19be c690 d8bd
00000250: 87d2 6fbd 5389 09bd 4e6a 8f3d a2d9 57be
00000260: aa9d cc3d e3e6 14bd 5f51 123c 81ad 2bbd
00000270: 108a 0dbc 8ba6 e4bc bcf9 36bd 1cab ef3c
00000280: 7808 e83d 9f16 4bbb c63f 843d da47 9c3d
00000290: e89f 653e 558d 673d 2c9a 08be 5c6f 01be
000002a0: dd98 cb3b adbd b33d beda 02bd 8356 173d
000002b0: ac70 40bd 8358 44be a0e8 d9bc 68c9 a4bd
000002c0: 1183 4a3e c441 0f3d 417f 1f3c e6ca e4bd
000002d0: 9442 b13d a0bb f4bd 3c08 af3d aab0 873d
000002e0: f398 30bd 52b1 71bc 4093 9fbb 20e4 98bd
000002f0: 59e4 ebbb d8c4 dfbd 981d 0a3d 3b50 2dbe
00000300: a110 3e3d 8b17 65be b620 c13e 567c b43d
00000310: 4a2c 99bc fc0f 8dbd e57a 8ebe 4da6 893e
00000320: 6406 3b3d 1696 e63d 6d75 29bd 5e84 babe
00000330: 60a8 013e 24a8 1ebd 0e23 74bd 0948 623e
00000340: adee 1a3f 6951 86bd 91ea 653e 9914 4ebf
00000350: 1ce9 c63e 0125 cfbe 4ee5 f33d 18ba 1a3e
00000360: 6025 ef3b 15d8 4f3e e2f1 cd3d d47b 3c3e
00000370: 4c39 fbbd 50f2 11be e4e9 4bbd 42e9 c83e
00000380: 70fe bfbc 61cf 8fbd fc7a e0bc 6879 d2bd
00000390: 1432 373f 8e1a 133e 6610 5c3d 1c92 6e3e
000003a0: 4303 de3e 4954 e33e 63a5 e6bd 41fb a33e
000003b0: 1c1a 233d 8f87 18be a4bc 90bd 6979 353e
000003c0: eecb f33e f5b7 f13e fecf 853d fa36 fabd
000003d0: 605e 5dbd 12e8 2f3e 1d77 a43e 8334 b13e
000003e0: 2461 66bd 57dd 893b 5a6b c13d 5864 b9bc
000003f0: b7fa 803e dd81 1fbd 2438 5f3e 8e9d 843d

dense2.bias f4 [64]
0.2808863 0.02483778 -0.10876841 0.34524292 -0.24157579 0.09079605 0.07711933 -0.14546339
0.056746427 0.02308105 -0.045880094 -0.040163275 0.050490692 -0.17445916 0.06541765 0.042956974
-0.169855 0.11415424 0.005495005 -0.017099395 -0.16811639 0.13543679 -0.20243552 0.06937088
-0.052013204 0.1444515 0.13599077 0.10942547 0.10661657 -0.03610398 -0.027205482 0.058010623
-0.116319835 -0.106511965 -0.13763714 0.048318 -0.1711498 0.0006690611 -0.055542286 0.108561054
0.041152738 -0.118857495 -0.13394336 -0.18612786 -0.12386794 0.076898344 0.026400214 0.005244069
-0.16683589 0.10922763 0.024443755 -0.0037689714 -0.016921781 0.030433893 -0.04125462 -0.017396282
-0.13165624 -0.034019962 -0.13517144 0.19926886 0.045055464 -0.16435021 -0.15754792 0.1694368
00000000: 54d0 8f3e 9a78 cb3c f9c1 debd aec3 b03e
00000010: a55f 77be 48f3 b93d bdf0 9d3d 5bf4 14be
00000020: f16e 683d 7814 bd3c c4ec 3bbd 3f82 24bd
00000030: 54cf 4e3d 6ca5 32be b0f9 853d a7f3 2f3d
00000040: 78ee 2dbe b3c9 e93d 710f b43b 0814 8cbc
00000050: b426 2cbe f1af 0a3e 424b 4fbe 5212 8e3d
00000060: cc0b 55bd 18eb 133e 2a41 0b3e 761a e03d
00000070: ca59 da3d c4e1 13bd 08de debc 8c9c 6d3d
00000080: 1839 eebd f222 dabd c0f0 0cbe 18e9 453d
00000090: e541 2fbe ee63 2f3a 4f80 63bd 4255 de3d
000000a0: c68f 283d 8f6b f3bd 7328 09be 4d98 3ebe
000000b0: 79ae fdbd e17c 9d3d 4345 d83c 70d6 ab3b
000000c0: 07d7 2abe bcb2 df3d 453e c83c d900 77bb
000000d0: 8c9f 8abc 8050 f93c 9bfa 28bd a682 8ebc
000000e0: e5d0 06be 8458 0bbd 626a 0abe 230d 4c3e
000000f0: 148c 383d 6c4b 28be 3e54 21be d780 2d3e

dense3.weight f4 [4, 64]
-0.10329045 0.30941346 -0.08899842 -0.21548636 -0.041802675 -0.05443336 -0.056811966 0.022954397
-0.081399046 -0.084965125 0.10938972 -0.1199133 -0.030587822 0.035241943 0.09602183 0.003849869
-0.19377075 -0.14461869 0.087190345 -0.026458025 -0.02758642 -0.17451881 -0.06336536 -0.012605435
-0.020439029 -0.10439643 0.048955545 0.082780555 -0.13899489 0.047477726 -0.06850028 -0.020931467
-0.006884795 0.037182856 0.050059702 0.0641626 0.07505155 -0.32057086 0.0056072776 0.08203585
0.039554674 0.19425589 -0.05678718 -0.15075243 -0.22378 0.063276775 0.05754236 0.09449092
-0.08695687 0.10888915 0.00520126 -0.010107582 -0.031310026 -0.07410815 0.016383028 -0.021270081
-0.096837744 0.009801418 -0.033895686 -0.20421019 -0.08327933 -0.10488772 0.07645562 -0.17247194
-0.10707008 0.30375966 -0.040106706 -0.23507446 -0.002594334 -0.0040224195 -0.23430957 -0.045706213
0.02682775 -0.09614907 0.06319156 -0.1946702 0.110436216 -0.021497995 -0.08866502 -0.09566582
-0.18766995 -0.25504112 -0.05194111 -0.048013583 0.010366685 -0.1601825 0.055300716 -0.07156045
0.0043792427 -0.16975622 -0.0226088 -0.0034038126 -0.163337 0.055629257 0.04428926 -0.03106609
-0.062064204 0.021344298 -0.0787632 -0.06667991 0.0385463 -0.32469353 -0.118161514 0.01867995
0.04972554 0.20069768 -0.07610937 -0.114463896 0.20211901 0.044428427 -0.109462544 0.052902605
-0.10408712 0.10084909 -0.08106242 0.0059724143 0.051885393 0.108050585 0.051941294 -0.0012697111
0.05133344 -0.014564365 -0.018271878 -0.26683268 -0.25896004 -0.24062435 0.049786467 -0.24948356
-0.1000974 0.30610442 -0.08008252 -0.20124567 -0.07952114 -0.004019511 0.018135209 -0.11001581
-0.045404576 -0.093069226 0.0146651715 -0.12649085 0.057103783 0.0069655813 -0.06382051 -0.052918542
-0.14618832 -0.12980849 0.029476792 -0.05841355 -0.043287404 -0.15178473 0.030286126 -0.013123677
0.101265535 -0.020594502 0.13961728 -0.064633176 -0.10962852 0.02993311 -0.08793442 0.14010504
0.00038715694 0.005713204 -0.021505509 -0.07409142 0.062383067 -0.2983184 -0.024331287 0.019701902
-0.024882868 0.21645232 -0.05099774 -0.12043471 0.15488233 -0.06483116 0.10329139 0.049253
-0.00184827 -0.0022439808 -0.0627089 -0.08871162 0.047322456 0.047336653 0.0720863 0.008096405
0.021158567 0.0107105225 -0.015956813 -0.081981905 -0.28248668 -0.2493261 0.09338897 0.029754726
-0.26811397 0.21437049 -0.064855404 -0.23222016 0.03699361 -0.038473457 -0.3280569 -0.078864776
0.050147202 -0.09877324 0.06432378 -0.14134638 0.0041638166 0.10216518 -0.08650811 0.029630039
-0.010506162 -0.15155213 0.08620916 0.10319778 0.063933626 -0.2306076 0.059502922 -0.08444028
-0.0131839365 -0.26263854 -0.15388526 0.061463207 -0.2109703 0.06700084 0.10670778 0.3738638
-0.04966835 -0.028299596 -0.008817774 0.028377816 -0.058364753 -0.31212357 0.06403157 -0.006180745
0.019313032 0.016577583 -0.18343477 -0.042426325 0.14975543 -0.08707109 0.039536946 -0.02226015
0.014966565 0.07898007 -0.07401646 0.020725308 -0.031359185 -0.067684084 0.04972374 -0.06295715
0.025517449 -0.079476535 0.08929055 -0.15201697 -0.14510547 -0.0429384 0.014615146 -0.14777872
00000000: f289 d3bd 716b 9e3e ce44 b6bd 75a8 5cbe
00000010: 4839 2bbd 84f5 5ebd aab3 68bd dc0a bc3c
00000020: 8bb4 a6bd 3202 aebd b807 e03d 1b95 f5bd
00000030: 5093 fabc db59 103d 18a7 c43d 154e 7c3b
00000040: d76b 46be ec16 14be da90 b23d 80be d8bc
00000050: eafc e1bc 0fb5 32be b3c5 81bd 0787 4ebc
00000060: c06f a7bc cccd d5bd 9c85 483d da88 a93d
00000070: ad54 0ebe 0178 423d e049 8cbd 7878 abbc
00000080: d999 e1bb 0d4d 183d 670b 4d3d ae67 833d
00000090: a1b4 993d dd21 a4be 41bd b73b 6902 a83d
000000a0: 1504 223d 04eb 463e ad99 68bd d85e 1abe
000000b0: 9626 65be 4197 813d 8ab1 6b3d 7584 c13d
000000c0: 7216 b2bd 4601 df3d 556f aa3b 469a 25bc
000000d0: f13e 00bd 04c6 97bd b335 863c 983e aebc
000000e0: de52 c6bd 2096 203c 34d6 0abd 7a1c 51be
000000f0: 5a8e aabd 5fcf d6bd c494 9c3d 7c9c 30be
00000100: 8f47 dbbd 6386 9b3e ee46 24bd 5cb7 70be
00000110: b405 2abb 80ce 83bb d9ee 6fbe 7036 3bbd
00000120: dfc5 db3c cee9 c4bd 946a 813d a057 47be
00000130: 622c e23d 901c b0bc 0296 b5bd 71ec c3bd
00000140: 8d2c 40be c094 82be 34c0 54bd e4a9 44bd
00000150: 07d9 293c e206 24be 0183 623d 498e 92bd
00000160: c07f 8f3b 93d4 2dbe 1736 b9bc 8012 5fbb
00000170: d141 27be 81db 633d a868 353d 507e febc
00000180: 0937 7ebd 3dda ae3c 9a4e a1bd 7a8f 88bd
00000190: bae2 1d3d 3b3e a6be aafe f1bd b206 993c
000001a0: 02ad 4b3d b183 4d3e 3bdf 9bbd 0c6c eabd
000001b0: 49f8 4e3e 95fa 353d e62d e0bd 67b0 583d
000001c0: a12b d5bd f889 ce3d 0e04 a6bd 3eb4 c33b
000001d0: c785 543d a049 dd3d 65c0 543d 6f6c a6ba
000001e0: 0343 523d 609f 6ebc e8ae 95bc 4b9e 88be
000001f0: 6996 84be 3b66 76be e5ec 4b3d 9e78 7fbe
00000200: deff ccbd b8b9 9c3e 4e02 a4bd 5813 4ebe
00000210: fbdb a2bd 1ab6 83bb 4a90 943c f84f e1bd
00000220: 26fa 39bd 149b bebd 3046 703c d186 01be
00000230: a8e5 693d 883f e43b 54b4 82bd 1dc1 58bd
00000240: 64b2 15be 84ec 04be 5079 f13c 0c43 6fbd
00000250: 224e 31bd 756d 1bbe 9c1a f83c b104 57bc
00000260: 4e64 cf3d cdb5 a8bc d5f7 0e3e 665e 84bd
00000270: eb84 e0bd 4836 f53c f616 b4bd b277 0f3e
00000280: 53fb ca39 d435 bb3b 522c b0bc 3ebd 97bd
00000290: 6385 7f3d 30bd 98be 6852 c7bc e265 a13c
000002a0: 28d7 cbbc ada5 5d3e 02e3 50bd 79a6 f6bd
000002b0: 7999 1e3e 33c6 84bd 708a d33d 84bd 493d
000002c0: a641 f2ba c00f 13bb 866d 80bd 70ae b5bd
000002d0: 31d5 413d 14e4 413d fba1 933d c9a6 043c
000002e0: bb54 ad3c 307b 2f3c ddb7 82bc 21e6 a7bd
000002f0: 18a2 90be 574f 7fbe b742 bf3d 2fc0 f33c
00000300: 3c46 89be f083 5b3e e9d2 84bd 1fcb 6dbe
00000310: 9d86 173d 5896 1dbd 13f7 a7be db83 a1bd
00000320: 2767 4d3d a049 cabd 30bc 833d 1bbd 10be
00000330: a070 883b fa3b d13d 2a2b b1bd b2ba f23c
00000340: 0a22 2cbc 7b30 1bbe 6e8e b03d 5c59 d33d
00000350: a2ef 823d 6624 6cbe 56b9 733d 07ef acbd
00000360: 7001 58bc 8f78 86be 1994 1dbe d8c0 7b3d
00000370: 9908 58be bd37 893d 9c89 da3d 136b bf3e
00000380: 0a71 4bbd 8ed4 e7bc 6d78 10bc 9878 e83c
00000390: e10f 6fbd a9ce 9fbe fc22 833d d987 cabb
000003a0: 5d36 9e3c b6cd 873c 53d6 3bbe 3ac7 2dbd
000003b0: 7d59 193e 5452 b2bd 7ef1 213d eb5a b6bc
000003c0: 5336 753c 4ec0 a13d f195 97bd 1fc8 a93c
000003d0: 7d72 00bd f49d 8abd 1fab 4b3d aeef 80bd
000003e0: f809 d13c 98c4 a2bd f7dd b63d 56aa 1bbe
000003f0: 8796 14be 2de0 2fbd 5e74 6f3c 4e53 17be

dense3.bias f4 [4]
0.0879552 0.006546091 0.056529477 -0.21589881
00000000: db21 b43d 9780 d63b 748b 673d 9414 5dbe
