Reinforcment_Learning_DQN/agent_output/weights/episode_90_weights.pt (torch, 21487 bytes, 6 tensors)

dense1.weight f4 [64, 5]
-0.024839483 0.2947363 -0.13741924 0.7388134 1.5481282 0.17479515 -0.34833536 0.23403056
-0.6824253 -1.29306 0.22117776 -0.019952573 -0.07083422 -0.67346823 -1.2244389 -0.020703524
0.15658712 -0.12226598 0.73290867 0.14884199 0.22017783 -0.43075603 0.3242597 -0.6498809
-1.6717998 -0.41442302 -0.38874805 -0.07319245 -0.14065358 0.17793661 -0.2814663 -0.16136315
-0.1869221 0.14186794 -0.4253108 0.044866994 0.32103083 -0.28233933 0.81115854 0.66369104
-0.3152579 0.40177035 0.13510889 0.32312796 0.23239602 0.08750033 -0.18014409 0.17573778
-1.1751777 -1.8841776 0.17219654 0.0073041995 0.36636117 -0.3743488 -1.7694831 0.027527642
0.18973625 0.17118934 -0.76374954 -1.518074 -0.616947 0.3459841 0.28742602 0.16277902
0.19273336 -0.144622 0.25154757 0.0025679634 0.8099842 -0.22783998 0.24452168 -0.22419526
-0.108950585 -0.10748201 0.36906382 0.032628532 0.3088801 -0.46587557 1.1672565 0.4150268
-0.027703328 0.014831158 -0.008764957 -0.48501554 0.07447892 0.05744876 0.42091548 -0.35149017
0.34408447 1.4662209 0.35922152 -0.070408896 0.32539472 -0.22444937 -1.3663459 -0.29481417
0.22989266 0.03459149 0.4330132 0.7473646 0.35732508 -0.057640392 0.008546369 -1.213858
-0.6286078 -0.12248506 -0.17445521 0.23590764 -0.91456026 -1.5965264 0.19313188 -0.23623934
-0.008161413 0.2902791 0.10432404 -0.46585503 0.14367546 0.18699576 -0.15847902 0.029591693
0.44288814 -0.5721482 -0.18271707 0.5453426 -0.14915879 -0.14440294 0.34454143 -0.12491308
0.27377903 1.6217119 -0.06995413 -0.124082126 0.0691312 -0.4001533 -0.46050438 -0.3484163
-0.36403662 -0.069170624 -0.21757865 -0.10605535 0.052505016 -0.33205447 0.3738785 -0.40231228
-1.7557939 -0.16962637 0.4935703 -0.1996818 0.5397776 0.98648983 0.13514967 0.12520055
-0.12766874 0.30478603 0.72808915 -0.12533565 0.42337194 -0.17568602 0.8192758 0.49551654
-0.36006021 -0.063470535 0.010702013 -0.23231004 -0.3899825 -0.007802359 0.17524582 0.060761232
0.05356732 -0.81569564 -0.3039494 -0.12090105 -0.33679312 0.13883811 0.23903978 -0.17472506
-0.21512768 -0.38618195 0.38391376 0.33026242 -0.30914575 -0.08808264 0.178998 -0.056347877
0.2738094 -0.21497075 -0.35533148 0.2675821 -0.17048404 0.38593462 0.41956416 -0.481184
0.16019307 -0.25792757 -1.5754924 0.27277708 -0.4034472 0.2645223 -0.9795814 -1.6897588
0.18579385 -0.32627735 0.25509852 -0.73954153 -1.6562916 -0.0805488 0.011202171 -0.0034051973
0.47999132 -0.30936173 -0.4627534 -0.05330567 0.2629047 0.14210673 0.8418488 -0.08688646
-0.24586451 0.15908313 -0.30469117 -0.51554006 -0.28379065 -0.06014725 0.33814594 -0.2994852
-1.027808 -0.29417086 0.011165661 0.3065283 0.12589455 0.6909874 -0.1386485 0.13276444
0.056507453 0.21235786 -0.7950192 -0.07163968 -0.29222018 0.3400575 -0.2973281 -1.1488072
-0.46816966 0.045849003 0.005154343 0.25473368 -0.32825294 -0.002201707 0.09456481 0.21144406
-0.43257377 -1.0213602 -0.29390508 0.30036673 0.22698663 -0.2278732 -0.5418835 0.06902848
00000000: 2c7c cbbc ade7 963e a1b7 0cbe e022 3d3f
00000010: 1129 c63f 80fd 323e 0359 b2be b5a5 6f3e
00000020: 6db3 2ebf fd82 a5bf 6c7c 623e 9473 a3bc
00000030: 8811 91bd 6a68 2cbf 6aba 9cbf 709a a9bc
00000040: 6058 203e 9666 fabd e79f 3b3f 096a 183e
00000050: 4c76 613e 0e8c dcbe 5e05 a63e 985e 26bf
00000060: 89fd d5bf 412f d4be fc09 c7be ece5 95bd
00000070: 7e07 10be 0435 363e 5a1c 90be 623c 25be
00000080: 8268 3fbe d445 113e 56c2 d9be 74c6 373d
00000090: 275e a43e c88e 90be 16a8 4f3f a8e7 293f
000000a0: 7c69 a1be d8b4 cd3e fc59 0a3e 0771 a53e
000000b0: 39f9 6d3e 5f33 b33d b177 38be 9bf4 333e
000000c0: 396c 96bf bb2c f1bf 4a54 303e 1158 ef3b
000000d0: b193 bb3e a5aa bfbe 6c7e e2bf a681 e13c
000000e0: 384a 423e 424c 2f3e 1785 43bf 4050 c2bf
000000f0: 3df0 1dbf d424 b13e 8129 933e 8baf 263e
00000100: e55b 453e ca17 14be d8ca 803e 474b 283b
00000110: 205b 4f3f e24e 69be e463 7a3e 7193 65be
00000120: 7c21 dfbd 871f dcbd eff5 bc3e 7fa5 053d
00000130: 8825 9e3e 3e87 eebe a968 953f 657e d43e
00000140: 17f2 e2bc 63fe 723c e59a 0fbc f553 f8be
00000150: 6788 983d 644f 6b3d 3c82 d73e 85f6 b3be
00000160: d72b b03e 20ad bb3f e2eb b73e 8a32 90bd
00000170: 239a a63e 0ed6 65be 6ce4 aebf e2f1 96be
00000180: fb68 6b3e ceaf 0d3d e8b3 dd3e 4953 3f3f
00000190: 50f3 b63e 5518 6cbd 1206 0c3c b35f 9bbf
000001a0: 71ec 20bf 72d9 fabd 63a4 32be c691 713e
000001b0: 9f20 6abf fa5a ccbf 5dc4 453e bae8 71be
000001c0: 72b7 05bc 769f 943e d8a7 d53d 8d84 eebe
000001d0: a91f 133e d17b 3f3e 5348 22be 476a f23c
000001e0: 3cc2 e23e 4e78 12bf 2f1a 3bbe 939b 0b3f
000001f0: 15bd 18be 5dde 13be bc67 b03e 6ed2 ffbd
00000200: c42c 8c3e 4194 cf3f 1c44 8fbd c51e febd
00000210: a994 8d3d e5e0 ccbe 3bc7 ebbe 9f63 b2be
00000220: 0263 babe 54a9 8dbd f0cc 5ebe 8c33 d9bd
00000230: 800f 573d 0b03 aabe 016d bf3e e0fb cdbe
00000240: dbbd e0bf 89b2 2dbe 3fb5 fc3e 6379 4cbe
00000250: dd2e 0a3f 998a 7c3f ad64 0a3e 9334 003e
00000260: 98bb 02be ea0c 9c3e 0d64 3a3f fd57 00be
00000270: 35c4 d83e 09e7 33be 0fbc 513f 58b4 fd3e
00000280: d059 b8be d7fc 81bd 7f57 2f3c afe2 6dbe
00000290: c9ab c7be eeaa ffbb a473 333e c5e0 783d
000002a0: 6869 5b3d 6ed1 50bf 419f 9bbe f89a f7bd
000002b0: 2670 acbe 942b 0e3e d8c6 743e 20eb 32be
000002c0: 6e4a 5cbe a4b9 c5be 5890 c43e 2818 a93e
000002d0: 5a48 9ebe ac64 b4bd 404b 373e 08cd 66bd
000002e0: bf30 8c3e 4b21 5cbe 02ee b5be 8500 893e
000002f0: 5e93 2ebe 3999 c53e 1dd1 d63e c05d f6be
00000300: a709 243e 150f 84be bca9 c9bf 70a9 8b3e
00000310: a290 cebe 786f 873e d9c5 7abf 044a d8bf
00000320: be40 3e3e d30d a7be 469c 823e 9852 3dbf
00000330: 5d01 d4bf c5f6 a4bd 5089 373c bb29 5fbb
00000340: 6cc1 f53e a964 9ebe 03ee ecbe 0c57 5abd
00000350: 729b 863e 6d84 113e 6783 573f 87f1 b1bd
00000360: e8c3 7bbe b0e6 223e 7b00 9cbe 6ffa 03bf
00000370: 024d 91be f65c 76bd 7721 ad3e 2056 99be
00000380: 368f 83bf 909d 96be 2df0 363c 47f1 9c3e
00000390: 80ea 003e 8de4 303f dff9 0dbe 67f3 073e
000003a0: 5c74 673d 5774 593e 6186 4bbf d3b7 92bd
000003b0: e29d 95be 041c ae3e 643b 98be 1d0c 93bf
000003c0: efb3 efbe 2acc 3b3d c3e5 a83b 746c 823e
000003d0: c510 a8be 844a 10bb 32ab c13d cb84 583e
000003e0: 4f7a ddbe eebb 82bf ba7a 96be abc9 993e
000003f0: 2f6f 683e 9857 69be e1b8 0abf ce5e 8d3d

dense1.bias f4 [64]
-0.3510414 0.5694899 -0.37935117 -0.31515956 -0.17114232 0.17346132 -0.09146786 -0.26814434
0.10453097 0.24214886 -0.3144708 -0.099533774 0.20073366 -0.4468191 -0.28643677 0.37893307
0.05905149 -0.45064363 0.50886905 -0.035077296 0.41903692 0.19537713 0.13984823 0.14016105
-0.089346826 -0.25082907 0.1224937 -0.036993146 -0.047726393 0.055107187 -0.24396636 0.2487386
0.3627645 0.4315991 0.2692809 0.20051205 0.24863599 -0.1736569 -0.119668424 0.20202088
0.03807044 -0.21560948 -0.557653 0.13368802 -0.30652145 -0.037074145 -0.14841291 0.5298544
-0.041411463 -0.42853105 -0.35253757 -0.6328542 -0.33975783 -0.22120298 0.15651593 0.23512298
-0.41687858 0.3155422 -0.0028873086 0.133718 -0.047459017 0.44122928 -0.16362806 -0.15051529
00000000: b3bb b3be 17ca 113f 513a c2be 985c a1be
00000010: ef3f 2fbe d89f 313e 8053 bbbd 374a 89be
00000020: 5514 d63d dff5 773e 5102 a1be 5dd8 cbbd
00000030: 208d 4d3e 79c5 e4be d7a7 92be 8403 c23e
00000040: fadf 713d c3ba e6be 3e45 023f 36ad 0fbd
00000050: 028c d63e f110 483e 6034 0f3e 6186 0f3e
00000060: 78fb b6bd ab6c 80be fadd fa3d 2086 17bd
00000070: c07c 43bd 13b8 613d 51d2 79be 55b5 7e3e
00000080: 45bc b93e 8ffa dc3e 30df 893e 0853 4d3e
00000090: 6f9a 7e3e 1dd3 31be b814 f5bd 90de 4e3e
000000a0: c0ef 1b3d bbc8 5cbe 59c2 0ebf 83e5 083e
000000b0: 61f0 9cbe 0fdb 17bd 8ef9 17be 8aa4 073f
000000c0: 119f 29bd 6c68 dbbe ce7f b4be bc02 22bf
000000d0: bdf4 adbe 0983 62be b645 203e 14c4 703e
000000e0: 1c71 d5be bf8e a13e 0039 3dbb 5fed 083e
000000f0: 6364 42bd cee8 e13e 1d8e 27be ae20 1abe

dense2.weight f4 [64, 64]
-0.1598511 0.14763269 -0.05282436 0.060620617 0.28297698 -0.006224379 -0.06863147 -0.082019724
0.14992757 0.32097724 0.12352006 0.03883732 -0.065505765 0.09057516 -0.11667038 0.30810252
-0.060512982 -0.111628346 0.123695605 -0.1148009 -0.086652674 0.034499116 -0.08447239 -0.021724446
0.009264057 -0.31359905 0.04056157 0.07177827 0.19982901 -0.014595899 -0.040441956 -0.20860183
0.05659214 -0.0009661998 0.079393804 -0.108194694 -0.2936311 -0.22562502 0.042437516 0.12458788
0.12751538 0.062296733 -0.14788774 0.049383853 0.19976114 0.111796506 0.15117829 0.13159949
-0.027663758 -0.0053382367 0.12620807 0.0016788517 -0.037746325 0.06332032 0.098805875 0.048736278
-0.112892635 -0.029338768 0.0070324293 0.0077980966 0.0915998 0.11986759 -0.056592956 0.05099146
-0.16143084 0.03732381 -0.007853758 -0.091935135 0.034857195 -0.062466934 0.08458102 -0.03628658
0.022358766 -0.07671342 0.009424403 -0.09834918 -0.060573738 -0.024340823 -0.01774409 -0.03557925
-0.1573438 0.023283461 -0.15252025 0.02343508 -0.06455157 -0.033032 -0.14551304 0.09268641
0.10095204 -0.12056994 0.0050276355 -0.10068095 0.08776905 -0.13936417 -0.111381784 -0.08251173
0.08530599 -0.071971565 0.11566515 0.04315366 0.055080745 -0.04081997 0.08804095 -0.089559145
-0.08194762 -0.035441734 -0.039026868 -0.09961908 0.09624383 0.16925323 0.033227924 -0.02889677
-0.08191162 -0.014319521 -0.00069487945 -0.041157298 -0.069159985 0.0243832 -0.10558917 0.07627662
0.13906822 -0.19478205 -0.12767874 0.11680705 -0.034253247 0.117736876 0.078073196 0.02045852
-0.12646766 -0.0016522985 0.040492155 -0.09367922 0.03682238 -0.0055720657 -0.04097186 0.0063098785
-0.017268237 -0.0018775462 -0.07874158 -0.102454804 -0.12190665 -0.13767593 0.07712461 -0.051402207
0.086818375 0.081585415 -0.012400282 -0.040227074 0.10353662 -0.19303909 -0.0775713 -0.17052396
-0.052375328 -0.06944117 0.005103462 0.0977691 -0.042191744 -0.055447236 0.0068445504 0.055509765
-0.046580583 0.0018567626 -0.025531262 0.047491908 0.06918912 0.037764117 -0.13018349 -0.13744153
-0.11516251 -0.074679844 0.05864954 0.117179126 -0.18499035 0.04494308 -0.15948659 -0.049120788
-0.10853486 -0.011131774 0.032628015 -0.06418816 -0.120588854 -0.096577995 -0.12145997 -0.1188598
0.007885165 -0.13475543 -0.030077778 0.044627063 0.052334543 0.04099898 -0.0035249074 0.0003848076
-0.005271837 0.08147624 -0.052488685 0.086766995 0.054631107 -0.09584588 -0.080550134 0.08359427
-0.050288334 -0.14937699 0.022585021 0.035138883 -0.11135742 -0.08955333 0.07810807 -0.06864333
-0.017722048 -0.056610584 -0.13275628 -0.031246627 -0.06368707 -0.07062581 -0.13212721 0.03422439
-0.110539846 -0.11860382 -0.05868646 0.023212373 -0.06960607 0.04209006 -0.093548745 -0.11269237
-0.011811078 -0.065347485 -0.09279193 0.030237049 -0.005634591 0.03687553 0.0797034 -0.014142126
0.092662744 -0.10457711 -0.124656394 -0.03878168 -0.1066486 -0.041447774 0.01575927 -0.06082081
0.11763856 -0.13175674 0.09815828 0.095750414 0.01869011 -0.07266052 0.038879674 -0.0023129135
-0.04846907 0.03153841 0.014496032 -0.028931625 0.0073239887 -0.0653944 -0.11982091 -0.059543565
00000000: 02b0 23be 062d 173e 5b5e 58bd 534d 783d
00000010: 5ce2 903e e0f5 cbbb a88e 8cbd f5f9 a7bd
00000020: 9d86 193e 2157 a43e 16f8 fc3d e213 1f3d
00000030: e327 86bd 787f b93d e1f0 eebd 9dbf 9d3e
00000040: 76dc 77bd 679d e4bd 1f54 fd3d bc1c ebbd
00000050: f576 b1bd f24e 0d3d dcff acbd 77f7 b1bc
00000060: 45c8 173c 0e90 a0be e423 263d 7c00 933d
00000070: fa9f 4c3e a323 6fbc 77a6 25bd b89b 55be
00000080: 29cd 673d 9248 7dba 3899 a23d 2e95 ddbd
00000090: d156 96be 3f0a 67be f6d2 2d3d ee27 ff3d
000000a0: 6493 023e dc2a 7f3d e26f 17be b946 4a3d
000000b0: 2f8e 4c3e 91f5 e43d 7bce 1a3e 04c2 063e
000000c0: 1b9f e2bc 60ec aebb b03c 013e ea0c dc3a
000000d0: e49b 1abd 15ae 813d bc5a ca3d b19f 473d
000000e0: 4134 e7bd db57 f0bc 4b70 e63b 2d87 ff3b
000000f0: ad98 bb3d 247d f53d 04ce 67bd 6cdc 503d
00000100: 204e 25be dae0 183d 0cad 00bc 7d48 bcbd
00000110: 6bc6 0e3d 54dd 7fbd d038 ad3d 3da1 14bd
00000120: bb29 b73c ed1b 9dbd d068 1a3c 4b6b c9bd
00000130: 2b1c 78bd 6866 c7bc 0e5c 91bc 8cbb 11bd
00000140: bc1e 21be f5bc be3c 452e 1cbe edfa bf3c
00000150: 9d33 84bd 904c 07bd 5f01 15be 5fd2 bd3d
00000160: f1bf ce3d 5fed f6bd ddbe a43b d031 cebd
00000170: 42c0 b33d 7bb5 0ebe 221c e4bd e9fb a8bd
00000180: e8b4 ae3d d465 93bd dae1 ec3d e4c1 303d
00000190: 599c 613d d732 27bd d04e b43d c96a b7bd
000001a0: 27d4 a7bd 5a2b 11bd a3da 1fbd 1705 ccbd
000001b0: 7c1b c53d b850 2d3e 011a 083d ebb8 ecbc
000001c0: 48c1 a7bd 6d9c 6abc 9228 36ba 8e94 28bd
000001d0: c0a3 8dbd 47bf c73c 223f d8bd eb36 9c3d
000001e0: e667 0e3e f274 47be 37be 02be 8938 ef3d
000001f0: 224d 0cbd 0820 f13d d7e4 9f3d a098 a73c
00000200: bd80 01be f091 d8ba 1adb 253d e4da bfbd
00000210: 10d3 163d e095 b6bb 1cd2 27bd 19c3 ce3b
00000220: 1e76 8dbc ff17 f6ba 4443 a1bd d3d3 d1bd
00000230: 32aa f9bd ebfa 0cbe 82f3 9d3d 1f8b 52bd
00000240: d5cd b13d 4116 a73d 8d2a 4bbc 25c5 24bd
00000250: 020b d43d 0aac 45be b4dd 9ebd d59d 2ebe
00000260: 8387 56bd 2c37 8ebd f13a a73b 2a3b c83d
00000270: 40d1 2cbd a41c 63bd 4048 e03b 355e 633d
00000280: 48cb 3ebd 9d5e f33a f026 d1bc e086 423d
00000290: 06b3 8d3d 8cae 1a3d d24e 05be 79bd 0cbe
000002a0: 52da ebbd bff1 98bd 803a 703d 9cfb ef3d
000002b0: 1c6e 3dbe 3c16 383d 7450 23be e132 49bd
000002c0: 8647 debd 0b62 36bc f4a4 053d 1575 83bd
000002d0: 4af7 f6bd afca c5bd 01c0 f8bd c46c f3bd
000002e0: c730 013c 54fd 09be ac65 f6bc deca 363d
000002f0: bf5c 563d 8cee 273d 2202 67bb 00c0 c939
00000300: 60bf acbb 04dd a63d 60fe 56bd e5b2 b13d
00000310: dec4 5f3d d84a c4bd 78f7 a4bd 7933 ab3d
00000320: 24fb 4dbd 48f6 18be 3904 b93c caed 0f3d
00000330: 5c0f e4bd bc67 b7bd 20f7 9f3d e094 8cbd
00000340: d42d 91bc 80e0 67bd 43f1 07be edf8 ffbc
00000350: 5e6e 82bd 44a4 90bd 5b4c 07be e02e 0c3d
00000360: b762 e2bd 8fe6 f2bd 3761 70bd e027 be3c
00000370: a18d 8ebd a066 2c3d 7c96 bfbd 42cb e6bd
00000380: 4083 41bc e7d4 85bd b209 bebd b0b3 f73c
00000390: 60a2 b8bb cc0a 173d 893b a33d 60b4 67bc
000003a0: f7c5 bd3d 862c d6bd da4b ffbd 8ad9 1ebd
000003b0: 956a dabd 24c5 29bd 9619 813c 3e1f 79bd
000003c0: 7cec f03d 3deb 06be 3507 c93d cb18 c43d
000003d0: 001c 993c 0acf 94bd 4b40 1f3d 4094 17bb
000003e0: 8187 46bd 6b2e 013d c480 6d3c 0402 edbc
000003f0: 12fe ef3b 80ed 85bd aa64 f5bd f4e3 73bd

dense2.bias f4 [64]
0.33646938 -0.14089188 0.04365031 0.08210913 0.054933995 -0.05187641 0.025442567 -0.004336387
-0.105739124 0.190704 0.059265442 0.06462819 -0.040415555 0.0150240995 -0.023612611 0.020118563
0.033186827 -0.061503503 -0.031195745 -0.12743898 0.019981138 0.23196156 0.05666982 0.048477
0.20981814 -0.09060017 0.23660806 0.010663573 0.10649602 -0.052774772 0.05496665 0.043557957
0.0036955774 0.15839836 0.036513314 -0.12676466 -0.10637368 0.03264652 -0.12988795 -0.1465023
0.05051503 0.13105313 0.005474413 -0.02010851 -0.13919948 0.0684123 -0.08936178 -0.087038495
0.06391742 -0.084236175 -0.10656535 -0.06640589 -0.14334315 -0.13152188 0.06585187 -0.059537567
-0.0685352 0.032480534 -0.00460123 0.08570427 0.030349981 0.027696544 0.11090336 -0.02523688
00000000: b745 ac3e f645 10be abca 323d d528 a83d
00000010: 7802 613d 5c7c 54bd ee6c d03c 4018 8ebb
00000020: c18d d8bd e947 433e 52c0 723d c95b 843d
00000030: c88a 25bd a427 763c 3c6f c1bc afcf a43c
00000040: e9ee 073d 19eb 7bbd 388e ffbc 5d7f 02be
00000050: 7caf a33c 5587 6d3e 9d1e 683d d28f 463d
00000060: 91da 563e 958c b9bd 6249 723e 44b6 2e3c
00000070: 961a da3d 5c2a 58bd b624 613d d469 323d
00000080: 8031 723b 2e33 223e fc8e 153d 98ce 01be
00000090: 72da d9bd 5bb8 053d 5901 05be b304 16be
000000a0: d9e8 4e3d cb32 063e b462 b33b 9aba a4bc
000000b0: 4f8a 0ebe bf1b 8c3d 4f03 b7bd 3d41 b2bd
000000c0: 23e7 823d 0484 acbd ef3e dabd d0ff 87bd
000000d0: 8cc8 12be acad 06be 58dd 863d aadd 73bd
000000e0: 2f5c 8cbd 4f0a 053d eac5 96bb b885 af3d
000000f0: 86a0 f83c dde3 e23c 4d21 e33d 93bd cebc

dense3.weight f4 [4, 64]
-0.07315979 0.011087524 -0.06516741 -0.0060521513 -0.12916581 0.11308372 0.074029535 0.053667862
-0.048586298 -0.13299918 -0.17534712 0.0015930914 -0.075402595 -0.04060234 0.043803804 -0.09827999
0.07443027 -0.10439624 0.10024069 0.0077760546 -0.12163948 -0.102399446 -0.15455385 0.004970178
-0.23550591 -0.04731501 -0.09486759 0.0612562 0.08351438 0.065134645 -0.07089115 0.0074936897
-0.062485024 -0.092219844 0.040415198 -0.12741473 -0.05459696 0.079784006 0.084040284 -0.033002682
-0.012399378 -0.10947753 0.09571629 -0.03565204 0.14100567 -0.017889172 -0.07503223 0.06775682
-0.08933429 -0.09494599 0.0018388898 0.075754605 0.018126488 -0.114948034 0.02521905 0.057689913
0.09559834 -0.07315725 -0.060404737 -0.11852421 -0.04388895 -0.053273417 -0.1115414 -0.12526664
-0.15408894 0.04870453 -0.050954577 0.079875976 -0.13907751 0.084208146 0.05201936 -0.09539166
0.102705516 -0.20407982 -0.09638638 0.017346373 -0.06756339 -0.0019087836 0.10287899 -0.03878376
0.060303506 0.10869548 0.08721295 -0.0027790593 -0.13802956 -0.24658735 -0.13333899 -0.1051382
-0.2081777 -0.052880943 -0.09338097 0.12632897 0.016918913 0.120574996 0.07110037 -0.11813639
0.045771465 -0.17603236 0.0016199946 -0.039906446 0.085626945 0.03246827 -0.05417849 0.04849526
-0.10059876 -0.11978881 -0.008753948 0.09513134 -0.07368425 -0.09215133 -0.08865326 0.09776799
0.03330189 -0.10392713 -0.06225814 0.0887232 0.07686939 -0.009240568 0.08428728 0.043203413
-0.034306057 -0.06457337 0.12412375 0.06947087 -0.0020640974 0.03900389 -0.06856901 -0.09689191
-0.06094188 0.028265348 -0.11329703 0.00377333 -0.07049032 0.07579784 -0.00038845028 0.09236594
0.06761096 0.033362255 -0.07965903 0.0052243904 -0.055059858 -0.11359822 0.09504544 -0.03063509
-0.05223143 0.09564956 0.023648456 0.035779286 -0.05425696 -0.003850407 -0.052591626 0.027487203
-0.03789188 0.12187207 -0.06112938 -0.008365288 0.021432757 -0.04665585 -0.10859786 -0.09582429
-0.11579782 -0.041215263 -0.025017416 0.10669454 0.07761258 0.04584366 -0.03965732 0.02232262
0.0581162 -0.111447506 0.08420916 0.036185663 0.09726678 0.096054755 -0.0030071964 -0.008538584
-0.044742104 -0.087558985 0.078350306 -0.08776822 0.060728397 0.032727998 0.026925609 0.023136228
-0.006084478 -0.10508747 0.06677042 -0.07662751 0.024052909 0.029112559 -0.10756875 -0.115751795
-0.2368598 0.041069455 0.028491328 -0.017655402 -0.05859042 0.0014559329 0.024592862 0.03048998
0.02067085 -0.12134419 -0.016728655 0.027052788 -0.063396715 -0.15250006 0.15013537 -0.098198645
0.055074245 -0.06325963 0.032315925 -0.045035265 -0.22030327 -0.19044314 -0.07414631 -0.021299193
-0.21191695 -0.003792335 -0.050731383 0.058291 -0.05636175 -0.047621086 -0.0059376257 -0.09031251
0.0051517338 -0.031474013 -0.006721154 0.10333797 -0.07819274 0.08053905 0.023666104 0.08551308
0.10300011 -0.2209988 -0.004015556 -0.0011952966 0.04621066 0.04005243 0.100845695 -0.029567018
-0.08959143 -0.23067953 0.0017511486 -0.090407684 -0.003878653 0.08043575 0.07465956 0.021526912
0.06270057 -0.012234419 0.11575419 0.008279971 -0.08113458 0.10783665 -0.05014898 -0.092662044
00000000: cdd4 95bd 72a8 353c 7e76 85bd 2051 c6bb
00000010: 0b44 04be 7098 e73d cc9c 973d d5d2 5b3d
00000020: 6d02 47bd f030 08be 328e 33be 47cf d03a
00000030: ad6c 9abd a44e 26bd 9e6b 333d 0547 c9bd
00000040: e66e 983d b2cd d5bd fe4a cd3d 46ce fe3b
00000050: 1f1e f9bd cdb6 d1bd 5d43 1ebe e0dc a23b
00000060: 7628 71be 62cd 41bd f049 c2bd c8e7 7a3d
00000070: 9609 ab3d 5065 853d 612f 91bd a08d f53b
00000080: 4cf0 7fbd c2dd bcbd 688a 253d 0279 02be
00000090: 10a1 5fbd cc65 a33d 501d ac3d d22d 07bd
000000a0: c326 4bbc c135 e0bd e706 c43d e007 12bd
000000b0: ca63 103e 508c 92bc 7faa 99bd 16c4 8a3d
000000c0: e5f4 b6bd 0b73 c2bd e706 f13a 3b25 9b3d
000000d0: 007e 943c e069 ebbd 2e98 ce3c 424c 6c3d
000000e0: 10c9 c33d 78d3 95bd f56a 77bd d2bc f2bd
000000f0: e6c4 33bd 3a35 5abd d16f e4bd e645 00be
00000100: 7ec9 1dbe 677e 473d bfb5 50bd 0496 a33d
00000110: 566a 0ebe 5275 ac3d 4112 553d b45c c3bd
00000120: 4557 d23d 4dfa 50be 3966 c5bd fb19 8e3c
00000130: ad5e 8abd 2630 faba 38b2 d23d b8db 1ebd
00000140: cf00 773d bc9b de3d b49c b23d e120 36bb
00000150: 9f57 0dbe 6581 7cbe 048a 08be b252 d7bd
00000160: 892c 55be b099 58bd 863e bfbd 625c 013e
00000170: 8899 8a3c 06f0 f63d 129d 913d 7ef1 f1bd
00000180: dc7a 3b3d d441 34be 0056 d43a f174 23bd
00000190: 2e5d af3d 73fd 043d 44ea 5dbd f7a2 463d
000001a0: b906 cebd d653 f5bd b86c 0fbc 38d4 c23d
000001b0: c5e7 96bd d6b9 bcbd d78f b5bd 953a c83d
000001c0: 9067 083d bfd7 d4bd 6402 7fbd 82b4 b53d
000001d0: b36d 9d3d c065 17bc cf9e ac3d 10f6 303d
000001e0: 8284 0cbd 0b3f 84bd 9834 fe3d be46 8e3d
000001f0: cf45 07bb 8bc2 1f3d e96d 8cbd 446f c6bd
00000200: 319e 79bd bb8c e73c 4608 e8bd f949 773b
00000210: 3b5d 90bd e63b 9b3d eaa8 cbb9 5b2a bd3d
00000220: 9d77 8a3d dca6 083d 4624 a3bd 5d31 ab3b
00000230: 7286 61bd 2fa6 e8bd 2fa7 c23d 71f6 fabc
00000240: a0f0 55bd ebe3 c33d 68ba c13c 4d8d 123d
00000250: 8c3c 5ebd 1c57 7cbb 516a 57bd d82c e13c
00000260: 8434 1bbd 1098 f93d cd62 7abd 900e 09bc
00000270: c093 af3c 341a 3fbd 8e68 debd 863f c4bd
00000280: 6827 edbd 56d1 28bd 53f1 ccbc ab82 da3d
00000290: 58f3 9e3d 90c6 3b3d b76f 22bd eddd b63c
000002a0: 410b 6e3d 973e e4bd da75 ac3d 6b37 143d
000002b0: ce33 c73d 5bb8 c43d 6214 45bb 6be5 0bbc
000002c0: 7f43 37bd 2052 b3bd 2076 a03d d3bf b3bd
000002d0: 57be 783d cb0d 063d 1893 dc3c 3088 bd3c
000002e0: 4d60 c7bb 1938 d7bd eebe 883d e2ee 9cbd
000002f0: 9b0a c53c 767d ee3c 014d dcbd 470f edbd
00000300: 608b 72be 7238 283d a566 e93c 10a2 90bc
00000310: 82fc 6fbd 00d5 be3a f876 c93c 1fc6 f93c
00000320: ea55 a93c 4d83 f8bd 880a 89bc cf9d dd3c
00000330: 23d6 81bd fa28 1cbe 16bd 193e 5f1c c9bd
00000340: 8895 613d 448e 81bd b45d 043d e676 38bd
00000350: 2e97 61be 8703 43be 05da 97bd a57b aebc
00000360: c200 59be d388 78bb b6cb 4fbd 8bc2 6e3d
00000370: 94db 66bd 540e 43bd 6a90 c2bb c4f5 b8bd
00000380: e0cf a83b e5ea 00bd 203d dcbb dca2 d33d
00000390: 8423 a0bd a8f1 a43d 6bdf c13c 7b21 af3d
000003a0: b9f1 d23d 824d 62be ed94 83bb 80ab 9cba
000003b0: 6447 3d3d 040e 243d 3088 ce3d 8836 f2bc
000003c0: b67b b7bd 4137 6cbe cc86 e53a aa27 b9bd
000003d0: 0031 7ebb 80bb a43d 1de7 983d 3559 b03c
000003e0: 2869 803d df72 48bc 8810 ed3d b7a8 073c
000003f0: e329 a6bd 76d9 dc3d 0469 4dbd 99c5 bdbd

dense3.bias f4 [4]
-0.031111516 -0.064476244 0.18631463 -0.33796015
00000000: 94dd febc 1f0c 84bd 43c9 3e3e 1d09 adbe
