Reinforcment_Learning_DQN/agent_output/weights/episode_270_weights.pt (torch, 21495 bytes, 6 tensors)

dense1.weight f4 [64, 5]
0.09217276 -0.15769129 0.06396908 -2.9581177 -3.9451916 0.3776121 -0.41871488 -0.06698806
-0.07725778 0.6976951 -0.1590693 -0.1454114 -0.19677794 0.20958334 0.4430123 0.24499783
-0.70162165 0.11324096 0.38429967 0.16195709 -0.17624125 -0.23496039 -0.2958821 0.004589319
-0.17472106 0.19652703 -0.31626153 0.10500967 -1.8217455 -3.7330756 -0.3206429 -0.42210567
-0.36001134 -0.026060402 -0.3152027 0.12778084 0.6907576 -0.1943239 1.1932075 1.2513739
-0.70809263 0.0055777975 0.3174722 -0.9495774 -0.83470875 -0.3581755 0.015071958 -0.40748453
0.37109184 0.34176672 -0.5532507 0.007930976 0.2718666 -1.3118174 -1.192331 -0.2804043
-0.52565604 0.23473231 -0.7160629 -1.0354561 -0.21246661 0.15722209 -0.101418495 -0.093485326
0.38021576 0.2146826 -0.0021328952 -0.51911986 -0.24169819 -2.3866673 -0.34298375 -0.42810345
0.22740585 -0.52420104 -0.21947503 0.16945525 0.22572371 -0.10667694 1.2732493 1.7848833
0.35539827 0.021817978 -0.38143966 0.63853717 0.44486776 -0.033943947 0.18537933 0.11025994
-2.908286 -3.0148804 -0.5650139 0.06647659 0.23368822 -0.8128156 -0.5100239 0.008374373
0.327079 0.05658382 -3.063058 -1.9599832 0.22181843 -0.3688231 0.13024293 -1.4166267
-3.0066042 0.24619518 -0.4348652 0.18599644 -2.4961715 -4.0943294 -0.0035589635 -0.4151567
-0.30684435 0.21566164 0.36043257 -0.14656976 0.5649469 -0.05430746 0.345708 -0.023193402
0.17002106 -0.289028 0.23403504 -2.5525541 -3.4416 -0.038513903 0.15846151 -0.002091088
-3.4580457 -3.5394535 -0.22067092 0.45894766 0.29914206 -3.0107133 -2.5821474 0.021787519
0.38706923 0.09411894 -3.263625 -1.6675398 0.21302365 -0.3640858 0.13959792 -2.2107034
-3.4840872 -0.0759857 -1.1264759 0.25993526 -0.18198138 -0.15240854 -0.054934233 -0.38638422
0.026403576 -0.39306372 0.38130027 0.08644385 0.07382327 -0.07444129 -2.514115 -3.2397046
-0.27095363 0.6894066 0.24382983 0.9563959 0.8805396 0.2536877 -0.3903114 0.10622457
-0.9985234 -2.5181835 -0.105522126 0.09999751 -0.566798 0.6468964 -0.30503136 0.15531044
0.018871507 -0.50735855 0.6126047 -1.6425447 -0.38724247 0.07332468 -0.25763017 -0.18881357
-0.2534031 0.24889989 0.23429148 -0.63526136 -0.21444242 0.77534646 -0.09900995 0.45450717
0.120244175 -1.787943 -0.80986506 -0.01981458 -0.14363989 -0.32462895 0.43395936 0.2610675
0.2288356 -0.39748144 0.15954587 -2.525823 -3.715374 0.15070532 -0.34284836 -0.38955003
0.14840204 0.2046445 0.20430711 -0.72698545 0.051076934 0.012676591 -0.2575492 -0.035179075
0.18380272 0.021984361 -2.6872888 -3.172286 -0.07067841 0.42716923 -0.15154159 -1.6550083
0.050307695 -0.26553622 -0.23939009 0.06623882 -0.25960886 0.37298614 -0.46269354 -0.16011558
0.30309144 -1.3163258 -0.8263885 0.13010168 -0.29478902 0.17649092 -2.548709 -3.6310859
0.053213723 -0.4789145 -0.1687764 -0.11702783 -0.42269304 -0.39433092 0.09288235 0.046827786
-2.3960588 -2.865732 0.0614655 0.2303632 -0.0020933766 0.63922054 -0.461515 -0.29921415
00000000: 12c5 bc3d d379 21be 3902 833d cd51 3dc0
00000010: 057e 7cc0 6056 c13e cc61 d6be 0931 89bd
00000020: 5439 9ebd 259c 323f 10e3 22be bae6 14be
00000030: 2880 49be 049d 563e 82d2 e23e b6e0 7a3e
00000040: 7a9d 33bf e0ea e73d edc2 c43e 14d8 253e
00000050: 9678 34be 7599 70be dc7d 97be 0062 963b
00000060: 14ea 32be 623e 493e 08ed a1be 4f0f d73d
00000070: f52e e9bf b6ea 6ec0 4e2b a4be 3c1e d8be
00000080: 6853 b8be a07c d5bc 4062 a1be fbd8 023e
00000090: 7dd5 303f d8fc 46be 06bb 983f 052d a03f
000000a0: 8f45 35bf f5c5 b63b b78b a23e 8117 73bf
000000b0: 79af 55bf c762 b7be 60f0 763c d0a1 d0be
000000c0: c0ff bd3e 0cfc ae3e d6a1 0dbf edf0 013c
000000d0: 1932 8b3e a2e9 a7bf 4d9e 98bf 2791 8fbe
000000e0: 6591 06bf ab5d 703e e64f 37bf d389 84bf
000000f0: d990 59be d4fe 203e 80b4 cfbd 3c75 bfbd
00000100: a4ab c23e c1d5 5b3e 0bc8 0bbb 0ae5 04bf
00000110: bb7f 77be 28bf 18c0 919b afbe 6030 dbbe
00000120: 14dd 683e 0a32 06bf 10be 60be ad85 2d3e
00000130: 1e24 673e 7179 dabd d5f9 a23f 0e77 e43f
00000140: c3f6 b53e 9ebb b23c 0f4c c3be 2c77 233f
00000150: b5c5 e33e cf08 0bbd 14d4 3d3e f7cf e13d
00000160: 5c21 3ac0 cdf3 40c0 c0a4 10bf e124 883d
00000170: f74b 6f3e af14 50bf ed90 02bf ab34 093c
00000180: e676 a73e 70c4 673d 2409 44c0 bbe0 fabf
00000190: 5f24 633e 62d6 bcbe 675e 053e 0654 b5bf
000001a0: 346c 40c0 971a 7c3e a7a6 debe da75 3e3e
000001b0: 46c1 1fc0 bf04 83c0 803d 69bb 6b8f d4be
000001c0: b41a 9dbe 68d6 5c3e 9e8a b83e 6216 16be
000001d0: 5ca0 103f 8071 5ebd a400 b13e 1700 bebc
000001e0: 001a 2e3e 7afb 93be e2a6 6f3e 0c5d 23c0
000001f0: 2d43 5cc0 c1c0 1dbd bc43 223e a30a 09bb
00000200: 9f50 5dc0 6886 62c0 8ff7 61be 30fb ea3e
00000210: 2629 993e 87af 40c0 e741 25c0 bd7b b23c
00000220: f02d c63e 6ec1 c03d 3bdf 50c0 f271 d5bf
00000230: df22 5a3e 7469 babe c2f2 0e3e 2a7c 0dc0
00000240: 49fb 5ec0 649e 9bbd 5d30 90bf 3c16 853e
00000250: 5459 3abe fc10 1cbe b802 61bd 27d4 c5be
00000260: 504c d83c a63f c9be ca39 c33e 7909 b13d
00000270: a830 973d ad74 98bd 43e7 20c0 5257 4fc0
00000280: 6fba 8abe f37c 303f 87ae 793e 5dd6 743f
00000290: 0b6b 613f 5be3 813e e5d6 c7be 448c d93d
000002a0: 3b9f 7fbf eb29 21c0 fc1b d8bd 7fcb cc3d
000002b0: ac19 11bf 019b 253f 122d 9cbe b309 1f3e
000002c0: 6b98 9a3c 40e2 01bf a9d3 1c3f e83e d2bf
000002d0: a544 c6be 402b 963d 1ae8 83be 5858 41be
000002e0: 0dbe 81be 9ddf 7e3e 1bea 6f3e 7da0 22bf
000002f0: cb96 5bbe 1b7d 463f bbc5 cabd 2ab5 e83e
00000300: 9442 f63d 51db e4bf 5153 4fbf 3052 a2bc
00000310: 5616 13be c435 a6be ec2f de3e a4aa 853e
00000320: e153 6a3e b082 cbbe fe5f 233e 16a7 21c0
00000330: b0c8 6dc0 7f52 1a3e d289 afbe 1a73 c7be
00000340: b4f6 173e 548e 513e e235 513e b81b 3abf
00000350: 0c36 513d 7ab1 4f3c 7ddd 83be ef17 10bd
00000360: c836 3c3e 8c18 b43c 8afc 2bc0 bc06 4bc0
00000370: d8bf 90bd edb5 da3e b82d 1bbe 50d7 d3bf
00000380: 710f 4e3d 5df4 87be ad22 75be 38a8 873d
00000390: 74eb 84be 0af8 be3e 2be6 ecbe 57f5 23be
000003a0: cd2e 9b3e 5d7d a8bf 328e 53bf 6039 053e
000003b0: 96ee 96be 09ba 343e 0c1e 23c0 b663 68c0
000003c0: a2f6 593d 4834 f5be b8d3 2cbe 49ac efbd
000003d0: 396b d8be bee5 c9be 1a39 be3d 7ece 3f3d
000003e0: 0759 19c0 2768 37c0 40c3 7b3d 55e4 6b3e
000003f0: 0831 09bb f5a3 233f b24b ecbe 9932 99be

dense1.bias f4 [64]
0.432661 -0.36588514 0.35169303 0.39553332 -0.12978694 0.2467944 0.42225194 0.37878075
0.41629133 0.21593422 0.47353896 -0.25183466 0.14058179 0.038755417 -0.3094295 -0.21171553
-0.21584567 0.033790946 -0.040354304 -0.1468452 0.24179208 0.47938222 0.008955717 0.2459158
0.6499035 0.4490688 0.049002334 0.0025856732 0.38872147 -0.4005047 -0.20864697 0.13969094
-0.002983487 -0.08123386 0.33491325 -0.15876578 -0.19755839 -0.6002457 0.17284703 -0.41259047
0.6319402 0.29121405 0.18980981 0.14056854 0.19551873 -0.0059044063 0.11953187 -0.033374242
-0.3399039 0.050586097 -0.20325802 0.5120876 0.4070832 0.28912494 0.20314145 0.5030185
0.33518082 -0.2097098 -0.3714199 0.24118465 0.160171 0.57667446 -0.33962825 0.30430642
00000000: be85 dd3e 4c55 bbbe 1c11 b43e 5883 ca3e
00000010: dee6 04be acb7 7c3e 6831 d83e 8def c13e
00000020: 2324 d53e dc1d 5d3e b373 f23e 79f0 80be
00000030: acf4 0f3e 00be 1e3d 8b6d 9ebe f5cb 58be
00000040: a606 5dbe 6068 0a3d 8e4a 25bd 975e 16be
00000050: 5898 773e 9671 f53e 00bb 123c 5ad1 7b3e
00000060: 1360 263f 59ec e53e acb6 483d 6674 293b
00000070: 8006 c73e f40e cdbe 8da7 55be 240b 0f3e
00000080: 9b86 43bb f05d a6bd c079 ab3e 7f93 22be
00000090: bf4c 4abe b4a9 19bf d0fe 303e 0f3f d3be
000000a0: d5c6 213f 021a 953e 815d 423e 33f1 0f3e
000000b0: 1036 483e c079 c1bb 20cd f43d 6eb3 08bd
000000c0: e207 aebe 5e33 4f3d df22 50be 2c18 033f
000000d0: 366d d03e 2f08 943e 5004 503e d2c5 003f
000000e0: d29c ab3e 2abe 56be c02a bebe 1cf9 763e
000000f0: de03 243e f0a0 133f c1e3 adbe 0dce 9b3e

dense2.weight f4 [64, 64]
0.048662502 -0.33271885 -0.10162085 0.051726263 -0.034134313 0.020782426 -0.031141058 -0.14674488
0.11705329 0.06473051 0.04939795 0.19209665 -0.08169712 -0.33832505 0.19874191 -0.25821748
-0.17537954 -0.09658828 0.10655943 -0.44937742 -0.10319158 0.0041785957 0.10134442 -0.18901293
0.05980124 -0.006805514 -0.16318007 -0.31100363 0.038441654 0.14987144 0.08641283 -0.37564266
-0.12162737 -0.15458865 0.080441825 -0.26101255 -0.07303533 -0.07060124 -0.14304921 -0.07509458
0.070876636 0.088150054 0.07984288 -0.23756967 -0.006155135 -0.046501383 0.07767626 -0.015084041
0.092179686 -0.021036517 -0.5116247 0.050040293 -0.11721487 -0.44801313 0.05673249 -0.14324209
-0.11399323 -0.055408224 -0.12151192 -0.35420364 0.0033485326 -0.1126756 0.11167641 -0.22682972
0.019114805 -0.076625794 0.08264923 0.011625209 -0.11523591 0.061417866 0.119546175 0.0017773062
-0.0852846 0.051178932 0.03493143 -0.15432635 -0.0434331 -0.058206867 0.0137437275 -0.06748171
-0.049855538 -0.1439511 -0.022284973 -0.03389432 -0.05694277 0.013290428 0.0060767233 -0.08330929
-0.008410932 -0.1370893 0.09997865 -0.14584401 0.05995713 -0.16888064 -0.091013 0.05845496
-0.023165006 -0.013553854 -0.10372771 -0.017270923 0.0100412965 -0.08063946 -0.023421098 0.12103827
-0.10991762 -0.044857398 0.074676424 0.027523898 0.09647629 -0.03630601 0.124983385 0.011100434
-0.084685996 0.05043134 -0.12555501 -0.17074294 0.115920424 -0.1651879 -0.024051353 -0.14352083
0.028702274 -0.09651017 -0.06752086 -0.04551795 -0.008708316 -0.105985485 -0.0326778 -0.0372603
-0.010994623 -0.052778196 0.0703869 0.010661125 -0.044996634 -0.09266764 0.0044395775 -0.02946306
-0.107656285 -0.11036576 0.00042839348 -0.040282115 0.010447785 0.016545082 -0.010048062 -0.079983115
-0.01219995 -0.0334528 0.046606243 0.06127715 0.0035248084 -0.17084736 -0.069295764 0.10559721
0.070108585 0.03903142 0.017249601 -0.12281361 -0.15201682 -0.05652137 0.009866357 -0.15020269
-0.07375034 -0.00925596 -0.06536921 0.077881105 0.016945228 0.06477783 -0.052132484 0.032022476
0.0054828045 -0.11267333 0.104076356 -0.13336186 0.0793656 -0.023358136 0.093851745 -0.11946923
-0.03916128 -0.08861471 -0.09766745 0.016792163 0.07400291 0.015345479 0.09582281 -0.14885908
0.022167176 0.09237884 -0.033423617 -0.10871054 -0.015077724 -0.070540674 -0.0880321 -0.05394539
-0.002637902 -0.11694881 0.09148915 -0.06421551 0.071203604 0.08425656 0.012904093 -0.07281994
0.10556657 0.11816524 -0.0015183088 0.019087149 0.118193746 -0.11515361 0.033335026 0.04345091
0.053711206 -0.10192391 -0.056724224 -0.13401087 -0.091673546 -0.018875781 0.10604264 0.04657355
-0.06232411 -0.057635777 -0.105133966 -0.06337767 -0.07086829 -0.10603416 -0.06456277 -0.05404459
0.022115815 0.06599113 -0.089491665 -0.12437908 -0.00057798624 -0.11781525 -0.052534945 -0.029587507
-0.08518185 -0.04256469 0.054746773 -0.11182892 -0.05290188 0.063279554 -0.036570188 -0.13010882
0.012548983 0.095480286 -0.050841764 0.1125704 -0.019156098 -0.0017060792 0.036549643 -0.026848286
0.10657033 -0.06432293 -0.005418271 0.030173453 0.019214053 -0.025999231 -0.117066234 0.012351547
00000000: 5552 473d 205a aabe 981e d0bd ebde 533d
00000010: 6cd0 0bbd e83f aa3c 881b ffbc 4a44 16be
00000020: a3b9 ef3d 6e91 843d 8155 4a3d fcb4 443e
00000030: d250 a7bd f138 adbe 0083 4b3e 1535 84be
00000040: b296 33be 13d0 c5bd d53b da3d cc14 e6be
00000050: 1b56 d3bd 9aec 883b aa8d cf3d 9b8c 41be
00000060: 25f2 743d ca00 dfbb ad18 27be de3b 9fbe
00000070: ff74 1d3d e677 193e 36f9 b03d 3c54 c0be
00000080: c517 f9bd 7d4c 1ebe afbe a43d 70a3 85be
00000090: 8c93 95bd 6297 90bd 7e7b 12be 30cb 99bd
000000a0: c527 913d 0488 b43d aa84 a33d 7745 73be
000000b0: 04b1 c9bb 3c78 3ebd bb14 9f3d 0e23 77bc
000000c0: b4c8 bc3d c654 acbc d6f9 02bf 0df7 4c3d
000000d0: 5a0e f0bd fa61 e5be 5460 683d 0eae 12be
000000e0: 4875 e9bd bcf3 62bd 3edb f8bd 2e5a b5be
000000f0: 0e73 5b3b 77c2 e6bd 9ab6 e43d 0d46 68be
00000100: a796 9c3c fced 9cbd 0044 a93d a977 3e3c
00000110: ce00 ecbd 4d91 7b3d a0d4 f43d 80f4 e83a
00000120: b1a9 aebd 00a1 513d 4214 0f3d ba07 1ebe
00000130: e8e6 31bd 536a 6ebd 5f2d 613c da33 8abd
00000140: 5235 4cbd eb67 13be fa8e b6bc c5d4 0abd
00000150: d23c 69bd 18c0 593c 401f c73b 109e aabd
00000160: 01ce 09bc 2361 0cbe 9bc1 cc3d 2258 15be
00000170: 9c95 753d 0cef 2cbe 0665 babd 786e 6f3d
00000180: 8ac4 bdbc fc10 5ebc 326f d4bd c07b 8dbc
00000190: 4084 243c 4d26 a5bd 9add bfbc eae2 f73d
000001a0: 7d1c e1bd 64bc 37bd f4ef 983d cc79 e13c
000001b0: 5c95 c53d 9cb5 14bd 4af7 ff3d 98de 353c
000001c0: da6f adbd 1891 4e3d 7e91 00be 3dd7 2ebe
000001d0: b067 ed3d 0427 29be 5807 c5bc 20f7 12be
000001e0: 0821 eb3c 20a7 c5bd 6048 8abd 0871 3abd
000001f0: 53ad 0ebc eb0e d9bd 28d9 05bd 429e 18bd
00000200: cb22 34bc f32d 58bd 0227 903d 00ac 2e3c
00000210: 644e 38bd 88c8 bdbd e079 913b 845c f1bc
00000220: e67a dcbd 7207 e2bd 009a e039 dcfe 24bd
00000230: 302d 2b3c 8d89 873c a0a0 24bc 30ce a3bd
00000240: 4de2 47bc ce05 09bd 30e6 3e3d c0fd 7a3d
00000250: 7900 673b 9cf2 2ebe f0ea 8dbd 5a43 d83d
00000260: 1795 8f3d 69df 1f3d 094f 8d3c b485 fbbd
00000270: 4caa 1bbe f482 67bd 80a6 213c bcce 19be
00000280: 6b0a 97bd 4fa6 17bc 4be0 85bd 2180 9f3d
00000290: b8d0 8a3c 3daa 843d df88 55bd 002a 033d
000002a0: 19a9 b33b 46c1 e6bd fc25 d53d 0390 08be
000002b0: 6f8a a23d 9059 bfbc 5835 c03d 49ac f4bd
000002c0: 9467 20bd a17b b5bd df05 c8bd b88f 893c
000002d0: d68e 973d 9b6b 7b3c c03e c43d 846e 18be
000002e0: f097 b53c 1e31 bd3d 34e7 08bd a2a3 debd
000002f0: 8f08 77bc a177 90bd 2c4a b4bd d7f5 5cbd
00000300: a7e0 2cbb dc82 efbd aa5e bb3d 6c83 83bd
00000310: 32d3 913d b48e ac3d b06b 533c 9f22 95bd
00000320: 4933 d83d 9e00 f23d fd01 c7ba a75c 9c3c
00000330: 900f f23d a8d5 ebbd 4f8a 083d 95f9 313d
00000340: 4800 5c3d 7cbd d0bd a957 68bd 253a 09be
00000350: 57bf bbbd 62a1 9abc e22c d93d e8c3 3e3d
00000360: 9147 7fbd 7e13 6cbd 7a50 d7bd 27cc 81bd
00000370: 6523 91bd 7028 d9bd 7c39 84bd dc5d 5dbd
00000380: 3a2c b53c 5c26 873d 6847 b7bd 76ba febd
00000390: 0084 17ba 1f49 f1bd e22e 57bd 8061 f2bc
000003a0: d273 aebd 5058 2ebd 273e 603d 9006 e5bd
000003b0: a4af 58bd b698 813d 9fca 15bd 3f3b 05be
000003c0: 409a 4d3c 2b8b c33d 743f 50bd 4f8b e63d
000003d0: 40ed 9cbc 859e dfba 14b5 153d f0f0 dbbc
000003e0: 8c41 da3d bebb 83bd c08b b1bb 512e f73c
000003f0: ca66 9d3c 57fc d4bc 6cc0 efbd 255e 4a3c

dense2.bias f4 [64]
-0.14639069 0.058430586 -0.08263224 -0.010494288 -0.017199306 -0.11467838 0.34723365 0.055257596
0.06430446 0.03762825 0.30951655 0.050560586 -0.03303846 0.07526555 0.0091512995 0.08478004
0.1002711 -0.1030274 0.04245612 -0.13758521 -0.089070335 -0.020736108 0.0026837566 0.408427
0.025896031 -0.0136915855 0.34772834 -0.017949874 0.014402262 0.028523188 -0.012195362 -0.19510482
-0.13783884 -0.16186608 0.04413514 -0.09303697 -0.18359607 0.4375026 0.03172482 0.14114691
-0.13020444 0.3358683 -0.117723495 0.19123027 -0.058190707 0.032741174 0.078041 0.11062072
-0.14516413 -0.041323934 0.36165354 -0.1552502 0.04638144 -0.05891385 -0.15794937 0.03688024
-0.118822165 -0.15906942 0.04149252 0.023831218 0.019580713 -0.024969758 0.36216703 0.0014993495
00000000: 71e7 15be e954 6f3d 183b a9bd 3cf0 2bbc
00000010: 8fe5 8cbc 80dc eabd 9cc8 b13e ca55 623d
00000020: 0fb2 833d 1420 1a3d f478 9e3e 9e18 4f3d
00000030: 5653 07bd d324 9a3d 55ef 153c 28a1 ad3d
00000040: ef5a cd3d 0800 d3bd 78e6 2d3d 23e3 0cbe
00000050: 826a b6bd c5de a9bc f7e1 2f3b 581d d13e
00000060: ea23 d43c ac52 60bc 7309 b23e 9d0b 93bc
00000070: 77f7 6b3c 76a9 e93c 0ecf 47bc 8fc9 47be
00000080: a025 0dbe 39c0 25be 0cc7 343d 2b8a bebd
00000090: 9c00 3cbe 5700 e03e e3f1 013d d188 103e
000000a0: 5054 05be eef6 ab3e 0419 f1bd ded1 433e
000000b0: 6159 6ebd 9c1b 063d f6d3 9f3d 1e8d e23d
000000c0: e8a5 14be 4943 29bd a72a b93e e9f9 1ebe
000000d0: 77fa 3d3d a64f 71bd 7bbd 21be bc0f 173d
000000e0: 0959 f3bd 18e3 22be 10f4 293d b039 c33c
000000f0: bb67 a03c 618d ccbc f56d b93e d285 c43a

dense3.weight f4 [4, 64]
-0.07654299 -0.07741654 0.07425427 0.063464426 0.027008904 0.047085516 -0.117610976 -0.12061949
-0.3509949 -0.02631421 -0.15242012 0.06206033 0.048310492 0.0030623658 -0.13825251 -0.042749695
-0.071288966 0.054872975 -0.08769483 -0.13174781 -0.06423267 -0.0545042 -0.009893614 0.011745582
0.09170687 0.043939333 0.2719985 0.05658392 0.084574 0.09069481 0.025915464 0.0136854565
-0.047048386 0.005872233 0.06282994 -0.06146836 0.031608645 -0.17487675 -0.038068466 -0.20454133
0.056638792 -0.28267834 0.06757868 -0.04817834 0.07500917 -0.12076719 0.1024124 -0.052724045
-0.046131402 -0.015005508 -0.115019776 0.02503409 0.040240042 -0.09138535 0.21244478 -0.053786796
-0.02308848 0.08100388 -0.03853084 -0.08794437 0.031055372 -0.16441144 -0.17340234 0.07169462
-0.08697463 -0.12375216 -0.10767769 0.067616284 -0.0810154 -0.04574781 -0.08957107 -0.02255787
-0.24719359 -0.07074718 -0.17972325 0.03475297 0.028331097 0.012034297 -0.12279446 -0.049841378
-0.13100588 -0.07635482 -0.03631248 -0.11065161 -0.029360713 0.03578607 -0.0446444 -0.08469148
-0.053296015 -0.06039668 0.26930195 -0.003572151 -0.093753606 0.06700942 0.033069152 -0.061603505
-0.08306844 -0.1215227 0.09233397 -0.18305217 -0.0250335 -0.16904953 0.20813632 -0.16018623
-0.042243853 -0.18527444 0.038060635 -0.16236174 -0.0631326 0.04913795 -0.03091497 -0.2061927
-0.05188416 -0.09820361 -0.1753378 0.01172705 0.11184717 0.07766706 0.06285946 -0.08673656
-0.08316213 0.03233234 0.06460429 -0.0999158 0.08477988 -0.21621485 -0.23229827 -0.11054133
0.08998274 0.059829637 0.048875056 0.07082779 0.089167796 0.038990106 -0.12396546 0.0028922409
-0.1691219 -0.06621113 -0.17272465 -0.0028097134 0.0036308616 -0.016602743 -0.08403676 0.012615514
-0.01961056 -0.08477916 -0.10219513 0.023124991 -0.060022376 0.06640904 0.02243935 0.21269049
0.08351567 -0.12412602 0.27559325 -0.01838155 0.01856631 -0.028410217 -0.119912 -0.04448035
-0.07195471 0.10388204 -0.046151035 -0.14246692 0.15330723 -0.16752936 -0.037561014 -0.16056696
0.03060162 0.0048651067 0.1245013 -0.08228621 -0.003529116 -0.07366562 0.025693458 -0.10915914
0.03842543 -0.0638501 -0.15455616 0.08559114 0.0051483037 0.10348913 0.12552592 0.07362273
0.05429804 -0.021376897 -0.050930284 -0.09788482 -0.010559685 -0.2314928 -0.07119671 -0.01102954
0.1951702 -0.055653263 -0.15250857 0.014760981 0.03084562 -0.016040333 -0.1032168 0.07175497
0.014926554 -0.08379269 -0.13065751 -0.036845464 0.016808942 -0.02956924 -0.073025204 0.01781427
-0.11998785 0.010235533 -0.084540315 0.13092007 -0.012205392 0.0530457 0.047025863 -0.09196976
0.041947246 0.023125622 0.2087286 0.03362809 0.021891132 0.053275604 -0.017142495 0.09407553
-0.027539046 -0.020440107 -0.03351568 -0.015706016 0.23661064 -0.1604715 -0.38645077 -0.20205541
-0.08136736 -0.18431517 0.09299658 -0.2113274 0.011096198 -0.019027226 0.0013776305 -0.21887405
-0.008452043 0.040532693 -0.22701244 -0.010652932 0.067542315 0.035491526 0.05045159 0.056652736
0.06435711 0.027464349 -0.09460241 -0.01537323 0.07280181 -0.20849757 -0.127965 -0.000464806
00000000: 92c2 9cbd 908c 9ebd 9f12 983d a3f9 813d
00000010: c741 dd3c bedc 403d 06de f0bd 5a07 f7bd
00000020: 9bb5 b3be e690 d7bc 0514 1cbe f932 7e3d
00000030: 39e1 453d f9b1 483b 1192 0dbe 4e1a 2fbd
00000040: f3ff 91bd 7cc2 603d 5999 b3bd e6e8 06be
00000050: 6b8c 83bd cc3f 5fbd d318 22bc 8b70 403c
00000060: d0d0 bb3d bbf9 333d 6343 8b3e 8ac4 673d
00000070: 2235 ad3d 33be b93d ab4c d43c f738 603c
00000080: cfb5 40bd dc6b c03b fcac 803d 3fc6 7bbd
00000090: 1178 013d e412 33be aeed 1bbd 4873 51be
000000a0: 14fe 673d 37bb 90be b166 8a3d a756 45bd
000000b0: 689e 993d ca54 f7bd 98bd d13d 2bf5 57bd
000000c0: 48f4 3cbd aad9 75bc 7d8f ebbd 4b14 cd3c
000000d0: bed2 243d 3e28 bbbd 208b 593e 8b4f 5cbd
000000e0: 0d24 bdbc 5de5 a53d 84d2 1dbd 2e1c b4bd
000000f0: d667 fe3c 795b 28be 6290 31be a1d4 923d
00000100: c11f b2bd c671 fdbd 1f86 dcbd 687a 8a3d
00000110: 67eb a5bd 0e62 3bbd 0a71 b7bd 48cb b8bc
00000120: 5120 7dbe e6e3 90bd 5f09 38be 2159 0e3d
00000130: 9e16 e83c 802b 453c a97b fbbd 7926 4cbd
00000140: 6826 06be ea5f 9cbd 65bc 14bd 509d e2bd
00000150: e185 f0bc 6a94 123d 0cdd 36bd ba72 adbd
00000160: ec4c 5abd 8262 77bd f2e1 893e c01a 6abb
00000170: e401 c0bd 3c3c 893d 8573 073d f553 7cbd
00000180: c91f aabd e5e0 f8bd 9819 bd3d 0772 3bbe
00000190: 0e13 cdbc 521b 2dbe b021 553e dc07 24be
000001a0: e407 2dbd 95b8 3dbe 78e5 1b3d 2842 26be
000001b0: aa4b 81bd e044 493d 6441 fdbc 2e24 53be
000001c0: 7c84 54bd f91e c9bd c18b 33be d022 403c
000001d0: 2110 e53d e80f 9f3d 76bc 803d f0a2 b1bd
000001e0: e850 aabd ea6e 043d 414f 843d a8a0 ccbd
000001f0: 13a1 ad3d 6d67 5dbe 99df 6dbe 7e63 e2bd
00000200: df48 b83d ec0f 753d 3631 483d 290e 913d
00000210: 9b9d b63d 17b4 1f3d 9ae1 fdbd c08b 3d3b
00000220: 4b2e 2dbe b399 87bd bbde 30be 2b23 38bb
00000230: c0f3 6d3b 7a02 88bc 771b acbd 4db1 4e3c
00000240: 53a6 a0bc b2a0 adbd ae4b d1bd 9f70 bd3c
00000250: 06da 75bd 7601 883d bad2 b73c 89cb 593e
00000260: 430a ab3d c835 febd 8f1a 8d3e e894 96bc
00000270: 6018 983c 8bbc e8bc 6c94 f5bd 0731 36bd
00000280: fe5c 93bd 1bc0 d43d de08 3dbd d9e2 11be
00000290: 92fc 1c3e d18c 2bbe 94d9 19bd aa6b 24be
000002a0: 40b0 fa3c 796b 9f3b 8afa fe3d ac85 a8bd
000002b0: be48 67bb 00de 96bd 167b d23c d48e dfbd
000002c0: fc63 1d3d d7c3 82bd f843 1ebe 684a af3d
000002d0: 1ab3 a83b 1cf2 d33d de89 003e 84c7 963d
000002e0: 9f67 5e3d 9a1e afbc 469c 50bd d677 c8bd
000002f0: 8702 2dbc 730c 6dbe 95cf 91bd 3eb5 34bc
00000300: b2da 473e adf4 63bd 352b 1cbe 0bd8 713c
00000310: f4af fc3c 0467 83bc 5463 d3bd 45f4 923d
00000320: 818e 743c 809b abbd 15cb 05be 45eb 16bd
00000330: e8b2 893c 313b f2bc 3d8e 95bd 3bef 913c
00000340: 31bc f5bd f0b2 273c 7923 adbd e90f 063e
00000350: 20f9 47bc 7346 593d 319e 403d a45a bcbd
00000360: e0d0 2b3d f271 bd3c f3bc 553e 9cbd 093d
00000370: 0855 b33c 8537 5a3d 6b6e 8cbc acaa c03d
00000380: 9199 e1bc 0372 a7bc bd47 09bd e7a9 80bc
00000390: 0f4a 723e a452 24be e0dc c5be 9de7 4ebe
000003a0: eea3 a6bd 1ebd 3cbe fe74 be3d 3666 58be
000003b0: d4cc 353c fcde 9bbc 9c91 b43a 8520 60be
000003c0: 707a 0abc 9c05 263d f375 68be a389 2ebc
000003d0: a053 8a3d 905f 113d 54a6 4e3d b30c 683d
000003e0: a9cd 833d eafc e03c e9be c1bd 00e0 7bbc
000003f0: 1e19 953d 6380 55be 4209 03be 35b1 f3b9

dense3.bias f4 [4]
0.62155133 0.5929328 0.6354399 -0.07472294
00000000: fd1d 1f3f 72ca 173f 30ac 223f 5708 99bd
