Reinforcment_Learning_DQN/agent_output/weights/episode_65_weights.pt (torch, 21487 bytes, 6 tensors)

dense1.weight f4 [64, 5]
000000 3f cc fb 3b 11 b6 94 3e 64 13 cc bd 28 52 3b 3f
       0.00768426 0.29045156 -0.09964636 0.73172235
000010 d4 13 9b 3f 90 d7 24 3e b3 fa b7 be 06 66 76 3e
       1.2115426 0.16097856 -0.35933456 0.24062356
000020 e7 53 1f bf 29 95 74 bf 97 5e 85 3e 59 dc af 3c
       -0.622374 -0.955401 0.2604873 0.021467375
000030 c1 72 28 bd 56 85 1f bf 73 be 78 bf 94 d4 73 bc
       -0.041125063 -0.6231283 -0.971656 -0.014882226
000040 5c ed 20 3e 5d 29 c8 bd 56 c1 13 3f 6f e5 ad 3d
       0.15715545 -0.097735144 0.5771688 0.084910266
000050 8a ba 45 3e 93 3a e9 be 1c 9d a8 3e af da 16 bf
       0.1930944 -0.455525 0.32932365 -0.58927435
000060 85 0a ab bf 41 2f d4 be fc 09 c7 be ec e5 95 bd
       -1.3362585 -0.41442302 -0.38874805 -0.07319245
000070 7e 07 10 be 04 35 36 3e 5a 1c 90 be 62 3c 25 be
       -0.14065358 0.17793661 -0.2814663 -0.16136315
000080 82 68 3f be d4 45 11 3e 56 c2 d9 be 57 b2 ae 3d
       -0.1869221 0.14186794 -0.4253108 0.085301094
000090 b1 57 aa 3e 1a a8 8c be dc 32 32 3f 63 34 f2 3e
       0.33270028 -0.27472 0.69608855 0.47305593
0000a0 b0 c1 a7 be ee 0d b6 3e aa a4 1f 3e 61 5b c5 bb
       -0.3276496 0.35557503 0.15590158 -0.006022856
0000b0 bb f1 80 3c 02 aa 9b 3d b4 ec 46 be 7f a3 37 3e
       0.015740266 0.07600786 -0.19426233 0.17933463
0000c0 80 5c 8c bf f8 5d c5 bf 11 dc 4f 3e 3b ee 50 3d
       -1.0965729 -1.5419302 0.20298792 0.051008444
0000d0 bb 89 d1 3e 74 c0 a7 be f0 09 bb bf 5b ec 4a 3d
       0.40925393 -0.32764018 -1.4612408 0.049541812
0000e0 ee 18 55 3e 68 d9 43 3e c1 0c 2d bf 0a e3 9a bf
       0.20810291 0.19125903 -0.67597586 -1.2100537
0000f0 8f 23 14 bf 27 79 bd 3e b4 08 a5 3e f2 75 da 3d
       -0.5786676 0.37006494 0.32233202 0.106670275
000100 cf 6f a8 3d d8 e1 17 be df 7a 52 3e 50 fe 2d 3c
       0.08224451 -0.14832246 0.20554684 0.010619715
000110 14 23 17 3f 71 fb e6 be d5 83 7e 3e 7a 0b 39 be
       0.590379 -0.4511371 0.24854977 -0.18070784
000120 d3 b1 da bd 16 d2 6c bd 1c 3f 39 3e 6b f2 ef 3c
       -0.106784485 -0.05781754 0.1809048 0.029290399
000130 34 5f ac 3e b6 12 ec be aa 99 64 3f 6e a8 03 3f
       0.33666384 -0.46108025 0.8929697 0.5142888
000140 7a ef e0 bc cb 15 88 3c 57 df c2 bb f5 53 f8 be
       -0.027457941 0.016611954 -0.0059470343 -0.48501554
000150 0b db 9c 3d 85 38 d7 3d 87 52 d5 3e 6a 36 96 be
       0.07658967 0.10508827 0.41664526 -0.2933839
000160 aa b5 aa 3e 2e 25 8b 3f 34 59 c1 3e 5c 35 1b bd
       0.33341724 1.0870721 0.3776337 -0.037892684
000170 cb 8d b0 3e f1 3f 3c be 6d 0d 7f bf b8 80 86 be
       0.3448318 -0.18383767 -0.9962986 -0.2627008
000180 a3 42 6c 3e ba b7 18 3d 8b b5 b5 3e 70 96 11 3f
       0.23072295 0.03728459 0.3549007 0.56870174
000190 27 29 b5 3e a5 c6 86 bd c2 34 28 3b 7d 2a 70 bf
       0.3538296 -0.06580857 0.0025666212 -0.9381483
0001a0 30 bb f2 be 0d 9e 58 bd 96 11 01 be 5d 49 92 3e
       -0.47408438 -0.052885104 -0.12604365 0.28571597
0001b0 86 5f 57 bf 22 2d aa bf 8f ef 36 3e a3 d1 3f be
       -0.8413013 -1.3295023 0.17864822 -0.18732314
0001c0 35 27 ef bc fc f3 87 3d a8 fb 00 3e e5 20 d5 be
       -0.0291935 0.06638333 0.12595999 -0.4162666
0001d0 48 47 40 3e e6 0e 70 3e 8c 80 26 be 5d e1 21 bd
       0.18777192 0.23443183 -0.16259974 -0.039521564
0001e0 3a 93 cd 3e d3 f8 0d bf 78 55 8c be 57 20 bd 3e
       0.40151387 -0.554578 -0.27408957 0.36938736
0001f0 88 75 05 be a1 7b ef bd 32 de 9e 3e 15 e2 9c bd
       -0.13033116 -0.11693502 0.31028897 -0.07660309
000200 92 37 85 3e 7c 9b 9e 3f 44 4d a5 39 39 c8 84 bd
       0.2601896 1.23912 0.0003152882 -0.06483502
000210 b6 c0 15 3e 2c a7 ae be 42 d3 a8 be 9f 63 b2 be
       0.14624295 -0.34111917 -0.32973677 -0.3484163
000220 02 63 ba be 54 a9 8d bd f0 cc 5e be 8c 33 d9 bd
       -0.36403662 -0.069170624 -0.21757865 -0.10605535
000230 77 f3 5f 3d e1 c2 b6 be 88 5e bf 3e 20 a0 93 be
       0.054675546 -0.35695556 0.3737681 -0.28833103
000240 1d 29 c2 bf 7c 06 13 be 14 39 ea 3e a8 31 54 be
       -1.5168797 -0.14357942 0.45746672 -0.20722067
000250 04 6f e1 3e 53 d1 19 3f 94 f3 17 3e 92 4c cf 3d
       0.4403001 0.6008503 0.14839011 0.101220265
000260 f0 86 1c be 5e d7 cb 3e 28 91 cd 3e ec 13 f3 bd
       -0.1528585 0.3981275 0.40149808 -0.11869034
000270 6a 52 c0 3e 39 8a 42 be 37 d7 39 3f 00 22 d4 3d
       0.37562877 -0.1899804 0.72594017 0.103580475
000280 d0 59 b8 be d7 fc 81 bd 7f 57 2f 3c af e2 6d be
       -0.36006021 -0.063470535 0.010702013 -0.23231004
000290 c9 ab c7 be 87 22 d3 3c 03 7f 6d 3e 85 a0 eb 3d
       -0.3899825 0.0257733 0.23192982 0.11505226
0002a0 1c 8f f3 3c b4 f1 16 bf 41 9f 9b be f8 9a f7 bd
       0.029731326 -0.5896256 -0.3039494 -0.12090105
0002b0 26 70 ac be 94 2b 0e 3e d8 c6 74 3e 20 eb 32 be
       -0.33679312 0.13883811 0.23903978 -0.17472506
0002c0 6e 4a 5c be a4 b9 c5 be 58 90 c4 3e 28 18 a9 3e
       -0.21512768 -0.38618195 0.38391376 0.33026242
0002d0 c0 9f 89 be 55 70 a7 bd e0 a2 30 3e 08 cd 66 bd
       -0.26879692 -0.081757225 0.17249632 -0.056347877
0002e0 25 b1 8e 3e 09 04 6b be 75 2f be be 44 b0 6d 3e
       0.27869526 -0.22950758 -0.37145582 0.23211771
0002f0 5e 93 2e be 8f d4 bb 3e c8 89 d5 3e a8 be fd be
       -0.17048404 0.36685607 0.4170668 -0.49559522
000300 ac 17 0b 3e 98 6c 42 be a9 25 a3 bf 27 48 8e 3e
       0.13583249 -0.18986738 -1.2745868 0.27789423
000310 df f8 c9 be 8a 4d 8d 3e 1e 90 67 bf d2 c9 a9 bf
       -0.39447686 0.2759822 -0.9045428 -1.3264716
000320 0d 47 4d 3e a4 d5 9c be 7f 5a 92 3e d6 7a 28 bf
       0.20046635 -0.30631745 0.28584668 -0.6581243
000330 a1 07 a7 bf e7 37 2a bd 90 83 02 3d cd d7 0c 3d
       -1.3049203 -0.04155722 0.03186375 0.03438549
000340 14 d9 be 3e 14 6a 90 be 2a 67 d0 be 3b 82 80 bc
       0.37274992 -0.2820593 -0.40703708 -0.015687099
000350 ab 96 93 3e 6d 84 11 3e 1b ea 52 3f 83 36 84 bd
       0.28825888 0.14210673 0.82388467 -0.0645571
000360 9f 43 7d be d2 3f 3b 3e 7b 00 9c be 7f 42 f9 be
       -0.24732827 0.18286064 -0.30469117 -0.48683545
000370 a1 a4 9a be 38 65 d1 bd 10 48 a5 3e 0c 10 76 be
       -0.30203727 -0.10224384 0.32281542 -0.24029559
000380 3b 82 62 bf 8b a9 9c be fe 74 89 bb 9e e8 99 3e
       -0.88479966 -0.305981 -0.0041948548 0.30060285
000390 e9 b0 e3 3d 54 b1 20 3f 5d dc f4 bd 3c 6e 12 3e
       0.11117727 0.6277058 -0.119560935 0.14299864
0003a0 36 24 96 3d ea 3c 8e bb 4d 8d 41 bf 73 5c 54 bd
       0.073311254 -0.0043407576 -0.7560623 -0.05184598
0003b0 20 6a a1 be 5a ef ad 3e 28 f9 6c be f1 cf 78 bf
       -0.3152628 0.33971673 -0.2314192 -0.97192293
0003c0 ef b3 ef be 2a cc 3b 3d c3 e5 a8 3b 74 6c 82 3e
       -0.46816966 0.045849003 0.005154343 0.25473368
0003d0 c5 10 a8 be 2a c8 d1 ba 3b c3 97 3d bb 9f 62 3e
       -0.32825294 -0.0016005088 0.07410284 0.22131245
0003e0 93 4a 64 be 3c 34 66 bf b0 f7 8e be 84 d6 a1 3e
       -0.22294073 -0.89923453 -0.27923346 0.31608975
0003f0 be b6 68 3e a0 99 ce be 36 4c f1 be bc cd d9 3d
       0.2272596 -0.40351582 -0.47128457 0.10634944

dense1.bias f4 [64]
000000 5d 91 96 be 60 df 0b 3f 97 76 b2 be 85 58 9d be
       -0.29407778 0.5463772 -0.34856102 -0.30731598
000010 45 fd 51 be d8 9f 31 3e 80 53 bb bd 78 a7 65 be
       -0.20506771 0.17346132 -0.09146786 -0.22427166
000020 3d b8 b1 3d aa 5c 5f 3e 0f 74 93 be e2 1b c6 bd
       0.08677719 0.21812692 -0.28799483 -0.09673287
000030 b7 5a 76 3e 99 95 e8 be a9 d5 85 be 75 85 c6 3e
       0.24058042 -0.45426634 -0.26139572 0.38773695
000040 1d ba 77 3d ed 36 c4 be 06 32 04 3f 46 59 69 bc
       0.060480226 -0.38323155 0.5163883 -0.014242476
000050 13 f0 cf 3e 1b 80 7e 3e 22 27 0e 3e 1b c0 40 3e
       0.4061285 0.24853556 0.13882115 0.18823282
000060 6b a9 08 be 92 48 56 be 89 c5 47 3e 20 86 17 bd
       -0.13345878 -0.20926121 0.19508947 -0.036993146
000070 d6 04 8e bd 04 60 87 3d 13 e7 78 be 60 1d 7d 3e
       -0.06934516 0.066101104 -0.24306898 0.24718237
000080 45 bc b9 3e 70 29 f2 3e 30 df 89 3e 08 53 4d 3e
       0.3627645 0.4729724 0.2692809 0.20051205
000090 76 4a 80 3e ed 50 4f be 85 9f 18 be f2 5e 47 3e
       0.2505681 -0.20245714 -0.14904602 0.19469813
0000a0 a8 04 3a 3d 2c 05 41 be 03 45 04 bf 26 3f 21 3e
       0.045414597 -0.18849629 -0.51667804 0.15746745
0000b0 29 76 ac be f0 9f 41 bd 1b 4b 22 be 92 7e 05 3f
       -0.336839 -0.04727167 -0.15848963 0.52146256
0000c0 11 9f 29 bd bf 76 e2 be 94 ee b8 be f3 13 18 bf
       -0.041411463 -0.4423122 -0.3611952 -0.5940544
0000d0 bd f4 ad be 8b a7 81 be 4b 9e 4f 3e 14 c4 70 3e
       -0.33975783 -0.25323138 0.20275228 0.23512298
0000e0 06 61 cf be 8a a3 aa 3e a3 f5 9f 3d 0b 59 2c 3e
       -0.4050371 0.33327895 0.07810523 0.16830842
0000f0 34 18 39 bd ce e8 e1 3e 5e 32 1c be ae 20 1a be
       -0.045189098 0.44122928 -0.15253589 -0.15051529

dense2.weight f4 [64, 64]
000000 cf b2 04 be 0c a9 0c 3e ae 1e 06 bd 1c e5 85 3d
       -0.12958835 0.13736361 -0.032744102 0.0653784
000010 7b f1 8b 3e e0 f5 cb bb a8 8e 8c bd 41 4b 7f bd
       0.27332672 -0.006224379 -0.06863147 -0.062327627
000020 a1 1d fa 3d c5 c1 a4 3e 35 33 11 3e 69 66 6f 3d
       0.122126825 0.32179084 0.1417969 0.058447275
000030 c7 40 81 bd 7e c6 ae 3d 60 a8 e3 bd 28 fe a5 3e
       -0.063111834 0.08533953 -0.11116099 0.32420468
000040 2a e3 77 bd 87 bd ad bd eb c0 11 3e 8c d6 bf bd
       -0.060519375 -0.08483415 0.14233749 -0.093670934
000050 5a 82 91 bd 22 91 46 3d 16 2a 9e bd bc 7a 62 3b
       -0.07104941 0.048478253 -0.07722871 0.0034558019
000060 1e f0 b7 bc 44 12 55 be 06 09 ac 3d 7c 00 93 3d
       -0.022453364 -0.20807749 0.084001586 0.07177827
000070 02 d9 5d 3e 41 13 92 3d 57 3b 09 bd 63 e5 0a be
       0.21664813 0.07132579 -0.033503857 -0.13564067
000080 29 cd 67 3d bc 5f b4 3c 38 99 a2 3d 2e 95 dd bd
       0.05659214 0.022018306 0.079393804 -0.108194694
000090 a4 92 7c be dc 6e 2f be c3 99 54 3d 20 92 07 3e
       -0.24665314 -0.17132133 0.05190445 0.13239336
0000a0 f8 6c 09 3e af 58 63 3d b5 f0 d5 bd 42 39 f6 3d
       0.13420475 0.055504497 -0.10446302 0.1202264
0000b0 3f d6 41 3e d2 a8 c9 3d 54 a4 f7 3d 00 0b 15 3e
       0.18929385 0.09846653 0.1209189 0.14554977
0000c0 1b 9f e2 bc 37 2c c8 3b e1 04 c2 3d 53 74 c2 3c
       -0.027663758 0.0061087864 0.09473587 0.023737108
0000d0 e4 9b 1a bd 28 83 12 3d cf 16 fd 3d b1 9f 47 3d
       -0.037746325 0.03576961 0.12357866 0.048736278
0000e0 9e 91 d9 bd 17 a3 37 bc 9f cc c8 3c c5 37 b6 bc
       -0.106234774 -0.011208317 0.024511633 -0.02224339
0000f0 8e 74 e9 3d 24 7d f5 3d 3e e4 28 bd 6c dc 50 3d
       0.11399184 0.11986759 -0.041233294 0.05099146
000100 5a bf 0a be 53 b4 74 3d c8 f1 70 39 af 16 bb bd
       -0.13549557 0.059742283 0.00022978254 -0.09135186
000110 b5 64 6e 3d 54 dd 7f bd d0 38 ad 3d 3d a1 14 bd
       0.05820151 -0.062466934 0.08458102 -0.03628658
000120 02 68 34 3d d3 01 58 bd 25 69 04 3d 04 de 99 bd
       0.044044502 -0.052736115 0.032326836 -0.07513049
000130 4d 32 19 bd 4f 06 65 bc 0d 14 83 bb 8c bb 11 bd
       -0.037401486 -0.013978555 -0.004000193 -0.03557925
000140 1b 16 21 be 08 e9 a2 3c 84 d1 04 be 21 91 41 3d
       -0.15731089 0.019886509 -0.12970549 0.047257546
000150 3b 64 50 bd 53 da 47 bc 8a 46 0b be ce 34 e4 3d
       -0.050876837 -0.012198049 -0.13601127 0.11142884
000160 91 cc d5 3d a2 a9 b9 bd 56 9b 8d 3c d0 31 ce bd
       0.104394086 -0.09065558 0.017285984 -0.10068095
000170 d7 d4 e8 3d 7d 77 d9 bd d3 7f e4 bd 00 ed 85 bd
       0.11368721 -0.10618494 -0.11157193 -0.06539345
000180 e8 b4 ae 3d 2c 15 5e bd da e1 ec 3d e4 c1 30 3d
       0.08530599 -0.05421941 0.11566515 0.04315366
000190 82 c2 a8 3d a6 ce 98 bc 0e 59 ce 3d b0 ba 8e bd
       0.082402244 -0.018653225 0.100755796 -0.069692016
0001a0 1a 96 81 bd 9a 6c ad bc 7f 26 9d bc 79 29 c0 bd
       -0.06327458 -0.02116995 -0.019183395 -0.0938291
0001b0 69 6e f0 3d 41 04 48 3e d6 02 4d 3d df 6d ac bb
       0.11739809 0.19532873 0.050051533 -0.005262121
0001c0 48 c1 a7 bd af 4f 2b 3c 2b 4b ad 3c 5c 56 2b bd
       -0.08191162 0.01045601 0.021154007 -0.041830406
0001d0 c0 a3 8d bd 31 22 4f 3d df e4 da bd eb 36 9c 3d
       -0.069159985 0.050569717 -0.10688185 0.07627662
0001e0 4e 41 13 3e 63 93 39 be 11 b9 02 be a5 de f7 3d
       0.1438038 -0.1812263 -0.1276591 0.12103013
0001f0 b1 ca fc bc 08 20 f1 3d 4a 2b a2 3d a0 98 a7 3c
       -0.03085837 0.117736876 0.07918413 0.02045852
000200 bd 80 01 be f0 91 d8 ba 1a db 25 3d e4 da bf bd
       -0.12646766 -0.0016522985 0.040492155 -0.09367922
000210 10 d3 16 3d e0 95 b6 bb 1c d2 27 bd 19 c3 ce 3b
       0.03682238 -0.0055720657 -0.04097186 0.0063098785
000220 1e 76 8d bc ff 17 f6 ba 44 43 a1 bd d3 d3 d1 bd
       -0.017268237 -0.0018775462 -0.07874158 -0.102454804
000230 32 aa f9 bd eb fa 0c be 82 f3 9d 3d 1f 8b 52 bd
       -0.12190665 -0.13767593 0.07712461 -0.051402207
000240 d5 cd b1 3d 41 16 a7 3d 8d 2a 4b bc 25 c5 24 bd
       0.086818375 0.081585415 -0.012400282 -0.040227074
000250 02 0b d4 3d 0a ac 45 be b4 dd 9e bd d5 9d 2e be
       0.10353662 -0.19303909 -0.0775713 -0.17052396
000260 83 87 56 bd 2c 37 8e bd f1 3a a7 3b 2a 3b c8 3d
       -0.052375328 -0.06944117 0.005103462 0.0977691
000270 40 d1 2c bd a4 1c 63 bd 40 48 e0 3b 35 5e 63 3d
       -0.042191744 -0.055447236 0.0068445504 0.055509765
000280 48 cb 3e bd 9d 5e f3 3a f0 26 d1 bc e0 86 42 3d
       -0.046580583 0.0018567626 -0.025531262 0.047491908
000290 06 b3 8d 3d 8c ae 1a 3d d2 4e 05 be 79 bd 0c be
       0.06918912 0.037764117 -0.13018349 -0.13744153
0002a0 52 da eb bd bf f1 98 bd 80 3a 70 3d 9c fb ef 3d
       -0.11516251 -0.074679844 0.05864954 0.117179126
0002b0 1c 6e 3d be 3c 16 38 3d 74 50 23 be e1 32 49 bd
       -0.18499035 0.04494308 -0.15948659 -0.049120788
0002c0 86 47 de bd 0b 62 36 bc f4 a4 05 3d 15 75 83 bd
       -0.10853486 -0.011131774 0.032628015 -0.06418816
0002d0 4a f7 f6 bd af ca c5 bd 01 c0 f8 bd c4 6c f3 bd
       -0.120588854 -0.096577995 -0.12145997 -0.1188598
0002e0 c7 30 01 3c 54 fd 09 be ac 65 f6 bc de ca 36 3d
       0.007885165 -0.13475543 -0.030077778 0.044627063
0002f0 bf 5c 56 3d 8c ee 27 3d 22 02 67 bb 00 c0 c9 39
       0.052334543 0.04099898 -0.0035249074 0.0003848076
000300 60 bf ac bb 04 dd a6 3d 60 fe 56 bd e5 b2 b1 3d
       -0.005271837 0.08147624 -0.052488685 0.086766995
000310 de c4 5f 3d d8 4a c4 bd 78 f7 a4 bd 79 33 ab 3d
       0.054631107 -0.09584588 -0.080550134 0.08359427
000320 24 fb 4d bd 48 f6 18 be 39 04 b9 3c ca ed 0f 3d
       -0.050288334 -0.14937699 0.022585021 0.035138883
000330 5c 0f e4 bd bc 67 b7 bd 20 f7 9f 3d e0 94 8c bd
       -0.11135742 -0.08955333 0.07810807 -0.06864333
000340 d4 2d 91 bc 80 e0 67 bd 43 f1 07 be ed f8 ff bc
       -0.017722048 -0.056610584 -0.13275628 -0.031246627
000350 5e 6e 82 bd 44 a4 90 bd 5b 4c 07 be e0 2e 0c 3d
       -0.06368707 -0.07062581 -0.13212721 0.03422439
000360 b7 62 e2 bd 8f e6 f2 bd 37 61 70 bd e0 27 be 3c
       -0.110539846 -0.11860382 -0.05868646 0.023212373
000370 a1 8d 8e bd a0 66 2c 3d 7c 96 bf bd 42 cb e6 bd
       -0.06960607 0.04209006 -0.093548745 -0.11269237
000380 40 83 41 bc e7 d4 85 bd b2 09 be bd b0 b3 f7 3c
       -0.011811078 -0.065347485 -0.09279193 0.030237049
000390 60 a2 b8 bb cc 0a 17 3d 89 3b a3 3d 60 b4 67 bc
       -0.005634591 0.03687553 0.0797034 -0.014142126
0003a0 f7 c5 bd 3d 86 2c d6 bd da 4b ff bd 8a d9 1e bd
       0.092662744 -0.10457711 -0.124656394 -0.03878168
0003b0 95 6a da bd 24 c5 29 bd 96 19 81 3c 3e 1f 79 bd
       -0.1066486 -0.041447774 0.01575927 -0.06082081
0003c0 7c ec f0 3d 3d eb 06 be 35 07 c9 3d cb 18 c4 3d
       0.11763856 -0.13175674 0.09815828 0.095750414
0003d0 00 1c 99 3c 0a cf 94 bd 4b 40 1f 3d 40 94 17 bb
       0.01869011 -0.07266052 0.038879674 -0.0023129135
0003e0 81 87 46 bd 6b 2e 01 3d c4 80 6d 3c 04 02 ed bc
       -0.04846907 0.03153841 0.014496032 -0.028931625
0003f0 12 fe ef 3b 80 ed 85 bd aa 64 f5 bd f4 e3 73 bd
       0.0073239887 -0.0653944 -0.11982091 -0.059543565

dense2.bias f4 [64]
000000 08 a3 a8 3e b3 ad e8 bd ab ca 32 3d d5 28 a8 3d
       0.32936883 -0.113612555 0.04365031 0.08210913
000010 03 ee 8b 3d 5c 7c 54 bd ee 6c d0 3c 40 18 8e bb
       0.068325065 -0.05187641 0.025442567 -0.004336387
000020 c1 8d d8 bd 00 8e 2c 3e d0 84 69 3d c9 5b 84 3d
       -0.105739124 0.16851044 0.057011425 0.06462819
000030 88 13 22 bd ed 3c af ba 18 9f a6 bc af cf a4 3c
       -0.039569408 -0.0013369598 -0.020339534 0.020118563
000040 e9 ee 07 3d 19 eb 7b bd 38 8e ff bc a6 c9 f5 bd
       0.033186827 -0.061503503 -0.031195745 -0.12001352
000050 4a 99 50 bb 6b c4 2f 3e 88 0f 00 3d d2 8f 46 3d
       -0.0031829649 0.17164771 0.03126481 0.048477
000060 0f 3c 35 3e 95 8c b9 bd c0 0c 7c 3e 90 86 81 3c
       0.17698692 -0.09060017 0.24614239 0.015811235
000070 96 1a da 3d 5c 2a 58 bd 8c ce 52 3d d4 69 32 3d
       0.10649602 -0.052774772 0.05146651 0.043557957
000080 80 31 72 3b 69 5a 22 3e fc 8e 15 3d 98 ce 01 be
       0.0036955774 0.15854801 0.036513314 -0.12676466
000090 72 da d9 bd 5b b8 05 3d cd 04 ee bd f8 c9 ed bd
       -0.10637368 0.03264652 -0.116220094 -0.11610788
0000a0 d6 06 7e 3d 5c fe 32 3e b4 62 b3 3b 9a ba a4 bc
       0.062018238 0.17479843 0.005474413 -0.02010851
0000b0 4f 8a 0e be bf 1b 8c 3d 4f 03 b7 bd 18 ca 88 bd
       -0.13919948 0.0684123 -0.08936178 -0.06679171
0000c0 23 e7 82 3d d3 ce bd bd ef 3e da bd d0 ff 87 bd
       0.06391742 -0.09267964 -0.10656535 -0.06640589
0000d0 8c c8 12 be ac ad 06 be 8e 8a b6 3d aa dd 73 bd
       -0.14334315 -0.13152188 0.08913146 -0.059537567
0000e0 2f 5c 8c bd c2 a0 19 3d ea c5 96 bb b8 85 af 3d
       -0.0685352 0.037506826 -0.00460123 0.08570427
0000f0 86 a0 f8 3c bf 15 71 3d 67 b4 05 3e 5a c9 ab 3c
       0.030349981 0.05885863 0.130571 0.020970035

dense3.weight f4 [4, 64]
000000 3b 0a d9 bd 07 98 59 3c 7e 76 85 bd 20 51 c6 bb
       -0.105976544 0.013280875 -0.06516741 -0.0060521513
000010 0e 48 d3 bd 70 98 e7 3d cc 9c 97 3d d5 d2 5b 3d
       -0.10316478 0.11308372 0.074029535 0.053667862
000020 6d 02 47 bd 10 52 08 be c8 b7 f3 bd 47 cf d0 3a
       -0.048586298 -0.13312554 -0.11900288 0.0015930914
000030 ea d1 9e bd 67 0f 56 3b 5d b7 7f bc 05 47 c9 bd
       -0.07754882 0.003266299 -0.015607682 -0.09827999
000040 e6 6e 98 3d b2 cd d5 bd fe 4a cd 3d e1 c4 15 3d
       0.07443027 -0.10439624 0.10024069 0.03656471
000050 2d bd af bd 26 af cb bd 8b d9 0b be e0 dc a2 3b
       -0.08581004 -0.09945516 -0.13657205 0.004970178
000060 7b 2e 60 be 62 cd 41 bd 73 e5 ad bd 4d 88 b0 3d
       -0.21892731 -0.04731501 -0.084910296 0.08619747
000070 96 09 ab 3d 50 65 85 3d 86 a3 98 bd a0 8d f5 3b
       0.08351438 0.065134645 -0.074530646 0.0074936897
000080 4c f0 7f bd 2d f4 b4 bd 68 8a 25 3d 02 79 02 be
       -0.062485024 -0.08835635 0.040415198 -0.12741473
000090 10 a1 5f bd cc 65 a3 3d 50 1d ac 3d 8a 13 aa bd
       -0.05459696 0.079784006 0.084040284 -0.08304508
0000a0 c3 26 4b bc a9 fb fe bd e7 06 c4 3d e0 07 12 bd
       -0.012399378 -0.12450344 0.09571629 -0.03565204
0000b0 ca 63 10 3e 50 8c 92 bc 7f aa 99 bd 16 c4 8a 3d
       0.14100567 -0.017889172 -0.07503223 0.06775682
0000c0 e5 f4 b6 bd 91 17 82 bd e7 06 f1 3a 3b 25 9b 3d
       -0.08933429 -0.06352151 0.0018388898 0.075754605
0000d0 00 7e 94 3c e0 69 eb bd 2e 98 ce 3c 42 4c 6c 3d
       0.018126488 -0.114948034 0.02521905 0.057689913
0000e0 10 c9 c3 3d dd 72 2c bd f5 6a 77 bd d2 bc f2 bd
       0.09559834 -0.04210173 -0.060404737 -0.11852421
0000f0 e6 c4 33 bd a5 45 70 bd 12 b0 d3 bd 3e f7 ab bd
       -0.04388895 -0.05866017 -0.10336317 -0.08396767
000100 f3 e7 34 be a5 d5 a6 3c bf b5 50 bd 04 96 a3 3d
       -0.17666607 0.020365546 -0.050954577 0.079875976
000110 4c 13 e4 bd 52 75 ac 3d 41 12 55 3d b4 5c c3 bd
       -0.11136493 0.084208146 0.05201936 -0.09539166
000120 45 57 d2 3d 1b 70 2b be 6b 4f 8e bd fb 19 8e 3c
       0.102705516 -0.16741984 -0.069487415 0.017346373
000130 44 f7 94 bd 32 6f b2 bc ce fa 03 3e b8 db 1e bd
       -0.07273725 -0.021781538 0.12888643 -0.03878376
000140 cf 00 77 3d bc 9b de 3d b4 9c b2 3d 06 ea 6c 3a
       0.060303506 0.10869548 0.08721295 0.0009037558
000150 e2 79 15 be eb 68 77 be f3 1f c2 bd b2 52 d7 bd
       -0.14597276 -0.24161117 -0.0947875 -0.1051382
000160 82 4c 4e be b0 99 58 bd a1 96 ae bd 0f 90 f2 3d
       -0.20146373 -0.052880943 -0.08524824 0.11843883
000170 88 99 8a 3c 06 f0 f6 3d 35 b5 56 3d 7e f1 f1 bd
       0.016918913 0.120574996 0.052418906 -0.11813639
000180 dc 7a 3b 3d 9f a8 0d be 00 56 d4 3a f1 74 23 bd
       0.045771465 -0.13833855 0.0016199946 -0.039906446
000190 2e 5d af 3d 73 fd 04 3d 44 ea 5d bd 5e 20 aa 3d
       0.085626945 0.03246827 -0.05417849 0.08306955
0001a0 b9 06 ce bd 8f 18 de bd b8 6c 0f bc 38 d4 c2 3d
       -0.10059876 -0.10844528 -0.008753948 0.09513134
0001b0 c5 e7 96 bd d6 b9 bc bd d7 8f b5 bd d2 de cc 3d
       -0.07368425 -0.09215133 -0.08865326 0.10003437
0001c0 90 67 08 3d 38 6e c4 bd 64 02 7f bd 82 b4 b5 3d
       0.03330189 -0.09591335 -0.06225814 0.0887232
0001d0 b3 6d 9d 3d c0 65 17 bc cf 9e ac 3d 10 f6 30 3d
       0.07686939 -0.009240568 0.08428728 0.043203413
0001e0 82 84 0c bd 1c 21 e9 bd 98 34 fe 3d be 46 8e 3d
       -0.034306057 -0.11383268 0.12412375 0.06947087
0001f0 cf 45 07 bb 6c 0a 29 3d 16 66 62 bb 21 a8 ca bd
       -0.0020640974 0.041269705 -0.0034545711 -0.09895349
000200 88 72 c8 bd 75 8d 52 3c 46 08 e8 bd f9 49 77 3b
       -0.0978747 0.012851109 -0.11329703 0.00377333
000210 ab 37 7f bd e6 3b 9b 3d ea a8 cb b9 5b 2a bd 3d
       -0.06230895 0.07579784 -0.00038845028 0.09236594
000220 9d 77 8a 3d ad 86 e0 3c 87 bc 79 bd 5d 31 ab 3b
       0.06761096 0.027407968 -0.06097081 0.0052243904
000230 4e 57 86 bd 64 06 e0 bd 88 61 84 3d 71 f6 fa bc
       -0.06559621 -0.10938719 0.06463915 -0.03063509
000240 a0 f0 55 bd eb e3 c3 3d 68 ba c1 3c 3d c7 09 3d
       -0.05223143 0.09564956 0.023648456 0.033637274
000250 3a e1 31 bd ae 5d 14 bd 0c 3f 2c bd d8 2c e1 3c
       -0.043427683 -0.036222152 -0.042052314 0.027487203
000260 2b d0 f1 bc 10 98 f9 3d bb 25 7f bd 96 f1 1c bd
       -0.029518208 0.12187207 -0.062291842 -0.03831633
000270 c0 93 af 3c 34 1a 3f bd e7 3a 11 be 86 3f c4 bd
       0.021432757 -0.04665585 -0.14182626 -0.09582429
000280 68 27 ed bd e4 b2 40 bd 53 f1 cc bc ab 82 da 3d
       -0.11579782 -0.047045603 -0.025017416 0.10669454
000290 58 f3 9e 3d 90 c6 3b 3d b7 6f 22 bd 18 04 8b bb
       0.07761258 0.04584366 -0.03965732 -0.0042424314
0002a0 72 10 74 3d f2 15 01 be da 75 ac 3d 6b 37 14 3d
       0.059585996 -0.12606028 0.08420916 0.036185663
0002b0 ce 33 c7 3d 5b b8 c4 3d 62 14 45 bb 28 fd 7b 3c
       0.09726678 0.096054755 -0.0030071964 0.015380181
0002c0 7f 43 37 bd 58 e6 bd bd 20 76 a0 3d d3 bf b3 bd
       -0.044742104 -0.0927245 0.078350306 -0.08776822
0002d0 57 be 78 3d cb 0d 06 3d de ea 82 bb 30 88 bd 3c
       0.060728397 0.032727998 -0.0039952835 0.023136228
0002e0 4d 60 c7 bb 21 03 ca bd ee be 88 3d e2 ee 9c bd
       -0.006084478 -0.09863878 0.06677042 -0.07662751
0002f0 9b 0a c5 3c af e5 01 3c 8b 33 9d bd a3 97 a7 bd
       0.024052909 0.007928296 -0.07675847 -0.08183219
000300 92 1a 42 be 65 f5 35 3d a5 66 e9 3c 10 a2 90 bc
       -0.18955448 0.04442348 0.028491328 -0.017655402
000310 7b e9 9d bd 00 d5 be 3a f8 76 c9 3c 1f c6 f9 3c
       -0.077105485 0.0014559329 0.024592862 0.03048998
000320 ea 55 a9 3c d1 95 f8 bd 4a a7 3b bd cf 9d dd 3c
       0.02067085 -0.1213795 -0.045813836 0.027052788
000330 55 6b 5a bd 3d 65 f8 bd 21 04 de 3d 5f 1c c9 bd
       -0.053325016 -0.12128685 0.10840631 -0.098198645
000340 88 95 61 3d 44 8e 81 bd b4 5d 04 3d e6 76 38 bd
       0.055074245 -0.06325963 0.032315925 -0.045035265
000350 51 dd 3e bd 07 44 21 be aa c5 a6 bd a5 7b ae bc
       -0.046597783 -0.15748607 -0.0814317 -0.021299193
000360 b4 ac 4f be d3 88 78 bb a6 a5 9a bd cb 8c 72 3d
       -0.20280725 -0.003792335 -0.07551126 0.059216302
000370 94 db 66 bd 54 0e 43 bd f6 98 4d 3b c4 f5 b8 bd
       -0.05636175 -0.047621086 0.003137169 -0.09031251
000380 e0 cf a8 3b e1 21 30 bd 20 3d dc bb dc a2 d3 3d
       0.0051517338 -0.04300106 -0.006721154 0.10333797
000390 84 23 a0 bd a8 f1 a4 3d bf 77 fa 3c e1 2b 24 3d
       -0.07819274 0.08053905 0.030574678 0.04008091
0003a0 b9 f1 d2 3d f5 54 4e be ed 94 83 bb 80 ab 9c ba
       0.10300011 -0.20149596 -0.004015556 -0.0011952966
0003b0 64 47 3d 3d 04 0e 24 3d 30 88 ce 3d 88 36 f2 bc
       0.04621066 0.04005243 0.100845695 -0.029567018
0003c0 b6 7b b7 bd 7d c3 60 bc cc 86 e5 3a aa 27 b9 bd
       -0.08959143 -0.013718483 0.0017511486 -0.090407684
0003d0 00 31 7e bb 80 bb a4 3d 8d 70 cd 3d 35 59 b0 3c
       -0.003878653 0.08043575 0.10031233 0.021526912
0003e0 28 69 80 3d 76 b1 54 bd 88 10 ed 3d b7 a8 07 3c
       0.06270057 -0.051927052 0.11575419 0.008279971
0003f0 e3 29 a6 bd c7 62 0d 3e c7 65 d2 bd da 83 09 be
       -0.08113458 0.13807212 -0.10273319 -0.13429204

dense3.bias f4 [4]
000000 3b f0 8a be 16 6a d8 bc 02 8f bc 3d 25 c9 19 be
       -0.27136406 -0.026417773 0.09206964 -0.15018137
