Reinforcment_Learning_DQN/agent_output/weights/episode_323_weights.pt (torch, 21495 bytes, 6 tensors)

dense1.weight f4 [64, 5]
00000000: c5ee d93d bf6e 23be fdcb 943d ef47 47c0
00000010: 0396 86c0 4cd9 c13e 00ec dcbe c5e4 30bd
00000020: 4db0 15be d8be 2d3f 10e3 22be bae6 14be
00000030: 2880 49be 049d 563e 82d2 e23e 7da4 5f3e
00000040: dcd6 3dbf 8076 dc3d 4aa0 773e 14d8 253e
00000050: 9678 34be 7599 70be dc7d 97be 0062 963b
00000060: 14ea 32be 31f6 513e a17a a5be 7196 dd3d
00000070: 7df6 f9bf f690 7dc0 4e2b a4be 3c1e d8be
00000080: 6853 b8be a07c d5bc 4062 a1be 57d3 0f3e
00000090: 1da7 3a3f 5309 46be 3c48 a93f 88e0 be3f
000000a0: 2b80 43bf 87aa 073c 7a10 913e 8117 73bf
000000b0: 79af 55bf c762 b7be 60f0 763c d0a1 d0be
000000c0: c0ff bd3e 0cfc ae3e 2ffe 04bf f5d5 113d
000000d0: be40 a33e e3ec bcbf 0ce5 acbf 2886 7abe
000000e0: 8dbc 08bf f971 873e e64f 37bf d389 84bf
000000f0: d990 59be d4fe 203e 80b4 cfbd 3c75 bfbd
00000100: a4ab c23e 347f 503e 6ec8 a7bd ad39 16bf
00000110: 3a9b 7ebe 4362 22c0 1cf2 82be ded8 babe
00000120: d750 9c3e 0a32 06bf 10be 60be a083 443e
00000130: cc48 803e 9c89 b3bd 56d4 b83f 7c18 ff3f
00000140: c7ad b63e d504 193d cf8e bdbe 82bd f03e
00000150: 6f0b f33e 9c21 13bd 7cdc 593e f008 ce3d
00000160: 71f5 3cc0 5497 38c0 2c9b 1bbf 0608 943d
00000170: 0ea6 573e af14 50bf ed90 02bf bd7e 2ebb
00000180: 73c1 ae3e 772a 103d c48c 47c0 b4e8 edbf
00000190: c1ac 6c3e 0586 c0be 35b5 063e 5a5d c4bf
000001a0: 2ca2 4ec0 6a2f 863e 62fe e0be 42c1 363e
000001b0: d2b8 2dc0 8330 8bc0 803d 69bb 6b8f d4be
000001c0: b41a 9dbe 68d6 5c3e 9e8a b83e 2114 24be
000001d0: 128d 183f 5418 b5bd 326b c73e d056 1e3e
000001e0: ba51 273e 64c0 8fbe bed9 723e 5184 30c0
000001f0: 89fe 62c0 1f32 2ebd 71b1 393e 6a18 2bbc
00000200: ed66 66c0 eb1a 6ac0 862b 84be 0e62 f23e
00000210: 3e69 883e 57c4 47c0 509d 1bc0 0b98 6a3b
00000220: 4081 cc3e a144 923d 66f0 52c0 c531 c2bf
00000230: 37b4 4e3e a737 c0be abf1 2b3e 1d07 17c0
00000240: 3626 71c0 281a a7bd c622 95bf 458d 813e
00000250: 5459 3abe fc10 1cbe b802 61bd 27d4 c5be
00000260: 504c d83c a63f c9be ca39 c33e 4594 5a3d
00000270: 5bee 923d 2cb6 14bd cac2 21c0 ffd3 54c0
00000280: ab99 89be 5e59 393f 8883 783e 3955 863f
00000290: 7438 8d3f 6d6e 7e3e 87af d8be 3f41 d83d
000002a0: a776 85bf f3b7 30c0 fc1b d8bd 7fcb cc3d
000002b0: ac19 11bf 019b 253f 122d 9cbe 0f11 1a3e
000002c0: dbde 5cbc 1334 10bf 298a 1d3f 657a dabf
000002d0: a544 c6be 402b 963d 1ae8 83be 5858 41be
000002e0: 0dbe 81be 0ed6 773e 028f 2e3e ead1 28bf
000002f0: 0e03 51be a8c2 343f 255a c9bd 7630 fa3e
00000300: 0166 ff3d 95db e1bf aa10 18bf 3052 a2bc
00000310: 5616 13be c435 a6be ec2f de3e a4aa 853e
00000320: 151d 773e d153 cfbe 978e 1e3e 347e 2dc0
00000330: fe24 7ec0 7f52 1a3e d289 afbe 1a73 c7be
00000340: b4f6 173e 548e 513e e84b 6c3e 4db0 31bf
00000350: ec12 a33d 2da0 9ebc 7ddd 83be 5055 83bd
00000360: b4af 4e3e b43b e5bb 6420 36c0 e8de 4ac0
00000370: 000c 9bbd 3f38 f43e 4e59 f7bd 170f cabf
00000380: 2b71 8a3e 5df4 87be ad22 75be 38a8 873d
00000390: 74eb 84be 0af8 be3e 6ba4 05bf 8a00 17be
000003a0: a813 8c3e 564c acbf 202c 5bbf 9436 013e
000003b0: 6873 8ebe 48e1 4d3e 00a2 33c0 2067 76c0
000003c0: a2f6 593d 4834 f5be b8d3 2cbe 49ac efbd
000003d0: 396b d8be bee5 c9be 1a39 be3d 7ece 3f3d
000003e0: 0759 19c0 2768 37c0 83e7 523d 3452 613e
000003f0: a249 62bc 5816 403f ac6b 96be c34c 9dbe
0.10641245 -0.15960215 0.0726547 -3.1137655 -4.205812 0.37861097 -0.43148804 -0.04318692
-0.14618035 0.6786933 -0.1590693 -0.1454114 -0.19677794 0.20958334 0.4430123 0.21840091
-0.74155974 0.107647896 0.24182239 0.16195709 -0.17624125 -0.23496039 -0.2958821 0.004589319
-0.17472106 0.20504071 -0.3232012 0.1081971 -1.9528347 -3.9619727 -0.3206429 -0.42210567
-0.36001134 -0.026060402 -0.3152027 0.14045464 0.72911245 -0.19339494 1.3225169 1.4912271
-0.76367444 0.008280403 0.28332883 -0.9495774 -0.83470875 -0.3581755 0.015071958 -0.40748453
0.37109184 0.34176672 -0.51950353 0.035604436 0.31885332 -1.4759792 -1.35074 -0.24465239
-0.53412706 0.26454142 -0.7160629 -1.0354561 -0.21246661 0.15722209 -0.101418495 -0.093485326
0.38021576 0.20361024 -0.08192526 -0.58681756 -0.24863902 -2.5372474 -0.2557534 -0.36493582
0.30530426 -0.52420104 -0.21947503 0.19190836 0.2505554 -0.08766481 1.44398 1.9929347
0.35679457 0.037358124 -0.37023017 0.47019583 0.4746966 -0.035920724 0.21275514 0.100602984
-2.9524806 -2.8842363 -0.6078365 0.07228093 0.21059439 -0.8128156 -0.5100239 -0.0026625835
0.34131965 0.035196748 -3.1179667 -1.858664 0.23112775 -0.3760225 0.13155062 -1.5340989
-3.2286482 0.2620805 -0.4394408 0.1784716 -2.7144055 -4.349672 -0.0035589635 -0.4151567
-0.30684435 0.21566164 0.36043257 -0.16023304 0.59590256 -0.08842531 0.3894897 0.15462804
0.1633977 -0.2807647 0.23715875 -2.758076 -3.5467856 -0.042528268 0.18134095 -0.0104428325
-3.600032 -3.657893 -0.25814456 0.47340435 0.26642793 -3.1213586 -2.4314766 0.003579619
0.3994236 0.07141996 -3.2959228 -1.5171438 0.20185934 -0.3754246 0.16791408 -2.3598092
-3.7679572 -0.08159286 -1.1651237 0.25303093 -0.18198138 -0.15240854 -0.054934233 -0.38638422
0.026403576 -0.39306372 0.38130027 0.053364057 0.07174369 -0.036306545 -2.527514 -3.3254392
-0.26875052 0.7240199 0.24268925 1.0494758 1.1032853 0.24846812 -0.42321417 0.1055932
-1.0426835 -2.7612274 -0.105522126 0.09999751 -0.566798 0.6468964 -0.30503136 0.1504557
-0.013480867 -0.5632946 0.6153894 -1.7068602 -0.38724247 0.07332468 -0.25763017 -0.18881357
-0.2534031 0.24202749 0.1704674 -0.65945303 -0.20411322 0.7060952 -0.09831647 0.48865098
0.124706276 -1.7645136 -0.5940043 -0.01981458 -0.14363989 -0.32462895 0.43395936 0.2610675
0.24132188 -0.40493634 0.15484081 -2.7108278 -3.9710078 0.15070532 -0.34284836 -0.38955003
0.14840204 0.2046445 0.23075831 -0.6940964 0.079625934 -0.019363487 -0.2575492 -0.064127564
0.20184213 -0.0069956426 -2.845727 -3.169855 -0.07570648 0.47699162 -0.120775804 -1.5785855
0.27039465 -0.26553622 -0.23939009 0.06623882 -0.25960886 0.37298614 -0.52204007 -0.147463
0.27358747 -1.3460796 -0.85614204 0.12618476 -0.27822423 0.20105469 -2.8067627 -3.8500443
0.053213723 -0.4789145 -0.1687764 -0.11702783 -0.42269304 -0.39433092 0.09288235 0.046827786
-2.3960588 -2.865732 0.051490318 0.22004014 -0.013811501 0.75034094 -0.29379022 -0.30722627

dense1.bias f4 [64]
00000000: 6f82 e83e e31e b8be 1c11 b43e ffe3 c73e
00000010: dee6 04be b795 833e 6831 d83e 1f5d c23e
00000020: 4f66 c13e dc1d 5d3e d9ef 073f 28c9 62be
00000030: acf4 0f3e 7c65 6ebc af64 69be 6e0c 53be
00000040: 1b40 55be 9860 293d 6b54 8abd 4130 0fbe
00000050: 40c6 7f3e 1f16 fe3e 00bb 123c 2320 743e
00000060: 0dc2 283f 6fd1 f83e 5a50 f93c 710b 80bb
00000070: a6e9 cd3e 41ba d0be 8da7 55be cee8 193e
00000080: 4e99 76ba 4c9a b6bd c079 ab3e 937e 3dbe
00000090: bf4c 4abe c361 1cbf c947 3b3e 0f3f d3be
000000a0: 0f3f 263f 021a 953e 8021 683e 823f 1a3e
000000b0: 7e1f 633e c079 c1bb 8452 ae3d 3bbe 53bb
000000c0: e207 aebe 5e33 4f3d cc7c 69be c6a3 093f
000000d0: 366d d03e 5c3f 843e 5004 503e 3963 073f
000000e0: d29c ab3e 2abe 56be c02a bebe a3b0 793e
000000f0: 7953 243e 82c5 153f c1e3 adbe 60b8 933e
0.45412013 -0.35961065 0.35169303 0.39041135 -0.12978694 0.2570016 0.42225194 0.3796167
0.37773368 0.21593422 0.53100353 -0.22147048 0.14058179 -0.014550563 -0.22792314 -0.2061021
-0.20825236 0.041351885 -0.06754383 -0.13983251 0.2497797 0.49626252 0.008955717 0.23840384
0.659211 0.48597285 0.030433822 -0.003907614 0.40217322 -0.407671 -0.20864697 0.15030214
-0.00094069995 -0.089161485 0.33491325 -0.18505315 -0.19755839 -0.6108667 0.18289103 -0.41259047
0.6493997 0.29121405 0.22669029 0.15063289 0.22179982 -0.0059044063 0.08511832 -0.003230943
-0.3399039 0.050586097 -0.22801512 0.53765523 0.4070832 0.2582959 0.20314145 0.52885777
0.33518082 -0.2097098 -0.3714199 0.24383788 0.16047467 0.585045 -0.33962825 0.28851604

dense2.weight f4 [64, 64]
00000000: 5552 473d 205a aabe 981e d0bd ebde 533d
00000010: 6cd0 0bbd e83f aa3c 881b ffbc 4a44 16be
00000020: a3b9 ef3d 6e91 843d 8155 4a3d fcb4 443e
00000030: d250 a7bd f138 adbe 0083 4b3e 1535 84be
00000040: b296 33be 13d0 c5bd d53b da3d cc14 e6be
00000050: 1b56 d3bd 9aec 883b aa8d cf3d 9b8c 41be
00000060: 25f2 743d ca00 dfbb ad18 27be de3b 9fbe
00000070: ff74 1d3d e677 193e 36f9 b03d 3c54 c0be
00000080: c517 f9bd 7d4c 1ebe afbe a43d 70a3 85be
00000090: 8c93 95bd 6297 90bd 7e7b 12be 30cb 99bd
000000a0: c527 913d 0488 b43d aa84 a33d 7745 73be
000000b0: 04b1 c9bb 3c78 3ebd bb14 9f3d 0e23 77bc
000000c0: b4c8 bc3d c654 acbc d6f9 02bf 0df7 4c3d
000000d0: 5a0e f0bd fa61 e5be 5460 683d 0eae 12be
000000e0: 4875 e9bd bcf3 62bd 3edb f8bd 2e5a b5be
000000f0: 0e73 5b3b 77c2 e6bd 9ab6 e43d 0d46 68be
00000100: a796 9c3c fced 9cbd 0044 a93d a977 3e3c
00000110: ce00 ecbd 4d91 7b3d a0d4 f43d 80f4 e83a
00000120: b1a9 aebd 00a1 513d 4214 0f3d ba07 1ebe
00000130: e8e6 31bd 536a 6ebd 5f2d 613c da33 8abd
00000140: 5235 4cbd eb67 13be fa8e b6bc c5d4 0abd
00000150: d23c 69bd 18c0 593c 401f c73b 109e aabd
00000160: 01ce 09bc 2361 0cbe 9bc1 cc3d 2258 15be
00000170: 9c95 753d 0cef 2cbe 0665 babd 786e 6f3d
00000180: 8ac4 bdbc fc10 5ebc 326f d4bd c07b 8dbc
00000190: 4084 243c 4d26 a5bd 9add bfbc eae2 f73d
000001a0: 7d1c e1bd 64bc 37bd f4ef 983d cc79 e13c
000001b0: 5c95 c53d 9cb5 14bd 4af7 ff3d 98de 353c
000001c0: da6f adbd 1891 4e3d 7e91 00be 3dd7 2ebe
000001d0: b067 ed3d 0427 29be 5807 c5bc 20f7 12be
000001e0: 0821 eb3c 20a7 c5bd 6048 8abd 0871 3abd
000001f0: 53ad 0ebc eb0e d9bd 28d9 05bd 429e 18bd
00000200: cb22 34bc f32d 58bd 0227 903d 00ac 2e3c
00000210: 644e 38bd 88c8 bdbd e079 913b 845c f1bc
00000220: e67a dcbd 7207 e2bd 009a e039 dcfe 24bd
00000230: 302d 2b3c 8d89 873c a0a0 24bc 30ce a3bd
00000240: 4de2 47bc ce05 09bd 30e6 3e3d c0fd 7a3d
00000250: 7900 673b 9cf2 2ebe f0ea 8dbd 5a43 d83d
00000260: 1795 8f3d 69df 1f3d 094f 8d3c b485 fbbd
00000270: 4caa 1bbe f482 67bd 80a6 213c bcce 19be
00000280: 6b0a 97bd 4fa6 17bc 4be0 85bd 2180 9f3d
00000290: b8d0 8a3c 3daa 843d df88 55bd 002a 033d
000002a0: 19a9 b33b 46c1 e6bd fc25 d53d 0390 08be
000002b0: 6f8a a23d 9059 bfbc 5835 c03d 49ac f4bd
000002c0: 9467 20bd a17b b5bd df05 c8bd b88f 893c
000002d0: d68e 973d 9b6b 7b3c c03e c43d 846e 18be
000002e0: f097 b53c 1e31 bd3d 34e7 08bd a2a3 debd
000002f0: 8f08 77bc a177 90bd 2c4a b4bd d7f5 5cbd
00000300: a7e0 2cbb dc82 efbd aa5e bb3d 6c83 83bd
00000310: 32d3 913d b48e ac3d b06b 533c 9f22 95bd
00000320: 4933 d83d 9e00 f23d fd01 c7ba a75c 9c3c
00000330: 900f f23d a8d5 ebbd 4f8a 083d 95f9 313d
00000340: 4800 5c3d 7cbd d0bd a957 68bd 253a 09be
00000350: 57bf bbbd 62a1 9abc e22c d93d e8c3 3e3d
00000360: 9147 7fbd 7e13 6cbd 7a50 d7bd 27cc 81bd
00000370: 6523 91bd 7028 d9bd 7c39 84bd dc5d 5dbd
00000380: 3a2c b53c 5c26 873d 6847 b7bd 76ba febd
00000390: 0084 17ba 1f49 f1bd e22e 57bd 8061 f2bc
000003a0: d273 aebd 5058 2ebd 273e 603d 9006 e5bd
000003b0: a4af 58bd b698 813d 9fca 15bd 3f3b 05be
000003c0: 409a 4d3c 2b8b c33d 743f 50bd 4f8b e63d
000003d0: 40ed 9cbc 859e dfba 14b5 153d f0f0 dbbc
000003e0: 8c41 da3d bebb 83bd c08b b1bb 512e f73c
000003f0: ca66 9d3c 57fc d4bc 6cc0 efbd 255e 4a3c
0.048662502 -0.33271885 -0.10162085 0.051726263 -0.034134313 0.020782426 -0.031141058 -0.14674488
0.11705329 0.06473051 0.04939795 0.19209665 -0.08169712 -0.33832505 0.19874191 -0.25821748
-0.17537954 -0.09658828 0.10655943 -0.44937742 -0.10319158 0.0041785957 0.10134442 -0.18901293
0.05980124 -0.006805514 -0.16318007 -0.31100363 0.038441654 0.14987144 0.08641283 -0.37564266
-0.12162737 -0.15458865 0.080441825 -0.26101255 -0.07303533 -0.07060124 -0.14304921 -0.07509458
0.070876636 0.088150054 0.07984288 -0.23756967 -0.006155135 -0.046501383 0.07767626 -0.015084041
0.092179686 -0.021036517 -0.5116247 0.050040293 -0.11721487 -0.44801313 0.05673249 -0.14324209
-0.11399323 -0.055408224 -0.12151192 -0.35420364 0.0033485326 -0.1126756 0.11167641 -0.22682972
0.019114805 -0.076625794 0.08264923 0.011625209 -0.11523591 0.061417866 0.119546175 0.0017773062
-0.0852846 0.051178932 0.03493143 -0.15432635 -0.0434331 -0.058206867 0.0137437275 -0.06748171
-0.049855538 -0.1439511 -0.022284973 -0.03389432 -0.05694277 0.013290428 0.0060767233 -0.08330929
-0.008410932 -0.1370893 0.09997865 -0.14584401 0.05995713 -0.16888064 -0.091013 0.05845496
-0.023165006 -0.013553854 -0.10372771 -0.017270923 0.0100412965 -0.08063946 -0.023421098 0.12103827
-0.10991762 -0.044857398 0.074676424 0.027523898 0.09647629 -0.03630601 0.124983385 0.011100434
-0.084685996 0.05043134 -0.12555501 -0.17074294 0.115920424 -0.1651879 -0.024051353 -0.14352083
0.028702274 -0.09651017 -0.06752086 -0.04551795 -0.008708316 -0.105985485 -0.0326778 -0.0372603
-0.010994623 -0.052778196 0.0703869 0.010661125 -0.044996634 -0.09266764 0.0044395775 -0.02946306
-0.107656285 -0.11036576 0.00042839348 -0.040282115 0.010447785 0.016545082 -0.010048062 -0.079983115
-0.01219995 -0.0334528 0.046606243 0.06127715 0.0035248084 -0.17084736 -0.069295764 0.10559721
0.070108585 0.03903142 0.017249601 -0.12281361 -0.15201682 -0.05652137 0.009866357 -0.15020269
-0.07375034 -0.00925596 -0.06536921 0.077881105 0.016945228 0.06477783 -0.052132484 0.032022476
0.0054828045 -0.11267333 0.104076356 -0.13336186 0.0793656 -0.023358136 0.093851745 -0.11946923
-0.03916128 -0.08861471 -0.09766745 0.016792163 0.07400291 0.015345479 0.09582281 -0.14885908
0.022167176 0.09237884 -0.033423617 -0.10871054 -0.015077724 -0.070540674 -0.0880321 -0.05394539
-0.002637902 -0.11694881 0.09148915 -0.06421551 0.071203604 0.08425656 0.012904093 -0.07281994
0.10556657 0.11816524 -0.0015183088 0.019087149 0.118193746 -0.11515361 0.033335026 0.04345091
0.053711206 -0.10192391 -0.056724224 -0.13401087 -0.091673546 -0.018875781 0.10604264 0.04657355
-0.06232411 -0.057635777 -0.105133966 -0.06337767 -0.07086829 -0.10603416 -0.06456277 -0.05404459
0.022115815 0.06599113 -0.089491665 -0.12437908 -0.00057798624 -0.11781525 -0.052534945 -0.029587507
-0.08518185 -0.04256469 0.054746773 -0.11182892 -0.05290188 0.063279554 -0.036570188 -0.13010882
0.012548983 0.095480286 -0.050841764 0.1125704 -0.019156098 -0.0017060792 0.036549643 -0.026848286
0.10657033 -0.06432293 -0.005418271 0.030173453 0.019214053 -0.025999231 -0.117066234 0.012351547

dense2.bias f4 [64]
00000000: 71e7 15be e954 6f3d 183b a9bd 3cf0 2bbc
00000010: 8fe5 8cbc 80dc eabd 6201 a53e ca55 623d
00000020: 99f2 953d 1420 1a3d dc0f ad3e 9e18 4f3d
00000030: 5653 07bd 9f85 8a3d 55ef 153c 28a1 ad3d
00000040: ef5a cd3d 0800 d3bd 78e6 2d3d 23e3 0cbe
00000050: 826a b6bd c5de a9bc f7e1 2f3b 66b8 c03e
00000060: ea23 d43c ac52 60bc 1e90 c23e 9d0b 93bc
00000070: 77f7 6b3c 76a9 e93c 0ecf 47bc 8fc9 47be
00000080: a025 0dbe 39c0 25be 0cc7 343d 2b8a bebd
00000090: 5758 5cbe f2ac eb3e bed0 eeb9 5b9b 433e
000000a0: 5054 05be dcbc b73e 0419 f1bd 239a 393e
000000b0: 6159 6ebd 9c1b 063d f6d3 9f3d 490b ec3d
000000c0: e8a5 14be 4943 29bd b754 c23e e9f9 1ebe
000000d0: 77fa 3d3d a64f 71bd 54f5 32be bc0f 173d
000000e0: 0959 f3bd 18e3 22be 10f4 293d b039 c33c
000000f0: bb67 a03c f947 74bd 62f4 c73e d285 c43a
-0.14639069 0.058430586 -0.08263224 -0.010494288 -0.017199306 -0.11467838 0.32227618 0.055257596
0.073216625 0.03762825 0.33801162 0.050560586 -0.03303846 0.067637675 0.0091512995 0.08478004
0.1002711 -0.1030274 0.04245612 -0.13758521 -0.089070335 -0.020736108 0.0026837566 0.37640685
0.025896031 -0.0136915855 0.38000578 -0.017949874 0.014402262 0.028523188 -0.012195362 -0.19510482
-0.13783884 -0.16186608 0.04413514 -0.09303697 -0.21518074 0.46030384 -0.00045550423 0.19102232
-0.13020444 0.35886276 -0.117723495 0.18125205 -0.058190707 0.032741174 0.078041 0.1152559
-0.14516413 -0.041323934 0.37955257 -0.1552502 0.04638144 -0.05891385 -0.17476398 0.03688024
-0.118822165 -0.15906942 0.04149252 0.023831218 0.019580713 -0.05963895 0.39053637 0.0014993495

dense3.weight f4 [4, 64]
00000000: 92c2 9cbd 908c 9ebd 9f12 983d a3f9 813d
00000010: c741 dd3c bedc 403d 798a edbd 5a07 f7bd
00000020: cca6 a2be e690 d7bc eff0 0ebe f932 7e3d
00000030: 39e1 453d 7f23 ebbc 1192 0dbe 4e1a 2fbd
00000040: f3ff 91bd 7cc2 603d 5999 b3bd e6e8 06be
00000050: 6b8c 83bd cc3f 5fbd d318 22bc a264 7f3b
00000060: d0d0 bb3d bbf9 333d 4005 973e 8ac4 673d
00000070: 2235 ad3d 33be b93d ab4c d43c f738 603c
00000080: cfb5 40bd dc6b c03b fcac 803d 3fc6 7bbd
00000090: 82f4 363d d8e4 3bbe 08c6 de3d 3b88 43be
000000a0: 14fe 673d 7a42 91be b166 8a3d 9061 afbd
000000b0: 689e 993d ca54 f7bd 98bd d13d bd41 bcbd
000000c0: 48f4 3cbd aad9 75bc 598e 22be 4b14 cd3c
000000d0: bed2 243d 3e28 bbbd 208b 593e 8b4f 5cbd
000000e0: 0d24 bdbc 5de5 a53d 84d2 1dbd 2e1c b4bd
000000f0: d667 fe3c b38f 69be 9ce1 25be a1d4 923d
00000100: c11f b2bd c671 fdbd 1f86 dcbd 687a 8a3d
00000110: 67eb a5bd 0e62 3bbd 1bdd bbbd 48cb b8bc
00000120: 19fd a1be e6e3 90bd b5e2 69be 2159 0e3d
00000130: 9e16 e83c f591 28b9 a97b fbbd 7926 4cbd
00000140: 6826 06be ea5f 9cbd 65bc 14bd 509d e2bd
00000150: e185 f0bc 6a94 123d 0cdd 36bd 2e54 c2bd
00000160: ec4c 5abd 8262 77bd 9424 973e c01a 6abb
00000170: e401 c0bd 3c3c 893d 8573 073d f553 7cbd
00000180: c91f aabd e5e0 f8bd 9819 bd3d 0772 3bbe
00000190: aa6c 96bd 08bf 29be 3db6 943e b445 46be
000001a0: e407 2dbd 19e5 4ebe 78e5 1b3d 3da8 60be
000001b0: aa4b 81bd e044 493d 6441 fdbc 0699 7fbe
000001c0: 7c84 54bd f91e c9bd 0070 35be d022 403c
000001d0: 2110 e53d e80f 9f3d 4c26 813d f0a2 b1bd
000001e0: e850 aabd ea6e 043d 414f 843d a8a0 ccbd
000001f0: 13a1 ad3d cbb0 44be 053e 65be 7e63 e2bd
00000200: df48 b83d ec0f 753d 3631 483d 290e 913d
00000210: 9b9d b63d 17b4 1f3d cea1 c2bd c08b 3d3b
00000220: c1ba 0abe b399 87bd 9d34 3bbe 2b23 38bb
00000230: c0f3 6d3b 6735 053c 771b acbd 4db1 4e3c
00000240: 53a6 a0bc b2a0 adbd ae4b d1bd 9f70 bd3c
00000250: 06da 75bd 7601 883d bad2 b73c 91dc 383e
00000260: 430a ab3d c835 febd c7a9 983e e894 96bc
00000270: 6018 983c 8bbc e8bc 6c94 f5bd 0731 36bd
00000280: fe5c 93bd 1bc0 d43d de08 3dbd d9e2 11be
00000290: d052 0a3e 677f 12be f40a cb3c d2de 3bbe
000002a0: 40b0 fa3c c909 9abc 8afa fe3d da9c fabc
000002b0: be48 67bb 00de 96bd 167b d23c 1f27 f9bd
000002c0: fc63 1d3d d7c3 82bd 3720 c9bd 684a af3d
000002d0: 1ab3 a83b 1cf2 d33d 9457 f73d 84c7 963d
000002e0: 9f67 5e3d 9a1e afbc 469c 50bd d677 c8bd
000002f0: 8702 2dbc a528 62be 4e83 cfbd 3eb5 34bc
00000300: b2da 473e adf4 63bd 352b 1cbe 0bd8 713c
00000310: f4af fc3c 0467 83bc eb2e cfbd 45f4 923d
00000320: 91b8 dd3c 809b abbd 5727 1bbe 45eb 16bd
00000330: e8b2 893c e8b5 cfbc 3d8e 95bd 3bef 913c
00000340: 31bc f5bd f0b2 273c 7923 adbd e90f 063e
00000350: 20f9 47bc 7346 593d 319e 403d 46c7 febd
00000360: e0d0 2b3d f271 bd3c 62dd 563e 9cbd 093d
00000370: 0855 b33c 8537 5a3d 6b6e 8cbc acaa c03d
00000380: 9199 e1bc 0372 a7bc bd47 09bd e7a9 80bc
00000390: 2043 553e 19a5 3ebe 068d 99be 6e0d 6abe
000003a0: eea3 a6bd 7e34 54be fe74 be3d 747d 6dbe
000003b0: d4cc 353c fcde 9bbc 9c91 b43a b2b6 78be
000003c0: 707a 0abc 9c05 263d c9e3 63be a389 2ebc
000003d0: a053 8a3d 905f 113d 54a6 4e3d b30c 683d
000003e0: a9cd 833d eafc e03c e9be c1bd 00e0 7bbc
000003f0: 1e19 953d 933d 34be 7a0f 1fbe 35b1 f3b9
-0.07654299 -0.07741654 0.07425427 0.063464426 0.027008904 0.047085516 -0.11598677 -0.12061949
-0.3176788 -0.02631421 -0.13959096 0.06206033 0.048310492 -0.02870345 -0.13825251 -0.042749695
-0.071288966 0.054872975 -0.08769483 -0.13174781 -0.06423267 -0.0545042 -0.009893614 0.0038969894
0.09170687 0.043939333 0.29496193 0.05658392 0.084574 0.09069481 0.025915464 0.0136854565
-0.047048386 0.005872233 0.06282994 -0.06146836 0.044666775 -0.18349016 0.10877615 -0.19094937
0.056638792 -0.2837103 0.06757868 -0.085635304 0.07500917 -0.12076719 0.1024124 -0.09192226
-0.046131402 -0.015005508 -0.15874614 0.02503409 0.040240042 -0.09138535 0.21244478 -0.053786796
-0.02308848 0.08100388 -0.03853084 -0.08794437 0.031055372 -0.22808723 -0.16199344 0.07169462
-0.08697463 -0.12375216 -0.10767769 0.067616284 -0.0810154 -0.04574781 -0.09173032 -0.02255787
-0.3163841 -0.07074718 -0.22840388 0.03475297 0.028331097 -0.00016076102 -0.12279446 -0.049841378
-0.13100588 -0.07635482 -0.03631248 -0.11065161 -0.029360713 0.03578607 -0.0446444 -0.09488712
-0.053296015 -0.06039668 0.29520094 -0.003572151 -0.093753606 0.06700942 0.033069152 -0.061603505
-0.08306844 -0.1215227 0.09233397 -0.18305217 -0.07344945 -0.16576779 0.29045287 -0.19362527
-0.042243853 -0.20204581 0.038060635 -0.21939178 -0.0631326 0.04913795 -0.03091497 -0.24960718
-0.05188416 -0.09820361 -0.17718506 0.01172705 0.11184717 0.07766706 0.06306133 -0.08673656
-0.08316213 0.03233234 0.06460429 -0.0999158 0.08477988 -0.19208066 -0.2238694 -0.11054133
0.08998274 0.059829637 0.048875056 0.07082779 0.089167796 0.038990106 -0.09503518 0.0028922409
-0.13547803 -0.06621113 -0.18281789 -0.0028097134 0.0036308616 0.008130408 -0.08403676 0.012615514
-0.01961056 -0.08477916 -0.10219513 0.023124991 -0.060022376 0.06640904 0.02243935 0.1805289
0.08351567 -0.12412602 0.2981703 -0.01838155 0.01856631 -0.028410217 -0.119912 -0.04448035
-0.07195471 0.10388204 -0.046151035 -0.14246692 0.13508153 -0.14306413 0.024785496 -0.18346718
0.03060162 -0.018803494 0.1245013 -0.03059237 -0.003529116 -0.07366562 0.025693458 -0.12165665
0.03842543 -0.0638501 -0.098205976 0.08559114 0.0051483037 0.10348913 0.12077251 0.07362273
0.05429804 -0.021376897 -0.050930284 -0.09788482 -0.010559685 -0.22085817 -0.10132466 -0.01102954
0.1951702 -0.055653263 -0.15250857 0.014760981 0.03084562 -0.016040333 -0.10116371 0.07175497
0.027065547 -0.08379269 -0.15151726 -0.036845464 0.016808942 -0.025355294 -0.073025204 0.01781427
-0.11998785 0.010235533 -0.084540315 0.13092007 -0.012205392 0.0530457 0.047025863 -0.12440352
0.041947246 0.023125622 0.20982888 0.03362809 0.021891132 0.053275604 -0.017142495 0.09407553
-0.027539046 -0.020440107 -0.03351568 -0.015706016 0.20826387 -0.18617667 -0.29990405 -0.22856686
-0.08136736 -0.20723149 0.09299658 -0.23192388 0.011096198 -0.019027226 0.0013776305 -0.24288443
-0.008452043 0.040532693 -0.22254862 -0.010652932 0.067542315 0.035491526 0.05045159 0.056652736
0.06435711 0.027464349 -0.09460241 -0.01537323 0.07280181 -0.17601614 -0.15533248 -0.000464806

dense3.bias f4 [4]
00000000: bd28 2a3f b143 183f 5d6c 233f 9852 debd
0.6646841 0.5947829 0.63837224 -0.10855597
