Reinforcment_Learning_DQN/agent_output/weights/episode_307_weights.pt (torch, 21495 bytes, 6 tensors)

dense1.weight f4 [64, 5]
0	0x3e061b42	0.13096336
1	0xbe0dd58d	-0.13850994
2	0x3d9285c3	0.07154419
3	0xc0426856	-3.0376182
4	0xc083ea4e	-4.1223516
5	0x3ebba573	0.36649665
6	0xbedc76cc	-0.43059385
7	0xbdb5a660	-0.08869624
8	0xbdaee2fd	-0.08539388
9	0x3f30d794	0.69078946
10	0xbe22e310	-0.1590693
11	0xbe14e6ba	-0.1454114
12	0xbe498028	-0.19677794
13	0x3e569d04	0.20958334
14	0x3ee2d282	0.4430123
15	0x3e5da51b	0.21645014
16	0xbf3bf584	-0.734215
17	0x3dd471f0	0.10373294
18	0x3e8f390b	0.27973208
19	0x3e25d814	0.16195709
20	0xbe347896	-0.17624125
21	0xbe709975	-0.23496039
22	0xbe977ddc	-0.2958821
23	0x3b966200	0.004589319
24	0xbe32ea14	-0.17472106
25	0x3e6a7c43	0.22898965
26	0xbe9dec46	-0.30844325
27	0x3dc6a23f	0.09698915
28	0xbff05535	-1.8776003
29	0xc079b891	-3.90189
30	0xbea42b4e	-0.3206429
31	0xbed81e3c	-0.42210567
32	0xbeb85368	-0.36001134
33	0xbcd57ca0	-0.026060402
34	0xbea16240	-0.3152027
35	0x3dde4269	0.108525105
36	0x3f335dba	0.7006489
37	0xbe4c91be	-0.19977471
38	0x3fa2fbda	1.2733109
39	0x3fb72e23	1.4310955
40	0xbf40e007	-0.7534184
41	0x3c031ea8	0.0080029145
42	0x3e9190f1	0.28430894
43	0xbf731781	-0.9495774
44	0xbf55af79	-0.83470875
45	0xbeb762c7	-0.3581755
46	0x3c76f060	0.015071958
47	0xbed0a1d0	-0.40748453
48	0x3ebdffc0	0.37109184
49	0x3eaefc0c	0.34176672
50	0xbf04198e	-0.51601493
51	0x3cc31e07	0.02381803
52	0x3e9ee33d	0.31032744
53	0xbfb4ea6c	-1.413404
54	0xbfa4b3ff	-1.286743
55	0xbe8d7f60	-0.27636242
56	0xbf089391	-0.5335017
57	0x3e81c6fc	0.25347126
58	0xbf374fe6	-0.7160629
59	0xbf8489d3	-1.0354561
60	0xbe5990d9	-0.21246661
61	0x3e20fed4	0.15722209
62	0xbdcfb480	-0.101418495
63	0xbdbf753c	-0.093485326
64	0x3ec2aba4	0.38021576
65	0x3e760ec3	0.24029069
66	0xbcdc8427	-0.026918484
67	0xbf08405b	-0.532232
68	0xbe4c8ac1	-0.19974805
69	0xc01ea21b	-2.4786441
70	0xbea4f929	-0.32221344
71	0xbec93fdc	-0.39306533
72	0x3e876f04	0.26451886
73	0xbf06320a	-0.52420104
74	0xbe60be10	-0.21947503
75	0x3e241d44	0.16026789
76	0x3e664af7	0.22489534
77	0xbdabc8d8	-0.08387917
78	0x3fb2712d	1.3940789
79	0x3ff782af	1.9336756
80	0x3eababb1	0.33529428
81	0x3c8e451e	0.017366942
82	0xbec95fc5	-0.3933088
83	0x3f1295f3	0.57260054
84	0x3ee6af88	0.45055795
85	0xbd63a83c	-0.055580363
86	0x3e46fd0c	0.19432467
87	0x3de11b39	0.109915204
88	0xc03eb26c	-2.97964
89	0xc03a763b	-2.9134662
90	0xbf19ee24	-0.60129
91	0x3d926065	0.07147292
92	0x3e546a61	0.20743705
93	0xbf5014af	-0.8128156
94	0xbf0290ed	-0.5100239
95	0xbc790670	-0.015199289
96	0x3eabba10	0.33540392
97	0x3d448669	0.047979746
98	0xc04a3da0	-3.1600113
99	0xbfef4fb4	-1.8696198
100	0x3e863166	0.26209563
101	0xbeb3e9b8	-0.3513925
102	0x3e02cdff	0.12773894
103	0xbfbb6c8e	-1.4642503
104	0xc04a7c99	-3.1638548
105	0x3e923c5f	0.28561684
106	0xbed75cf9	-0.4206312
107	0x3e3af70e	0.18258306
108	0xc026ecc7	-2.6082017
109	0xc088d514	-4.2760105
110	0xbb693d80	-0.0035589635
111	0xbed48f6b	-0.4151567
112	0xbe9d1ab4	-0.30684435
113	0x3e5cd668	0.21566164
114	0x3eb88a9e	0.36043257
115	0xbe3b3d0d	-0.18285008
116	0x3f12ed18	0.57393026
117	0xbdc35daf	-0.09539353
118	0x3eb50dc8	0.35362077
119	0x3de6451b	0.112436496
120	0x3e2dbd2d	0.16966696
121	0xbe914f0b	-0.28380617
122	0x3e817f2b	0.25292334
123	0xc02cb98c	-2.698825
124	0xc0616b2b	-3.522166
125	0xbd044519	-0.03229246
126	0x3e3e7c90	0.18602204
127	0x3bd605de	0.006531461
128	0xc066a0ab	-3.6035564
129	0xc066b5cf	-3.6048467
130	0xbe81bc90	-0.25339174
131	0x3ef03009	0.46911648
132	0x3e935ea2	0.28783137
133	0xc040b0f0	-3.0107994
134	0xc01e4d0f	-2.4734533
135	0xbc2a13e1	-0.010380716
136	0x3ec6c00b	0.38818392
137	0x3db69310	0.08914769
138	0xc054e60e	-3.3265414
139	0xbfc62c0b	-1.5482191
140	0x3e6305d6	0.22170195
141	0xbebfe8d9	-0.37482336
142	0x3e11f80f	0.14254783
143	0xc0117283	-2.2726142
144	0xc06c8b8d	-3.6960175
145	0xbda5542f	-0.08072697
146	0xbf934d85	-1.1508032
147	0x3e80f63f	0.2518787
148	0xbe3a5954	-0.18198138
149	0xbe1c10fc	-0.15240854
150	0xbd6102b8	-0.054934233
151	0xbec5d427	-0.38638422
152	0x3cd84c50	0.026403576
153	0xbec93fa6	-0.39306372
154	0x3ec339ca	0.38130027
155	0x3d98b6c6	0.07456736
156	0x3dccd899	0.1000225
157	0xbd0f517f	-0.03498983
158	0xc021d31d	-2.5285103
159	0xc0512541	-3.2678988
160	0xbe986da7	-0.29771158
161	0x3f33255b	0.69978875
162	0x3e77428d	0.24146481
163	0x3f8116ac	1.0085044
164	0x3f8653b9	1.04943
165	0x3e925afb	0.28585038
166	0xbec592c8	-0.38588548
167	0x3dd778ce	0.105210885
168	0xbf7db68c	-0.9910667
169	0xc02c2f17	-2.6903741
170	0xbdd81bfc	-0.105522126
171	0x3dcccb7f	0.09999751
172	0xbf1119ac	-0.566798
173	0x3f259b01	0.6468964
174	0xbe9c2d12	-0.30503136
175	0x3e19dff6	0.1502684
176	0xbc11b5f6	-0.0088934805
177	0xbf0dd214	-0.5539868
178	0x3f2aa8a9	0.66663605
179	0xbfd8b923	-1.6931499
180	0xbec644a5	-0.38724247
181	0x3d962b40	0.07332468
182	0xbe83e81a	-0.25763017
183	0xbe415858	-0.18881357
184	0xbe81be0d	-0.2534031
185	0x3e71a4a3	0.2359796
186	0x3e47b948	0.19504273
187	0xbf2998d9	-0.6624885
188	0xbe4ad87d	-0.19809146
189	0x3f422935	0.75844127
190	0xbdfc4146	-0.123171374
191	0x3ef00deb	0.4688562
192	0x3e02061a	0.1269764
193	0xbfe7574a	-1.8073514
194	0xbf23ce30	-0.6398649
195	0xbca25230	-0.01981458
196	0xbe131656	-0.14363989
197	0xbea635c4	-0.32462895
198	0x3ede2fec	0.43395936
199	0x3e85aaa4	0.2610675
200	0x3e8b00f1	0.27149156
201	0xbec22118	-0.37915874
202	0x3e1e96d0	0.15487218
203	0xc0282538	-2.6272717
204	0xc0791bc5	-3.89232
205	0x3e1a527f	0.15070532
206	0xbeaf89d2	-0.34284836
207	0xbec7731a	-0.38955003
208	0x3e17f6b4	0.14840204
209	0x3e518e54	0.2046445
210	0x3e49a58f	0.19692062
211	0xbf3a41c6	-0.7275661
212	0x3d8d3699	0.06895179
213	0xbcedb8a6	-0.029018711
214	0xbe83dd7d	-0.2575492
215	0xbd6ef72f	-0.0583412
216	0x3e520f12	0.20513561
217	0x3bc0d284	0.0058844704
218	0xc034e217	-2.8262994
219	0xc049d49a	-3.1536012
220	0xbda914c0	-0.08255911
221	0x3eec867e	0.4619636
222	0xbe074828	-0.13211119
223	0xbfd0d65d	-1.6315418
224	0x3e631f76	0.2217997
225	0xbe87f45d	-0.26553622
226	0xbe7522ad	-0.23939009
227	0x3d87a838	0.06623882
228	0xbe84eb74	-0.25960886
229	0x3ebef80a	0.37298614
230	0xbefa1746	-0.4884588
231	0xbe251e34	-0.16124803
232	0x3e9553b5	0.29165426
233	0xbfac4c56	-1.3460796
234	0xbf5b2c20	-0.85614204
235	0x3e193cf0	0.14964652
236	0xbe8ab78b	-0.27093157
237	0x3e45fe1d	0.19335218
238	0xc02d096c	-2.7037
239	0xc071e0cb	-3.7793453
240	0x3d59f6a2	0.053213723
241	0xbef53448	-0.4789145
242	0xbe2cd3b8	-0.1687764
243	0xbdefac49	-0.11702783
244	0xbed86b39	-0.42269304
245	0xbec9e5be	-0.39433092
246	0x3dbe391a	0.09288235
247	0x3d3fce7e	0.046827786
248	0xc0195907	-2.3960588
249	0xc0376827	-2.865732
250	0x3c6d759a	0.01449337
251	0x3e4d585b	0.20053236
252	0xbca39a87	-0.019971145
253	0x3f33ff9e	0.70311916
254	0xbeac2511	-0.3362203
255	0xbe93f558	-0.2889812

dense1.bias f4 [64]
0	0x3eee4bc6	0.46542186
1	0xbec6aa25	-0.38801685
2	0x3eb4111c	0.35169303
3	0x3ec5c4c4	0.38626683
4	0xbe04e6de	-0.12978694
5	0x3e87fc14	0.26559508
6	0x3ed83168	0.42225194
7	0x3eb96264	0.3620788
8	0x3ec303b9	0.38088778
9	0x3e5d1ddc	0.21593422
10	0x3f05702a	0.52124274
11	0xbe7327fd	-0.23745723
12	0x3e0ff4ac	0.14058179
13	0x3d0ccdfc	0.03437613
14	0xbe8d29b1	-0.2757087
15	0xbe5d0af9	-0.21586217
16	0xbe6b32f3	-0.22968654
17	0x3d08d436	0.033405505
18	0xbd8c1806	-0.068405196
19	0xbe11ef5b	-0.14251463
20	0x3e8915ee	0.26774544
21	0x3f01f392	0.50762284
22	0x3c12bb00	0.008955717
23	0x3e640132	0.22266081
24	0x3f2a5186	0.66530645
25	0x3efb0044	0.4902364
26	0x3d27268f	0.040808257
27	0xbb9a36a9	-0.004706223
28	0x3ecbc265	0.3979675
29	0xbed09de3	-0.40745458
30	0xbe55a78d	-0.20864697
31	0x3e233711	0.15938975
32	0xbc7d7a2c	-0.015471023
33	0xbd793096	-0.06083735
34	0x3eab79c0	0.33491325
35	0xbe3664be	-0.17811868
36	0xbe4a4cbf	-0.19755839
37	0xbf1d0e17	-0.61349624
38	0x3e2f3061	0.17108299
39	0xbed33f0f	-0.41259047
40	0x3f2a6666	0.665625
41	0x3e951a02	0.29121405
42	0x3e4fb564	0.20284039
43	0x3e1c0828	0.15237486
44	0x3e567ee1	0.20946838
45	0xbbc179c0	-0.0059044063
46	0x3dd9c3af	0.10633027
47	0xba7882e6	-0.00094799546
48	0xbeae07e2	-0.3399039
49	0x3d4f335e	0.050586097
50	0xbe7af977	-0.24509226
51	0x3f0b2a1a	0.54361117
52	0x3ed06d36	0.4070832
53	0x3e85de49	0.26146153
54	0x3e500450	0.20314145
55	0x3f0781a6	0.529322
56	0x3eab9cd2	0.33518082
57	0xbe56be2a	-0.2097098
58	0xbebe2ac0	-0.3714199
59	0x3e7f5c4f	0.24937557
60	0x3e306c80	0.1722889
61	0x3f10940f	0.5647592
62	0xbeade3c1	-0.33962825
63	0x3e90a9c6	0.28254527

dense2.weight f4 [64, 64]
0	0x3d475255	0.048662502
1	0xbeaa5a20	-0.33271885
2	0xbdd01e98	-0.10162085
3	0x3d53deeb	0.051726263
4	0xbd0bd06c	-0.034134313
5	0x3caa3fe8	0.020782426
6	0xbcff1b88	-0.031141058
7	0xbe16444a	-0.14674488
8	0x3defb9a3	0.11705329
9	0x3d84916e	0.06473051
10	0x3d4a5581	0.04939795
11	0x3e44b4fc	0.19209665
12	0xbda750d2	-0.08169712
13	0xbead38f1	-0.33832505
14	0x3e4b8300	0.19874191
15	0xbe843515	-0.25821748
16	0xbe3396b2	-0.17537954
17	0xbdc5d013	-0.09658828
18	0x3dda3bd5	0.10655943
19	0xbee614cc	-0.44937742
20	0xbdd3561b	-0.10319158
21	0x3b88ec9a	0.0041785957
22	0x3dcf8daa	0.10134442
23	0xbe418c9b	-0.18901293
24	0x3d74f225	0.05980124
25	0xbbdf00ca	-0.006805514
26	0xbe2718ad	-0.16318007
27	0xbe9f3bde	-0.31100363
28	0x3d1d74ff	0.038441654
29	0x3e1977e6	0.14987144
30	0x3db0f936	0.08641283
31	0xbec0543c	-0.37564266
32	0xbdf917c5	-0.12162737
33	0xbe1e4c7d	-0.15458865
34	0x3da4beaf	0.080441825
35	0xbe85a370	-0.26101255
36	0xbd95938c	-0.07303533
37	0xbd909762	-0.07060124
38	0xbe127b7e	-0.14304921
39	0xbd99cb30	-0.07509458
40	0x3d9127c5	0.070876636
41	0x3db48804	0.088150054
42	0x3da384aa	0.07984288
43	0xbe734577	-0.23756967
44	0xbbc9b104	-0.006155135
45	0xbd3e783c	-0.046501383
46	0x3d9f14bb	0.07767626
47	0xbc77230e	-0.015084041
48	0x3dbcc8b4	0.092179686
49	0xbcac54c6	-0.021036517
50	0xbf02f9d6	-0.5116247
51	0x3d4cf70d	0.050040293
52	0xbdf00e5a	-0.11721487
53	0xbee561fa	-0.44801313
54	0x3d686054	0.05673249
55	0xbe12ae0e	-0.14324209
56	0xbde97548	-0.11399323
57	0xbd62f3bc	-0.055408224
58	0xbdf8db3e	-0.12151192
59	0xbeb55a2e	-0.35420364
60	0x3b5b730e	0.0033485326
61	0xbde6c277	-0.1126756
62	0x3de4b69a	0.11167641
63	0xbe68460d	-0.22682972
64	0x3c9c96a7	0.019114805
65	0xbd9cedfc	-0.076625794
66	0x3da94400	0.08264923
67	0x3c3e77a9	0.011625209
68	0xbdec00ce	-0.11523591
69	0x3d7b914d	0.061417866
70	0x3df4d4a0	0.119546175
71	0x3ae8f480	0.0017773062
72	0xbdaea9b1	-0.0852846
73	0x3d51a100	0.051178932
74	0x3d0f1442	0.03493143
75	0xbe1e07ba	-0.15432635
76	0xbd31e6e8	-0.0434331
77	0xbd6e6a53	-0.058206867
78	0x3c612d5f	0.0137437275
79	0xbd8a33da	-0.06748171
80	0xbd4c3552	-0.049855538
81	0xbe1367eb	-0.1439511
82	0xbcb68efa	-0.022284973
83	0xbd0ad4c5	-0.03389432
84	0xbd693cd2	-0.05694277
85	0x3c59c018	0.013290428
86	0x3bc71f40	0.0060767233
87	0xbdaa9e10	-0.08330929
88	0xbc09ce01	-0.008410932
89	0xbe0c6123	-0.1370893
90	0x3dccc19b	0.09997865
91	0xbe155822	-0.14584401
92	0x3d75959c	0.05995713
93	0xbe2cef0c	-0.16888064
94	0xbdba6506	-0.091013
95	0x3d6f6e78	0.05845496
96	0xbcbdc48a	-0.023165006
97	0xbc5e10fc	-0.013553854
98	0xbdd46f32	-0.10372771
99	0xbc8d7bc0	-0.017270923
100	0x3c248440	0.0100412965
101	0xbda5264d	-0.08063946
102	0xbcbfdd9a	-0.023421098
103	0x3df7e2ea	0.12103827
104	0xbde11c7d	-0.10991762
105	0xbd37bc64	-0.044857398
106	0x3d98eff4	0.074676424
107	0x3ce179cc	0.027523898
108	0x3dc5955c	0.09647629
109	0xbd14b59c	-0.03630601
110	0x3dfff74a	0.124983385
111	0x3c35de98	0.011100434
112	0xbdad6fda	-0.084685996
113	0x3d4e9118	0.05043134
114	0xbe00917e	-0.12555501
115	0xbe2ed73d	-0.17074294
116	0x3ded67b0	0.115920424
117	0xbe292704	-0.1651879
118	0xbcc50758	-0.024051353
119	0xbe12f720	-0.14352083
120	0x3ceb2108	0.028702274
121	0xbdc5a720	-0.09651017
122	0xbd8a4860	-0.06752086
123	0xbd3a7108	-0.04551795
124	0xbc0ead53	-0.008708316
125	0xbdd90eeb	-0.105985485
126	0xbd05d928	-0.0326778
127	0xbd189e42	-0.0372603
128	0xbc3422cb	-0.010994623
129	0xbd582df3	-0.052778196
130	0x3d902702	0.0703869
131	0x3c2eac00	0.010661125
132	0xbd384e64	-0.044996634
133	0xbdbdc888	-0.09266764
134	0x3b9179e0	0.0044395775
135	0xbcf15c84	-0.02946306
136	0xbddc7ae6	-0.107656285
137	0xbde20772	-0.11036576
138	0x39e09a00	0.00042839348
139	0xbd24fedc	-0.040282115
140	0x3c2b2d30	0.010447785
141	0x3c87898d	0.016545082
142	0xbc24a0a0	-0.010048062
143	0xbda3ce30	-0.079983115
144	0xbc47e24d	-0.01219995
145	0xbd0905ce	-0.0334528
146	0x3d3ee630	0.046606243
147	0x3d7afdc0	0.06127715
148	0x3b670079	0.0035248084
149	0xbe2ef29c	-0.17084736
150	0xbd8deaf0	-0.069295764
151	0x3dd8435a	0.10559721
152	0x3d8f9517	0.070108585
153	0x3d1fdf69	0.03903142
154	0x3c8d4f09	0.017249601
155	0xbdfb85b4	-0.12281361
156	0xbe1baa4c	-0.15201682
157	0xbd6782f4	-0.05652137
158	0x3c21a680	0.009866357
159	0xbe19cebc	-0.15020269
160	0xbd970a6b	-0.07375034
161	0xbc17a64f	-0.00925596
162	0xbd85e04b	-0.06536921
163	0x3d9f8021	0.077881105
164	0x3c8ad0b8	0.016945228
165	0x3d84aa3d	0.06477783
166	0xbd5588df	-0.052132484
167	0x3d032a00	0.032022476
168	0x3bb3a919	0.0054828045
169	0xbde6c146	-0.11267333
170	0x3dd525fc	0.104076356
171	0xbe089003	-0.13336186
172	0x3da28a6f	0.0793656
173	0xbcbf5990	-0.023358136
174	0x3dc03558	0.093851745
175	0xbdf4ac49	-0.11946923
176	0xbd206794	-0.03916128
177	0xbdb57ba1	-0.08861471
178	0xbdc805df	-0.09766745
179	0x3c898fb8	0.016792163
180	0x3d978ed6	0.07400291
181	0x3c7b6b9b	0.015345479
182	0x3dc43ec0	0.09582281
183	0xbe186e84	-0.14885908
184	0x3cb597f0	0.022167176
185	0x3dbd311e	0.09237884
186	0xbd08e734	-0.033423617
187	0xbddea3a2	-0.10871054
188	0xbc77088f	-0.015077724
189	0xbd9077a1	-0.070540674
190	0xbdb44a2c	-0.0880321
191	0xbd5cf5d7	-0.05394539
192	0xbb2ce0a7	-0.002637902
193	0xbdef82dc	-0.11694881
194	0x3dbb5eaa	0.09148915
195	0xbd83836c	-0.06421551
196	0x3d91d332	0.071203604
197	0x3dac8eb4	0.08425656
198	0x3c536bb0	0.012904093
199	0xbd95229f	-0.07281994
200	0x3dd83349	0.10556657
201	0x3df2009e	0.11816524
202	0xbac701fd	-0.0015183088
203	0x3c9c5ca7	0.019087149
204	0x3df20f90	0.118193746
205	0xbdebd5a8	-0.11515361
206	0x3d088a4f	0.033335026
207	0x3d31f995	0.04345091
208	0x3d5c0048	0.053711206
209	0xbdd0bd7c	-0.10192391
210	0xbd6857a9	-0.056724224
211	0xbe093a25	-0.13401087
212	0xbdbbbf57	-0.091673546
213	0xbc9aa162	-0.018875781
214	0x3dd92ce2	0.10604264
215	0x3d3ec3e8	0.04657355
216	0xbd7f4791	-0.06232411
217	0xbd6c137e	-0.057635777
218	0xbdd7507a	-0.105133966
219	0xbd81cc27	-0.06337767
220	0xbd912365	-0.07086829
221	0xbdd92870	-0.10603416
222	0xbd84397c	-0.06456277
223	0xbd5d5ddc	-0.05404459
224	0x3cb52c3a	0.022115815
225	0x3d87265c	0.06599113
226	0xbdb74768	-0.089491665
227	0xbdfeba76	-0.12437908
228	0xba178400	-0.00057798624
229	0xbdf1491f	-0.11781525
230	0xbd572ee2	-0.052534945
231	0xbcf26180	-0.029587507
232	0xbdae73d2	-0.08518185
233	0xbd2e5850	-0.04256469
234	0x3d603e27	0.054746773
235	0xbde50690	-0.11182892
236	0xbd58afa4	-0.05290188
237	0x3d8198b6	0.063279554
238	0xbd15ca9f	-0.036570188
239	0xbe053b3f	-0.13010882
240	0x3c4d9a40	0.012548983
241	0x3dc38b2b	0.095480286
242	0xbd503f74	-0.050841764
243	0x3de68b4f	0.1125704
244	0xbc9ced40	-0.019156098
245	0xbadf9e85	-0.0017060792
246	0x3d15b514	0.036549643
247	0xbcdbf0f0	-0.026848286
248	0x3dda418c	0.10657033
249	0xbd83bbbe	-0.06432293
250	0xbbb18bc0	-0.005418271
251	0x3cf72e51	0.030173453
252	0x3c9d66ca	0.019214053
253	0xbcd4fc57	-0.025999231
254	0xbdefc06c	-0.117066234
255	0x3c4a5e25	0.012351547

dense2.bias f4 [64]
0	0xbe15e771	-0.14639069
1	0x3d6f54e9	0.058430586
2	0xbda93b18	-0.08263224
3	0xbc2bf03c	-0.010494288
4	0xbc8ce58f	-0.017199306
5	0xbdeadc80	-0.11467838
6	0x3ea70756	0.32622784
7	0x3d6255ca	0.055257596
8	0x3da748f3	0.08168211
9	0x3d1a2014	0.03762825
10	0x3eb2f8e3	0.3495551
11	0x3d4f189e	0.050560586
12	0xbd075356	-0.03303846
13	0x3d8a859f	0.067637675
14	0x3c15ef55	0.0091512995
15	0x3dada128	0.08478004
16	0x3dcd5aef	0.1002711
17	0xbdd30008	-0.1030274
18	0x3d2de678	0.04245612
19	0xbe0ce323	-0.13758521
20	0xbdb66a82	-0.089070335
21	0xbca9dec5	-0.020736108
22	0x3b2fe1f7	0.0026837566
23	0x3ec75b9c	0.3893708
24	0x3cd423ea	0.025896031
25	0xbc6052ac	-0.0136915855
26	0x3eba4d90	0.363873
27	0xbc930b9d	-0.017949874
28	0x3c6bf777	0.014402262
29	0x3ce9a976	0.028523188
30	0xbc47cf0e	-0.012195362
31	0xbe47c98f	-0.19510482
32	0xbe0d25a0	-0.13783884
33	0xbe25c039	-0.16186608
34	0x3d34c70c	0.04413514
35	0xbdbe8a2b	-0.09303697
36	0xbe38961c	-0.18026012
37	0x3ef25ac0	0.47334862
38	0x3c76172f	0.015020176
39	0x3e3ae07c	0.18249696
40	0xbe055450	-0.13020444
41	0x3eaee7d0	0.34161234
42	0xbdf11904	-0.117723495
43	0x3e2e8970	0.17044616
44	0xbd6e5961	-0.058190707
45	0x3d061b9c	0.032741174
46	0x3d9fd3f6	0.078041
47	0x3d910a87	0.07082086
48	0xbe14a5e8	-0.14516413
49	0xbd294349	-0.041323934
50	0x3ecf9081	0.40539935
51	0xbe1ef9e9	-0.1552502
52	0x3d3dfa77	0.04638144
53	0xbd714fa6	-0.05891385
54	0xbe32f554	-0.17476398
55	0x3d170fbc	0.03688024
56	0xbdf35909	-0.118822165
57	0xbe22e318	-0.15906942
58	0x3d29f410	0.04149252
59	0x3cc339b0	0.023831218
60	0x3ca067bb	0.019580713
61	0xbd395d0c	-0.045254752
62	0x3ec98269	0.39357308
63	0x3ac485d2	0.0014993495

dense3.weight f4 [4, 64]
0	0xbd9cc292	-0.07654299
1	0xbd9e8c90	-0.07741654
2	0x3d98129f	0.07425427
3	0x3d81f9a3	0.063464426
4	0x3cdd41c7	0.027008904
5	0x3d40dcbe	0.047085516
6	0xbded8a79	-0.11598677
7	0xbdf7075a	-0.12061949
8	0xbea33e19	-0.31883314
9	0xbcd790e6	-0.02631421
10	0xbe185323	-0.14875464
11	0x3d7e32f9	0.06206033
12	0x3d45e139	0.048310492
13	0xbceb237f	-0.02870345
14	0xbe0d9211	-0.13825251
15	0xbd2f1a4e	-0.042749695
16	0xbd91fff3	-0.071288966
17	0x3d60c27c	0.054872975
18	0xbdb39959	-0.08769483
19	0xbe06e8e6	-0.13174781
20	0xbd838c6b	-0.06423267
21	0xbd5f3fcc	-0.0545042
22	0xbc2218d3	-0.009893614
23	0x3b90bedc	0.0044172835
24	0x3dbbd0d0	0.09170687
25	0x3d33f9bb	0.043939333
26	0x3e954daf	0.2916083
27	0x3d67c48a	0.05658392
28	0x3dad3522	0.084574
29	0x3db9be33	0.09069481
30	0x3cd44cab	0.025915464
31	0x3c6038f7	0.0136854565
32	0xbd40b5cf	-0.047048386
33	0x3bc06bdc	0.005872233
34	0x3d80acfc	0.06282994
35	0xbd7bc63f	-0.06146836
36	0x3d76632b	0.060153168
37	0xbe2d41ec	-0.16919678
38	0x3d8aafce	0.06771813
39	0xbe4006a8	-0.18752539
40	0x3d67fe14	0.056638792
41	0xbe896a82	-0.26839072
42	0x3d8a66b1	0.06757868
43	0xbd92b299	-0.07162971
44	0x3d999e68	0.07500917
45	0xbdf754ca	-0.12076719
46	0x3dd1bd98	0.1024124
47	0xbdd8b742	-0.10581829
48	0xbd3cf448	-0.046131402
49	0xbc75d9aa	-0.015005508
50	0xbdffe082	-0.12493993
51	0x3ccd144b	0.02503409
52	0x3d24d2be	0.040240042
53	0xbdbb283e	-0.09138535
54	0x3e598b20	0.21244478
55	0xbd5c4f8b	-0.053786796
56	0xbcbd240d	-0.02308848
57	0x3da5e55d	0.08100388
58	0xbd1dd284	-0.03853084
59	0xbdb41c2e	-0.08794437
60	0x3cfe67d6	0.031055372
61	0xbe573a1b	-0.21018259
62	0xbe1ed004	-0.15509039
63	0x3d92d4a1	0.07169462
64	0xbdb21fc1	-0.08697463
65	0xbdfd71c6	-0.12375216
66	0xbddc861f	-0.10767769
67	0x3d8a7a68	0.067616284
68	0xbda5eb67	-0.0810154
69	0xbd3b620e	-0.04574781
70	0xbdbbdd1b	-0.09173032
71	0xbcb8cb48	-0.02255787
72	0xbe993c5a	-0.29928857
73	0xbd90e3e6	-0.07074718
74	0xbe52cc0b	-0.20585649
75	0x3d0e5921	0.03475297
76	0x3ce8169e	0.028331097
77	0xb92891f5	-0.00016076102
78	0xbdfb7ba9	-0.12279446
79	0xbd4c2679	-0.049841378
80	0xbe062668	-0.13100588
81	0xbd9c5fea	-0.07635482
82	0xbd14bc65	-0.03631248
83	0xbde29d50	-0.11065161
84	0xbcf085e1	-0.029360713
85	0x3d12946a	0.03578607
86	0xbd36dd0c	-0.0446444
87	0xbdce55ef	-0.10074984
88	0xbd5a4cec	-0.053296015
89	0xbd776282	-0.06039668
90	0x3e920323	0.28518018
91	0xbb6a1ac0	-0.003572151
92	0xbdc001e4	-0.093753606
93	0x3d893c3c	0.06700942
94	0x3d077385	0.033069152
95	0xbd7c53f5	-0.061603505
96	0xbdaa1fc9	-0.08306844
97	0xbdf8e0e5	-0.1215227
98	0x3dbd1998	0.09233397
99	0xbe3b7207	-0.18305217
100	0xbdceaaca	-0.10091169
101	0xbe2bd286	-0.16779527
102	0x3e9b07a4	0.30279267
103	0xbe52b209	-0.20575728
104	0xbd2d07e4	-0.042243853
105	0xbe4f1e60	-0.20226431
106	0x3d1be578	0.038060635
107	0xbe440fde	-0.19146678
108	0xbd814baa	-0.0631326
109	0x3d4944e0	0.04913795
110	0xbcfd4164	-0.03091497
111	0xbe5e346a	-0.21699682
112	0xbd54847c	-0.05188416
113	0xbdc91ef9	-0.09820361
114	0xbe38a3d9	-0.18031253
115	0x3c4022d0	0.01172705
116	0x3de51021	0.11184717
117	0x3d9f0fe8	0.07766706
118	0x3d81264c	0.06306133
119	0xbdb1a2f0	-0.08673656
120	0xbdaa50e8	-0.08316213
121	0x3d046eea	0.03233234
122	0x3d844f41	0.06460429
123	0xbdcca0a8	-0.0999158
124	0x3dada113	0.08477988
125	0xbe67ab39	-0.2262391
126	0xbe4f2287	-0.20228015
127	0xbde2637e	-0.11054133
128	0x3db848df	0.08998274
129	0x3d750fec	0.059829637
130	0x3d483136	0.048875056
131	0x3d910e29	0.07082779
132	0x3db69d9b	0.089167796
133	0x3d1fb417	0.038990106
134	0xbdf4b93a	-0.11949392
135	0x3b3d8bc0	0.0028922409
136	0xbe212c28	-0.157395
137	0xbd8799b3	-0.06621113
138	0xbe324a8b	-0.17411248
139	0xbb38232b	-0.0028097134
140	0x3b6df3c0	0.0036308616
141	0x3c053567	0.008130408
142	0xbdac1b77	-0.08403676
143	0x3c4eb14d	0.012615514
144	0xbca0a653	-0.01961056
145	0xbdada0b2	-0.08477916
146	0xbdd14bae	-0.10219513
147	0x3cbd709f	0.023124991
148	0xbd75da06	-0.060022376
149	0x3d880176	0.06640904
150	0x3cb7d2ba	0.02243935
151	0x3e486292	0.19568852
152	0x3dab0a43	0.08351567
153	0xbdfe35c8	-0.12412602
154	0x3e95a5ec	0.2922815
155	0xbc9694e8	-0.01838155
156	0x3c981860	0.01856631
157	0xbce8bc8b	-0.028410217
158	0xbdf5946c	-0.119912
159	0xbd363107	-0.04448035
160	0xbd935cfe	-0.07195471
161	0x3dd4c01b	0.10388204
162	0xbd3d08de	-0.046151035
163	0xbe11e2d9	-0.14246692
164	0x3e1ad36c	0.15119714
165	0xbe17ed0e	-0.14836523
166	0x3cabbf84	0.020965345
167	0xbe3a5752	-0.18197373
168	0x3cfab040	0.03060162
169	0xbc997cf6	-0.018736344
170	0x3dfefa8a	0.1245013
171	0xbcebcee0	-0.02878517
172	0xbb6748be	-0.003529116
173	0xbd96de00	-0.07366562
174	0x3cd27b16	0.025693458
175	0xbdeb42ee	-0.11487375
176	0x3d1d63fc	0.03842543
177	0xbd82c3d7	-0.0638501
178	0xbdd4fd5d	-0.10399888
179	0x3daf4a68	0.08559114
180	0x3ba8b31a	0.0051483037
181	0x3dd3f21c	0.10348913
182	0x3df75794	0.12077251
183	0x3d96c784	0.07362273
184	0x3d5e679f	0.05429804
185	0xbcaf1e9a	-0.021376897
186	0xbd509c46	-0.050930284
187	0xbdc877d6	-0.09788482
188	0xbc2d0287	-0.010559685
189	0xbe58d54d	-0.21175118
190	0xbdd0b082	-0.10189916
191	0xbc34b53e	-0.01102954
192	0x3e47dab2	0.1951702
193	0xbd63f4ad	-0.055653263
194	0xbe1c2b35	-0.15250857
195	0x3c71d80b	0.014760981
196	0x3cfcaff4	0.03084562
197	0xbc836704	-0.016040333
198	0xbdd1fe5f	-0.102535956
199	0x3d92f445	0.07175497
200	0x3d0828ea	0.033242144
201	0xbdab9b80	-0.08379269
202	0xbe13c383	-0.1443005
203	0xbd16eb45	-0.036845464
204	0x3c89b2e8	0.016808942
205	0xbccfb5e8	-0.025355294
206	0xbd958e3d	-0.073025204
207	0x3c91ef3b	0.01781427
208	0xbdf5bc31	-0.11998785
209	0x3c27b2f0	0.010235533
210	0xbdad2379	-0.084540315
211	0x3e060fe9	0.13092007
212	0xbc47f920	-0.012205392
213	0x3d594673	0.0530457
214	0x3d409e31	0.047025863
215	0xbe000e57	-0.1250547
216	0x3d2bd0e0	0.041947246
217	0x3cbd71f2	0.023125622
218	0x3e55ae53	0.2086728
219	0x3d09bd9c	0.03362809
220	0x3cb35508	0.021891132
221	0x3d5a3785	0.053275604
222	0xbc8c6e6b	-0.017142495
223	0x3dc0aaac	0.09407553
224	0xbce19991	-0.027539046
225	0xbca77203	-0.020440107
226	0xbd0947bd	-0.03351568
227	0xbc80a9e7	-0.015706016
228	0x3e586278	0.21131313
229	0xbe3b8856	-0.18313727
230	0xbe94fc62	-0.29098803
231	0xbe5ee131	-0.21765591
232	0xbda6a3ee	-0.08136736
233	0xbe565a7e	-0.20932958
234	0x3dbe74fe	0.09299658
235	0xbe66b8f6	-0.22531494
236	0x3c35ccd4	0.011096198
237	0xbc9bdefc	-0.019027226
238	0x3ab4919c	0.0013776305
239	0xbe5fd443	-0.21858315
240	0xbc0a7a70	-0.008452043
241	0x3d26059c	0.040532693
242	0xbe6b5267	-0.22980653
243	0xbc2e89a3	-0.010652932
244	0x3d8a53a0	0.067542315
245	0x3d115f90	0.035491526
246	0x3d4ea654	0.05045159
247	0x3d680cb3	0.056652736
248	0x3d83cda9	0.06435711
249	0x3ce0fcea	0.027464349
250	0xbdc1bee9	-0.09460241
251	0xbc7be000	-0.01537323
252	0x3d95191e	0.07280181
253	0xbe244f89	-0.16045965
254	0xbe205998	-0.15659177
255	0xb9f3b135	-0.000464806

dense3.bias f4 [4]
0	0x3f2778ee	0.654189
1	0x3f1869d0	0.5953646
2	0x3f20129f	0.62528414
3	0xbdc7c1f0	-0.097537875
