Reinforcment_Learning_DQN/agent_output/weights/episode_400_weights.pt (torch, 21495 bytes, 6 tensors)

dense1.weight f4 [64, 5]
0	0x3d817794	0.06321636
1	0xbe253bd9	-0.16136111
2	0x3dfcb886	0.123398826
3	0xc05aa2f2	-3.4161954
4	0xc0957351	-4.6703267
5	0x3ec9abb0	0.393888
6	0xbeeb4853	-0.45953616
7	0xbd4d9b38	-0.050196856
8	0xbe49f10f	-0.19720863
9	0x3f38801f	0.720705
10	0xbe22e310	-0.1590693
11	0xbe14e6ba	-0.1454114
12	0xbe498028	-0.19677794
13	0x3e569d04	0.20958334
14	0x3ee2d282	0.4430123
15	0x3e7fd84c	0.24984854
16	0xbf383464	-0.7195494
17	0x3e121759	0.14266719
18	0x3de5b2dc	0.11215755
19	0x3e25d814	0.16195709
20	0xbe347896	-0.17624125
21	0xbe709975	-0.23496039
22	0xbe977ddc	-0.2958821
23	0x3b966200	0.004589319
24	0xbe32ea14	-0.17472106
25	0x3e59059b	0.21193545
26	0xbea27fca	-0.3173812
27	0x3deb4d39	0.114893384
28	0xc00c38da	-2.19097
29	0xc08ab677	-4.3347735
30	0xbea42b4e	-0.3206429
31	0xbed81e3c	-0.42210567
32	0xbeb85368	-0.36001134
33	0xbcd57ca0	-0.026060402
34	0xbea16240	-0.3152027
35	0x3e11d082	0.14239696
36	0x3f3dde4e	0.74167335
37	0xbe4f27fe	-0.202301
38	0x3fb095b0	1.3795681
39	0x3fe123f3	1.7589096
40	0xbf463770	-0.7742834
41	0x3d679a1a	0.056543447
42	0x3e9ff42c	0.31240976
43	0xbf731781	-0.9495774
44	0xbf55af79	-0.83470875
45	0xbeb762c7	-0.3581755
46	0x3c76f060	0.015071958
47	0xbed0a1d0	-0.40748453
48	0x3ebdffc0	0.37109184
49	0x3eaefc0c	0.34176672
50	0xbf109235	-0.56473094
51	0xbc5c13f7	-0.013432494
52	0x3ea3acea	0.3196786
53	0xbfe05df0	-1.7528667
54	0xbfcf0100	-1.617218
55	0xbe91a5bd	-0.2844676
56	0xbf1b5e2d	-0.60690576
57	0x3e7441d5	0.23853238
58	0xbf374fe6	-0.7160629
59	0xbf8489d3	-1.0354561
60	0xbe5990d9	-0.21246661
61	0x3e20fed4	0.15722209
62	0xbdcfb480	-0.101418495
63	0xbdbf753c	-0.093485326
64	0x3ec2aba4	0.38021576
65	0x3e641b7b	0.22276108
66	0xbdda9a14	-0.10673919
67	0xbf29dfad	-0.6635693
68	0xbe7b3bcc	-0.2453453
69	0xc023f12d	-2.5615952
70	0xbeac536f	-0.33657405
71	0xbefcb4dc	-0.49356735
72	0x3e7030b1	0.23456074
73	0xbf06320a	-0.52420104
74	0xbe60be10	-0.21947503
75	0x3e525c02	0.2054291
76	0x3e836035	0.25659338
77	0xbdb1f94e	-0.08690129
78	0x3fc8a282	1.5674593
79	0x4011564d	2.2708924
80	0x3ebd621b	0.3698891
81	0x3d388d6e	0.045056753
82	0xbeb0cc01	-0.34530643
83	0x3e700786	0.2344037
84	0x3f17b1fe	0.5925597
85	0xbd193d34	-0.037411883
86	0x3e57e78c	0.21084422
87	0x3d87caf1	0.06630505
88	0xc04bd703	-3.1849983
89	0xc038f738	-2.890089
90	0xbf1b1cdd	-0.60590917
91	0x3db2f6ed	0.087385036
92	0x3e7cd369	0.24690022
93	0xbf6045ad	-0.87606317
94	0xbf182d91	-0.5944453
95	0xbcea26d4	-0.028582968
96	0x3ea76d06	0.32700366
97	0x3a881468	0.0010382058
98	0xc052b4a8	-3.2922764
99	0xbfedec18	-1.8587675
100	0x3e749496	0.23884806
101	0xbec0789f	-0.37592027
102	0x3e05dcdd	0.13072534
103	0xbfe11b1d	-1.7586399
104	0xc064a422	-3.5725179
105	0x3e8c3563	0.2738448
106	0xbedf4b34	-0.43612063
107	0x3e2a794f	0.16647838
108	0xc04180bd	-3.0234826
109	0xc098504c	-4.759802
110	0xbb693d80	-0.0035589635
111	0xbed48f6b	-0.4151567
112	0xbe9d1ab4	-0.30684435
113	0x3e5cd668	0.21566164
114	0x3eb88a9e	0.36043257
115	0xbe3683ae	-0.1782367
116	0x3f173384	0.5906298
117	0xbdd64930	-0.10463178
118	0x3eb7d1f5	0.35902372
119	0x3ea61c67	0.32443544
120	0x3e262133	0.16223602
121	0xbe9694e7	-0.29410478
122	0x3e4be120	0.19910097
123	0xc04311ce	-3.0479617
124	0xc07fc70e	-3.9965243
125	0xbc9efed2	-0.019408617
126	0x3e2ffb8d	0.17185803
127	0x3bd98925	0.0066386634
128	0xc077b023	-3.8701255
129	0xc0819af3	-4.0501647
130	0xbe74cc89	-0.23906149
131	0x3eff40b2	0.49854046
132	0x3e6c4552	0.23073319
133	0xc076f55d	-3.8587258
134	0xc017019d	-2.3594735
135	0xbad9268c	-0.0016567274
136	0x3ecf2a9d	0.404622
137	0x3d52397d	0.051324356
138	0xc05b8695	-3.4300892
139	0xbfb4a43a	-1.4112618
140	0x3e40f2e4	0.18842655
141	0xbec0cd24	-0.3765651
142	0x3e3688e3	0.17825656
143	0xc02a28c5	-2.6587384
144	0xc087efaa	-4.248006
145	0xbd42b470	-0.04753536
146	0xbf983bcf	-1.1893252
147	0x3e7e64e1	0.2484317
148	0xbe3a5954	-0.18198138
149	0xbe1c10fc	-0.15240854
150	0xbd6102b8	-0.054934233
151	0xbec5d427	-0.38638422
152	0x3cd84c50	0.026403576
153	0xbec93fa6	-0.39306372
154	0x3ec339ca	0.38130027
155	0xbbc24cbc	-0.0059295576
156	0x3cc451dc	0.023964815
157	0xbda3f219	-0.08005161
158	0xc022761d	-2.538459
159	0xc057546a	-3.3645272
160	0xbe78d43d	-0.24299712
161	0x3f3e6ae4	0.7438185
162	0x3e7958ba	0.24350253
163	0x3f8317c7	1.0241631
164	0x3fa95618	1.3229399
165	0x3e89a760	0.2688551
166	0xbed0ebb7	-0.40804836
167	0x3dfa002c	0.12207064
168	0xbf9ab16f	-1.2085398
169	0xc041ddfe	-3.0291743
170	0xbdd81bfc	-0.105522126
171	0x3dcccb7f	0.09999751
172	0xbf1119ac	-0.566798
173	0x3f259b01	0.6468964
174	0xbe9c2d12	-0.30503136
175	0x3e0e0f74	0.13873082
176	0xbd1040f2	-0.035218187
177	0xbf3a7b9c	-0.7284486
178	0x3f181cd0	0.59418964
179	0xbfcd4d29	-1.6039172
180	0xbec644a5	-0.38724247
181	0x3d962b40	0.07332468
182	0xbe83e81a	-0.25763017
183	0xbe415858	-0.18881357
184	0xbe81be0d	-0.2534031
185	0x3e712b7b	0.23551743
186	0x3dda4f5f	0.1065967
187	0xbf405434	-0.75128484
188	0xbe64fb2d	-0.22361441
189	0x3f18d009	0.59692436
190	0xbdacb43b	-0.08432814
191	0x3f031693	0.5120632
192	0x3e01c6d8	0.12673509
193	0xbfea3936	-1.8298709
194	0xbecf7485	-0.40518585
195	0xbca25230	-0.01981458
196	0xbe131656	-0.14363989
197	0xbea635c4	-0.32462895
198	0x3ede2fec	0.43395936
199	0x3e85aaa4	0.2610675
200	0x3e7bf51d	0.24605222
201	0xbece3597	-0.4027526
202	0x3e15f06a	0.14642492
203	0xc03f72c2	-2.9913793
204	0xc08b7e51	-4.3591695
205	0x3e1a527f	0.15070532
206	0xbeaf89d2	-0.34284836
207	0xbec7731a	-0.38955003
208	0x3e17f6b4	0.14840204
209	0x3e518e54	0.2046445
210	0x3e8c31a8	0.27381635
211	0xbf23ec50	-0.6403246
212	0x3e14c9a0	0.14530039
213	0xbe522b80	-0.20524406
214	0xbe83dd7d	-0.2575492
215	0xbd11eb2c	-0.035624668
216	0x3e42791c	0.18991512
217	0xbd11b568	-0.035573393
218	0xc04769de	-3.1158366
219	0xc05d25a1	-3.4554217
220	0xbd6d5ff0	-0.05795282
221	0x3f03a1c0	0.51418686
222	0xbdafda84	-0.085866004
223	0xbfbd6bbf	-1.4798506
224	0x3f13524a	0.5754744
225	0xbe87f45d	-0.26553622
226	0xbe7522ad	-0.23939009
227	0x3d87a838	0.06623882
228	0xbe84eb74	-0.25960886
229	0x3ebef80a	0.37298614
230	0xbefd3130	-0.4945159
231	0xbdbde2e3	-0.09271791
232	0x3ea0c3a4	0.31399262
233	0xbfbc5ff3	-1.4716781
234	0xbf85b118	-1.044467
235	0x3dcfaef3	0.10140791
236	0xbe933f87	-0.28759405
237	0x3e3cb1d3	0.1842721
238	0xc04831b5	-3.1280339
239	0xc08a4507	-4.320926
240	0x3d59f6a2	0.053213723
241	0xbef53448	-0.4789145
242	0xbe2cd3b8	-0.1687764
243	0xbdefac49	-0.11702783
244	0xbed86b39	-0.42269304
245	0xbec9e5be	-0.39433092
246	0x3dbe391a	0.09288235
247	0x3d3fce7e	0.046827786
248	0xc0195907	-2.3960588
249	0xc0376827	-2.865732
250	0xbc2a98be	-0.010412393
251	0x3e39a63a	0.18129817
252	0xbd5b22c5	-0.053499956
253	0x3f49c2a3	0.7881262
254	0xbe4827dc	-0.19546455
255	0xbeb6af33	-0.3568054

dense1.bias f4 [64]
0	0x3ef9eae5	0.48812023
1	0xbeb86669	-0.36015633
2	0x3eb4111c	0.35169303
3	0x3edb07ad	0.42779294
4	0xbe04e6de	-0.12978694
5	0x3e961dce	0.29319614
6	0x3ed83168	0.42225194
7	0x3eadc52d	0.33939496
8	0x3ecb6570	0.39725828
9	0x3e5d1ddc	0.21593422
10	0x3f0b97dc	0.54528594
11	0xbe828606	-0.25492877
12	0x3e0ff4ac	0.14058179
13	0xbcfb2087	-0.030655159
14	0xbe9ca7ed	-0.30596867
15	0xbe77a727	-0.24184857
16	0xbe4e322e	-0.2013633
17	0x3cf32a67	0.029683305
18	0xbd172731	-0.03690261
19	0xbe24ae6f	-0.16082166
20	0x3e8fa8cb	0.28058466
21	0x3f08878e	0.5333184
22	0x3c12bb00	0.008955717
23	0x3e4a3290	0.1974585
24	0x3f2c5457	0.6731619
25	0x3f0c9557	0.54915375
26	0x3ce268b7	0.027637823
27	0xbca6af15	-0.020347157
28	0x3edfaf72	0.43688542
29	0xbeceb7ae	-0.4037451
30	0xbe55a78d	-0.20864697
31	0x3dc4e0a4	0.09613159
32	0xbc797cd2	-0.015227513
33	0xbd3a198b	-0.045434516
34	0x3eab79c0	0.33491325
35	0xbe67030c	-0.22559756
36	0xbe4a4cbf	-0.19755839
37	0xbf26a680	-0.6509781
38	0x3e33c013	0.17553739
39	0xbed33f0f	-0.41259047
40	0x3f2f5497	0.6848845
41	0x3e951a02	0.29121405
42	0x3e91d427	0.28482172
43	0x3e43661a	0.19081917
44	0x3e6459c4	0.22299868
45	0xbbc179c0	-0.0059044063
46	0x3e0b642a	0.13612428
47	0x3c899498	0.016794488
48	0xbeae07e2	-0.3399039
49	0x3d4f335e	0.050586097
50	0xbe9cbba9	-0.30611923
51	0x3f08880d	0.53332597
52	0x3ed06d36	0.4070832
53	0x3e747590	0.23872972
54	0x3e500450	0.20314145
55	0x3f144aef	0.5792684
56	0x3eab9cd2	0.33518082
57	0xbe56be2a	-0.2097098
58	0xbebe2ac0	-0.3714199
59	0x3e80a93b	0.25129113
60	0x3e65c774	0.22439367
61	0x3f27d3ab	0.65557355
62	0xbeade3c1	-0.33962825
63	0x3e6983f6	0.22804245

dense2.weight f4 [64, 64]
0	0x3e0cb913	0.13742475
1	0xbe7a4632	-0.2444084
2	0xbdd01e98	-0.10162085
3	0x3e07df2f	0.13268732
4	0xbd0bd06c	-0.034134313
5	0x3de86b91	0.11348642
6	0xbcff1b88	-0.031141058
7	0xbe2710df	-0.1631503
8	0x3e264742	0.1623812
9	0x3d84916e	0.06473051
10	0x3d9baf35	0.076017775
11	0x3e514694	0.2043708
12	0xbda750d2	-0.08169712
13	0xbead38f1	-0.33832505
14	0x3e4a61ec	0.19763917
15	0xbe3e2575	-0.18568976
16	0xbe7a2722	-0.2442899
17	0xbd486ec7	-0.04893377
18	0x3e210844	0.1572581
19	0xbec03fd8	-0.3754871
20	0xbc154c46	-0.009112423
21	0x3db68092	0.089112416
22	0x3dcf8daa	0.10134442
23	0xbe418c9b	-0.18901293
24	0x3e05f539	0.13081826
25	0xbd13e7a8	-0.036109596
26	0xbe15cd68	-0.14629138
27	0xbe83ce04	-0.25743115
28	0x3dfacffe	0.122467026
29	0x3e75f7ae	0.24020264
30	0x3db0f936	0.08641283
31	0xbec0543c	-0.37564266
32	0xbde519d8	-0.1118657
33	0xbd83388b	-0.06407269
34	0x3da4beaf	0.080441825
35	0xbe85a370	-0.26101255
36	0xbd95938c	-0.07303533
37	0xbd909762	-0.07060124
38	0xbdecaf99	-0.1155693
39	0xbd99cb30	-0.07509458
40	0x3e23df14	0.16003066
41	0x3db48804	0.088150054
42	0x3e2bb2fc	0.16767496
43	0xbe7d3300	-0.24726486
44	0xbd1b52fe	-0.037920944
45	0xbd3e783c	-0.046501383
46	0x3e07bdb1	0.13255955
47	0x3d6bc56d	0.057561327
48	0x3dbcc8b4	0.092179686
49	0xbcac54c6	-0.021036517
50	0xbed0606e	-0.4069857
51	0x3d9fb260	0.07797694
52	0xbdf00e5a	-0.11721487
53	0xbec971a8	-0.39344525
54	0x3d686054	0.05673249
55	0xbd9761cf	-0.073917024
56	0xbde97548	-0.11399323
57	0xbd62f3bc	-0.055408224
58	0xbdf8db3e	-0.12151192
59	0xbeba44ae	-0.36380523
60	0x3da0d2b6	0.0785269
61	0xbd83339f	-0.0640633
62	0x3de4b69a	0.11167641
63	0xbe0bcd2c	-0.13652486
64	0x3c9c96a7	0.019114805
65	0xbd9cedfc	-0.076625794
66	0x3da94400	0.08264923
67	0x3c3e77a9	0.011625209
68	0xbdec00ce	-0.11523591
69	0x3d7b914d	0.061417866
70	0x3df4d4a0	0.119546175
71	0x3ae8f480	0.0017773062
72	0xbdaea9b1	-0.0852846
73	0x3d51a100	0.051178932
74	0x3d0f1442	0.03493143
75	0xbe1e07ba	-0.15432635
76	0xbd31e6e8	-0.0434331
77	0xbd6e6a53	-0.058206867
78	0x3c612d5f	0.0137437275
79	0xbd8a33da	-0.06748171
80	0xbd4c3552	-0.049855538
81	0xbe1367eb	-0.1439511
82	0xbcb68efa	-0.022284973
83	0xbd0ad4c5	-0.03389432
84	0xbd693cd2	-0.05694277
85	0x3c59c018	0.013290428
86	0x3bc71f40	0.0060767233
87	0xbdaa9e10	-0.08330929
88	0xbc09ce01	-0.008410932
89	0xbe0c6123	-0.1370893
90	0x3dccc19b	0.09997865
91	0xbe155822	-0.14584401
92	0x3d75959c	0.05995713
93	0xbe2cef0c	-0.16888064
94	0xbdba6506	-0.091013
95	0x3d6f6e78	0.05845496
96	0xbcbdc48a	-0.023165006
97	0xbc5e10fc	-0.013553854
98	0xbdd46f32	-0.10372771
99	0xbc8d7bc0	-0.017270923
100	0x3c248440	0.0100412965
101	0xbda5264d	-0.08063946
102	0xbcbfdd9a	-0.023421098
103	0x3df7e2ea	0.12103827
104	0xbde11c7d	-0.10991762
105	0xbd37bc64	-0.044857398
106	0x3d98eff4	0.074676424
107	0x3ce179cc	0.027523898
108	0x3dc5955c	0.09647629
109	0xbd14b59c	-0.03630601
110	0x3dfff74a	0.124983385
111	0x3c35de98	0.011100434
112	0xbdad6fda	-0.084685996
113	0x3d4e9118	0.05043134
114	0xbe00917e	-0.12555501
115	0xbe2ed73d	-0.17074294
116	0x3ded67b0	0.115920424
117	0xbe292704	-0.1651879
118	0xbcc50758	-0.024051353
119	0xbe12f720	-0.14352083
120	0x3ceb2108	0.028702274
121	0xbdc5a720	-0.09651017
122	0xbd8a4860	-0.06752086
123	0xbd3a7108	-0.04551795
124	0xbc0ead53	-0.008708316
125	0xbdd90eeb	-0.105985485
126	0xbd05d928	-0.0326778
127	0xbd189e42	-0.0372603
128	0xbc3422cb	-0.010994623
129	0xbd582df3	-0.052778196
130	0x3d902702	0.0703869
131	0x3c2eac00	0.010661125
132	0xbd384e64	-0.044996634
133	0xbdbdc888	-0.09266764
134	0x3b9179e0	0.0044395775
135	0xbcf15c84	-0.02946306
136	0xbddc7ae6	-0.107656285
137	0xbde20772	-0.11036576
138	0x39e09a00	0.00042839348
139	0xbd24fedc	-0.040282115
140	0x3c2b2d30	0.010447785
141	0x3c87898d	0.016545082
142	0xbc24a0a0	-0.010048062
143	0xbda3ce30	-0.079983115
144	0xbc47e24d	-0.01219995
145	0xbd0905ce	-0.0334528
146	0x3d3ee630	0.046606243
147	0x3d7afdc0	0.06127715
148	0x3b670079	0.0035248084
149	0xbe2ef29c	-0.17084736
150	0xbd8deaf0	-0.069295764
151	0x3dd8435a	0.10559721
152	0x3d8f9517	0.070108585
153	0x3d1fdf69	0.03903142
154	0x3c8d4f09	0.017249601
155	0xbdfb85b4	-0.12281361
156	0xbe1baa4c	-0.15201682
157	0xbd6782f4	-0.05652137
158	0x3c21a680	0.009866357
159	0xbe19cebc	-0.15020269
160	0xbd970a6b	-0.07375034
161	0xbc17a64f	-0.00925596
162	0xbd85e04b	-0.06536921
163	0x3d9f8021	0.077881105
164	0x3c8ad0b8	0.016945228
165	0x3d84aa3d	0.06477783
166	0xbd5588df	-0.052132484
167	0x3d032a00	0.032022476
168	0x3bb3a919	0.0054828045
169	0xbde6c146	-0.11267333
170	0x3dd525fc	0.104076356
171	0xbe089003	-0.13336186
172	0x3da28a6f	0.0793656
173	0xbcbf5990	-0.023358136
174	0x3dc03558	0.093851745
175	0xbdf4ac49	-0.11946923
176	0xbd206794	-0.03916128
177	0xbdb57ba1	-0.08861471
178	0xbdc805df	-0.09766745
179	0x3c898fb8	0.016792163
180	0x3d978ed6	0.07400291
181	0x3c7b6b9b	0.015345479
182	0x3dc43ec0	0.09582281
183	0xbe186e84	-0.14885908
184	0x3cb597f0	0.022167176
185	0x3dbd311e	0.09237884
186	0xbd08e734	-0.033423617
187	0xbddea3a2	-0.10871054
188	0xbc77088f	-0.015077724
189	0xbd9077a1	-0.070540674
190	0xbdb44a2c	-0.0880321
191	0xbd5cf5d7	-0.05394539
192	0xbb2ce0a7	-0.002637902
193	0xbdef82dc	-0.11694881
194	0x3dbb5eaa	0.09148915
195	0xbd83836c	-0.06421551
196	0x3d91d332	0.071203604
197	0x3dac8eb4	0.08425656
198	0x3c536bb0	0.012904093
199	0xbd95229f	-0.07281994
200	0x3dd83349	0.10556657
201	0x3df2009e	0.11816524
202	0xbac701fd	-0.0015183088
203	0x3c9c5ca7	0.019087149
204	0x3df20f90	0.118193746
205	0xbdebd5a8	-0.11515361
206	0x3d088a4f	0.033335026
207	0x3d31f995	0.04345091
208	0x3d5c0048	0.053711206
209	0xbdd0bd7c	-0.10192391
210	0xbd6857a9	-0.056724224
211	0xbe093a25	-0.13401087
212	0xbdbbbf57	-0.091673546
213	0xbc9aa162	-0.018875781
214	0x3dd92ce2	0.10604264
215	0x3d3ec3e8	0.04657355
216	0xbd7f4791	-0.06232411
217	0xbd6c137e	-0.057635777
218	0xbdd7507a	-0.105133966
219	0xbd81cc27	-0.06337767
220	0xbd912365	-0.07086829
221	0xbdd92870	-0.10603416
222	0xbd84397c	-0.06456277
223	0xbd5d5ddc	-0.05404459
224	0x3cb52c3a	0.022115815
225	0x3d87265c	0.06599113
226	0xbdb74768	-0.089491665
227	0xbdfeba76	-0.12437908
228	0xba178400	-0.00057798624
229	0xbdf1491f	-0.11781525
230	0xbd572ee2	-0.052534945
231	0xbcf26180	-0.029587507
232	0xbdae73d2	-0.08518185
233	0xbd2e5850	-0.04256469
234	0x3d603e27	0.054746773
235	0xbde50690	-0.11182892
236	0xbd58afa4	-0.05290188
237	0x3d8198b6	0.063279554
238	0xbd15ca9f	-0.036570188
239	0xbe053b3f	-0.13010882
240	0x3c4d9a40	0.012548983
241	0x3dc38b2b	0.095480286
242	0xbd503f74	-0.050841764
243	0x3de68b4f	0.1125704
244	0xbc9ced40	-0.019156098
245	0xbadf9e85	-0.0017060792
246	0x3d15b514	0.036549643
247	0xbcdbf0f0	-0.026848286
248	0x3dda418c	0.10657033
249	0xbd83bbbe	-0.06432293
250	0xbbb18bc0	-0.005418271
251	0x3cf72e51	0.030173453
252	0x3c9d66ca	0.019214053
253	0xbcd4fc57	-0.025999231
254	0xbdefc06c	-0.117066234
255	0x3c4a5e25	0.012351547

dense2.bias f4 [64]
0	0xbda3a1c1	-0.079898365
1	0x3d6f54e9	0.058430586
2	0xbda93b18	-0.08263224
3	0xbc2bf03c	-0.010494288
4	0xbc8ce58f	-0.017199306
5	0xbdeadc80	-0.11467838
6	0x3ea50162	0.32227618
7	0x3d6255ca	0.055257596
8	0x3cd6da9f	0.026227294
9	0x3d1a2014	0.03762825
10	0x3e67e8d8	0.22647417
11	0x3d4f189e	0.050560586
12	0xbd075356	-0.03303846
13	0x3d463e38	0.04839918
14	0x3c15ef55	0.0091512995
15	0x3dada128	0.08478004
16	0x3dcd5aef	0.1002711
17	0xbdd30008	-0.1030274
18	0x3d2de678	0.04245612
19	0xbe0ce323	-0.13758521
20	0xbdb66a82	-0.089070335
21	0xbca9dec5	-0.020736108
22	0x3b2fe1f7	0.0026837566
23	0x3ed4c226	0.41554374
24	0x3cd423ea	0.025896031
25	0xbc6052ac	-0.0136915855
26	0x3ec9a814	0.39386046
27	0xbc930b9d	-0.017949874
28	0x3c6bf777	0.014402262
29	0x3ce9a976	0.028523188
30	0xbc47cf0e	-0.012195362
31	0xbe47c98f	-0.19510482
32	0xbe0d25a0	-0.13783884
33	0xbe25c039	-0.16186608
34	0x3d34c70c	0.04413514
35	0xbdbe8a2b	-0.09303697
36	0xbe533378	-0.20625103
37	0x3f002ffd	0.50073224
38	0xbd677fda	-0.056518413
39	0x3e431027	0.1904913
40	0xbe055450	-0.13020444
41	0x3ec272dc	0.37978256
42	0xbdf11904	-0.117723495
43	0x3e35bce7	0.17747842
44	0xbd6e5961	-0.058190707
45	0x3d061b9c	0.032741174
46	0x3d9fd3f6	0.078041
47	0x3df957ff	0.12174987
48	0xbe14a5e8	-0.14516413
49	0xbd294349	-0.041323934
50	0x3ed772d8	0.42079806
51	0xbe1ef9e9	-0.1552502
52	0x3d3dfa77	0.04638144
53	0xbd714fa6	-0.05891385
54	0xbe32f554	-0.17476398
55	0x3d170fbc	0.03688024
56	0xbdf35909	-0.118822165
57	0xbe22e318	-0.15906942
58	0x3d29f410	0.04149252
59	0x3cc339b0	0.023831218
60	0x3ca067bb	0.019580713
61	0xbdb0ea9f	-0.086385004
62	0x3ecf8f2a	0.40538913
63	0x3ac485d2	0.0014993495

dense3.weight f4 [4, 64]
0	0xbd947916	-0.07249658
1	0xbd9e8c90	-0.07741654
2	0x3d98129f	0.07425427
3	0x3d81f9a3	0.063464426
4	0x3cdd41c7	0.027008904
5	0x3d40dcbe	0.047085516
6	0xbded8a79	-0.11598677
7	0xbdf7075a	-0.12061949
8	0xbe873127	-0.26404688
9	0xbcd790e6	-0.02631421
10	0xbdff18c0	-0.124558926
11	0x3d7e32f9	0.06206033
12	0x3d45e139	0.048310492
13	0xbd7ed276	-0.06221243
14	0xbe0d9211	-0.13825251
15	0xbd2f1a4e	-0.042749695
16	0xbd91fff3	-0.071288966
17	0x3d60c27c	0.054872975
18	0xbdb39959	-0.08769483
19	0xbe06e8e6	-0.13174781
20	0xbd838c6b	-0.06423267
21	0xbd5f3fcc	-0.0545042
22	0xbc2218d3	-0.009893614
23	0xbbf8b408	-0.007589821
24	0x3dbbd0d0	0.09170687
25	0x3d33f9bb	0.043939333
26	0x3ea08ce4	0.3135749
27	0x3d67c48a	0.05658392
28	0x3dad3522	0.084574
29	0x3db9be33	0.09069481
30	0x3cd44cab	0.025915464
31	0x3c6038f7	0.0136854565
32	0xbd40b5cf	-0.047048386
33	0x3bc06bdc	0.005872233
34	0x3d80acfc	0.06282994
35	0xbd7bc63f	-0.06146836
36	0x3c5af459	0.013363921
37	0xbe43dbc0	-0.19126797
38	0x3df53238	0.11972469
39	0xbe5ef43e	-0.21772859
40	0x3d67fe14	0.056638792
41	0xbe9ad245	-0.30238548
42	0x3d8a66b1	0.06757868
43	0xbdbdf3ec	-0.0927504
44	0x3d999e68	0.07500917
45	0xbdf754ca	-0.12076719
46	0x3dd1bd98	0.1024124
47	0xbd646f4e	-0.05577021
48	0xbd3cf448	-0.046131402
49	0xbc75d9aa	-0.015005508
50	0xbe16689d	-0.14688344
51	0x3ccd144b	0.02503409
52	0x3d24d2be	0.040240042
53	0xbdbb283e	-0.09138535
54	0x3e598b20	0.21244478
55	0xbd5c4f8b	-0.053786796
56	0xbcbd240d	-0.02308848
57	0x3da5e55d	0.08100388
58	0xbd1dd284	-0.03853084
59	0xbdb41c2e	-0.08794437
60	0x3cfe67d6	0.031055372
61	0xbe76f353	-0.24116258
62	0xbe03bb70	-0.1286447
63	0x3d92d4a1	0.07169462
64	0xbe184496	-0.14869913
65	0xbdfd71c6	-0.12375216
66	0xbddc861f	-0.10767769
67	0x3d8a7a68	0.067616284
68	0xbda5eb67	-0.0810154
69	0xbd3b620e	-0.04574781
70	0xbdbbdd1b	-0.09173032
71	0xbcb8cb48	-0.02255787
72	0xbebc44e9	-0.36771324
73	0xbd90e3e6	-0.07074718
74	0xbe79ca4f	-0.24393581
75	0x3d0e5921	0.03475297
76	0x3ce8169e	0.028331097
77	0xbd17148d	-0.036884833
78	0xbdfb7ba9	-0.12279446
79	0xbd4c2679	-0.049841378
80	0xbe062668	-0.13100588
81	0xbd9c5fea	-0.07635482
82	0xbd14bc65	-0.03631248
83	0xbde29d50	-0.11065161
84	0xbcf085e1	-0.029360713
85	0x3d12946a	0.03578607
86	0xbd36dd0c	-0.0446444
87	0xbe2465b5	-0.16054423
88	0xbd5a4cec	-0.053296015
89	0xbd776282	-0.06039668
90	0x3e9f477f	0.31109235
91	0xbb6a1ac0	-0.003572151
92	0xbdc001e4	-0.093753606
93	0x3d893c3c	0.06700942
94	0x3d077385	0.033069152
95	0xbd7c53f5	-0.061603505
96	0xbdaa1fc9	-0.08306844
97	0xbdf8e0e5	-0.1215227
98	0x3dbd1998	0.09233397
99	0xbe3b7207	-0.18305217
100	0xbdfb0de1	-0.122585066
101	0xbe2b646f	-0.16737531
102	0x3eb02dd0	0.34409952
103	0xbe563509	-0.20918669
104	0xbd2d07e4	-0.042243853
105	0xbe7cbc26	-0.24681148
106	0x3d1be578	0.038060635
107	0xbe7182a6	-0.23584995
108	0xbd814baa	-0.0631326
109	0x3d4944e0	0.04913795
110	0xbcfd4164	-0.03091497
111	0xbe7baf3e	-0.24578568
112	0xbd54847c	-0.05188416
113	0xbdc91ef9	-0.09820361
114	0xbe755795	-0.23959191
115	0x3c4022d0	0.01172705
116	0x3de51021	0.11184717
117	0x3d9f0fe8	0.07766706
118	0x3d81264c	0.06306133
119	0xbdb1a2f0	-0.08673656
120	0xbdaa50e8	-0.08316213
121	0x3d046eea	0.03233234
122	0x3d844f41	0.06460429
123	0xbdcca0a8	-0.0999158
124	0x3dada113	0.08477988
125	0xbe78ab05	-0.24283989
126	0xbe98531c	-0.29750907
127	0xbde2637e	-0.11054133
128	0x3db17547	0.08664947
129	0x3d750fec	0.059829637
130	0x3d483136	0.048875056
131	0x3d910e29	0.07082779
132	0x3db69d9b	0.089167796
133	0x3d1fb417	0.038990106
134	0xbdc2a1ce	-0.09503518
135	0x3b3d8bc0	0.0028922409
136	0xbe056bf1	-0.13029458
137	0xbd8799b3	-0.06621113
138	0xbe44fc1f	-0.19236802
139	0xbb38232b	-0.0028097134
140	0x3b6df3c0	0.0036308616
141	0x3be1fdce	0.006896711
142	0xbdac1b77	-0.08403676
143	0x3c4eb14d	0.012615514
144	0xbca0a653	-0.01961056
145	0xbdada0b2	-0.08477916
146	0xbdd14bae	-0.10219513
147	0x3cbd709f	0.023124991
148	0xbd75da06	-0.060022376
149	0x3d880176	0.06640904
150	0x3cb7d2ba	0.02243935
151	0x3e2f5805	0.1712342
152	0x3dab0a43	0.08351567
153	0xbdfe35c8	-0.12412602
154	0x3ea175b9	0.31535128
155	0xbc9694e8	-0.01838155
156	0x3c981860	0.01856631
157	0xbce8bc8b	-0.028410217
158	0xbdf5946c	-0.119912
159	0xbd363107	-0.04448035
160	0xbd935cfe	-0.07195471
161	0x3dd4c01b	0.10388204
162	0xbd3d08de	-0.046151035
163	0xbe11e2d9	-0.14246692
164	0x3e08ce06	0.13359842
165	0xbe25516d	-0.16144343
166	0x3d81f46f	0.0634545
167	0xbe58fe33	-0.2119072
168	0x3cfab040	0.03060162
169	0xbd4cf74c	-0.05004053
170	0x3dfefa8a	0.1245013
171	0xbe00c25b	-0.1257414
172	0xbb6748be	-0.003529116
173	0xbd96de00	-0.07366562
174	0x3cd27b16	0.025693458
175	0xbe4087c5	-0.18801792
176	0x3d1d63fc	0.03842543
177	0xbd82c3d7	-0.0638501
178	0xbe11d1d8	-0.14240205
179	0x3daf4a68	0.08559114
180	0x3ba8b31a	0.0051483037
181	0x3dd3f21c	0.10348913
182	0x3df75794	0.12077251
183	0x3d96c784	0.07362273
184	0x3d5e679f	0.05429804
185	0xbcaf1e9a	-0.021376897
186	0xbd509c46	-0.050930284
187	0xbdc877d6	-0.09788482
188	0xbc2d0287	-0.010559685
189	0xbe623844	-0.22091776
190	0xbe0a7692	-0.13521793
191	0xbc34b53e	-0.01102954
192	0x3e54c69f	0.20778893
193	0xbd63f4ad	-0.055653263
194	0xbe1c2b35	-0.15250857
195	0x3c71d80b	0.014760981
196	0x3cfcaff4	0.03084562
197	0xbc836704	-0.016040333
198	0xbdcf2eeb	-0.10116371
199	0x3d92f445	0.07175497
200	0xb85be35a	-5.2425406e-05
201	0xbdab9b80	-0.08379269
202	0xbe262392	-0.16224506
203	0xbd16eb45	-0.036845464
204	0x3c89b2e8	0.016808942
205	0x3cbb137d	0.022836441
206	0xbd958e3d	-0.073025204
207	0x3c91ef3b	0.01781427
208	0xbdf5bc31	-0.11998785
209	0x3c27b2f0	0.010235533
210	0xbdad2379	-0.084540315
211	0x3e060fe9	0.13092007
212	0xbc47f920	-0.012205392
213	0x3d594673	0.0530457
214	0x3d409e31	0.047025863
215	0xbdda486d	-0.10658345
216	0x3d2bd0e0	0.041947246
217	0x3cbd71f2	0.023125622
218	0x3e6088c5	0.21927173
219	0x3d09bd9c	0.03362809
220	0x3cb35508	0.021891132
221	0x3d5a3785	0.053275604
222	0xbc8c6e6b	-0.017142495
223	0x3dc0aaac	0.09407553
224	0xbce19991	-0.027539046
225	0xbca77203	-0.020440107
226	0xbd0947bd	-0.03351568
227	0xbc80a9e7	-0.015706016
228	0x3e657d51	0.22411086
229	0xbe6af68f	-0.22945617
230	0xbe916628	-0.28398252
231	0xbe657a66	-0.22409973
232	0xbda6a3ee	-0.08136736
233	0xbe5a7311	-0.21332957
234	0x3dbe74fe	0.09299658
235	0xbe81f51a	-0.2538231
236	0x3c35ccd4	0.011096198
237	0xbc9bdefc	-0.019027226
238	0x3ab4919c	0.0013776305
239	0xbe9860d4	-0.29761374
240	0xbc0a7a70	-0.008452043
241	0x3d26059c	0.040532693
242	0xbe67b41a	-0.22627297
243	0xbc2e89a3	-0.010652932
244	0x3d8a53a0	0.067542315
245	0x3d115f90	0.035491526
246	0x3d4ea654	0.05045159
247	0x3d680cb3	0.056652736
248	0x3d83cda9	0.06435711
249	0x3ce0fcea	0.027464349
250	0xbdc1bee9	-0.09460241
251	0xbc7be000	-0.01537323
252	0x3d95191e	0.07280181
253	0xbe22f035	-0.15911944
254	0xbe21b84d	-0.15792961
255	0xb9f3b135	-0.000464806

dense3.bias f4 [4]
0	0x3f31df47	0.6948132
1	0x3f14db8a	0.5814749
2	0x3f24a63e	0.64316165
3	0xbdf37d76	-0.11889164
