Reinforcment_Learning_DQN/agent_output/weights/episode_178_weights.pt (torch, 21495 bytes, 6 tensors)

dense1.weight f4 [64, 5]
-0.06514975 -0.20946483 0.21298303 -2.682599 -2.729966 0.18912947 0.016670946 -0.46621796
0.502979 -0.20325091 0.39552858 -0.4341052 -0.4179905 0.21877135 0.096649356 -0.21538837
0.40591806 -0.1996157 1.2211636 -0.3042217 -0.24894562 0.07859802 -0.2790072 -0.25302148
0.41807365 0.33505696 -0.38451275 -0.27654088 0.052020896 0.8682749 -0.2253704 0.63456404
-0.085362926 -0.9428202 -1.8634272 -0.24308567 0.11284238 -0.30942625 0.018941075 -0.01117596
-0.03731984 -0.13660195 -0.23960707 0.085775256 0.3837394 0.4495005 -0.4826826 -0.44728312
0.34874824 -0.31590575 -0.3040256 -0.3465185 0.34397104 -1.1377658 -1.6601092 0.21929778
-0.4767001 0.16411036 0.48221317 0.7767482 -0.084844485 0.10347509 -0.26961523 0.9579908
0.13894062 0.12982309 -0.34519017 -0.25634617 -0.3856709 -0.3100477 0.36123648 -0.48018613
-0.031005103 0.09978638 -0.8951483 -0.2132984 0.07953565 0.09275944 -2.0015047 -3.270549
-0.16933538 -0.24818069 0.21708027 -0.97775346 -1.4869328 0.39874676 -0.39362043 -0.47748977
0.06530346 0.0030420758 0.34245527 0.3310233 -0.041666534 0.27097103 2.129825 0.26266712
-0.38131243 0.17369717 -2.3577833 -2.1468167 -0.14694038 -0.42034695 -0.22037071 0.21020007
-0.05344984 0.24053827 0.044000953 -0.4380382 -0.0945594 0.813799 -0.3718379 0.28534323
0.17992143 2.59242 2.799416 -0.05505959 -0.31371537 0.3034322 -2.8783934 -2.404982
-0.6899338 -0.03433698 0.18785271 2.0611656 1.6188265 -0.3640235 -0.41041481 -0.054895103
0.03340748 0.40988022 0.37032577 -0.45923272 -0.3386255 0.83515555 0.4491005 -0.43128663
-0.44697422 -0.076223165 -0.29065385 -0.37622395 0.21481468 -0.45746154 0.25206983 -2.1570094
-2.9810824 0.29992905 -0.26105246 -0.36882997 0.23360649 -0.15280505 -0.3769735 0.13458383
-0.14627308 0.30833876 0.38640767 -0.17469648 0.12743288 0.04543553 -2.4633527 -2.7929363
-0.4183154 -0.2817872 0.042927455 0.20297861 -0.038559556 0.26543033 -0.32060528 -0.21333735
0.7672458 -0.43132183 -0.41531622 -0.13701656 -0.19761074 -0.04972577 -0.4076615 -0.4058896
0.23544778 -0.033459697 0.71906716 1.1954854 -0.22930264 -0.3161273 0.046544373 0.2609197
-0.4320491 -0.15994285 -0.44499746 0.30498627 -1.088209 -1.5969387 0.38829938 -0.532849
-0.21015118 1.0136491 -0.47989526 -0.21156621 0.21988197 0.016224353 -2.2103772 -2.024547
-0.19818436 0.1887167 0.030625975 -2.7631912 -3.7088947 -0.031249765 0.0802443 0.06685692
-2.0116134 -4.0416627 0.23226418 0.33646584 -0.19356357 -1.7855061 -2.1688378 0.32939157
0.4409655 0.012516828 -0.5610392 0.054960504 -0.30672663 -0.013486796 0.31183603 1.8772538
1.6706455 0.24816619 -0.49606058 0.2619042 -2.0419462 -2.8274953 0.32747573 -0.36650255
0.024107367 -2.077454 -3.0949812 0.34915555 0.25529885 -0.3669844 -0.56658 1.435207
-0.5797694 -0.12105828 0.200345 0.41953456 0.7186282 -0.17622249 -0.03536665 0.14111479
-2.7493975 -3.3377633 -0.46598476 -0.2876671 0.15680364 -0.07213314 -0.27139863 0.20163307
00000000: 3b6d 85bd f37d 56be 3918 5a3e b4af 2bc0
00000010: c3b7 2ec0 28ab 413e 8291 883c 1fb4 eebe
00000020: 3bc3 003f 0221 50be b982 ca3e 0943 debe
00000030: da02 d6be 9905 603e 19f0 c53d c58e 5cbe
00000040: 7ed4 cf3e 0f68 4cbe 174f 9c3f f2c2 9bbe
00000050: 9aeb 7ebe 00f8 a03d 08da 8ebe 088c 81be
00000060: c00d d63e 968c ab3e dbde c4be c496 8dbe
00000070: dd13 553d 4447 5e3f 80c7 66be ca72 223f
00000080: c2d2 aebd aa5c 71bf c884 eebf 73eb 78be
00000090: e819 e73d 1e6d 9ebe 502a 9b3c 601b 37bc
000000a0: b0dc 18bd 62e1 0bbe 8e5b 75be f0aa af3d
000000b0: 7e79 c43e ee24 e63e 2c22 f7be 4b02 e5be
000000c0: 218f b23e 66be a1be 3ea9 9bbe df6a b1be
000000d0: f91c b03e 4fa2 91bf 757e d4bf 998f 603e
000000e0: 0912 f4be 8c0c 283e a5e4 f63e f8d8 463f
000000f0: f2c2 adbd bfea d33d 020b 8abe e33e 753f
00000100: 7346 0e3e 58f0 043e c4bc b0be ce3f 83be
00000110: a876 c5be 92be 9ebe fdf3 b83e f5da f5be
00000120: 6afe fdbc cd5c cc3d 7028 65bf e56a 5abe
00000130: 96e3 a23d a9f8 bd3d a718 00c0 ad50 51c0
00000140: 4166 2dbe 1423 7ebe 4a4a 5e3e 0d4e 7abf
00000150: d053 bebf 8928 cc3e 9e88 c9be 8a79 f4be
00000160: d2bd 853d 905d 473b 4c56 af3e e37b a93e
00000170: 87aa 2abd b7bc 8a3e 0e4f 0840 4e7c 863e
00000180: 623b c3be acdd 313e ece5 16c0 7265 09c0
00000190: 8a77 16be b737 d7be dca8 61be b03e 573e
000001a0: 38ee 5abd aa4f 763e 583a 343d 8b46 e0be
000001b0: 5ca8 c1bd 2255 503f 8a61 bebe 8218 923e
000001c0: 533d 383e 36ea 2540 a229 3340 2a86 61bd
000001d0: 4d9f a0be 775b 9b3e 9937 38c0 3aeb 19c0
000001e0: 809f 30bf efa4 0cbd 765c 403e 23ea 0340
000001f0: b535 cf3f 4a61 babe e421 d2be b0d9 60bd
00000200: 48d6 083d d2db d13e 579b bd3e 8d20 ebbe
00000210: 5260 adbe c1cc 553f 80f0 e53e 9ad1 dcbe
00000220: ced9 e4be e41a 9cbd 95d0 94be 6da0 c0be
00000230: 61f8 5b3e 6638 eabe 4c0f 813e 710c 0ac0
00000240: 0eca 3ec0 4d90 993e aba8 85be 48d7 bcbe
00000250: 8a36 6f3e ed78 1cbe ac02 c1be 58d0 093e
00000260: 9cc8 15be 94de 9d3e 3ad7 c53e a2e3 32be
00000270: c47d 023e 9b1a 3a3d 92a7 1dc0 78bf 32c0
00000280: 702d d6be 6946 90be b3d4 2f3d a0d9 4f3e
00000290: a0f0 1dbd 7ce6 873e 6026 a4be 1b75 5abe
000002a0: 396a 443f 37d6 dcbe 54a4 d4be 124e 0cbe
000002b0: 785a 4abe 40ad 4bbd 02b9 d0be c3d0 cfbe
000002c0: 3919 713e 090d 09bd c914 383f aa05 993f
000002d0: 50ce 6abe 70db a1be 50a5 3e3d 4497 853e
000002e0: 8a35 ddbe 0fc8 23be b5d6 e3be 2927 9c3e
000002f0: 6f4a 8bbf 7d68 ccbf 2dcf c63e cb68 08bf
00000300: df31 57be 41bf 813f d5b4 f5be d0a4 58be
00000310: bd28 613e efe8 843c d276 0dc0 2e92 01c0
00000320: d7f0 4abe f33e 413e 53e3 fa3c 20d8 30c0
00000330: 885e 6dc0 82ff ffbc 2057 a43d 48ec 883d
00000340: 46be 00c0 4d55 81c0 a9d6 6d3e 4045 ac3e
00000350: 8735 46be 778b e4bf 3dce 0ac0 03a6 a83e
00000360: 3bc6 e13e 6213 4d3c 44a0 0fbf 441e 613d
00000370: 460b 9dbe b9f7 5cbc f9a8 9f3e da49 f03f
00000380: b6d7 d53f 471f 7e3e a7fb fdbe 4f18 863e
00000390: 3faf 02c0 aff5 34c0 e6aa a73e 39a6 bbbe
000003a0: d07c c53c 02f5 04c0 2c14 46c0 84c4 b23e
000003b0: 88b6 823e 61e5 bbbe 630b 11bf ddb4 b73f
000003c0: c46b 14bf 67ed f7bd 3d27 4d3e 3ccd d63e
000003d0: 05f8 373f ab73 34be 9fdc 10bd 6580 103e
000003e0: 21f6 2fc0 ea9d 55c0 8e95 eebe 1a49 93be
000003f0: 2291 203e 8aba 93bd c3f4 8abe e678 4e3e

dense1.bias f4 [64]
0.10948492 -0.2804036 -0.39866608 0.28283957 0.12523293 -0.29293996 0.7537923 -0.29093763
0.08423066 -0.19312857 0.1930819 -0.32918742 -0.21309641 0.41421366 -0.06825391 0.8633451
0.2594386 0.25752768 -0.08651816 0.30481184 -0.36193094 -0.014956241 -0.31960127 0.59901047
-0.6490036 0.29935598 -0.15784547 0.24864459 0.77540314 -0.36244678 0.04604426 0.6932142
-0.010991357 -0.14185685 -0.031143397 0.007956686 -0.15612864 -0.07664145 0.17544995 -0.079362586
0.08446275 0.6256777 0.56478614 0.37197912 -0.41402504 0.27755383 0.640164 -0.002389034
0.18024571 0.6132848 0.34182593 0.64408565 0.27776182 0.6872286 0.045514118 0.30573484
0.9670498 -0.24173298 0.67277753 0.30428803 -0.3409871 -0.30387002 -0.2449454 0.42726758
00000000: a139 e03d 1091 8fbe f61d ccbe 59d0 903e
00000010: 103d 003e 3afc 95be 88f8 403f c7f5 94be
00000020: 2081 ac3d 7fc3 45be 43b7 453e 418b a8be
00000030: f235 5abe d013 d43e b5c8 8bbd 2f04 5d3f
00000040: 23d5 843e abda 833e 6f30 b1bd 4c10 9c3e
00000050: 034f b9be 050b 75bc c7a2 a3be c058 193f
00000060: 1a25 26bf 3045 993e 3ea2 21be b09c 7e3e
00000070: d280 463f a092 b9be e898 3c3d 7c76 313f
00000080: 1815 34bc ec42 11be 7020 ffbc c35c 023c
00000090: 30e0 1fbe 31f6 9cbd 27a9 333e da88 a2bd
000000a0: cefa ac3d 6a2c 203f d395 103f 0c74 be3e
000000b0: 17fb d3be 891b 8e3e cae1 233f 5791 1cbb
000000c0: 5592 383e 3c00 1d3f cf03 af3e cce2 243f
000000d0: cc36 8e3e 37ee 2f3f 036d 3a3d 4789 9c3e
000000e0: 9390 773f da88 77be 263b 2c3f a4cb 9b3e
000000f0: dc95 aebe da94 9bbe f8d2 7abe d1c2 da3e

dense2.weight f4 [64, 64]
-0.10802852 -0.06268776 0.005856417 -0.05118838 0.07068607 0.06503695 -0.08851568 0.107932374
0.012456834 -0.0511299 -0.066562116 -0.041344367 0.053697772 -0.07943772 -0.05943905 -0.10696399
0.06398306 -0.037271734 -0.056868836 -0.0024971252 -0.11005999 0.06202441 -0.07196858 0.023710473
-0.05128485 -0.11460887 -0.11334284 0.02377382 0.058068503 -0.074532926 0.012234166 0.11127721
-0.011579558 -0.09436995 0.117210105 -0.009025381 -0.11287756 0.059812557 -0.13639271 -0.11472238
-0.0031172985 -0.11343479 0.050630935 -0.074346334 -0.086797535 0.11163132 -0.08031548 0.014129218
-0.08413883 0.04276254 -0.10524153 -0.13567662 -0.035012826 0.012055441 0.055860322 0.039209634
-0.11791488 0.088786006 -0.046140533 -0.0018341243 -0.008861668 -0.11295283 -0.04469344 0.12722659
0.011792612 -0.17490214 -0.060053237 0.27305377 -0.08260164 -0.014161115 0.36057717 -0.0128382
0.035313413 -0.06741271 -0.24973467 -0.07420358 0.21631682 0.04197912 -0.09154268 0.0045376085
-0.15612072 -0.14189133 -0.15714149 -0.10400217 -0.0020985454 -0.24090116 -0.10508064 -0.14193524
-0.002283991 0.068053395 -0.14048953 0.097556874 -0.0976713 -0.031935956 -0.07270604 0.15295523
-0.109287545 -0.12774198 0.03869851 0.2062409 -0.0066328943 -0.13812144 0.021224229 0.06460205
0.20830704 0.09500569 -0.03953407 0.064268254 -0.10374257 -0.10789511 -0.10350338 -0.44936085
-0.09016052 -0.030901933 0.033773545 -0.059849616 0.046462625 -0.025127757 -0.19823128 -0.1054663
0.110232085 0.04535736 0.22513855 -0.012174502 -0.04101242 0.02476284 -0.085838765 0.28914642
0.019930443 -0.2674381 0.020035457 -0.11790618 0.029409453 0.045035668 -0.15910757 -0.107387155
-0.12461218 -0.06257193 0.0050835893 0.039302178 0.026285034 0.011575371 0.05920394 -0.08886676
-0.19308269 0.036835108 -0.12606794 -0.054992024 0.12201591 -0.16778784 0.06092367 -0.07822285
-0.06813764 -0.10453756 -0.03242116 0.07391995 0.107992224 -0.0011905511 0.04804337 -0.05561702
0.10455662 0.04544645 -0.0419645 0.011968143 -0.055942446 -0.03915698 0.12485622 -0.16410965
-0.05519255 -0.1909603 -0.041709978 -0.124636486 -0.10713955 0.031417735 -0.0231929 -0.07087156
-0.039303333 -0.14651076 -0.0010872422 -0.065100744 0.07803024 -0.19889392 0.04410334 0.03364129
-0.118825346 0.08341074 -0.05040334 -0.10070373 -0.10759373 0.112990096 0.007018164 -0.11867443
-0.07670676 -0.059223756 0.05554972 -0.105935335 0.033511356 -0.07484422 0.053003084 -0.009199098
-0.11071916 -0.13351126 -0.072771885 -0.10710406 -0.08286909 0.07938875 -0.023192437 0.003616435
0.12466831 -0.13639644 -0.13168594 -0.023147836 0.002275899 -0.109980986 -0.11381498 -0.041790456
0.0139620025 -0.05841203 -0.09343744 -0.090995625 0.08700506 0.06521653 -0.10419612 0.08698335
0.011909008 0.015418477 -0.10803723 -0.011623971 -0.108908474 0.12223413 0.12458445 -0.017209854
-0.02434841 -0.028380938 -0.0841543 0.0077220155 -0.02903801 -0.021708481 0.01957769 0.019500125
0.04406658 -0.013691094 0.016549565 -0.06349215 0.06801325 -0.095926486 0.077497385 0.018865034
-0.08924802 -0.09333494 -0.019976325 -0.08047545 -0.06174286 -0.09483141 -0.0036075264 -0.087755345
00000000: 0f3e ddbd 7162 80bd 30e7 bf3b e8aa 51bd
00000010: dcc3 903d 1832 853d b547 b5bd a60b dd3d
00000020: c017 4c3c 966d 51bd b851 88bd b658 29bd
00000030: 32f2 5b3d 3eb0 a2bd 5c76 73bd f00f dbbd
00000040: 8d09 833d 3faa 18bd 4cef 68bd cfa6 23bb
00000050: 2267 e1bd 4f0d 7e3d 4364 93bd 773c c23c
00000060: 1010 52bd 0eb8 eabd 4a20 e8bd 50c1 c23c
00000070: 3dd9 6d3d b8a4 98bd d071 483c 4ee5 e33d
00000080: 30b8 3dbc 0845 c1bd da0b f03d 31df 13bc
00000090: 5a2c e7bd 03fe 743d 88aa 0bbe 91f3 eabd
000000a0: 974b 4cbb 8050 e8bd 6262 4f3d e442 98bd
000000b0: e8c2 b1bd f69e e43d 717c a4bd 3c7e 673c
000000c0: fb50 acbd c627 2f3d df88 d7bd d0ee 0abe
000000d0: 9c69 0fbd 2f84 453c cbcd 643d 489a 203d
000000e0: 5b7d f1bd 70d5 b53d dbfd 3cbd 0067 f0ba
000000f0: 8830 11bc d053 e7bd 7810 37bd b047 023e
00000100: cd35 413c 8c19 33be 62fa 75bd b4cd 8b3e
00000110: 0c2b a9bd 0504 68bc 929d b83e 5057 52bc
00000120: cca4 103d ad0f 8abd 72ba 7fbe 0cf8 97bd
00000130: 2882 5d3e 4cf2 2b3d bb7a bbbd 38b0 943b
00000140: 1cde 1fbe f64b 11be b3e9 20be 17ff d4bd
00000150: c087 09bb cbae 76be 8534 d7bd 7957 11be
00000160: 03af 15bb 945f 8b3d 7ddc 0fbe e6cb c73d
00000170: e407 c8bd 47cf 02bd e8e6 94bd 4ca0 1c3e
00000180: 26d2 dfbd cbce 02be 5482 1e3d d130 533e
00000190: c058 d9bb b56f 0dbe 6fde ad3c 144e 843d
000001a0: 714e 553e 5892 c23d 7aee 21bd 139f 833d
000001b0: fc76 d4bd 1df8 dcbd 95f9 d3bd a012 e6be
000001c0: 14a6 b8bd 0d26 fdbc 2156 0a3d df24 75bd
000001d0: 984f 3e3d bad8 cdbc 24fd 4abe b7fe d7bd
000001e0: 5cc1 e13d a4c8 393d b88a 663e 9077 47bc
000001f0: a4fc 27bd 70db ca3c 3ccc afbd 000b 943e
00000200: 2b45 a33c a6ed 88be 6621 a43c cc78 f1bd
00000210: 18ec f03c 5277 383d 18ed 22be cced dbbd
00000220: ac34 ffbd b625 80bd 3d94 a63b 52fb 203d
00000230: b653 d73c a0a6 3d3c d57f 723d c7ff b5bd
00000240: 78b7 45be 69e0 163d f417 01be 513f 61bd
00000250: 7ae3 f93d 93d0 2bbe 198b 793d 4d33 a0bd
00000260: bf8b 8bbd ca17 d6bd 0dcc 04bd 5863 973d
00000270: 072b dd3d 440c 9cba 20c9 443d acce 63bd
00000280: c821 d63d 0f26 3a3d f8e2 2bbd 0816 443c
00000290: e823 65bd 1263 20bd 9eb4 ff3d 5c0c 28be
000002a0: 9511 62bd 198b 43be 15d8 2abd 6a41 ffbd
000002b0: fb6b dbbd e2af 003d 09ff bdbc 1c25 91bd
000002c0: 88fc 20bd eb06 16be cb81 8eba 8a53 85bd
000002d0: 52ce 9f3d d9aa 4bbe b4a5 343d 73cb 093d
000002e0: b45a f3bd 40d3 aa3d bc73 4ebd c23d cebd
000002f0: 1a5a dcbd 5a67 e73d a0f8 e53b 940b f3bd
00000300: 6f18 9dbd 9c94 72bd 1a88 633d a0f4 d8bd
00000310: 3443 093d ed47 99bd c319 593d d0b7 16bc
00000320: bac0 e2bd 2db7 08be 6d09 95bd 6059 dbbd
00000330: 45b7 a9bd 9296 a23d 11fe bdbc b601 6d3b
00000340: 1952 ff3d 82ab 0bbe aed8 06be 88a0 bdbc
00000350: 4027 153b b63d e1bd d417 e9bd 782c 2bbd
00000360: e2c0 643c 7441 6fbd 215c bfbd ea5b babd
00000370: b52f b23d 3e90 853d c664 d5bd 5424 b23d
00000380: 001e 433c c89d 7c3c a042 ddbd 7872 3ebc
00000390: 680b dfbd e355 fa3d 2226 ff3d aefb 8cbc
000003a0: 5176 c7bc 247f e8bc 1759 acbd f608 fd3b
000003b0: 1fe1 edbc fcd5 b1bc 6461 a03c babe 9f3c
000003c0: 287f 343d 9c50 60bc f492 873c 2c08 82bd
000003d0: 884a 8b3d 1b75 c4bd f3b6 9e3d d88a 9a3c
000003e0: aac7 b6bd 6426 bfbd 64a5 a3bc 50d0 a4bd
000003f0: 15e6 7cbd f836 c2bd 406c 6cbb 13b9 b3bd

dense2.bias f4 [64]
-0.0029547436 0.1370252 -0.11925687 -0.10096043 0.07015608 0.27773392 -0.10947737 0.029149622
0.45684016 -0.037870284 0.3212266 0.048439655 -0.059176654 0.045786858 0.3951514 0.52843666
-0.06707641 0.46235383 0.4009532 0.08574976 -0.006238561 0.34315813 0.05024558 0.31095064
0.3415814 0.6641859 -0.13595653 -0.06896092 0.01252564 -0.010343648 -0.06181323 -0.05399857
-0.024133297 -0.051709738 -0.046718266 0.030450977 -0.009001906 0.43725598 -0.19024819 0.52737945
0.023814745 0.26872712 -0.0848145 -0.11589363 -0.085679576 -0.04116407 -0.0648254 -0.019906873
0.42220697 0.08356118 -0.054839313 -0.13801554 -0.103007644 -0.042822905 -0.14755628 -0.15267916
-0.12947465 0.03331109 0.06699382 -0.043756247 -0.15885788 -0.04089091 -0.14707741 -0.0036519638
00000000: 5fa4 41bb 5650 0c3e f23c f4bd 58c4 cebd
00000010: fead 8f3d 2433 8e3e ac35 e0bd 30cb ee3c
00000020: f4e6 e93e df1d 1bbd d077 a43e a968 463d
00000030: 3863 72bd 008b 3b3d 4951 ca3e a047 073f
00000040: 5b5f 89bd a4b9 ec3e bd49 cd3e 929d af3d
00000050: d86c ccbb 6cb2 af3e 4fce 4d3d ec34 9f3e
00000060: c2e3 ae3e 1608 2a3f 3038 0bbe 623b 8dbd
00000070: 5838 4d3c 6778 29bc df2f 7dbd 9b2d 5dbd
00000080: 31b3 c5bc 97cd 53bd a75b 3fbd 5474 f93c
00000090: bb7c 13bc 04e0 df3e 6cd0 42be 5702 073f
000000a0: 2417 c33c 9a96 893e 39b3 adbd a459 edbd
000000b0: c678 afbd a89b 28bd 2ec3 84bd bd13 a3bc
000000c0: 832b d83e 2022 ab3d 309f 60bd f253 0dbe
000000d0: acf5 d2bd 1267 2fbd fe18 17be ed57 1cbe
000000e0: 0195 04be 3671 083d 0e34 893d c039 33bd
000000f0: a4ab 22be 3a7d 27bd 769b 16be c955 6fbb

dense3.weight f4 [4, 64]
0.101796724 -0.07368286 0.03163397 0.08094052 0.007373949 -0.04238017 0.023132652 -0.09795792
-0.20793608 -0.0480875 -0.22873005 -0.015734471 -0.010561719 0.028494153 -0.24122618 -0.092743486
-0.042248037 0.24845679 -0.20302147 -0.01845707 -0.15177122 -0.09385183 -0.07937908 -0.07551078
-0.06870029 -0.2192711 0.096213356 -0.06172048 0.08646078 0.037255984 -0.059437513 -0.089586645
-0.01465038 0.0291318 -0.096478514 0.058492243 -0.09766049 -0.12106347 0.10837604 -0.1769198
-0.10037858 -0.13794334 0.097677425 0.074583784 -0.049812287 -0.07518571 -0.013459148 -0.018629288
-0.07940067 0.118454754 -0.22388244 -0.11901218 0.042281687 -0.017634459 0.15969539 -0.060902923
0.0773551 0.045528874 -0.046593487 -0.06599644 0.005423076 -0.013024479 -0.110448554 -0.04506305
0.107598975 -0.13283125 -0.012281344 -0.00272174 0.00013515765 -0.24158643 -0.1186693 0.05639913
-0.15325046 0.08279744 -0.23059106 -0.009724461 -0.005984383 0.061325267 -0.35721534 -0.16555208
0.013720315 0.24304907 -0.10190803 0.077102214 -0.10943196 -0.18620868 -0.026330978 -0.19126327
-0.23559864 -0.2111031 -0.009982435 -0.103574425 -0.068079405 -0.24784665 -0.04907771 -0.049762554
-0.13680199 -0.051543944 -0.04340569 -0.02124307 0.16044445 -0.20965183 -0.01223353 -0.10556916
0.13548721 -0.0773768 -0.034834597 0.047854774 -0.019286722 0.05551033 -0.015489764 -0.06592412
-0.07675877 -0.0010987818 -0.15302782 -0.053807758 0.03690697 0.05830321 -0.027782356 -0.11531387
-0.055946864 0.00921433 -0.054702878 0.03577563 0.004722476 0.08170299 -0.10495801 -0.022150323
-0.011669576 -0.17098452 0.041532487 0.06950251 0.059202228 -0.029280923 -0.034513026 -0.038714696
-0.17608282 -0.13546412 0.080972314 0.022887776 0.010316372 -0.04734783 0.17781934 -0.05369185
0.04706746 0.24808097 -0.13726136 -0.026429474 -0.042862132 -0.13836074 0.123602286 0.032097217
-0.044694632 -0.057439066 0.10016996 0.02969924 0.089842096 -0.09718093 -0.012916161 -0.09500855
-0.07930417 0.07705247 0.08025654 -0.07983184 0.058902614 -0.10282457 0.044248607 -0.0054988516
-0.17147623 -0.10243121 0.03276986 -0.100043565 0.017965905 -0.2129612 0.0071955393 -0.011711702
-0.0941248 -0.079647005 -0.17591645 -0.053986624 -0.0017814236 -0.06543886 -0.0050353175 -0.10391395
-0.0004840683 0.033687886 -0.12222277 0.0072075427 -0.0676742 -0.061775986 0.04069671 -0.042401545
0.11889532 -0.116863586 0.10133259 0.031102557 -0.06617737 -0.15879275 0.040746897 0.028748726
-0.21157652 -0.017983986 -0.14132155 0.05209267 -0.0051338226 0.03831339 -0.32284427 -0.1093284
-0.083588265 0.20975375 -0.16279107 0.023241505 0.02648991 -0.07396427 -0.029637858 -0.16236489
-0.16659431 -0.27569395 -0.044098258 -0.01789534 0.17643343 0.022947215 -0.022687161 -0.045594953
-0.0023378837 -0.03883952 -0.027335025 0.030309215 0.08750345 -0.19621226 0.14993265 -0.19886172
-0.14226148 -0.11097134 -0.1004647 -0.030875877 -0.03965728 -0.10734634 0.047757626 -0.122497365
-0.1117062 0.093571514 -0.23384838 0.04360284 -0.06279472 -0.1101086 -0.057449196 0.090080604
0.011431027 0.04949185 0.09944938 -0.0039269924 0.0063487464 -0.012225135 -0.06111631 -0.027395368
00000000: cd7a d03d 0ae7 96bd 9f92 013d 25c4 a53d
00000010: 2ba1 f13b d496 2dbd b080 bd3c 299e c8bd
00000020: 32ed 54be 66f7 44bd 3638 6abe 94e5 80bc
00000030: 0f0b 2dbc 926c e93c ff03 77be 4cf0 bdbd
00000040: 470c 2dbd 756b 7e3e dce4 4fbe 4833 97bc
00000050: ea69 1bbe 6335 c0bd 8091 a2bd 65a5 9abd
00000060: bdb2 8cbd 9a88 60be 820b c53d 9dce 7cbd
00000070: 5912 b13d bb99 183d c074 73bd 3479 b7bd
00000080: 2608 70bc d0a5 ee3c 8796 c5bd 9095 6f3d
00000090: 3902 c8bd 20f0 f7bd 42f4 dd3d 772a 35be
000000a0: 4993 cdbd 0541 0dbe 1a0b c83d 62bf 983d
000000b0: f807 4cbd f7fa 99bd c283 5cbc 739c 98bc
000000c0: d29c a2bd 6898 f23d 7041 65be a8bc f3bd
000000d0: 902f 2d3d 2476 90bc 3087 233e 5875 79bd
000000e0: 5a6c 9e3d 7c7c 3a3d d0d8 3ebd 2429 87bd
000000f0: 0fb4 b13b a064 55bc da32 e2bd 0894 38bd
00000100: da5c dc3d ea04 08be b137 49bc 385f 32bb
00000110: 1bb9 0d39 6f62 77be e408 f3bd c602 673d
00000120: b0ed 1cbe b491 a93d 1020 6cbe 5853 1fbc
00000130: a518 c4bb 3430 7b3d eee4 b6be 7c86 29be
00000140: 2ccb 603c dbe1 783e 28b5 d0bd c4e7 9d3d
00000150: dd1d e0bd 7dad 3ebe 10b4 d7bc 85da 43be
00000160: c540 71be 692b 58be 5e8d 23bc d41e d4bd
00000170: 376d 8bbd 83cb 7dbe b505 49bd d2d3 4bbd
00000180: d215 0cbe be1f 53bd 2aca 31bd f205 aebc
00000190: 8d4b 243e f8ae 56be 256f 48bc a534 d8bd
000001a0: 29bd 0a3e ba77 9ebd b9ae 0ebd 5e03 443d
000001b0: 30ff 9dbc cd5e 633d c7c8 7dbc 3a03 87bd
000001c0: b433 9dbd 0005 90ba 53b3 1cbe 8665 5cbd
000001d0: c32b 173d 59cf 6e3d d397 e3bc ae29 ecbd
000001e0: 8a28 65bd b4f7 163c 2010 60bd 7889 123d
000001f0: 00bf 9a3b e653 a73d 3af4 d6bd 9874 b5bc
00000200: c031 3fbc 9116 2fbe f81d 2a3d 5557 8e3d
00000210: 097e 723d 8cde efbc 885d 0dbd 4d93 1ebd
00000220: 0e4f 34be 1bb7 0abe d0d4 a53d 257f bb3c
00000230: 0006 293c ccef 41bd 4616 363e fceb 5bbd
00000240: cfc9 403d f008 7e3e 3e8e 0cbe a082 d8bc
00000250: 3490 2fbd 70ae 0dbe 3223 fd3d 5f78 033d
00000260: b811 37bd 3a45 6bbd e825 cd3d d24b f33c
00000270: 22ff b73d cc06 c7bd 4e9e 53bc d893 c2bd
00000280: 3a6a a2bd afcd 9d3d 8a5d a43d e07e a3bd
00000290: de43 713d b095 d2bd 073e 353d b62f b4bb
000002a0: 7797 2fbe 74c7 d1bd b039 063d a4e3 ccbd
000002b0: 3c2d 933c 8012 5abe 8fc8 eb3b 70e2 3fbc
000002c0: 81c4 c0bd f81d a3bd 7123 34be 1421 5dbd
000002d0: a87e e9ba cf04 86bd 4eff a4bb d6d0 d4bd
000002e0: 8cca fdb9 4ffc 093d ee4f fabd 402d ec3b
000002f0: c598 8abd d108 7dbd 98b1 263d 3ead 2dbd
00000300: 647f f33d 2d56 efbd 7687 cf3d caca fe3c
00000310: 0088 87bd 919a 22be 38e6 263d 7382 eb3c
00000320: 84a7 58be 2753 93bc 99b6 10be 205f 553d
00000330: a039 a8bb 80ee 1c3d d84b a5be 91e7 dfbd
00000340: 5330 abbd b0c9 563e b4b2 26be f864 be3c
00000350: 5e01 d93c 947a 97bd 18cb f2bc fb42 26be
00000360: b397 2abe c227 8dbe 60a0 34bd 4099 92bc
00000370: f7aa 343e ccfb bb3c 6dda b9bc c6c1 3abd
00000380: 2e37 19bb 3016 1fbd b4ed dfbc 084b f83c
00000390: 0235 b33d deeb 48be f287 193e 68a2 4bbe
000003a0: feac 11be f144 e3bd 70c0 cdbd 68ef fcbc
000003b0: ac6f 22bd 66d8 dbbd 809d 433d e6df fabd
000003c0: 38c6 e4bd 6ca2 bf3d f375 6fbe e498 323d
000003d0: 859a 80bd 9e80 e1bd d94f 6bbd 2e7c b83d
000003e0: 3449 3b3c f7b7 4a3d 1eac cb3d 00ae 80bb
000003f0: 2509 d03b ef4b 48bc 1955 7abd 406c e0bc

dense3.bias f4 [4]
0.011793521 -0.12478417 0.13708301 -0.02899719
00000000: 9d39 413c d88e ffbd 7d5f 0c3e 848b edbc
