Reinforcment_Learning_DQN/agent_output/weights/episode_249_weights.pt (torch, 21495 bytes, 6 tensors)

dense1.weight f4 [64, 5]
0	0x3d5f9480	0.05458498
1	0xbe99d4b8	-0.30045104
2	0xbebe82c0	-0.3720913
3	0x3e8661b8	0.26246428
4	0xbe920c74	-0.28525126
5	0x3c223cf2	0.009902226
6	0xbe890d01	-0.26767734
7	0x3ea4e487	0.32205603
8	0xbfc02a70	-1.5012951
9	0xc04b751b	-3.1790226
10	0xbebb05a2	-0.36527735
11	0xbe59c7aa	-0.21267572
12	0x3ebdb085	0.37048736
13	0xbf844d53	-1.0336097
14	0xbf536238	-0.82571745
15	0xbeb6b548	-0.35685182
16	0xbed5937d	-0.41714087
17	0xbe03ce72	-0.12871721
18	0x3e70c414	0.23512298
19	0x3e9129e4	0.28352273
20	0xbd0002f4	-0.031252816
21	0x3db9bda8	0.09069377
22	0x3d67e426	0.056614064
23	0xbf5e0260	-0.86722374
24	0x3f755c03	0.95843524
25	0x3e1d3a60	0.153543
26	0xbdf43c1f	-0.1192553
27	0x3d267102	0.040635116
28	0xbf9a35f3	-1.2047714
29	0xbfa602b3	-1.2969574
30	0xbebce3b2	-0.36892468
31	0xbe7bbb9d	-0.24583288
32	0x3e14d369	0.14533772
33	0xbe6c2dc5	-0.23064335
34	0x3be89822	0.007098214
35	0xbee46e5d	-0.4461545
36	0xbece09af	-0.40241763
37	0xbbcebb40	-0.006308943
38	0x3daaf4f0	0.08347499
39	0x3ee2f984	0.4433099
40	0xbef3c8dc	-0.4761418
41	0x3e2dd68e	0.16976377
42	0x3c83f739	0.016109096
43	0x3d9d5910	0.07683003
44	0xbebc00eb	-0.3671945
45	0x3e933e3a	0.28758413
46	0xbf086abc	-0.53287864
47	0xbe952ad7	-0.29134247
48	0x3f6b33c9	0.9187589
49	0xbef33ba8	-0.47506452
50	0x3e9e5bdc	0.30929458
51	0xbf1635d0	-0.5867586
52	0x3e9f6349	0.31130436
53	0xbfa51905	-1.289826
54	0xc059c8f2	-3.4028897
55	0x3e1128f1	0.14175774
56	0xbe3b83a6	-0.18311939
57	0x3e16fbae	0.14744446
58	0xbfef7005	-1.8706061
59	0xc0047b36	-2.0700202
60	0x3c9468ed	0.018116439
61	0xbdde5454	-0.10855928
62	0x3e9ceb26	0.30648154
63	0xc00d948e	-2.212192
64	0xbf96dabb	-1.1785501
65	0x3e543fdf	0.2072749
66	0xbed1e3bf	-0.4099407
67	0xbeedd437	-0.4645097
68	0xbe6d1944	-0.2315417
69	0xbd382b9a	-0.044963457
70	0xbde630de	-0.112397894
71	0xbee2daa6	-0.4430744
72	0x3ec73600	0.38908386
73	0xbffb1d80	-1.9618378
74	0xc011819e	-2.2735362
75	0xbd894bd6	-0.06703918
76	0xbeb499b2	-0.3527351
77	0x3ec20062	0.37890917
78	0xbfa6d3a1	-1.3033334
79	0xbff9d1cc	-1.951715
80	0x3eca22a3	0.3947955
81	0xbed45429	-0.4147046
82	0x3dbf6dc5	0.09347109
83	0xbf0df4c7	-0.55451626
84	0xbfe24f7d	-1.7680508
85	0xbedcea04	-0.4314729
86	0xbd831588	-0.06400591
87	0xbdf9a06c	-0.12188801
88	0xbe9138c8	-0.28363633
89	0x3db48398	0.08814162
90	0xbed23a7d	-0.41060248
91	0xbea972f3	-0.33095512
92	0x3e5e4090	0.21704316
93	0x3dc2e583	0.09516432
94	0xbee4a64f	-0.44658133
95	0xbed59d9f	-0.41721818
96	0x3e73d8cc	0.2381317
97	0xbda11c04	-0.07866672
98	0x3b6c9e00	0.0036104918
99	0xbe26a8aa	-0.16275278
100	0xbd91d88c	-0.07121381
101	0xbedb1edc	-0.4279698
102	0xbea46cd9	-0.32114294
103	0xbc2ae0e0	-0.010429591
104	0x3dcdc5b0	0.100474715
105	0x3ead30bb	0.3382624
106	0xbe141d80	-0.14464378
107	0xbeff67e5	-0.49883953
108	0x3efc491b	0.49274525
109	0xbe23fe4e	-0.16014978
110	0xbd7da578	-0.06192538
111	0xbe0f5152	-0.13995865
112	0xbc4199c0	-0.011816442
113	0x3ebb2f00	0.36559296
114	0xbe73fae2	-0.23826173
115	0xbe93a18f	-0.28834197
116	0xbdf2fe16	-0.11864869
117	0x3e689b42	0.22715476
118	0xbf89388c	-1.0720382
119	0xbff3fe3b	-1.906196
120	0xbda7fe7b	-0.08202835
121	0x3c4d29fa	0.012522215
122	0x3c35ff1f	0.011108189
123	0xbf1345ac	-0.57528186
124	0x3ebf3d0b	0.3735126
125	0xbdcf9781	-0.10136319
126	0xbe7793e7	-0.24177514
127	0x3da92b57	0.082602195
128	0xbe875eb9	-0.26439455
129	0x3d0e6001	0.034759525
130	0x3eb346ca	0.35014945
131	0xbe6c1644	-0.23055369
132	0xbe3b3eb4	-0.18285638
133	0x3f5f9974	0.87343526
134	0xbea1bd4f	-0.31589743
135	0x3ea4d8d7	0.32196686
136	0xbf1fa2fe	-0.6235808
137	0x3ea3dabe	0.32002825
138	0xc0057b90	-2.0856667
139	0xc04441a3	-3.0665061
140	0x3e438d16	0.19096789
141	0xbebf6e85	-0.37389007
142	0xbef78967	-0.48347017
143	0x3f1b2f31	0.60618883
144	0xbef7e9c7	-0.48420545
145	0x3c3581fc	0.011078354
146	0xbe53fb57	-0.20701347
147	0x3a35aad3	0.0006930057
148	0x3f1e5f87	0.61864513
149	0x3d80146c	0.06253895
150	0x3c5d483e	0.013505993
151	0xbd2f5b18	-0.042811483
152	0xbd0804e6	-0.033207797
153	0xbcb5ab1f	-0.022176323
154	0xbdaee5a3	-0.085398935
155	0x3e471f67	0.19445573
156	0xbe50ad8b	-0.20378701
157	0xbe972e20	-0.29527378
158	0x3f2c119f	0.6721439
159	0xbd907ad3	-0.07054677
160	0x3e985169	0.2974961
161	0xbd4d3a04	-0.050104156
162	0xbf068c5a	-0.5255791
163	0x3ed6394f	0.41840598
164	0xbf1b0a1d	-0.60562307
165	0xbcbcaba9	-0.023031073
166	0x3d85f006	0.065399215
167	0xbf071a66	-0.52774656
168	0x3db4d4a8	0.088296235
169	0xbee2dbf4	-0.44308436
170	0x3ea46f0d	0.32115975
171	0xbf0f0f0a	-0.5588232
172	0x3e7bede3	0.24602465
173	0xbf98f854	-1.1950784
174	0xc02b6c2e	-2.6784778
175	0x3d7399e1	0.059472922
176	0x3edf6abd	0.43636122
177	0xbeb81c57	-0.35959122
178	0x3ed61b2e	0.4181761
179	0x4017250c	2.3616362
180	0xbea64c7b	-0.32480225
181	0x3e1a0e89	0.15044607
182	0x3db097c9	0.08622701
183	0x3f994bb7	1.1976231
184	0x3ff76b5e	1.9329641
185	0x3de2f143	0.11081173
186	0xbea350d0	-0.31897593
187	0x3e39bf96	0.1813949
188	0xbfc701bf	-1.5547408
189	0xbfe421c7	-1.7822808
190	0xbededeb2	-0.43529278
191	0x3e3c42de	0.18384883
192	0x3e73156a	0.23738638
193	0xbf2fe824	-0.68713593
194	0xbf0e9755	-0.55699664
195	0x3e4327a3	0.19058089
196	0xbeede89a	-0.46466523
197	0x3d4e2970	0.050332487
198	0xbe752c34	-0.23942643
199	0xbfaad5a8	-1.3346453
200	0x3c1cd5a1	0.0095724175
201	0x3efd8c29	0.49520996
202	0xbee9cdc1	-0.4566479
203	0x3eb2900e	0.3487553
204	0x3fe8d3d0	1.818964
205	0xbdde5a04	-0.10857013
206	0xbe03b05a	-0.12860242
207	0x3e90c4b8	0.28275084
208	0xbfdcf6f2	-1.7262862
209	0xc00bd97d	-2.1851494
210	0xbe4b0f33	-0.19830017
211	0xbca19150	-0.01972261
212	0xbeb39e7e	-0.35081857
213	0x3ebf300c	0.37341344
214	0x3ead7900	0.33881378
215	0xbcc37d90	-0.023863584
216	0xbe993d2a	-0.29929477
217	0xbe3fedae	-0.18743011
218	0x3cb14a90	0.021642
219	0xbe95cfd4	-0.29260123
220	0xbf02f10c	-0.5114906
221	0x3e253990	0.1613524
222	0x3e1e97f1	0.15487649
223	0xbe95e04d	-0.2927269
224	0xbe106bfe	-0.14103696
225	0xbe0e2d8c	-0.13884562
226	0x3e8ae050	0.27124262
227	0xbe1ee900	-0.1551857
228	0x3fffaad0	1.9974003
229	0x3ebf0412	0.37307793
230	0xbec892cf	-0.39174506
231	0x3e87c228	0.26515317
232	0xbec4f1e5	-0.384658
233	0xbd609910	-0.05483347
234	0x3e8f48ae	0.27985138
235	0xbf08f4b2	-0.53498375
236	0x3e56a11f	0.209599
237	0x3e398c1b	0.18119852
238	0x3f2edbb4	0.6830399
239	0x3e0c1de6	0.1368328
240	0x3e0dd522	0.13850835
241	0xbe982c0f	-0.29721114
242	0x3cd69a6c	0.026196681
243	0xbf10bf5f	-0.5654201
244	0xbfbfc117	-1.4980801
245	0xbb478cc2	-0.0030448888
246	0x3c08075a	0.008302534
247	0xbd677cb7	-0.05651542
248	0xbe546724	-0.2074247
249	0xbe5e7581	-0.21724512
250	0xbdde3177	-0.108492784
251	0xbd9c39b4	-0.076281935
252	0x3d277799	0.04088554
253	0xbd90fd63	-0.0707958
254	0xbf4bfbb5	-0.7968095
255	0xbe66005a	-0.22461072

dense1.bias f4 [64]
0	0xbe13a5c4	-0.14418703
1	0x3f1d3508	0.61409044
2	0x3edbad2a	0.4290555
3	0x3e9422ac	0.28932703
4	0xbe689f9c	-0.22717136
5	0x3eb46838	0.35235763
6	0x3e0881f1	0.13330819
7	0x3e5758b8	0.21029937
8	0x3d6b6a70	0.057474554
9	0xbdeb1ea2	-0.11480452
10	0x3f005184	0.5012438
11	0x3dc1e047	0.09466606
12	0xbec65cee	-0.38742775
13	0xbee76c94	-0.45200026
14	0x3f037c3f	0.5136146
15	0x3d8c3584	0.06846145
16	0x3ea6911f	0.32532594
17	0x3e7e6e00	0.24846649
18	0xbec56880	-0.3855629
19	0x3ecf7564	0.4051925
20	0xbdc08144	-0.093996555
21	0xbec5181a	-0.3849495
22	0x3d05eef8	0.0326986
23	0xbe2843a1	-0.16432048
24	0xbe8dc393	-0.27688274
25	0xbca3f92c	-0.020016275
26	0x3dc16c34	0.09444466
27	0x3ef40e84	0.47667325
28	0xbe545e3a	-0.2073907
29	0xbe841a9a	-0.25801545
30	0xbec0a396	-0.37624806
31	0xbe2bb2db	-0.16767447
32	0xbb588eee	-0.0033044177
33	0xbdcf6a71	-0.10127724
34	0x3f08ab6c	0.5338657
35	0xbe437e15	-0.19091065
36	0xbe735a40	-0.23764896
37	0xbeb5c7f6	-0.3550412
38	0x3b36e3c0	0.0027906746
39	0x3e58dc9a	0.21177903
40	0x3e04fabc	0.12986273
41	0x3da70e79	0.08157057
42	0x3d7ece90	0.062208712
43	0xbe79f963	-0.2441154
44	0xbdf6966b	-0.12040409
45	0xbe1a354c	-0.15059394
46	0xbeded24c	-0.4351982
47	0xbe060eff	-0.13091658
48	0xbeb042a3	-0.3442584
49	0xbe83995b	-0.25702938
50	0xbef0c8fd	-0.47028342
51	0x3ed766ae	0.42070526
52	0x3cdc9870	0.026928157
53	0xbeccf7f0	-0.4003291
54	0xbd91bb63	-0.07115819
55	0xbecbe9ed	-0.3982691
56	0xbecfbf9e	-0.4057588
57	0x3f1cc600	0.61239624
58	0xbf2777e9	-0.65417343
59	0x3d9a7387	0.07541566
60	0xbe120537	-0.14259802
61	0xbe0b3376	-0.1359385
62	0x3e37188b	0.17880456
63	0xbe40c952	-0.18826798

dense2.weight f4 [64, 64]
0	0xbce65cf8	-0.028120503
1	0x3dddabc6	0.10823779
2	0x3e7656f8	0.24056613
3	0x3de92f0c	0.113859266
4	0xbe379713	-0.17928724
5	0xbbf2f9b1	-0.0074150194
6	0x3eb1df7d	0.3474082
7	0xbd5fac54	-0.054607704
8	0x3b17c64b	0.0023158963
9	0x3e61f383	0.22065549
10	0x3e20233f	0.15638445
11	0x3c877785	0.016536484
12	0x3cf061dc	0.029343538
13	0x3b4f0bf0	0.0031592809
14	0x3e3dac26	0.185227
15	0x3e74144c	0.23835868
16	0x3c57dace	0.013174726
17	0xbdc6a564	-0.096995145
18	0x3eae2772	0.3401447
19	0xbd49f3e0	-0.049304843
20	0x3da9778a	0.082747534
21	0x3db63a7c	0.08897874
22	0x3d6452b8	0.05574295
23	0x3e22fb90	0.15916276
24	0xbdc231e3	-0.094821714
25	0x3ddc468b	0.107556425
26	0xbcbefaa6	-0.023312878
27	0x3e04d419	0.12971534
28	0xbdb6c0d6	-0.08923499
29	0x3e0b6181	0.13611414
30	0x3dd2b843	0.102890514
31	0x3e29f73b	0.16598217
32	0xbd571906	-0.0525141
33	0xbde0e661	-0.10981441
34	0x3e2be34b	0.16785924
35	0xbdc412aa	-0.095738724
36	0x3d363973	0.04448838
37	0x3d59b866	0.05315437
38	0xbd3d8ef1	-0.046278898
39	0x3d26a3da	0.040683605
40	0xbe9dcacb	-0.3081878
41	0x3e95801a	0.29199296
42	0xbde720b8	-0.112855375
43	0x3c0041d0	0.007828191
44	0x3d31985c	0.04335819
45	0xbd3c6ff2	-0.046005197
46	0xbc230010	-0.009948745
47	0x3e4af685	0.19820602
48	0x3cbd6348	0.02311863
49	0x3d1aa8a9	0.037758503
50	0xbe140346	-0.14454374
51	0xbd8bcd80	-0.068263054
52	0x3dc350d6	0.095369026
53	0x3de1ca9a	0.11024971
54	0x3d5ed372	0.05440087
55	0xbe329537	-0.17439733
56	0xbdf06dbe	-0.11739682
57	0x3d7903dd	0.0607947
58	0xbedc0e3a	-0.42979604
59	0xbea5dc06	-0.32394427
60	0xbd8f4e38	-0.06997341
61	0x3da6d78a	0.081465796
62	0x3ee29011	0.4425054
63	0x3e026b6a	0.12736288
64	0x3c066f90	0.0082053095
65	0xbdcaf502	-0.09910013
66	0x3c7ab2b0	0.0153013915
67	0x3adee700	0.0017006099
68	0x3d59a831	0.053138915
69	0xbe212d11	-0.15739848
70	0x3d5945bc	0.05304502
71	0xbd733234	-0.05937405
72	0xbd14a488	-0.03628972
73	0xbd0e89b9	-0.03479931
74	0x3d26f9c5	0.040765543
75	0xbdb50595	-0.08838955
76	0xbe153243	-0.14569955
77	0x3d462434	0.04837437
78	0xbe531316	-0.2061275
79	0xbd3d3f1f	-0.046202775
80	0x3c94ed67	0.018179609
81	0x3c3ef4c0	0.011655033
82	0x3dcfa10c	0.10138139
83	0x3c309120	0.010776788
84	0xbdbf8900	-0.093523026
85	0xbc8e13c5	-0.017343411
86	0xbc795c20	-0.015219718
87	0xbdf18734	-0.11793366
88	0xbd7324c5	-0.059361238
89	0xbd586fd0	-0.052841008
90	0xbcba35f9	-0.022730814
91	0x3dd1ec4b	0.102501474
92	0xbd8942c4	-0.06702188
93	0xbd3ee9e1	-0.046609763
94	0xbdcf8440	-0.101326466
95	0xbcc8c7bc	-0.024509303
96	0xbe203cfb	-0.15648262
97	0x3db050dd	0.086091734
98	0x3d5256ab	0.051352184
99	0xbd04a21d	-0.032381166
100	0x3c5c51cb	0.013447235
101	0x3b058398	0.0020372625
102	0xbdc6469a	-0.09681435
103	0xbe1124ba	-0.14174166
104	0xbd5c7b45	-0.053828496
105	0x3c22e9c0	0.009943426
106	0xbd1a4bb4	-0.037669852
107	0x3cd3c680	0.025851488
108	0xbd08db73	-0.033412408
109	0xbc86baf7	-0.016446574
110	0xbdb4d5d6	-0.088298485
111	0x3ceb59f1	0.02872941
112	0xbd95b65e	-0.073101744
113	0xbcb0f562	-0.021601383
114	0x3d4b0abd	0.049570788
115	0x3d99a878	0.07502836
116	0xbd6fbae0	-0.058527827
117	0x3d89b6d0	0.06724322
118	0xbe016a5d	-0.1263823
119	0x3b6e4fa4	0.0036363387
120	0x3df5c590	0.12000573
121	0xbe142d1f	-0.14470337
122	0xbd75cae6	-0.060007952
123	0xbcc77b4d	-0.024350787
124	0x3d47de29	0.048795853
125	0x3d78b398	0.06071815
126	0xbe0110b2	-0.12604025
127	0x3d485ed1	0.04891855
128	0x3dc2df6a	0.09515269
129	0x3db6318e	0.088961706
130	0xbe1819eb	-0.14853637
131	0xbd2fd824	-0.042930737
132	0xbd82f4e7	-0.06394368
133	0xbdb79e80	-0.08965778
134	0xbb886416	-0.004162322
135	0x3dd1ef4e	0.10250722
136	0xbcaf5897	-0.021404548
137	0x3db6178a	0.088912085
138	0xbe049830	-0.1294868
139	0xbe1912a3	-0.14948516
140	0x3d672148	0.056428224
141	0x3d8f8e38	0.07009548
142	0xbd60bb52	-0.054866143
143	0xbd4760da	-0.04867635
144	0xbe34cf7f	-0.17657278
145	0xbc004e10	-0.007831112
146	0x3d7696c4	0.060202375
147	0xbd4834a8	-0.048878342
148	0x3db6ff88	0.089354575
149	0xbdbfc36e	-0.09363447
150	0x3d82ea1c	0.06392309
151	0xbd0059d1	-0.031335656
152	0xbdd931e9	-0.10605223
153	0x3da2f307	0.0795651
154	0xbc678540	-0.01413089
155	0x3dda4d7e	0.10659312
156	0x3d45ebe0	0.04832065
157	0xbe050d43	-0.1299334
158	0xbd76cc3a	-0.06025336
159	0x3c79fbe0	0.015257806
160	0x3c58ce65	0.013232802
161	0x3df01138	0.11722034
162	0x3d7697bf	0.06020331
163	0xbe229646	-0.15877637
164	0x3d44f2d3	0.048083138
165	0xbc67f85b	-0.014158334
166	0xbe28b9ca	-0.16477123
167	0x3d9dae0d	0.07699213
168	0xbd3bee87	-0.045881774
169	0x3d850fd8	0.064971626
170	0xbdc33ed8	-0.09533471
171	0x3cf66e10	0.030081779
172	0x3c806ac7	0.015675915
173	0xbdf03b0c	-0.11730012
174	0x3d91712a	0.071016625
175	0x3d377aaa	0.044794716
176	0xbe111a30	-0.14170146
177	0x3c5b0ac0	0.013369262
178	0x3cfbcbee	0.03073689
179	0xbd94ff46	-0.07275252
180	0x3df82500	0.12116432
181	0xbbde0360	-0.0067753047
182	0x3ddddfdc	0.108337134
183	0x3da839f9	0.082141824
184	0x3dbfc992	0.09364618
185	0xbc5e654b	-0.013573955
186	0xbd66b975	-0.05632921
187	0xbd4314e5	-0.04762735
188	0xbd6f6f23	-0.058455598
189	0x3d5c867b	0.053839188
190	0xbd535dad	-0.051603008
191	0x3dc7a150	0.09747565
192	0x3d9480ba	0.07251115
193	0xbe81fb0e	-0.25386852
194	0xbe1dc99c	-0.15408939
195	0xbd8e8338	-0.06958622
196	0x3b0cf17a	0.0021506236
197	0xbec71f6d	-0.38891163
198	0x3da6d3c4	0.0814586
199	0xbd992cd2	-0.07479252
200	0x3d887544	0.06662992
201	0xbd4abcc0	-0.049496412
202	0xbf14c262	-0.58109105
203	0xbf00074c	-0.50011134
204	0xbe9d131a	-0.30678636
205	0x3d2bd264	0.04194869
206	0xbe88aead	-0.26695767
207	0xbe6b4ddb	-0.22978918
208	0xbf4223d8	-0.75835943
209	0x3de43362	0.11142613
210	0x3d582ddf	0.05277812
211	0xbd229108	-0.039689094
212	0x3db13500	0.08652687
213	0xbe4d95ce	-0.20076677
214	0x3c17e4c0	0.009270847
215	0xbedffa12	-0.43745476
216	0xbd8d6477	-0.06903928
217	0xbd94a3c6	-0.072578
218	0xbebbcff5	-0.36682096
219	0xbec195cc	-0.37809598
220	0xbccde71f	-0.025134621
221	0x3d6416d1	0.055685822
222	0x3cb14b38	0.021642312
223	0xbe7d35f5	-0.24727614
224	0xbe1b4e04	-0.1516648
225	0xbe19def0	-0.1502645
226	0xbf0228e0	-0.5084362
227	0x3d896159	0.06708021
228	0x3e3d0534	0.18459016
229	0xbea5fb9b	-0.32418522
230	0x3e308411	0.1723788
231	0xbe2c8fe3	-0.16851763
232	0xbd14de8e	-0.036345057
233	0xbe840f67	-0.25793
234	0xbd9dcb68	-0.07704812
235	0xbd55d39c	-0.05220376
236	0xbe519553	-0.20467119
237	0x3f317a66	0.6932739
238	0xbd31bfa0	-0.04339564
239	0xbde640e3	-0.11242845
240	0xbe2bd00d	-0.16778584
241	0xbdbe5fab	-0.09295591
242	0xbd3b3246	-0.04570224
243	0x3cd6edf0	0.026236504
244	0x3da2fff6	0.07958977
245	0xbea91f1e	-0.33031553
246	0xbdf56f56	-0.11984126
247	0x3cdbeb37	0.026845558
248	0x3d880dba	0.06643243
249	0xbee176f9	-0.4403608
250	0x3e935b5c	0.2878064
251	0x3e83cbc9	0.25741413
252	0xbdf41721	-0.11918474
253	0xbd394bae	-0.04523819
254	0xbc1e21f5	-0.009651651
255	0xbe83f382	-0.2577172

dense2.bias f4 [64]
0	0xbe5f4f3b	-0.21807568
1	0xbceac9ed	-0.028660739
2	0xbda19c42	-0.07891132
3	0xbe25cc19	-0.16191138
4	0xbe085eee	-0.13317463
5	0xbd9abaf9	-0.075551935
6	0xbe17e990	-0.14835191
7	0xbe1d223a	-0.15345088
8	0x3edc325c	0.4300717
9	0x3e9cd9b7	0.30634853
10	0xbdc50b50	-0.09621298
11	0xbdaccb03	-0.08437159
12	0xbd966857	-0.0734412
13	0xbd80ea4f	-0.06294691
14	0xbde3ba28	-0.11119491
15	0x3c8ffcde	0.017576631
16	0xbace9dd1	-0.0015763586
17	0xbda7209c	-0.081605166
18	0x3e58c4b7	0.21168791
19	0x3e5202ca	0.20508876
20	0xbe007cf6	-0.12547669
21	0xbe47edc3	-0.19524293
22	0xbe32dc34	-0.17466813
23	0x3d393532	0.045216747
24	0xbddc0a47	-0.10744148
25	0xbe2691f4	-0.16266614
26	0xbe492203	-0.1964188
27	0xbdb75d79	-0.08953375
28	0xbd344c8b	-0.04401831
29	0x3eace4c7	0.33768293
30	0x3e3bc53f	0.18336962
31	0xbb8d1bb1	-0.0043062796
32	0xbd219774	-0.039451078
33	0x3e2bf1b6	0.16791424
34	0xbdabe62c	-0.08393511
35	0xbdd00c22	-0.10158564
36	0x3e092956	0.13394675
37	0x3ebb344d	0.3656334
38	0xbcb0ee92	-0.021598134
39	0xbcb86e1f	-0.022513447
40	0xbdf73aaa	-0.12071736
41	0x3dc5553e	0.09635399
42	0xbcaca0a4	-0.021072693
43	0xbd987c0d	-0.07445536
44	0xbcbf8ff3	-0.02338407
45	0xbccf3cdb	-0.025297573
46	0x3df1614d	0.11786137
47	0xbc4ce7ad	-0.012506408
48	0xbe52b265	-0.20575865
49	0x3dcf2b19	0.10115642
50	0xbd9cec52	-0.07662262
51	0x3d916f51	0.0710131
52	0x3d3eaa8d	0.04654937
53	0xbe2d7949	-0.16940798
54	0xbd2ccec8	-0.04218939
55	0x3c9044b0	0.017610878
56	0x3e971060	0.2950468
57	0xbdc75ec7	-0.09734874
58	0x3da8f475	0.082497515
59	0x3e9fb699	0.31193998
60	0x3d72e538	0.05930063
61	0x3def65b9	0.11689324
62	0x3e15704e	0.14593622
63	0x3e3492cd	0.17634125

dense3.weight f4 [4, 64]
0	0xba67b460	-0.00088388287
1	0xbd40047e	-0.046879284
2	0xbc4ba131	-0.012428568
3	0xbeba277b	-0.36358246
4	0x3dd44326	0.1036437
5	0xbcd89b91	-0.026441367
6	0x3d400c72	0.04688687
7	0x3d8c9454	0.06864229
8	0xbe020faf	-0.12701295
9	0xbe4a2d4f	-0.19743846
10	0x3bca37b8	0.006171193
11	0x3d93d1e1	0.072177656
12	0x3dd33b01	0.103139885
13	0xbd70af37	-0.058760848
14	0x3d03d204	0.03218271
15	0x3e4d9b21	0.20078708
16	0xbd185cc9	-0.03719786
17	0x3c1d6513	0.0096066175
18	0xbe61b668	-0.22042239
19	0xbe171220	-0.14753008
20	0xbcf6eec8	-0.030143157
21	0x3d549d1e	0.05190765
22	0xbdd95b71	-0.10613144
23	0x3d6f88da	0.05848012
24	0x3da6c5af	0.08143174
25	0x3b0c1976	0.002137748
26	0x3c6784db	0.014130796
27	0x3d61dc0e	0.0551415
28	0x3cf16cc2	0.029470805
29	0xbe2731d2	-0.16327599
30	0xbda4ad27	-0.08040839
31	0x3d03a92c	0.032143757
32	0xbdf4fe78	-0.119625986
33	0xbdc966d7	-0.09834068
34	0xbb435ea4	-0.002981105
35	0x3e7645dc	0.24050087
36	0xbd690eca	-0.05689887
37	0xbe4dfbf2	-0.20115641
38	0xbd5cad32	-0.05387611
39	0xbcba9ce4	-0.02277989
40	0xbde0b67c	-0.10972306
41	0x3cff5325	0.031167576
42	0x3dae15c9	0.08500249
43	0xbd03f382	-0.03221465
44	0xbe21634f	-0.1576054
45	0xbcba8267	-0.022767259
46	0xbe44e416	-0.19227633
47	0x3db0ea84	0.0863848
48	0x3d380cba	0.044934012
49	0x3e3e73da	0.18598881
50	0xbcc3effc	-0.023918144
51	0x3db3b9c5	0.08775667
52	0xbde0a0e3	-0.10968187
53	0x3ca3eec9	0.020011323
54	0x3d376910	0.04477793
55	0xbde36d85	-0.111048736
56	0x3e54e70b	0.20791261
57	0xbda76891	-0.08174241
58	0xbd9ccf28	-0.076566994
59	0xbd9c0b28	-0.076193154
60	0xbc5070e9	-0.012722232
61	0x3e18ec45	0.1493388
62	0x3e6875c2	0.22701171
63	0xbdbb1c49	-0.09136254
64	0x3d38a8d3	0.04508288
65	0x3d76eff0	0.060287416
66	0xbd497684	-0.04918529
67	0xbea596d4	-0.32341635
68	0x3c69819e	0.014252095
69	0xbdbffeca	-0.09374769
70	0x3d5c28e3	0.05374993
71	0x3cc65508	0.024210468
72	0xbe6d954b	-0.23201482
73	0xbea44c01	-0.32089236
74	0xbd40861f	-0.047002908
75	0xbd784438	-0.060611933
76	0x3dbfecc6	0.09371333
77	0x3da9eeb5	0.08297483
78	0xbaf57bb4	-0.0018728883
79	0x3e4240f5	0.18970092
80	0x3d952267	0.07281952
81	0x3ddafd6b	0.10692867
82	0xbe0c593a	-0.13705912
83	0xbe12b48d	-0.14326687
84	0xbd2e4203	-0.042543422
85	0xbdb33717	-0.08750742
86	0xbd5f676c	-0.05454199
87	0xbbea3464	-0.0071473587
88	0xbe14cc60	-0.14531088
89	0xbc139c88	-0.009009488
90	0x3c9eedf0	0.019400567
91	0x3de7fdf2	0.11327733
92	0x3d2c9daf	0.042142566
93	0xbe5cf2c3	-0.21576981
94	0xbe80c49d	-0.25150004
95	0xbdec63da	-0.11542483
96	0xbda96748	-0.082716525
97	0xbdb47afb	-0.08812519
98	0xbda3d624	-0.079998285
99	0x3e79dca0	0.24400568
100	0xbe517b7f	-0.20457266
101	0xbeaa5278	-0.33266044
102	0x3ca15b1c	0.019696765
103	0x3dad468c	0.084607214
104	0x3e4c7a9f	0.19968651
105	0xbd9678aa	-0.073472336
106	0x3d57f165	0.052720446
107	0xbd87721e	-0.06613563
108	0xbca735be	-0.020411368
109	0xb980cc66	-0.0002456635
110	0xbdb6cf29	-0.089262314
111	0xbdc997bc	-0.09843394
112	0xbc1125db	-0.008859123
113	0x3e37d539	0.17952432
114	0xbc8b8cd7	-0.017034931
115	0x3ce2f59e	0.02770501
116	0x3c9243e6	0.017854642
117	0xbd9152bf	-0.07095861
118	0x3d9eca0f	0.07753383
119	0xbccee0ca	-0.025253672
120	0x3e3c20b6	0.18371853
121	0xbd0cfb0b	-0.0344191
122	0x3dd12cfc	0.10213658
123	0xbdfdb601	-0.1238823
124	0xbdb4ea5d	-0.08833764
125	0x3e968aa2	0.29402643
126	0x3e801a1d	0.25019923
127	0x3d55cfe8	0.052200228
128	0xbe5e9f7c	-0.21740526
129	0x3d6e3103	0.05815221
130	0xbcec519d	-0.02884751
131	0xbea80b06	-0.3282091
132	0x3d92b89e	0.07164119
133	0x3d60e890	0.05490929
134	0xbd820499	-0.06348533
135	0x3d28b815	0.04119118
136	0xbd87afa1	-0.066252954
137	0xbd69739b	-0.056995016
138	0xbd632f83	-0.055465233
139	0xba4a17f8	-0.000770926
140	0x3cc1c9e4	0.02365584
141	0x3dce6b04	0.10079005
142	0x3cf90ca9	0.030401545
143	0x3e46f29a	0.19428483
144	0x3d45eaa2	0.048319466
145	0xbd08ebea	-0.03342811
146	0xbe0c5d94	-0.13707572
147	0xbd00f250	-0.031481087
148	0xbdb0028f	-0.08594238
149	0xba027f6e	-0.0004978095
150	0x3d97577d	0.07389734
151	0x3c847cc0	0.016172767
152	0xbecd0619	-0.40043715
153	0x3c348746	0.01101858
154	0xb99bae4f	-0.00029693774
155	0x3d543a0c	0.05181317
156	0x3dec6877	0.115433626
157	0xbd49524a	-0.049150743
158	0xbe041ce2	-0.12901643
159	0x3d5df575	0.054189164
160	0xbc027d18	-0.007964395
161	0x3e0c5d9b	0.13707583
162	0xbd16c112	-0.03680522
163	0x3e43a51b	0.19105951
164	0xbe0b8a1d	-0.13626905
165	0xbbf3e588	-0.0074431337
166	0xbd81a815	-0.06330887
167	0x3d51b454	0.051197365
168	0x3df8faa9	0.12157185
169	0xbd667042	-0.0562594
170	0x3d9c0438	0.07617992
171	0xbc79a4f0	-0.015237078
172	0xbdf8f123	-0.12155368
173	0x3c26be0d	0.010177148
174	0x3daf6d10	0.08565724
175	0x3c7d7850	0.015470579
176	0x3d3b7b57	0.045771923
177	0x3e620b0c	0.22074527
178	0x3c241711	0.010015265
179	0xbd85695f	-0.065142386
180	0xbd6f0dbd	-0.05836271
181	0x3d645b9f	0.05575144
182	0xbc9ea906	-0.019367706
183	0xbcb5dce4	-0.022200055
184	0x3e76df1c	0.24108547
185	0xbbb2fe4b	-0.005462443
186	0xbc7c802f	-0.015411421
187	0xbdd41c47	-0.10356956
188	0xbdeb8df1	-0.115016825
189	0x3dbbd88e	0.09172164
190	0x3e7d5480	0.24739265
191	0x3d1fa9c6	0.038980268
192	0xbd42d7b1	-0.04756898
193	0x3caab086	0.020836126
194	0x3bf7d8d0	0.007563688
195	0xbed4d03f	-0.4156513
196	0x3e0e1f3e	0.13879105
197	0x3dbb4625	0.091442384
198	0x3d19a701	0.037512783
199	0xbdbbb5b8	-0.091655195
200	0xbe38029c	-0.17969745
201	0xbdc42a59	-0.0957839
202	0xbc2e8df1	-0.010653959
203	0x3c88a660	0.016680896
204	0x3b2595c9	0.002526628
205	0x3dd3fe7b	0.10351273
206	0xbd0ce497	-0.034397688
207	0x3d9e95aa	0.0774339
208	0xbddab9a0	-0.106799364
209	0xbbfed614	-0.007776985
210	0xbe88bec7	-0.26708052
211	0xbe3f8f1e	-0.18706939
212	0xbd62dee8	-0.05538836
213	0x3da5f607	0.081035666
214	0x3e5219d6	0.20517668
215	0xb9df85c7	-0.00042633546
216	0xbe4c9421	-0.19978382
217	0xbcf43f7c	-0.029815428
218	0xbbefc120	-0.0073167235
219	0x3af45400	0.0018640757
220	0x3dc7aae8	0.09749395
221	0xbe77ab50	-0.24186444
222	0xbd768071	-0.060181085
223	0xbcbe0390	-0.023195058
224	0x3c3bb420	0.011456519
225	0xbe52a900	-0.20572281
226	0x3cccd9cc	0.025006197
227	0x3e97d1a2	0.29652125
228	0xbe391908	-0.18075955
229	0xbe6c0e4d	-0.2305233
230	0xbd763b54	-0.060115173
231	0x3d4403a4	0.047855034
232	0x3d3193c4	0.04335381
233	0xbd8ffc72	-0.07030572
234	0xbd941f29	-0.07232506
235	0xbd9b46e6	-0.07581882
236	0xbe1ec23c	-0.15503782
237	0xbd327db8	-0.043576926
238	0xbe1ece40	-0.15508366
239	0x3d21ed2c	0.039532825
240	0xbcf2eac8	-0.029652968
241	0x3df9df7c	0.122008294
242	0xbdbe10b6	-0.09280531
243	0x3db2f0b0	0.08737314
244	0xbd7db31d	-0.061938394
245	0xbb34b33f	-0.002757266
246	0x3d0a0eb0	0.033705413
247	0x3d8e5239	0.069492765
248	0xbdb5b5e5	-0.08872584
249	0xbdb7aca5	-0.08968476
250	0xbd8256bc	-0.063641995
251	0xbe1994e5	-0.14998205
252	0xbe06b9ca	-0.1315681
253	0xbdddf357	-0.10837429
254	0x3ea27cba	0.31735784
255	0xbe672243	-0.22571664

dense3.bias f4 [4]
0	0xbe2c0af6	-0.16801056
1	0xbd982067	-0.07428055
2	0x3e3c3334	0.18378907
3	0xbeb176ab	-0.3466085
