Reinforcment_Learning_DQN/agent_output/weights/episode_162_weights.pt (torch, 21495 bytes, 6 tensors)

dense1.weight f4 [64, 5]
00000000: 4187 3dbe be6e a33e 0e5d d03e e416 99bf
00000010: 8156 3fbf 8d14 7b3e 954a f0be 7041 343d
00000020: c104 013f 94dd 9d3e d973 84be fa6f b0be
00000030: ad5a a93e ac00 80bf daa8 a8bf 299e 5ebe
00000040: d010 29be 00d7 113c a239 953e 4082 293c
00000050: 8ca5 e8bd 4212 19be b826 7a3d e191 babf
00000060: 0643 4bbf 053d 83be a0ce e53c f39a dbbe
00000070: b0f9 da3d 3868 0c3d 03cb a2be 097f 233f
00000080: 95d1 40bc ed02 ff3e 404c a83f b03d c03e
00000090: 7477 dbbe caf2 d53d 9f39 64bf 8de7 c4bf
000000a0: 733e 99be 001c 113e c1b6 e4be b4dc 533e
000000b0: f810 6a3e 352b 7f3e 4825 273d 9285 13be
000000c0: f1c4 87be d703 7b3e 6003 2c3e ebdd 4abd
000000d0: 5fa3 c5be b44c 623f 5427 de3d 8b48 a6be
000000e0: abea ea3e 312d 1b3d 895a 1fbe 7556 f03f
000000f0: e343 c3bc 4590 a5be bbae e83e 1e79 8fbf
00000100: 08b4 1ac0 c85c 12be 20b9 10bc b02f d8bd
00000110: 806c e0bc 2049 5a3e 693c 433d 313c 40be
00000120: 8290 89bd 63e4 0cbf a652 f43e 8a5f 9f3e
00000130: 29e2 cfbe 3de0 b83e d541 b0be ea8b e5bf
00000140: e1d9 2b3e 0cdc c1be c4e9 b93e bd41 25bf
00000150: 125a 02c0 7b99 4c3e d94f 08be dfeb b5be
00000160: 80d9 a3be 8ec8 7dbc a086 a13e 9adf adbe
00000170: 8147 663d 825a 87bf aea2 bfbf b7ff 74be
00000180: bf1a 143f 3f45 1bbe 20e7 253f e4e2 3040
00000190: 9cc0 71be efaf 0f3f 1589 68be 8f9f f03f
000001a0: b589 033f a9a5 18be 6e10 ea3e 23f3 2bbe
000001b0: ea09 67bc 5492 0a40 18f2 b5be 2e8a 33be
000001c0: b041 e8bd 153c cfbe 7455 473e 4b3b b5bc
000001d0: 38e6 993e fe66 af3b 8f6d 60bf c665 5a3f
000001e0: caf2 a1be 40fa 373e ff8c 9cbe 5048 d83e
000001f0: 4275 a3be 0bfa 9cbd 2b4f 2abe 8c7e 2a3e
00000200: f2e5 4ebf 7001 f4bf f4a6 2bbd 9d26 d43e
00000210: d5a1 c9be cf6b cd3f 1f3b 373f 70f2 0cbf
00000220: f3cd 45bd 0ed5 b93e e97d 2ebf 1f15 73bf
00000230: 0c74 36be 08d4 1a3e f71b bbbe 9c70 88be
00000240: 3490 643e 66c2 45be 68a8 123f c9c6 873c
00000250: 3dd0 3ebe ab4c d73f 36ac ddbe 1665 8d3e
00000260: 1788 c9be b00b 8fbd 405f 49bd a38d 64be
00000270: bcf6 83be 3578 5a3e 7644 93be ae63 82bf
00000280: 586b 3dbe 90ee 663d b361 dbbe c33c 6bbe
00000290: acca a5be ee7e 8a3e caeb aebe a34a 92be
000002a0: 775d e83d b8ab 1dbf 5ff0 8c3e 544c 09be
000002b0: 296a 12bf 01f9 843f 5a98 fdbe 87ef d8bb
000002c0: 5d8b a83d cdc2 66be 306d 0d3f 6dca c43f
000002d0: 9aea 20bf 9aae f03d f781 a33e 89bf 703e
000002e0: 719c adbe c0ad 48be 1a70 2abe 4843 b13d
000002f0: 79ba 97bc 6c79 a6bf 93df 0abe a690 483e
00000300: e6e8 23bd 7730 69be 1678 9a3e af82 94bd
00000310: bfcd 1e3d ddf2 ba3e 2fa2 adbf 7c7f d2bf
00000320: 65be 5dbe 68c2 e9bd d454 3f3e 1ab5 77be
00000330: 898d 44bf 8e55 d6bd 9da7 d9be 86aa bc3e
00000340: 31e0 8dbf 018b c8bf 352a 0cbe 411b e83e
00000350: 8ba4 b2bd ae3e 313e 1900 0640 f94b 123d
00000360: d955 ccbe ed91 e83e e419 46bf de2b 24c0
00000370: 67b7 a2be e03c 5b3d 6dda d8be f805 46be
00000380: e40f 693e e8a8 fabd c395 c53e 0c71 31bd
00000390: dc88 b13e 52ff 0140 9615 86be c419 a9bd
000003a0: f531 c0be e863 b53d a295 46be df4f a5bd
000003b0: 4f4f 5dbe 5d64 f53d ec97 65bf d545 c8bf
000003c0: 1a1e 99be b6b3 79bd 4dda 633e 3abc 6cbe
000003d0: c11f 9cbf 616d 05be 465b 6bbe ea3f b23e
000003e0: aae5 6bbf fa37 1ec0 bb22 843e 9f77 adbd
000003f0: eeb5 09bf 8ad1 623f b8cb e4be 8c77 c8bd
-0.18508627 0.31920427 0.40695995 -1.1960111 -0.7474137 0.24519558 -0.46931902 0.04400772
0.5039788 0.30833113 -0.25869635 -0.3446043 0.33076993 -1.0000205 -1.317653 -0.21740021
-0.1651032 0.008901358 0.29145533 0.010345995 -0.113597006 -0.14948371 0.06107208 -1.4575769
-0.79399145 -0.25632492 0.028052628 -0.42891654 0.10692155 0.03427908 -0.3179551 0.63865715
-0.011768718 0.4980692 1.314827 0.37547064 -0.42864573 0.10446699 -0.8915042 -1.5383164
-0.29930457 0.14170837 -0.4467068 0.2068966 0.22858036 0.24918826 0.04080704 -0.14406422
-0.26517442 0.24513184 0.16798162 -0.049528044 -0.38601205 0.8839829 0.10847345 -0.3247722
0.45882162 0.037884895 -0.1556188 1.8776385 -0.023836082 -0.3233663 0.4544581 -1.1208837
-2.4172382 -0.14293206 -0.0088332 -0.10555971 -0.027395487 0.21316957 0.047665033 -0.18772961
-0.06717016 -0.5503599 0.47719306 0.31127578 -0.40602234 0.3610858 -0.34425226 -1.7933323
0.16782333 -0.37863195 0.36311162 -0.64553434 -2.0367475 0.19980423 -0.1331171 -0.35531518
-0.32001877 -0.0154897105 0.31548023 -0.33959657 0.056220535 -1.0574496 -1.4971521 -0.23925672
0.5785331 -0.15163134 0.64805794 2.7638483 -0.23608631 0.5612783 -0.22708543 1.8798693
0.51382 -0.14906944 0.4571566 -0.16791968 -0.014101485 2.1651812 -0.35536265 -0.1753318
-0.11340654 -0.40475526 0.19466192 -0.022123 0.30058455 0.005352854 -0.87667173 0.85311544
-0.31630546 0.17966557 -0.3057632 0.4224267 -0.31925398 -0.076648794 -0.16631763 0.16649836
-0.8081962 -1.9062939 -0.041907266 0.4143571 -0.3938128 1.6048526 0.71574587 -0.5505743
-0.04829211 0.3629536 -0.68160874 -0.94954103 -0.17817706 0.15119946 -0.36544773 -0.26648414
0.22320634 -0.19312438 0.5728822 0.01657428 -0.18634124 1.6820272 -0.4329545 0.27616185
-0.3936164 -0.06984651 -0.049163103 -0.22319655 -0.2577418 0.21334918 -0.2876317 -1.018667
-0.1849798 0.056379855 -0.42847976 -0.22972398 -0.3238119 0.27049965 -0.34164268 -0.28572568
0.11345952 -0.61590147 0.2752714 -0.13408023 -0.5719324 1.038849 -0.49530298 -0.0066203508
0.082297064 -0.22535248 0.5524473 1.5374275 -0.62857974 0.117520526 0.31935093 0.23510565
-0.33908418 -0.1959753 -0.16644326 0.08655411 -0.018521534 -1.3005805 -0.1356185 0.19586429
-0.04001703 -0.22772394 0.30169743 -0.072514884 0.038770434 0.36513415 -1.356512 -1.6445155
-0.21654661 -0.11414033 0.18684703 -0.24190179 -0.76778466 -0.10465537 -0.4251069 0.3684885
-1.1084043 -1.5667421 -0.13687976 0.45333293 -0.0872279 0.17309067 2.093756 0.035716984
-0.39909247 0.45423833 -0.77383256 -2.5651774 -0.3178055 0.05352485 -0.42354146 -0.19338214
0.22759968 -0.122392476 0.38590822 -0.0433207 0.34674728 2.0312085 -0.26188344 -0.082568675
-0.37538114 0.08856946 -0.19393018 -0.08071875 -0.21612285 0.119820334 -0.8968494 -1.5646311
-0.29905778 -0.0609624 0.22251244 -0.23118678 -1.219719 -0.13030006 -0.22984037 0.34814388
-0.92147315 -2.4721665 0.25807747 -0.084700815 -0.5379323 0.8860098 -0.44686675 -0.09788427

dense1.bias f4 [64]
00000000: 481e 15be 2241 1c3e a15e 8d3e 1454 963e
00000010: 38ba 7bbe 2a32 c93e 6ea0 66bd 10f3 b53d
00000020: 1acc d73e b39f 383e 1ab9 c5be 2c96 183e
00000030: 2f63 193d d469 c83e bce3 0fbf ea68 48be
00000040: 68e9 5e3e 7f22 62be 4327 0ebe c822 babe
00000050: 0e0a 213e ec9f 67be f033 8cbd 2c2f 3c3e
00000060: e0a4 ba3c 94de afbe 7195 7abe 2758 403e
00000070: 7976 d0be c1ce a93e 2927 a9be 1d4a e93e
00000080: 7466 533e 6c22 cfbe a353 80be ef18 28bf
00000090: 1f38 ff3d cf56 3d3e d73b 14bf 9fc8 a33e
000000a0: 22f9 cfbe 3771 663e 3397 8abe 4aee c93e
000000b0: 4c64 adbe 0050 11bf adac c8be c2a3 2ebd
000000c0: 918c b23e 7a3f 73be 683e 5a3e 682a 28bd
000000d0: a2b1 abbc a5fd dcbe 5c93 ca3e fc02 813d
000000e0: d410 d3bd 956a 13bf 235d 82be b8e6 f13d
000000f0: a551 c6be f577 65bd 2ced e1be f8b6 dcbe
-0.14562333 0.15259221 0.2761126 0.29361022 -0.24582756 0.39296085 -0.05630534 0.08884251
0.42147905 0.1802967 -0.38617784 0.14901036 0.037448104 0.3914324 -0.5620687 -0.19571272
0.21768725 -0.22083472 -0.13882165 -0.3635466 0.15726492 -0.22619599 -0.06845844 0.1837737
0.022783697 -0.343495 -0.2447107 0.18783627 -0.40715387 0.33165553 -0.3303769 0.45564356
0.20644552 -0.4045595 -0.2506381 -0.65663046 0.12461876 0.18490146 -0.5790381 0.31989
-0.4061976 0.22504126 -0.2706848 0.39439613 -0.33865583 -0.56762695 -0.3919424 -0.04263664
0.3487287 -0.23754683 0.21312869 -0.041056067 -0.020958725 -0.43162265 0.3956555 0.06299397
-0.10305944 -0.57584506 -0.25461683 0.11811584 -0.38734165 -0.056022603 -0.4412626 -0.43108344

dense2.weight f4 [64, 64]
00000000: bc39 0c3e 8d41 b6be 8af6 6f3e 6405 d5bd
00000010: 0b7f 1a3c 84d0 713d 060d e03d 3631 d13c
00000020: 0e7c f83d 400b ec3b 654e 85be f0d4 dd3d
00000030: 0849 593e a006 933b 8cda 36be 5282 0f3d
00000040: ee6d f23d 4bc6 a1be 61be 2bbe 2e91 9dbe
00000050: 92db 763f e0e1 e6bd 00e8 e83d 26b7 8dbd
00000060: 3839 0d3d cf60 45bd b371 be3d e4d3 533e
00000070: 0a3d f03d 4f4d ed3d d8ae 5a3d 401f 423e
00000080: 3a53 88bd 3cb4 27bd 7dce 63be 92bf b3bc
00000090: d8ec 0d3f 03f9 273d 5a9e 543d 0143 e73d
000000a0: 9330 813e a5f9 c23d 0e7d 25bd 7afa 223e
000000b0: 9a0c cb3d bdc5 9e3d 1050 703c 70c4 d43d
000000c0: f491 523e d879 c93c c4f5 ccbe e820 cdbd
000000d0: f88d 2cbd f7e0 aebd 9658 2b3e 4562 b13c
000000e0: 3806 923d e9b2 303e bea4 293e 00c6 13ba
000000f0: 61de 833e 3ae2 bbbd 6fb8 013e 5aec 1cbd
00000100: 4780 9c3e 9039 11be 2812 b5be 96e7 8ebd
00000110: 41e8 ef3d 5c95 b8bd 89cd 363f 1af1 35be
00000120: 283c fb3c 0e6f f33d 719c b0bc 93fd 433f
00000130: d23d d8be e6f0 e63d cdb4 e0bc ffb3 aabc
00000140: 0872 cabe aec8 11be 3613 84bd 0fa4 783f
00000150: fae2 35bf 1ce7 063f f85d 383d ceb6 d13e
00000160: a4c3 08bd 87c5 f8bd df9e 3e3d 3f75 ed3c
00000170: cccc 64bd ffaa 5e3f c8c5 633d 0ded c7bd
00000180: 8217 85bd b312 39be de62 51be a2a5 bc39
00000190: 9df5 133e d872 3fbd 1275 a73e 97f1 7b3d
000001a0: 6779 dabc e9f6 06bf b010 263f bda8 0bbf
000001b0: 0093 b4bc b95d 203f c4ee a4bd b62c 39bb
000001c0: 6432 5fbc 629b a0be 2b20 a7bd 5c0c 75bd
000001d0: 8888 2f3d d496 de3d 1c8a 47bc b182 92be
000001e0: c886 b3bd 3386 b83e c6e8 21be d0d9 29bd
000001f0: 4dc3 4dbc 6328 613e c1e6 9dbe 1ecb 8c3e
00000200: d6c4 debd b293 7cbd d5e7 d83d 30d4 173d
00000210: 632c b7bc be3a f23d 0574 56be 6223 43be
00000220: 5076 c93d 3130 f2bd c400 a2bd 7327 8fbd
00000230: 5b63 533d 1610 8dbd 3b5b fabd 3939 ccbd
00000240: cc5a cabd 51d1 08bc 3c65 19be c690 d8bd
00000250: 87d2 6fbd 5389 09bd 4e6a 8f3d a2d9 57be
00000260: aa9d cc3d e3e6 14bd 5f51 123c 81ad 2bbd
00000270: 108a 0dbc 8ba6 e4bc bcf9 36bd 1cab ef3c
00000280: 7808 e83d 9f16 4bbb c63f 843d da47 9c3d
00000290: e89f 653e 558d 673d 2c9a 08be 5c6f 01be
000002a0: dd98 cb3b adbd b33d beda 02bd 8356 173d
000002b0: ac70 40bd 8358 44be a0e8 d9bc 68c9 a4bd
000002c0: 1183 4a3e c441 0f3d 417f 1f3c e6ca e4bd
000002d0: 9442 b13d a0bb f4bd 3c08 af3d aab0 873d
000002e0: f398 30bd 52b1 71bc 4093 9fbb 20e4 98bd
000002f0: 59e4 ebbb d8c4 dfbd 981d 0a3d 3b50 2dbe
00000300: ac31 5abd 67d1 30be 8059 bb3e 567c b43d
00000310: 4a2c 99bc fc0f 8dbd d177 8bbe 00bd 7c3e
00000320: 6406 3b3d 018c d93d 087b c13c b213 83be
00000330: 6886 093e 24a8 1ebd 0e23 74bd 006c 373e
00000340: e8f5 123f 663d abbc 9a4d 643e ae64 3ebf
00000350: 2997 fa3e b369 bbbe 4ee5 f33d a8b4 fa3d
00000360: 6025 ef3b f8ef 063e c21e 0c3e ca2c 853e
00000370: 4c39 fbbd c86e 33be e4e9 4bbd 1982 d13e
00000380: 70fe bfbc 8610 36bd fbe1 143d 8921 80bd
00000390: 4306 4a3f 8e1a 133e bd57 16bb 9817 1c3e
000003a0: 9cdb da3e c4f5 f33e da60 d9bd 070f 9a3e
000003b0: 1c1a 233d f015 25be a4bc 90bd 1b4a 373e
000003c0: d1e8 fd3e 51ed da3e 52f5 013e fa36 fabd
000003d0: 605e 5dbd 580c 293e 33d8 a03e 37ae 913e
000003e0: ffc9 353d 4c52 03bd 5a6b c13d 5864 b9bc
000003f0: 1198 913e 8a5c 40bd e2ab 6a3e b65d 323d
0.13693899 -0.35596886 0.23433891 -0.10401419 0.0094297035 0.059036747 0.10939984 0.02553616
0.121330366 0.0072034895 -0.26036373 0.1083163 0.21219265 0.0044868737 -0.17856807 0.035036393
0.11837374 -0.31596598 -0.16771843 -0.30774826 0.9642879 -0.11273551 0.113723755 -0.069196984
0.034478396 -0.048188027 0.0929903 0.20686299 0.11730392 0.11587011 0.0533894 0.18957233
-0.06656499 -0.04094337 -0.22246738 -0.021941934 0.5543952 0.04100896 0.05190883 0.11292077
0.25232372 0.09520272 -0.040402465 0.15915862 0.09914513 0.07752559 0.014667526 0.1038903
0.20563489 0.024594232 -0.40031254 -0.10016042 -0.04212758 -0.085390024 0.16733012 0.021653304
0.071300924 0.17255749 0.1656675 -0.0005637109 0.257556 -0.09174009 0.12668012 -0.03831134
0.30566618 -0.14182115 -0.35365415 -0.06977765 0.11714221 -0.09012863 0.7140737 -0.17767754
0.030668333 0.118864164 -0.021558972 0.765588 -0.42234665 0.112764165 -0.027429963 -0.020837782
-0.39540124 -0.1423671 -0.06448977 0.97125334 -0.71049464 0.52696395 0.04501149 0.4095978
-0.033389702 -0.1214705 0.04653823 0.028986571 -0.055859372 0.8697967 0.05560854 -0.09762011
-0.064986244 -0.1807354 -0.20447871 0.0003598156 0.14449163 -0.046740383 0.32706505 0.061509695
-0.026669217 -0.52720505 0.64869213 -0.5455435 -0.022042751 0.6264301 -0.080533534 -0.002825541
-0.013622854 -0.31368548 -0.081604324 -0.05982624 0.042854816 0.10868612 -0.012178924 -0.28615335
-0.08765942 0.36039886 -0.15811452 -0.041467488 -0.01255877 0.21988063 -0.30840114 0.27498716
-0.10877387 -0.06166429 0.105910935 0.037067592 -0.022360032 0.118276104 -0.20942695 -0.19056466
0.098370194 -0.11825598 -0.07910302 -0.06989946 0.051608425 -0.06887834 -0.12224432 -0.09971852
-0.098805994 -0.008350686 -0.14980024 -0.10574488 -0.058550384 -0.03357823 0.07002698 -0.21079114
0.099910095 -0.036353003 0.008930533 -0.041913513 -0.008638874 -0.027911445 -0.04467176 0.029256396
0.1132974 -0.0030988825 0.06457476 0.07630892 0.2242428 0.05653127 -0.13340062 -0.12640136
0.006213291 0.08776412 -0.03194689 0.03694774 -0.046982452 -0.1917439 -0.026600182 -0.08046228
0.1977656 0.03497483 0.00973493 -0.11171512 0.08655277 -0.11949849 0.085464925 0.06625493
-0.043114614 -0.014751749 -0.0048698485 -0.074653864 -0.007198852 -0.10926217 0.03371963 -0.16925137
-0.053270027 -0.1726738 0.3659172 0.08812778 -0.018697876 -0.068878144 -0.2723985 0.24681473
0.04566039 0.10622407 0.023618236 -0.25600964 0.13430178 -0.03873457 -0.059603743 0.17912292
0.57406473 -0.0209033 0.22295228 -0.74372375 0.4894345 -0.3660408 0.11908971 0.12241489
0.0072981566 0.13177478 0.13683608 0.26010734 -0.12266788 -0.17522728 -0.049783602 0.4091957
-0.023436755 -0.04444935 0.036348324 -0.06256396 0.78915805 0.14365599 -0.002294048 0.15243375
0.42745674 0.47648442 -0.10614176 0.3008959 0.03981982 -0.1612165 -0.0706723 0.17899363
0.49591687 0.42759183 0.12691239 -0.12217517 -0.05404508 0.16508615 0.31414947 0.28453228
0.04438209 -0.032060906 0.09444304 -0.022630855 0.2843633 -0.046963252 0.2291713 0.0435464

dense2.bias f4 [64]
00000000: 46af 8f3e 02f6 63bc f9c1 debd c9bc 973e
00000010: 1cd7 4abe 48f3 b93d 19c8 133d 5bf4 14be
00000020: f16e 683d 7814 bd3c c4ec 3bbd 2b09 b7bc
00000030: 54cf 4e3d 6ca5 32be b0f9 853d 4108 993d
00000040: dbcd 38be e261 ee3d 710f b43b 0814 8cbc
00000050: 7d9f 0bbe b9f1 bf3d 424b 4fbe 5212 8e3d
00000060: cc0b 55bd fa82 093e d487 a03d 761a e03d
00000070: af23 0e3e c4e1 13bd 08de debc 51a8 783d
00000080: 1839 eebd 8814 99bd acf0 0cbe fa02 a43d
00000090: acba 0ebe 7b5c d83c e8c6 c2bc 5165 d43d
000000a0: 7f51 953d d185 d7bd 3ebe a4bd a1dc 1fbe
000000b0: 02dd 01bd c919 bd3d 4345 d83c 70d6 ab3b
000000c0: 63b3 2abe bcb2 df3d 433d ad3d d900 77bb
000000d0: e343 b13c 8050 f93c 9bfa 28bd a682 8ebc
000000e0: e5d0 06be 8458 0bbd 626a 0abe 77cf 1e3e
000000f0: 1838 253d 774f 84be 04cd 00be 0374 1a3e
0.2806341 -0.013913633 -0.10876841 0.2963622 -0.1980862 0.09079605 0.0360795 -0.14546339
0.056746427 0.02308105 -0.045880094 -0.022343239 0.050490692 -0.17445916 0.06541765 0.074722774
-0.18047278 0.116397634 0.005495005 -0.017099395 -0.13635059 0.09372277 -0.20243552 0.06937088
-0.052013204 0.1342887 0.07838407 0.10942547 0.138808 -0.03610398 -0.027205482 0.060707394
-0.116319835 -0.07474619 -0.13763684 0.0800838 -0.13938397 0.026411286 -0.023776487 0.10370887
0.07290935 -0.1052357 -0.08044098 -0.15611507 -0.03170491 0.09233434 0.026400214 0.005244069
-0.16669993 0.10922763 0.0845895 -0.0037689714 0.021638816 0.030433893 -0.04125462 -0.017396282
-0.13165624 -0.034019962 -0.13517144 0.15508829 0.0403367 -0.25841877 -0.12578207 0.15083317

dense3.weight f4 [4, 64]
00000000: 0139 d0bd 7950 8b3e ce44 b6bd 2186 5bbe
00000010: 8d99 02bd 84f5 5ebd e0ec 363c dc0a bc3c
00000020: 8bb4 a6bd 3202 aebd b807 e03d 32eb f2bd
00000030: 5093 fabc db59 103d 18a7 c43d 154e 7c3b
00000040: dfdc 4fbe 704a 13be da90 b23d 80be d8bc
00000050: eafc e1bc f77b 21be b3c5 81bd 0787 4ebc
00000060: c06f a7bc 6bc9 a3bd c65c 3b3d da88 a93d
00000070: f915 f0bd 0178 423d e049 8cbd fb36 123c
00000080: d999 e1bb 0d4d 183d 670b 4d3d ae67 833d
00000090: a1b4 993d 01c7 6cbe 704a d6bc c043 313d
000000a0: 1504 223d e4d1 373e 5dab a0bc d85e 1abe
000000b0: e19f 2bbe 87c1 a63d 8ab1 6b3d 7584 c13d
000000c0: 9d5d b2bd 4601 df3d ec9d d9bc 469a 25bc
000000d0: 09a6 e4bc 04c6 97bd b335 863c 983e aebc
000000e0: de52 c6bd 2096 203c 34d6 0abd 9143 3abe
000000f0: 9129 19be 976b fcbd c494 9c3d d39f 16be
00000100: ac1c eebd f6ef 8b3e ee46 24bd 8e05 51be
00000110: 6ee0 5dbd 80ce 83bb 0de8 64be 7036 3bbd
00000120: dfc5 db3c cee9 c4bd 946a 813d 641e 42be
00000130: 622c e23d 901c b0bc 0296 b5bd 71ec c3bd
00000140: b6c8 07be 1f13 60be 34c0 54bd e4a9 44bd
00000150: 07d9 293c 2d4d 0cbe 0183 623d 498e 92bd
00000160: c07f 8f3b fee8 11be 923b 203d 8012 5fbb
00000170: 1f9d c4bd 81db 633d a868 353d eb52 90bb
00000180: 0937 7ebd 3dda ae3c 9a4e a1bd e49d c9bd
00000190: bae2 1d3d a25f 36be aafe f1bd 72a2 85bc
000001a0: 02ad 4b3d 3445 543e 485e b4bd 0c6c eabd
000001b0: 1564 103e 4c03 0cba e62d e0bd 67b0 583d
000001c0: a12b d5bd f889 ce3d 0e04 a6bd 3eb4 c33b
000001d0: 65a3 1a3d a049 dd3d 65c0 543d 6f6c a6ba
000001e0: 0343 523d 609f 6ebc e8ae 95bc 40f9 4fbe
000001f0: 09d3 58be b825 47be e5ec 4b3d f1e4 1ebe
00000200: 3d3d e2bd f8b4 903e 4e02 a4bd 3986 36be
00000210: 24ee b5bd 1ab6 83bb f71d 9137 f84f e1bd
00000220: 26fa 39bd 149b bebd 3046 703c f6f3 f5bd
00000230: a8e5 693d 883f e43b 54b4 82bd ae6e adbd
00000240: 890a 07be 6973 0abe 5079 f13c 0c43 6fbd
00000250: 9ab3 99bd a183 00be 9c1a f83c b104 57bc
00000260: 4e64 cf3d 8563 8cbc c06a aa3d 665e 84bd
00000270: b4f1 dcbd 4836 f53c f616 b4bd 924d 3d3e
00000280: 53fb ca39 4a6c d5bc 5f2c b0bc 3ebd 97bd
00000290: aecf c03d 46fc 6abe 6852 c7bc 2dc9 123d
000002a0: 28d7 cbbc 0036 373e c383 c9bc e3a9 f6bd
000002b0: 87e7 383e 5327 2bbd 708a d33d 84bd 493d
000002c0: a641 f2ba c00f 13bb 6867 35bd 70ae b5bd
000002d0: b492 453d 14e4 413d fba1 933d c9a6 043c
000002e0: bb54 ad3c 307b 2f3c ddb7 82bc 7f3a aabd
000002f0: c16f 70be 9e49 30be b742 bf3d d74b 473d
00000300: 87fb 57be a5c6 523e e9d2 84bd a47a 7ebe
00000310: ee44 413d 5896 1dbd 2fb2 83be db83 a1bd
00000320: 2767 4d3d a049 cabd 30bc 833d ed41 1abe
00000330: a070 883b fa3b d13d 2a2b b1bd b2ba f23c
00000340: 2ea6 f1bc d96c 11be 6e8e b03d 5c59 d33d
00000350: a2ef 823d 9237 6ebe 56b9 733d 07ef acbd
00000360: 7001 58bc 5623 60be bc98 d3bd d8c0 7b3d
00000370: a204 41be bd37 893d 9c89 da3d 8f5e 763e
00000380: 0a71 4bbd 9929 633b 6d78 10bc 9878 e83c
00000390: e10f 6fbd 5173 b2be fc22 833d f452 c23c
000003a0: 4ce9 2dbc fa13 723d b05c 28be 3ac7 2dbd
000003b0: 908c 093e c060 f3bd 7ef1 213d eb5a b6bc
000003c0: 5336 753c 4ec0 a13d 5ca4 d8bd 1fc8 a93c
000003d0: 9658 0bbd f49d 8abd 1fab 4b3d aeef 80bd
000003e0: f809 d13c 98c4 a2bd f7dd b63d 4f8c d6bd
000003f0: e2cc 34be 94ca afbd f7f9 3d3d 49ad 27be
-0.10167123 0.27209833 -0.08899842 -0.21437885 -0.03188472 -0.05443336 0.011164874 0.022954397
-0.081399046 -0.084965125 0.10938972 -0.11861266 -0.030587822 0.035241943 0.09602183 0.003849869
-0.202991 -0.14383864 0.087190345 -0.026458025 -0.02758642 -0.15769945 -0.06336536 -0.012605435
-0.020439029 -0.07997402 0.045742773 0.082780555 -0.11722941 0.047477726 -0.06850028 0.008924241
-0.006884795 0.037182856 0.050059702 0.0641626 0.07505155 -0.23122789 -0.026158541 0.043277502
0.039554674 0.1795116 -0.019612962 -0.15075243 -0.16760208 0.08142381 0.05754236 0.09449092
-0.087092616 0.10888915 -0.02656456 -0.010107582 -0.027911203 -0.07410815 0.016383028 -0.021270081
-0.096837744 0.009801418 -0.033895686 -0.18189837 -0.14957263 -0.12325209 0.07645562 -0.14709406
-0.116265625 0.27331513 -0.040106706 -0.20412275 -0.05416911 -0.0040224195 -0.22354145 -0.045706213
0.02682775 -0.09614907 0.06319156 -0.18956906 0.110436216 -0.021497995 -0.08866502 -0.09566582
-0.13260159 -0.21882294 -0.05194111 -0.048013583 0.010366685 -0.13701315 0.055300716 -0.07156045
0.0043792427 -0.14249036 0.03911931 -0.0034038126 -0.09600281 0.055629257 0.04428926 -0.004404416
-0.062064204 0.021344298 -0.0787632 -0.09844568 0.0385463 -0.17809919 -0.118161514 -0.016312812
0.04972554 0.20729524 -0.08807045 -0.114463896 0.14100678 -0.00053410674 -0.109462544 0.052902605
-0.10408712 0.10084909 -0.08106242 0.0059724143 0.03775348 0.108050585 0.051941294 -0.0012697111
0.05133344 -0.014564365 -0.018271878 -0.20309925 -0.21174254 -0.19447982 0.049786467 -0.15517022
-0.110468365 0.28263068 -0.08008252 -0.1782464 -0.08883312 -0.004019511 1.72993e-05 -0.11001581
-0.045404576 -0.093069226 0.0146651715 -0.120094225 0.057103783 0.0069655813 -0.06382051 -0.08468376
-0.13187613 -0.13520588 0.029476792 -0.05841355 -0.075049594 -0.12550212 0.030286126 -0.013123677
0.101265535 -0.017137298 0.08321142 -0.064633176 -0.10788289 0.02993311 -0.08793442 0.18486622
0.00038715694 -0.026052613 -0.021505533 -0.07409142 0.09414612 -0.22947797 -0.024331287 0.035836387
-0.024882868 0.17891693 -0.024598962 -0.12044122 0.1805707 -0.04178555 0.10329139 0.049253
-0.00184827 -0.0022439808 -0.04428807 -0.08871162 0.04823561 0.047336653 0.0720863 0.008096405
0.021158567 0.0107105225 -0.015956813 -0.083119385 -0.2348013 -0.17215583 0.09338897 0.04865631
-0.21092044 0.2058359 -0.064855404 -0.24851471 0.047184877 -0.038473457 -0.2572188 -0.078864776
0.050147202 -0.09877324 0.06432378 -0.15064211 0.0041638166 0.10216518 -0.08650811 0.029630039
-0.029498186 -0.14201678 0.08620916 0.10319778 0.063933626 -0.23263386 0.059502922 -0.08444028
-0.0131839365 -0.2188848 -0.10331866 0.061463207 -0.18849424 0.06700084 0.10670778 0.24059509
-0.04966835 0.0034662245 -0.008817774 0.028377816 -0.058364753 -0.34853604 0.06403157 0.023721196
-0.010614704 0.059101082 -0.16441607 -0.042426325 0.13432527 -0.11883688 0.039536946 -0.02226015
0.014966565 0.07898007 -0.10578224 0.020725308 -0.03402003 -0.067684084 0.04972374 -0.06295715
0.025517449 -0.079476535 0.08929055 -0.104759805 -0.17656282 -0.085835606 0.046380963 -0.16374697

dense3.bias f4 [4]
00000000: d7a7 893d 97de b3bc 1258 983c ce2f 29be
0.06721466 -0.021956725 0.018596683 -0.16522142
