Reinforcment_Learning_DQN/agent_output/weights/episode_191_weights.pt (torch, 21495 bytes, 6 tensors)

dense1.weight f4 [64, 5]
00000000: 0be5 16be 214f b83e b64d d83e 1352 abbf
00000010: 4538 44bf 9cf1 4d3e df76 0cbf ee14 30bb
00000020: 2d3a 083f e69f a53e 2d84 99be 8117 d1be
00000030: 2419 8c3e ac00 80bf daa8 a8bf 299e 5ebe
00000040: d010 29be 00d7 113c a239 953e 4082 293c
00000050: 8ca5 e8bd 4212 19be b826 7a3d e191 babf
00000060: 0643 4bbf 053d 83be a0ce e53c f39a dbbe
00000070: b0f9 da3d 3868 0c3d 2f3b a8be 8ba4 223f
00000080: 59df b2bc 9284 093f bf98 b73f 0fd4 c53e
00000090: e710 d3be 7d65 ee3d 9759 75bf a997 d0bf
000000a0: 733e 99be 001c 113e c1b6 e4be b4dc 533e
000000b0: f810 6a3e 90d0 533e 8378 803c c3db 25be
000000c0: 5a08 a9be 5a63 833e 4483 1f3e 5f54 86bd
000000d0: 26f2 d7be 69dc 803f 12c9 f33d 4f8e b4be
000000e0: eb65 dd3e 83ff 223b d6fb 09be 34a4 f83f
000000f0: a350 5a3c 72cd 98be db4f f03e 4a03 9cbf
00000100: 4eec 21c0 c85c 12be 20b9 10bc b02f d8bd
00000110: 806c e0bc 2049 5a3e 693c 433d 313c 40be
00000120: 8290 89bd 63e4 0cbf a652 f43e 07c0 a43e
00000130: f4ca cbbe cd3f bc3e fcbb e2be c1c0 01c0
00000140: cb5a 3f3e 882e b8be 5de5 c63e 210a 36bf
00000150: 2de2 10c0 9a54 4d3e 72f4 03be 4286 c0be
00000160: 8506 7dbe 6cf6 debc 229f a63e 8c81 a9be
00000170: 0edf 813d e6af 8dbf b7ad c9bf 5b28 6dbe
00000180: 8aa9 183f 3f62 2dbe b730 243f f7f4 4040
00000190: ea25 91be 864d 073f b1e8 84be 20a1 0140
000001a0: cec3 f03e 53a5 2dbe 6cd0 e43e 0dcd 5ebe
000001b0: aad9 94bb 73e7 1940 18f2 b5be 2e8a 33be
000001c0: b041 e8bd 153c cfbe 7455 473e e055 e4bc
000001d0: 5f8c a03e 99d2 9f3c 1f2b 79bf 4806 743f
000001e0: caf2 a1be 40fa 373e ff8c 9cbe 5048 d83e
000001f0: 4275 a3be 2575 b1bd dc9f 3ebe 34c0 0e3e
00000200: f2e5 4ebf 7001 f4bf 137d d2bd fdb7 c43e
00000210: 14e1 d7be a13c dc3f 2e8b 4a3f 7ac2 03bf
00000220: 1c1d 15bd 566f c93e e97d 2ebf 3520 7fbf
00000230: 0c74 36be 08d4 1a3e f71b bbbe 9c70 88be
00000240: 3490 643e aa17 4cbe a650 163f 36dd 143d
00000250: a62b 66be a893 ee3f 36ac ddbe 1665 8d3e
00000260: 1788 c9be b00b 8fbd 405f 49bd 4747 7dbe
00000270: cd88 8cbe d7ed 543e 7644 93be ae63 82bf
00000280: 586b 3dbe 90ee 663d b361 dbbe c33c 6bbe
00000290: acca a5be 0f60 853e b127 b7be 8b1e b2be
000002a0: ad67 153e 404f 2bbf 7dab 8a3e e8ad 0fbe
000002b0: b8d9 19bf cfa8 933f 1e66 00bf 1e66 99ba
000002c0: 2d7f be3d 36b1 59be 0d1b 0a3f 0aae cd3f
000002d0: b30c 1bbf 4734 f13d f38c ad3e 89bf 703e
000002e0: 5284 cbbe c0ad 48be 1a70 2abe 4843 b13d
000002f0: 79ba 97bc 6c79 a6bf f160 1cbe 0d91 303e
00000300: 5ccc 83bd 2ca8 89be 11cb 913e 64ba debc
00000310: db43 a63d 7a3c c83e 4f0b b9bf c34c eabf
00000320: c6b7 70be 855c 08be 44d2 383e 1ab5 77be
00000330: 898d 44bf e06a cdbd fc56 d7be ae5b bb3e
00000340: 31e0 8dbf 018b c8bf 8b92 1cbe 8d63 ea3e
00000350: 20c7 9ebd ffbb 1d3e c079 1240 80e4 8d3d
00000360: 9b6b b7be c409 f53e 3703 65bf 8ae9 2ec0
00000370: 67b7 a2be e03c 5b3d 6dda d8be f805 46be
00000380: e40f 693e 8b7c 08be 7483 c73e 7907 1fbd
00000390: 5caa a73e bb5a 0e40 9615 86be c419 a9bd
000003a0: f531 c0be e863 b53d a295 46be 66a0 bcbd
000003b0: 95db 6fbe 349f ca3d ec97 65bf d545 c8bf
000003c0: f276 85be 96c5 1fbd 1cd2 803e bd82 86be
000003d0: db7d a0bf 94c8 cabd 486e 4abe 2901 c03e
000003e0: 4ff0 81bf 8769 29c0 e0c1 773e 828e c9bd
000003f0: 860b 13bf bd48 7b3f 99e5 f0be 8c77 c8bd
-0.1473581 0.3599787 0.4224679 -1.3384422 -0.7664836 0.20111698 -0.5486888 -0.0026867944
0.5321377 0.32348555 -0.29983655 -0.40838245 0.2736293 -1.0000205 -1.317653 -0.21740021
-0.1651032 0.008901358 0.29145533 0.010345995 -0.113597006 -0.14948371 0.06107208 -1.4575769
-0.79399145 -0.25632492 0.028052628 -0.42891654 0.10692155 0.03427908 -0.32857653 0.6353232
-0.021835016 0.5371791 1.434349 0.3863835 -0.41223833 0.11640451 -0.9583983 -1.6296283
-0.29930457 0.14170837 -0.4467068 0.2068966 0.22858036 0.20685029 0.015682464 -0.16197114
-0.33014184 0.25661737 0.15577418 -0.06559061 -0.42176932 1.0067264 0.119035855 -0.35264823
0.4324182 0.0024871535 -0.13474974 1.9425111 0.013324889 -0.29844242 0.46935925 -1.2188504
-2.530048 -0.14293206 -0.0088332 -0.10555971 -0.027395487 0.21316957 0.047665033 -0.18772961
-0.06717016 -0.5503599 0.47719306 0.32177755 -0.39803278 0.36767426 -0.44284046 -2.0273898
0.18686979 -0.35973 0.38846865 -0.71109205 -2.2638047 0.20051804 -0.12886217 -0.3760243
-0.24709518 -0.027217112 0.32543284 -0.3310665 0.063413724 -1.1069305 -1.5756139 -0.23159926
0.59633696 -0.16932009 0.6413683 3.0149515 -0.2834924 0.52852666 -0.2595878 2.0254593
0.47024387 -0.16957597 0.44690263 -0.21757908 -0.004542549 2.4047515 -0.35536265 -0.1753318
-0.11340654 -0.40475526 0.19466192 -0.02787298 0.31357095 0.0195096 -0.9733142 0.95322084
-0.31630546 0.17966557 -0.3057632 0.4224267 -0.31925398 -0.08664922 -0.18615669 0.13940507
-0.8081962 -1.9062939 -0.10277762 0.38421622 -0.42163908 1.7206002 0.7911862 -0.5146862
-0.036404714 0.39342755 -0.68160874 -0.9965852 -0.17817706 0.15119946 -0.36544773 -0.26648414
0.22320634 -0.19930902 0.5871681 0.036343776 -0.22477588 1.8638811 -0.4329545 0.27616185
-0.3936164 -0.06984651 -0.049163103 -0.24734221 -0.2744812 0.20793854 -0.2876317 -1.018667
-0.1849798 0.056379855 -0.42847976 -0.22972398 -0.3238119 0.2604985 -0.3577247 -0.34788927
0.1459033 -0.669178 0.2708396 -0.14031184 -0.6009784 1.1535891 -0.5015582 -0.0011703407
0.093016006 -0.21259007 0.53947526 1.6068738 -0.6056625 0.11777549 0.33896598 0.23510565
-0.3974939 -0.1959753 -0.16644326 0.08655411 -0.018521534 -1.3005805 -0.15271355 0.17242832
-0.06435463 -0.26886117 0.2847524 -0.027188487 0.08118411 0.3910864 -1.4456576 -1.8304676
-0.23507604 -0.13316543 0.1804896 -0.24190179 -0.76778466 -0.100301504 -0.4205855 0.36593384
-1.1084043 -1.5667421 -0.15290277 0.45779076 -0.07752824 0.15403746 2.288681 0.069283485
-0.35824284 0.47859013 -0.8945803 -2.733004 -0.3178055 0.05352485 -0.42354146 -0.19338214
0.22759968 -0.1332876 0.38967478 -0.038825486 0.3274716 2.2242877 -0.26188344 -0.082568675
-0.37538114 0.08856946 -0.19393018 -0.09210281 -0.23423608 0.09893647 -0.8968494 -1.5646311
-0.2606731 -0.039006792 0.251603 -0.2627162 -1.2538408 -0.099015385 -0.19768631 0.37500885
-1.0151461 -2.6470659 0.24195051 -0.09841634 -0.5743946 0.98157865 -0.4705017 -0.09788427

dense1.bias f4 [64]
00000000: 6536 e0bd dbb0 bc3d a7b2 633e 1454 963e
00000010: 38ba 7bbe 2a32 c93e 1f42 90bd 3165 cf3d
00000020: 1acc d73e 799a 193e 0dcf cdbe bc4f e83d
00000030: 5083 8a3d d469 c83e bce3 0fbf e66d 3abe
00000040: 4571 7d3e 03b9 5fbe fb58 05be 0af6 bbbe
00000050: b824 013e 4eff 86be f033 8cbd 1b4e 403e
00000060: e0a4 ba3c 8178 babe 27d3 94be a9c3 613e
00000070: 7976 d0be a962 aa3e 2927 a9be 9574 e33e
00000080: 7466 533e 5952 d8be 57fd 84be 02ea 25bf
00000090: c36b 133e cf56 3d3e 9b5a 1abf f1fa bb3e
000000a0: d268 d6be a027 673e 6669 8fbe 060b df3e
000000b0: 4c64 adbe 6d64 13bf adac c8be 91a8 74bd
000000c0: 3967 c33e 97a9 4fbe 9e73 503e 682a 28bd
000000d0: a2b1 abbc 8c1f e6be ba1e df3e 3212 143d
000000e0: 54b7 ecbd d1bf 13bf 235d 82be b8e6 f13d
000000f0: f91c d1be ed6e afbd a6dc d3be 41c6 ebbe
-0.10947875 0.0921342 0.22236119 0.29361022 -0.24582756 0.39296085 -0.070438616 0.101267226
0.42147905 0.15000333 -0.4019703 0.11343333 0.06763327 0.3914324 -0.5620687 -0.18205985
0.2475024 -0.2184792 -0.13022225 -0.3671115 0.12611663 -0.26366657 -0.06845844 0.18779795
0.022783697 -0.36420062 -0.29067346 0.22047295 -0.40715387 0.33278397 -0.3303769 0.44424883
0.20644552 -0.42250326 -0.25974533 -0.6481019 0.14396577 0.18490146 -0.602945 0.3671489
-0.41876847 0.2257371 -0.280101 0.43563098 -0.33865583 -0.5757511 -0.3919424 -0.05973107
0.3816469 -0.20279537 0.20356604 -0.041056067 -0.020958725 -0.44945943 0.4357813 0.036150165
-0.115584046 -0.57714564 -0.25461683 0.11811584 -0.40842417 -0.08566079 -0.4137928 -0.46049693

dense2.weight f4 [64, 64]
00000000: 9019 223e 0bc9 c8be 7292 5c3e 6405 d5bd
00000010: 0b7f 1a3c 84d0 713d 1ad6 063e e61a ca3c
00000020: 0e7c f83d 882e e83b 1825 89be 1c44 1c3e
00000030: 6221 4a3e a006 933b 8cda 36be b334 1c3d
00000040: aa21 0a3e 4d62 adbe 2c53 27be 5ff8 a2be
00000050: 2e34 6e3f e42c 02be 00e8 e83d 0283 64bd
00000060: 3839 0d3d 569d a1bd 0ce4 833d 87ec 1a3e
00000070: 0a3d f03d a803 023e d8ae 5a3d fa9c 323e
00000080: 3a53 88bd 063d e3bd 3cea 90be 049b b1bd
00000090: 71f3 003f 03f9 273d 14c2 3e3d 5b84 0f3e
000000a0: 92e5 733e 6bc2 193d cd26 0bbd 591b 253e
000000b0: 9a0c cb3d 415c a83d 1050 703c 1fdf d73d
000000c0: 3da7 2a3e 7e23 023d 2771 eebe e820 cdbd
000000d0: f88d 2cbd 4cae 9bbd 9f13 383e 0aeb fd3c
000000e0: 245d 8f3d 9e5f 3a3e bea4 293e 00c6 13ba
000000f0: d08a 4a3e b011 d9bd 2570 b73d 4e29 0ebd
00000100: 201b ad3e 99b2 09be e5a7 adbe 96e7 8ebd
00000110: 41e8 ef3d 5c95 b8bd 9f51 3e3f 6d68 3abe
00000120: 283c fb3c c7b1 fb3d bd52 2abd d272 3e3f
00000130: 6482 bcbe e6f0 e63d cdb4 e0bc 4c56 31bc
00000140: 8132 c8be ae39 21be 1d95 92bd d2ef 853f
00000150: da25 3bbf 3321 173f f85d 383d ad94 df3e
00000160: a4c3 08bd 0d57 d6bd ef99 9c3d 63aa d83d
00000170: cccc 64bd 8c03 6a3f c8c5 633d 7dec 9cbd
00000180: 8217 85bd d227 66be df66 62be 7698 d63a
00000190: 2a25 533e d872 3fbd 97c8 a63e 88c3 773d
000001a0: 6ceb 03bc c9f8 f6be 1d56 313f 3093 06bf
000001b0: 0093 b4bc 4f84 2b3f c4ee a4bd b62c 39bb
000001c0: 1b96 8f3d b16f 92be b994 c0bd 5c0c 75bd
000001d0: 8888 2f3d 2e5e e73d 42df 943c 2ad7 8dbe
000001e0: e446 eabc 57c7 ce3e c6e8 21be d0d9 29bd
000001f0: cf47 403d 8992 663e 8a94 8ebe d59e 973e
00000200: d6c4 debd b293 7cbd d5e7 d83d 30d4 173d
00000210: 632c b7bc be3a f23d 0574 56be 6223 43be
00000220: 5076 c93d 3130 f2bd c400 a2bd 7327 8fbd
00000230: 5b63 533d 1610 8dbd 3b5b fabd 3939 ccbd
00000240: cc5a cabd 51d1 08bc 3c65 19be c690 d8bd
00000250: 87d2 6fbd 5389 09bd 4e6a 8f3d a2d9 57be
00000260: aa9d cc3d e3e6 14bd 5f51 123c 81ad 2bbd
00000270: 108a 0dbc 8ba6 e4bc bcf9 36bd 1cab ef3c
00000280: 7808 e83d 9f16 4bbb c63f 843d da47 9c3d
00000290: e89f 653e 558d 673d 2c9a 08be 5c6f 01be
000002a0: dd98 cb3b adbd b33d beda 02bd 8356 173d
000002b0: ac70 40bd 8358 44be a0e8 d9bc 68c9 a4bd
000002c0: 1183 4a3e c441 0f3d 417f 1f3c e6ca e4bd
000002d0: 9442 b13d a0bb f4bd 3c08 af3d aab0 873d
000002e0: f398 30bd 52b1 71bc 4093 9fbb 20e4 98bd
000002f0: 59e4 ebbb d8c4 dfbd 981d 0a3d 3b50 2dbe
00000300: 0d25 96bb 289a 48be f2cb c33e 567c b43d
00000310: 4a2c 99bc fc0f 8dbd e6c4 6abe cf77 803e
00000320: 6406 3b3d 6c69 b63d 1b7f 83bb e1ad 70be
00000330: 1315 103e 24a8 1ebd 0e23 74bd e13c 4d3e
00000340: 885c 193f f2eb 0fbd f2e8 603e 618c 4abf
00000350: a6e3 ec3e bfa9 d5be 4ee5 f33d 44d6 f43d
00000360: 6025 ef3b fe65 033e 6d2f ad3d 0d5d 5f3e
00000370: 4c39 fbbd 6dee 2ebe e4e9 4bbd bc80 d33e
00000380: 70fe bfbc 1d14 7ebd c902 913c 5899 c4bd
00000390: 1318 403f 8e1a 133e 0e59 41bb 3f1c 513e
000003a0: 8883 dd3e 8df7 e23e 1181 fbbd dd14 a13e
000003b0: 1c1a 233d e318 30be a4bc 90bd c4a9 453e
000003c0: 16e5 eb3e 510e ea3e 5aa0 cc3d fa36 fabd
000003d0: 605e 5dbd 8486 1b3e df81 b23e ae4e a13e
000003e0: db96 41bd ec59 dbbc 5a6b c13d 5864 b9bc
000003f0: d9f1 823e 38f5 94bd b4dc 583e 8908 193d
0.15830064 -0.39215884 0.2154024 -0.10401419 0.0094297035 0.059036747 0.13167611 0.02467103
0.121330366 0.007085625 -0.26786113 0.15260357 0.19739297 0.0044868737 -0.17856807 0.038136195
0.13489404 -0.3386406 -0.16340321 -0.31830117 0.9304837 -0.12712437 0.113723755 -0.055789
0.034478396 -0.078913376 0.06439981 0.1512929 0.11730392 0.12696707 0.0533894 0.17442694
-0.06656499 -0.11095624 -0.28303707 -0.08672145 0.5037146 0.04100896 0.046571806 0.14015333
0.23818043 0.037538927 -0.03397255 0.16123714 0.09914513 0.08220721 0.014667526 0.10540604
0.16665359 0.03177213 -0.46570703 -0.10016042 -0.04212758 -0.07601604 0.17976235 0.030995864
0.07000187 0.18200538 0.1656675 -0.0005637109 0.19779515 -0.10599077 0.08956937 -0.03470736
0.33809757 -0.13447036 -0.33917156 -0.06977765 0.11714221 -0.09012863 0.74343294 -0.18203898
0.030668333 0.12289768 -0.04158281 0.7439395 -0.3681823 0.112764165 -0.027429963 -0.010823797
-0.3910103 -0.1574466 -0.07157347 1.0463812 -0.7310463 0.59035033 0.04501149 0.43668118
-0.033389702 -0.10465822 0.07646548 0.10579374 -0.055859372 0.9141166 0.05560854 -0.07662294
-0.064986244 -0.22476128 -0.22109555 0.0016372341 0.20619646 -0.046740383 0.32574913 0.060489208
-0.008051734 -0.48236683 0.69272023 -0.5256834 -0.022042751 0.6699876 -0.080533534 -0.002825541
0.07011052 -0.2860084 -0.094033666 -0.05982624 0.042854816 0.1129726 0.018172864 -0.2770322
-0.028598256 0.4038646 -0.15811452 -0.041467488 0.046943482 0.22516836 -0.278477 0.29613367
-0.10877387 -0.06166429 0.105910935 0.037067592 -0.022360032 0.118276104 -0.20942695 -0.19056466
0.098370194 -0.11825598 -0.07910302 -0.06989946 0.051608425 -0.06887834 -0.12224432 -0.09971852
-0.098805994 -0.008350686 -0.14980024 -0.10574488 -0.058550384 -0.03357823 0.07002698 -0.21079114
0.099910095 -0.036353003 0.008930533 -0.041913513 -0.008638874 -0.027911445 -0.04467176 0.029256396
0.1132974 -0.0030988825 0.06457476 0.07630892 0.2242428 0.05653127 -0.13340062 -0.12640136
0.006213291 0.08776412 -0.03194689 0.03694774 -0.046982452 -0.1917439 -0.026600182 -0.08046228
0.1977656 0.03497483 0.00973493 -0.11171512 0.08655277 -0.11949849 0.085464925 0.06625493
-0.043114614 -0.014751749 -0.0048698485 -0.074653864 -0.007198852 -0.10926217 0.03371963 -0.16925137
-0.0045820535 -0.19590056 0.38241535 0.08812778 -0.018697876 -0.068878144 -0.22926673 0.25091407
0.04566039 0.089068264 -0.004012955 -0.2350383 0.14070539 -0.03873457 -0.059603743 0.20042755
0.59906816 -0.035137124 0.21963862 -0.7912045 0.46267432 -0.41731068 0.11908971 0.119549304
0.0072981566 0.12831876 0.084563114 0.2181284 -0.12266788 -0.1708314 -0.049783602 0.41309154
-0.023436755 -0.0620309 0.017701523 -0.095995605 0.75036734 0.14365599 -0.0029502544 0.20420931
0.43264413 0.4432949 -0.12280477 0.3146123 0.03981982 -0.17196994 -0.0706723 0.19303042
0.46073216 0.45714048 0.09991522 -0.12217517 -0.05404508 0.15188032 0.3486471 0.3150534
-0.047263008 -0.026776277 0.09444304 -0.022630855 0.2557514 -0.07273334 0.21177942 0.037361655

dense2.bias f4 [64]
00000000: 1a38 943e 607a e73b f9c1 debd 4462 a03e
00000010: 8c26 69be 48f3 b93d 621e 713d 5bf4 14be
00000020: f16e 683d 7814 bd3c c4ec 3bbd 7a7e e63c
00000030: 54cf 4e3d 6ca5 32be b0f9 853d 4108 993d
00000040: 8b31 26be 7cb5 cf3d 710f b43b 0814 8cbc
00000050: 7d9f 0bbe 8076 103e 424b 4fbe 5212 8e3d
00000060: cc0b 55bd fee2 353e 858c c13d 761a e03d
00000070: 2f16 963d c4e1 13bd 08de debc 406f 203d
00000080: 1839 eebd f222 dabd c0f0 0cbe fa02 a43d
00000090: acba 0ebe 7281 c8bb e8c6 c2bc 5165 d43d
000000a0: 7f51 953d d7ec e7bd 8423 8bbd 4d98 3ebe
000000b0: 402b 4ebd c919 bd3d 4345 d83c 70d6 ab3b
000000c0: 07d7 2abe bcb2 df3d 433d ad3d d900 77bb
000000d0: 8c9f 8abc 8050 f93c 9bfa 28bd a682 8ebc
000000e0: e5d0 06be 8458 0bbd 626a 0abe 174a 4b3e
000000f0: 5de5 803d 3b4f 89be 04cd 00be d03c 353e
0.28949052 0.007064149 -0.10876841 0.3132497 -0.2276861 0.09079605 0.058866866 -0.14546339
0.056746427 0.02308105 -0.045880094 0.02813648 0.050490692 -0.17445916 0.06541765 0.074722774
-0.16229837 0.10142037 0.005495005 -0.017099395 -0.13635059 0.14107704 -0.20243552 0.06937088
-0.052013204 0.17762372 0.0945063 0.10942547 0.0732845 -0.03610398 -0.027205482 0.039168596
-0.116319835 -0.106511965 -0.13763714 0.0800838 -0.13938397 -0.0061189467 -0.023776487 0.10370887
0.07290935 -0.113244705 -0.067938834 -0.18612786 -0.050334215 0.09233434 0.026400214 0.005244069
-0.16683589 0.10922763 0.0845895 -0.0037689714 -0.016921781 0.030433893 -0.04125462 -0.017396282
-0.13165624 -0.034019962 -0.13517144 0.19852482 0.062937476 -0.2681826 -0.12578207 0.1769898

dense3.weight f4 [4, 64]
00000000: c463 e5bd 0d37 953e ce44 b6bd cf73 57be
00000010: 5aa7 25bd 84f5 5ebd 3032 04bd dc0a bc3c
00000020: 8bb4 a6bd 3202 aebd b807 e03d 449d 14be
00000030: 5093 fabc db59 103d 18a7 c43d 154e 7c3b
00000040: 634d 6dbe 8e4e 2dbe da90 b23d 80be d8bc
00000050: eafc e1bc 29e5 2dbe b3c5 81bd 0787 4ebc
00000060: c06f a7bc 3e8d ccbd bdb0 5b3d da88 a93d
00000070: fdbb 05be 0178 423d e049 8cbd 725d db3c
00000080: d999 e1bb 0d4d 183d 670b 4d3d ae67 833d
00000090: a1b4 993d b28a 87be 704a d6bc c043 313d
000000a0: 1504 223d 80d5 3c3e 0639 9dbc d85e 1abe
000000b0: b6b7 44be 87c1 a63d 8ab1 6b3d 7584 c13d
000000c0: 7216 b2bd 4601 df3d ec9d d9bc 469a 25bc
000000d0: f13e 00bd 04c6 97bd b335 863c 983e aebc
000000e0: de52 c6bd 2096 203c 34d6 0abd 4667 5fbe
000000f0: 871c 27be 5cae 1ebe c494 9c3d 44e0 2bbe
00000100: 5151 1bbe 3137 933e ee46 24bd d066 6fbe
00000110: 393b dbbc 80ce 83bb 51e7 74be 7036 3bbd
00000120: dfc5 db3c cee9 c4bd 946a 813d 8627 47be
00000130: 622c e23d 901c b0bc 0296 b5bd 71ec c3bd
00000140: 3c81 3bbe 82cb 8abe 34c0 54bd e4a9 44bd
00000150: 07d9 293c dcc9 1fbe 0183 623d 498e 92bd
00000160: c07f 8f3b e7d7 2ebe e0d1 ac3b 8012 5fbb
00000170: 9a58 04be 81db 633d a868 353d f68e a43c
00000180: 0937 7ebd 3dda ae3c 9a4e a1bd e49d c9bd
00000190: bae2 1d3d d50b 52be aafe f1bd 72a2 85bc
000001a0: 02ad 4b3d 4543 5f3e 220a 6bbd 0c6c eabd
000001b0: 891f 353e 4c03 0cba e62d e0bd 67b0 583d
000001c0: a12b d5bd f889 ce3d 0e04 a6bd 3eb4 c33b
000001d0: c785 543d a049 dd3d 65c0 543d 6f6c a6ba
000001e0: 0343 523d 609f 6ebc e8ae 95bc be44 7abe
000001f0: b4c5 8abe a22e 51be e5ec 4b3d 64a5 41be
00000200: 3087 c5bd ad62 963e 4e02 a4bd 01c7 45be
00000210: 07c6 e7bd 1ab6 83bb fb21 f23b f84f e1bd
00000220: 26fa 39bd 149b bebd 3046 703c 8b65 04be
00000230: a8e5 693d 883f e43b 54b4 82bd ae6e adbd
00000240: 24d0 1dbe 3fa6 ffbd 5079 f13c 0c43 6fbd
00000250: 9ab3 99bd 9f23 0dbe 9c1a f83c b104 57bc
00000260: 4e64 cf3d 4c51 93bc 3d1c c93d 665e 84bd
00000270: c2fd ddbd 4836 f53c f616 b4bd 744a 363e
00000280: 53fb ca39 d435 bb3b 522c b0bc 3ebd 97bd
00000290: aecf c03d 6f87 86be 6852 c7bc 2dc9 123d
000002a0: 28d7 cbbc f815 393e 25db fbbc 79a6 f6bd
000002b0: b3b3 133e 5327 2bbd 708a d33d 84bd 493d
000002c0: a641 f2ba c00f 13bb 6867 35bd 70ae b5bd
000002d0: 31d5 413d 14e4 413d fba1 933d c9a6 043c
000002e0: bb54 ad3c 307b 2f3c ddb7 82bc 58f8 9cbd
000002f0: 9e63 76be 8e12 46be b742 bf3d 135c 1f3d
00000300: a2cc 5abe c643 2d3e e9d2 84bd 97d6 73be
00000310: 15dc 8cbc 5896 1dbd f5be 87be db83 a1bd
00000320: 2767 4d3d a049 cabd 30bc 833d 4dbf 0bbe
00000330: a070 883b fa3b d13d 2a2b b1bd b2ba f23c
00000340: ba4c 583c 7061 00be 6e8e b03d 5c59 d33d
00000350: a2ef 823d 34e3 76be 56b9 733d 07ef acbd
00000360: 7001 58bc cac7 61be 2937 96bd d8c0 7b3d
00000370: 4754 1fbe bd37 893d 9c89 da3d 9037 8c3e
00000380: 0a71 4bbd 8ed4 e7bc 6d78 10bc 9878 e83c
00000390: e10f 6fbd 3382 a6be fc22 833d f452 c23c
000003a0: 4ce9 2dbc b400 c3bc 14c2 4ebe 3ac7 2dbd
000003b0: 4677 133e c060 f3bd 7ef1 213d eb5a b6bc
000003c0: 5336 753c 4ec0 a13d 5ca4 d8bd 1fc8 a93c
000003d0: 7d72 00bd f49d 8abd 1fab 4b3d aeef 80bd
000003e0: f809 d13c 98c4 a2bd f7dd b63d 6d4f b8bd
000003f0: c5fb 0bbe d9db 45bd f7f9 3d3d 18b8 12be
-0.112006694 0.29143563 -0.08899842 -0.21040271 -0.040442802 -0.05443336 -0.032274425 0.022954397
-0.081399046 -0.084965125 0.10938972 -0.14513117 -0.030587822 0.035241943 0.09602183 0.003849869
-0.23174052 -0.16924497 0.087190345 -0.026458025 -0.02758642 -0.16981949 -0.06336536 -0.012605435
-0.020439029 -0.09987877 0.053635348 0.082780555 -0.13059993 0.047477726 -0.06850028 0.026777957
-0.006884795 0.037182856 0.050059702 0.0641626 0.07505155 -0.26473004 -0.026158541 0.043277502
0.039554674 0.18440819 -0.01919223 -0.15075243 -0.19210705 0.08142381 0.05754236 0.09449092
-0.08695687 0.10888915 -0.02656456 -0.010107582 -0.031310026 -0.07410815 0.016383028 -0.021270081
-0.096837744 0.009801418 -0.033895686 -0.2181674 -0.16319476 -0.154962 0.07645562 -0.1678477
-0.15167738 0.28753045 -0.040106706 -0.23379064 -0.026761638 -0.0040224195 -0.23916365 -0.045706213
0.02682775 -0.09614907 0.06319156 -0.1944867 0.110436216 -0.021497995 -0.08866502 -0.09566582
-0.18311018 -0.2710839 -0.05194111 -0.048013583 0.010366685 -0.15604347 0.055300716 -0.07156045
0.0043792427 -0.17074548 0.0052740425 -0.0034038126 -0.12924424 0.055629257 0.04428926 0.0200877
-0.062064204 0.021344298 -0.0787632 -0.09844568 0.0385463 -0.20512326 -0.118161514 -0.016312812
0.04972554 0.21803005 -0.05738271 -0.114463896 0.17687811 -0.00053410674 -0.109462544 0.052902605
-0.10408712 0.10084909 -0.08106242 0.0059724143 0.051885393 0.108050585 0.051941294 -0.0012697111
0.05133344 -0.014564365 -0.018271878 -0.24440286 -0.2710396 -0.20427945 0.049786467 -0.18910748
-0.096449256 0.2937216 -0.08008252 -0.19314195 -0.113170676 -0.004019511 0.0073893047 -0.11001581
-0.045404576 -0.093069226 0.0146651715 -0.1292936 0.057103783 0.0069655813 -0.06382051 -0.08468376
-0.1541143 -0.12482881 0.029476792 -0.05841355 -0.075049594 -0.1378312 0.030286126 -0.013123677
0.101265535 -0.017983101 0.09819839 -0.064633176 -0.10839416 0.02993311 -0.08793442 0.17801839
0.00038715694 0.005713204 -0.021505509 -0.07409142 0.09414612 -0.26275203 -0.024331287 0.035836387
-0.024882868 0.18074787 -0.030744145 -0.12043471 0.14424019 -0.04178555 0.10329139 0.049253
-0.00184827 -0.0022439808 -0.04428807 -0.08871162 0.047322456 0.047336653 0.0720863 0.008096405
0.021158567 0.0107105225 -0.015956813 -0.07664555 -0.24061438 -0.19343016 0.09338897 0.03890617
-0.21367124 0.16920385 -0.064855404 -0.23812328 -0.017194787 -0.038473457 -0.26512876 -0.078864776
0.050147202 -0.09877324 0.06432378 -0.13647194 0.0041638166 0.10216518 -0.08650811 0.029630039
0.013201887 -0.1253717 0.08620916 0.10319778 0.063933626 -0.24110109 0.059502922 -0.08444028
-0.0131839365 -0.2204887 -0.0733474 0.061463207 -0.15559493 0.06700084 0.10670778 0.2738614
-0.04966835 -0.028299596 -0.008817774 0.028377816 -0.058364753 -0.3252121 0.06403157 0.023721196
-0.010614704 -0.023804046 -0.20191222 -0.042426325 0.14400968 -0.11883688 0.039536946 -0.02226015
0.014966565 0.07898007 -0.10578224 0.020725308 -0.031359185 -0.067684084 0.04972374 -0.06295715
0.025517449 -0.079476535 0.08929055 -0.08999524 -0.13670261 -0.048305366 0.046380963 -0.14328039

dense3.bias f4 [4]
00000000: f7d3 a23d 8376 83bc c09d e23c b643 50be
0.07950585 -0.016047722 0.027663112 -0.2033833
