Reinforcment_Learning_DQN/agent_output/weights/episode_53_weights.pt (torch, 21487 bytes, 6 tensors)

dense1.weight f4 [64, 5]
00000000: fe80 213d 7b32 0fbe cd38 023e 7e9a bdbf
00000010: c0b5 96bf 8062 983e cce1 99be d786 e8bd
00000020: 9ffa 713e 00db 913e 10e3 22be bae6 14be
00000030: 2880 49be 049d 563e 82d2 e23e 774a 413d
00000040: 2896 cebe 99c7 c03d 61c4 de3e 14d8 253e
00000050: 9678 34be 7599 70be dc7d 97be 0062 963b
00000060: 14ea 32be 07d0 ab3e 473f 19be 31fd 583e
00000070: 7d1e 61bf f9e3 94bf 4e2b a4be 3c1e d8be
00000080: 6853 b8be a07c d5bc 4062 a1be a9c3 2f3d
00000090: 5fc1 e63e 374a a9be f9d0 afbe ff77 34bf
000000a0: 0ec8 0bbf bb49 16be 5308 bf3e 938e c3be
000000b0: e4a8 98be c762 b7be 60f0 763c d0a1 d0be
000000c0: c0ff bd3e 0cfc ae3e 7e71 e1be 7219 a0bd
000000d0: 1541 9d3e b140 ebbe fb0f cebe b8e1 f9bd
000000e0: 2be8 8cbe 9dde b43e 72a6 2dbf 55b8 7ebf
000000f0: d990 59be d4fe 203e 80b4 cfbd 3c75 bfbd
00000100: a4ab c23e fcb5 8d3e f950 413e a05e a1be
00000110: 81d8 80bf e23c 7fbf b7a6 45be a752 abbe
00000120: b95f a73e a8aa d3be 1396 debd 4cf9 fc3d
00000130: ff29 a13d b282 37be 0bb8 9c3e bc92 963e
00000140: 7f0f 933e 894b 24bc 73f6 bdbe e91e e13d
00000150: b851 873e 4ab1 ed3d 4874 9e3e 8620 7b3e
00000160: c309 82bf ddc6 b6bf 3efc cfbe 83c4 0cbe
00000170: 21f5 a43e 3f78 ecbe 0bd2 7bbe daae df3d
00000180: cf61 ce3e 6850 44bd 1ee3 8bbf 8c0d 82bf
00000190: c4b8 4c3e 4753 c2be 9895 203e 0933 d2be
000001a0: 5d06 3dbf 0042 543e 8ab1 cbbe 0f5d 8a3e
000001b0: 1e32 66bf 4b49 93bf 803d 69bb 6b8f d4be
000001c0: b41a 9dbe 68d6 5c3e 9e8a b83e aefc a7bd
000001d0: 66d4 b93e d929 57be 1471 fcbe a312 bdbe
000001e0: 4a27 c83d 70b9 a1be 33a7 b13e 374a 92bf
000001f0: 4eb4 83bf d7fe d83d 6c96 7e3e 2b06 a6bc
00000200: 8f8d b9bf f713 aebf 84f6 91be c555 db3e
00000210: f686 c33e f95c 9cbf fe64 69bf b52f 2c3e
00000220: b19b df3e 0b94 173e b695 a7bf 690c 81bf
00000230: 3714 533e e888 b3be 49e9 d73d f9fc 68bf
00000240: f78e 75bf 4a6c 09be 2765 25bf 1e6b ac3e
00000250: ce1c 5dbe fc10 1cbe b802 61bd 27d4 c5be
00000260: 504c d83c a63f c9be ca39 c33e 41b4 873e
00000270: 8afb b43e 6fc9 fbbd 493b 9bbf 6547 83bf
00000280: 2752 b0be 3710 e33e 5edd 853e 21c9 26bf
00000290: d828 89bf 1133 8a3e 2c59 bebe 656d b93d
000002a0: 19a6 4ebf 2c68 11bf 403e 01bd 75bb ff3d
000002b0: 4af8 e3be e13d bc3e 218c 85be 7bd4 643e
000002c0: 98ba a33e 11cd 8abe 7623 17bf daa3 16bf
000002d0: a544 c6be 402b 963d 1ae8 83be 5858 41be
000002e0: 0dbe 81be 4210 883e 06c1 853e 00f8 01bf
000002f0: ab98 e9bd 2459 a73d aab7 84bd de91 a13e
00000300: 9447 5d3e 8ce5 49bf b306 bdbf 3052 a2bc
00000310: 5616 13be c435 a6be ec2f de3e a4aa 853e
00000320: 59d5 453e 144e c7be ca21 6d3e f9fb 8cbf
00000330: c49b 83bf 7f52 1a3e d289 afbe 1a73 c7be
00000340: b4f6 173e 548e 513e f6ed c43d 5a18 a9be
00000350: 6096 6d3d fd4b f23c 7ddd 83be 9868 a23d
00000360: 3782 a13e 862d b93d 87ed 45bf a806 a4bf
00000370: 3508 203d e3f4 763e c4ce 4ebe b917 1bbf
00000380: 2f46 14bf 5df4 87be ad22 75be 38a8 873d
00000390: 74eb 84be 0af8 be3e 74f8 8cbe e103 91be
000003a0: 01e9 bd3e 82c1 3ebf e826 83be 485b 993d
000003b0: bf84 8cbe 0d96 b93e b7b0 82bf 3c03 76bf
000003c0: a2f6 593d 4834 f5be b8d3 2cbe 49ac efbd
000003d0: 396b d8be c67b 13be 3aad 513e fdc5 943e
000003e0: 6132 babf 30c9 d6bf 210f a73d fefe 843e
000003f0: 16f6 22be 4784 f9be 456c 9fbf 2661 13be
0.039429657 -0.139841 0.1271698 -1.4812772 -1.1774216 0.2976265 -0.30055082 -0.11353844
0.2363076 0.28487396 -0.1590693 -0.1454114 -0.19677794 0.20958334 0.4430123 0.047190156
-0.40348935 0.0941307 0.435092 0.16195709 -0.17624125 -0.23496039 -0.2958821 0.004589319
-0.17472106 0.3355715 -0.14965545 0.21190335 -0.87937146 -1.1632072 -0.3206429 -0.42210567
-0.36001134 -0.026060402 -0.3152027 0.042911205 0.45069405 -0.33064434 -0.3433912 -0.704956
-0.54602134 -0.14676563 0.37311038 -0.38194713 -0.29816353 -0.3581755 0.015071958 -0.40748453
0.37109184 0.34176672 -0.440319 -0.07817353 0.30713716 -0.45947793 -0.40246567 -0.122012556
-0.2752088 0.3532609 -0.678321 -0.9950002 -0.21246661 0.15722209 -0.101418495 -0.093485326
0.38021576 0.27677906 0.18878545 -0.31517506 -1.0066072 -0.99702275 -0.19301878 -0.33461496
0.32690218 -0.41341138 -0.10868468 0.12352237 0.07869338 -0.1792095 0.30609164 0.29408824
0.2872276 -0.010027775 -0.37102088 0.10992224 0.26429534 0.11606081 0.3094809 0.24524125
-1.0159229 -1.4279438 -0.40622133 -0.13746838 0.3221827 -0.4618549 -0.24591844 0.10922022
0.40308997 -0.047928244 -1.0928686 -1.0160384 0.19992357 -0.3795416 0.15682065 -0.41054562
-0.73837835 0.20728302 -0.3978389 0.27024123 -0.8992022 -1.1506742 -0.0035589635 -0.4151567
-0.30684435 0.21566164 0.36043257 -0.08202492 0.3629486 -0.21012057 -0.49305022 -0.3692828
0.09773119 -0.3158679 0.34697875 -1.1428899 -1.02894 0.10595482 0.24862069 -0.020266613
-1.4496325 -1.3599843 -0.2850839 0.42838874 0.38188905 -1.2215873 -0.91169727 0.16815074
0.4367347 0.14802568 -1.3092563 -1.0081912 0.2061318 -0.3506539 0.105425425 -0.91011006
-0.9592127 -0.13420215 -0.6460747 0.33675474 -0.2159302 -0.15240854 -0.054934233 -0.38638422
0.026403576 -0.39306372 0.38130027 0.2650471 0.3534816 -0.1229428 -1.2127467 -1.0256163
-0.34437677 0.44348308 0.26145452 -0.6515065 -1.071559 0.26992086 -0.37177408 0.090540685
-0.80722195 -0.5679958 -0.031553507 0.124869265 -0.44525367 0.3676596 -0.26083472 0.2234668
0.31978297 -0.27109578 -0.59038484 -0.5884377 -0.38724247 0.07332468 -0.25763017 -0.18881357
-0.2534031 0.26574904 0.26123828 -0.5076904 -0.11406072 0.08171299 -0.06480344 0.315566
0.21609336 -0.78865886 -1.476767 -0.01981458 -0.14363989 -0.32462895 0.43395936 0.2610675
0.19319667 -0.38926756 0.23157421 -1.1014396 -1.0281911 0.15070532 -0.34284836 -0.38955003
0.14840204 0.2046445 0.096157 -0.3302639 0.058004737 0.02957725 -0.2575492 0.07930106
0.3154466 0.09041886 -0.7731556 -1.2814531 0.039070327 0.24116854 -0.20196062 -0.6058307
-0.5791959 -0.26553622 -0.23939009 0.06623882 -0.25960886 0.37298614 -0.27533305 -0.28323272
0.3709183 -0.7451402 -0.2561562 0.07488114 -0.27445027 0.36247292 -1.0210179 -0.96098685
0.053213723 -0.4789145 -0.1687764 -0.11702783 -0.42269304 -0.14402685 0.20476237 0.29057303
-1.4546624 -1.6780148 0.081571825 0.25975794 -0.15914187 -0.48733732 -1.2454916 -0.14392528

dense1.bias f4 [64]
00000000: d41e 2f3e 7e87 d2be 1c11 b43e 61ba ae3e
00000010: dee6 04be 06d0 563e 6831 d83e 7865 d83e
00000020: a7c2 d53e dc1d 5d3e 14e0 c83e 1847 e7bd
00000030: acf4 0f3e f215 f83d 2ea1 4fbe 75b8 14be
00000040: a604 6cbe 7cba 81bc 1a35 b23c 2bd3 b4be
00000050: abef 813d 4056 8b3e 00bb 123c 6a33 863d
00000060: 29f8 ee3e ff45 533e e556 33be 84b3 b7bd
00000070: 7e76 1c3e ec92 aebe 8da7 55be 521f 0a3d
00000080: 4d0d c83d 7a51 3abe 0851 b63e 29b1 993c
00000090: bf4c 4abe 3fcf 0ebf a698 e93d 0f3f d3be
000000a0: 9407 ce3e 021a 953e a5ef 3a3e 5322 06bd
000000b0: 3cdc d33d c079 c1bb f381 0e3e a720 4abe
000000c0: e207 aebe 483e d73d 0206 cebd cd3e cf3e
000000d0: 366d d03e f685 933e 5004 503e 9745 a63e
000000e0: d29c ab3e 2abe 56be c02a bebe 218c 823e
000000f0: 243b acbd 29a6 b23e c1e3 adbe dbd9 893e
0.17101604 -0.41118997 0.35169303 0.3412657 -0.12978694 0.20977792 0.42225194 0.42264915
0.4175007 0.21593422 0.39233458 -0.11292857 0.14058179 0.12113561 -0.20276329 -0.1452349
-0.23048648 -0.015835993 0.021753836 -0.35317358 0.06344541 0.2721424 0.008955717 0.06552775
0.46673706 0.2063217 -0.17513616 -0.08969787 0.15279576 -0.34096467 -0.20864697 0.033721276
0.09768162 -0.18195143 0.35608697 0.018761234 -0.19755839 -0.5578498 0.114060685 -0.41259047
0.40240157 0.29121405 0.1825548 -0.032747578 0.10344741 -0.0059044063 0.13916759 -0.19739018
-0.3399039 0.10509926 -0.1005974 0.404776 0.4070832 0.28813142 0.20314145 0.32474968
0.33518082 -0.2097098 -0.3714199 0.25497535 -0.08409718 0.34892395 -0.33962825 0.26924023

dense2.weight f4 [64, 64]
00000000: 6cfe dc3d 65cb 40be 981e d0bd da32 8e3d
00000010: 6cd0 0bbd 6f3e c03d 881b ffbc 3230 25bd
00000020: ab2e d73c 6e91 843d ba96 f3bc c8ac e53d
00000030: d250 a7bd a985 8cbe 62ba e93d e5c7 28be
00000040: dfa0 0abe abf9 953c 2e79 cd3c c971 adbd
00000050: 82fe 36bd 4ef4 923d aa8d cf3d 9b8c 41be
00000060: 9d07 063e c0ce 643d 7706 debd 7c0b 16be
00000070: 0e2f d23d 582a 0c3d 36f9 b03d de06 dfbc
00000080: fd42 d23b aa17 bcbd afbe a43d 7f19 7dbe
00000090: 8c93 95bd 3c49 90bd 7e3e 493c 30cb 99bd
000000a0: 6f5f 0b3e 0488 b43d b79f 9b3d a967 25be
000000b0: 04b1 c9bb 3c78 3ebd f10c f73c be52 553d
000000c0: b4c8 bc3d 65b7 a7bc 0465 2dbe d2e3 883d
000000d0: 5a0e f0bd 10c9 a5bd 5460 683d 4981 bcbd
000000e0: 4875 e9bd bcf3 62bd 3edb f8bd 61ca a0be
000000f0: 4813 893d 7581 9ebd 9ab6 e43d 986d 0fbe
00000100: 6f07 503d 53c4 37bd 0044 a93d 7cb2 313d
00000110: ce00 ecbd a2c1 be3d a0d4 f43d 80f4 e83a
00000120: b1a9 aebd 00a1 513d 4214 0f3d 8901 01be
00000130: e8e6 31bd 83a5 d8bc 5f2d 613c 1050 12bd
00000140: 583b 94bc 65fb e5bd fa8e b6bc 2c96 13bb
00000150: 6f75 cebc 1b6b 383d 401f c73b 109e aabd
00000160: bae6 be3c f10f d8bd 9bc1 cc3d 53dd e9bd
00000170: 52d3 bb3d 9918 0fbe 0665 babd bab3 b83d
00000180: 8ac4 bdbc 9910 953c 326f d4bd 1757 6d3c
00000190: 4084 243c ad3a 48bd 99a3 4abb eae2 f73d
000001a0: 001f a0bd 64bc 37bd a7fa d93d ac0a 723d
000001b0: 5c95 c53d 9cb5 14bd 4af7 ff3d 4f63 2f3d
000001c0: da6f adbd 1891 4e3d 7e91 00be 8211 14be
000001d0: b067 ed3d 00d6 08be 5807 c5bc 971d e5bd
000001e0: 0821 eb3c 20a7 c5bd 6048 8abd 2b66 61bc
000001f0: ea26 bc3c eb0e d9bd 28d9 05bd 8f57 b4bb
00000200: 6ab2 273d 50af 72bc 0227 903d 00ac 2e3c
00000210: 644e 38bd 5d9c 03bd e079 913b 38f0 1cbc
00000220: e67a dcbd 7207 e2bd 009a e039 dcfe 24bd
00000230: 302d 2b3c fe37 363d a0a0 24bc ba3a 5cbd
00000240: aaac 9b3c 1a1b 05bc 30e6 3e3d 57dd ad3d
00000250: 9105 793d 030c ffbd f0ea 8dbd 27da b73d
00000260: 045b cd3d a102 863d 8840 ebbc 95c9 c9bd
00000270: fc52 c0bd f482 67bd 80a6 213c 2bce fcbd
00000280: c899 d1bd 22cf 523d 5d65 84bd 2dfb d23d
00000290: b8d0 8a3c 5ff1 b83d 8a3c 28bd 002a 033d
000002a0: a2a9 563d 46c1 e6bd fc25 d53d 0b66 e1bd
000002b0: 2fdc cc3d 9059 bfbc 5835 c03d d0dd b6bd
000002c0: 9467 20bd 1689 f6bd 3b7f 9cbd b88f 893c
000002d0: d68e 973d 5624 203d c03e c43d 5955 b5bd
000002e0: f097 b53c 1e31 bd3d 34e7 08bd ffec 95bd
000002f0: ca27 843c 1285 d1bd 2c4a b4bd 0891 a23b
00000300: f29c ee3c 7074 aebd aa5e bb3d 03ea 04bd
00000310: 32d3 913d f79c ed3d b06b 533c 6428 28bd
00000320: 4933 d83d 9e00 f23d fd01 c7ba a75c 9c3c
00000330: 900f f23d 3cc7 aabd 4f8a 083d 380b 9a3d
00000340: 940e af3d 67b0 8fbd a957 68bd e165 d1bd
00000350: fa61 75bd f22f 533c e22c d93d e8c3 3e3d
00000360: fe55 fabc 95ee d3bc 7a50 d7bd 2f7c 01bd
00000370: f829 20bd 7028 d9bd 7c39 84bd 0082 b6bc
00000380: 3a2c b53c c034 c83d 6847 b7bd 76ba febd
00000390: 0084 17ba b43a b0bd e22e 57bd 8061 f2bc
000003a0: f8ca 5abd 5058 2ebd 7f2d b13d 9006 e5bd
000003b0: a4af 58bd b698 813d 9fca 15bd 3a68 c9bd
000003c0: 409a 4d3c 2b8b c33d 3045 9cbc 4f8b e63d
000003d0: 40ed 9cbc d83f f63c 14b5 153d a612 a13b
000003e0: 8c41 da3d bebb 83bd c08b b1bb 08b4 7d3d
000003f0: a8cf 503d 57fc d4bc 6cc0 efbd 6bb4 343d
0.107907146 -0.18827589 -0.10162085 0.06943293 -0.034134313 0.09386908 -0.031141058 -0.040329166
0.02626737 0.06473051 -0.029734958 0.11214596 -0.08169712 -0.27445725 0.11412503 -0.16482504
-0.1353793 0.018307528 0.025082197 -0.084689684 -0.04467631 0.07175504 0.10134442 -0.18901293
0.13088842 0.055861235 -0.10841077 -0.14652818 0.10262881 0.03422007 0.08641283 -0.027224954
0.006416677 -0.09184201 0.080441825 -0.24716757 -0.07303533 -0.07045218 0.012282966 -0.07509458
0.13610624 0.088150054 0.075988226 -0.16152824 -0.006155135 -0.046501383 0.030157538 0.052080862
0.092179686 -0.020473192 -0.16933066 0.06684078 -0.11721487 -0.0809499 0.05673249 -0.09204347
-0.11399323 -0.055408224 -0.12151192 -0.31404403 0.06693131 -0.07739536 0.11167641 -0.1400665
0.05078834 -0.044864964 0.08264923 0.043383107 -0.11523591 0.09314276 0.119546175 0.0017773062
-0.0852846 0.051178932 0.03493143 -0.12598242 -0.0434331 -0.02644611 0.0137437275 -0.035720885
-0.018094704 -0.1122959 -0.022284973 -0.002251993 -0.025202481 0.04502402 0.0060767233 -0.08330929
0.023303378 -0.105499156 0.09997865 -0.11419167 0.091711655 -0.13974227 -0.091013 0.09018655
-0.023165006 0.018196391 -0.10372771 0.014486096 0.0100412965 -0.048884083 -0.0030920266 0.12103827
-0.07818413 -0.044857398 0.10643511 0.05909221 0.09647629 -0.03630601 0.124983385 0.042819317
-0.084685996 0.05043134 -0.12555501 -0.14459804 0.115920424 -0.13362885 -0.024051353 -0.111872844
0.028702274 -0.09651017 -0.06752086 -0.013757269 0.022967774 -0.105985485 -0.0326778 -0.005503602
0.040941633 -0.014812306 0.0703869 0.010661125 -0.044996634 -0.03213154 0.0044395775 -0.009578757
-0.107656285 -0.11036576 0.00042839348 -0.040282115 0.010447785 0.044486992 -0.010048062 -0.053766944
0.019003231 -0.008124137 0.046606243 0.08489483 0.060796324 -0.12453463 -0.069295764 0.08977156
0.100271255 0.0654347 -0.028717294 -0.09852902 -0.09390828 -0.05652137 0.009866357 -0.12344011
-0.102344096 0.05146707 -0.06464646 0.10301814 0.016945228 0.09030413 -0.04107336 0.032022476
0.05240787 -0.11267333 0.104076356 -0.11005791 0.10002934 -0.023358136 0.093851745 -0.08929026
-0.03916128 -0.12037866 -0.07641455 0.016792163 0.07400291 0.039097153 0.09582281 -0.088541694
0.022167176 0.09237884 -0.033423617 -0.07320594 0.016132254 -0.10230459 -0.0880321 0.0049611367
0.029127572 -0.085183024 0.09148915 -0.032449733 0.071203604 0.11602204 0.012904093 -0.041054145
0.10556657 0.11816524 -0.0015183088 0.019087149 0.118193746 -0.08338782 0.033335026 0.07521671
0.085477024 -0.07016068 -0.056724224 -0.1022451 -0.05990789 0.012889849 0.10604264 0.04657355
-0.030558582 -0.0258706 -0.105133966 -0.03161257 -0.039102525 -0.10603416 -0.06456277 -0.022278786
0.022115815 0.09775686 -0.089491665 -0.12437908 -0.00057798624 -0.08604947 -0.052534945 -0.029587507
-0.053416222 -0.04256469 0.08651256 -0.11182892 -0.05290188 0.063279554 -0.036570188 -0.09834333
0.012548983 0.095480286 -0.01907596 0.1125704 -0.019156098 0.03005974 0.036549643 0.004915553
0.10657033 -0.06432293 -0.005418271 0.06193927 0.050979286 -0.025999231 -0.117066234 0.044117372

dense2.bias f4 [64]
00000000: 0bb6 95bc ed9c b83d c67f 7fbd 6241 ae3c
00000010: 8fe5 8cbc e945 bcbd 9c7e 643e 8a35 b23d
00000020: 3c42 e13d 3694 bd3d 785b 393e d204 973d
00000030: 276a 553c ab5b c93d 40ea b63d 1fe7 073e
00000040: 1aad b43d 51f3 91bd de0c f53c 26ef 6f3c
00000050: 0675 42bd cf50 343c fc0f 1d3d b3ba 283e
00000060: d22e 6c3d 575f f63b a4d5 743d 405c 623c
00000070: 77f7 6b3c 76a9 e93c 11e3 633c ce65 9fbd
00000080: 9149 b0bd 3cf1 06be b3d0 963d 52ae 73bd
00000090: a464 bcbd 349c 403e 6955 e13d 5e8d d03d
000000a0: 5054 05be bb3d 5e3e fef7 e7bc f9fb 653e
000000b0: 5c29 32bd 3c1c 843d 7204 ec3d 088b 61bc
000000c0: 7ed1 debd d927 2d3c e883 803e 7a9b febd
000000d0: 3921 603d d065 debc 337b ebbd bc0f 173d
000000e0: f09a 8abc 18e3 22be 10f4 293d b039 c33c
000000f0: 4e4f 953d b803 d43d 283e d43d c762 853d
-0.018275281 0.09014306 -0.062377714 0.021271411 -0.017199306 -0.09193022 0.22313923 0.08701618
0.10998961 0.092567846 0.18101299 0.07373966 0.013025797 0.098319374 0.089313984 0.1327176
0.08822079 -0.07126487 0.029913362 0.01464442 -0.047474883 0.011005594 0.038345322 0.1647747
0.05766184 0.0075186896 0.059774056 0.013815939 0.014402262 0.028523188 0.013909117 -0.077830896
-0.08607782 -0.13177961 0.07364025 -0.059492417 -0.09198883 0.18809587 0.11002619 0.10183214
-0.13020444 0.21703236 -0.028316494 0.22459401 -0.043496475 0.06450698 0.115242854 -0.013766058
-0.10879801 0.010568582 0.25100636 -0.124319986 0.054719184 -0.027148157 -0.11498108 0.03688024
-0.016919583 -0.15906942 0.04149252 0.023831218 0.07290517 0.10352272 0.10363418 0.06512981

dense3.weight f4 [4, 64]
00000000: a8d5 d1bd 908c 9ebd 422e e83d 68d6 013d
00000010: c741 dd3c bedc 403d 9992 16be 5a07 f7bd
00000020: b69c 38be 2ca0 77bd 3b7f a2bd f932 7e3d
00000030: 39e1 453d 08d8 593d 90d0 ffbd 8ea9 8dbd
00000040: f520 33bd 7cc2 603d 7e11 e0bd 6d2d dcbd
00000050: 398c 5eba cc3f 5fbd ca20 41bd 8a44 d5bd
00000060: d0d0 bb3d bbf9 333d b420 ce3d b0f0 b43d
00000070: 2235 ad3d 33be b93d 0312 f13c c85e 123d
00000080: 2c8d b2bd dc6b c03b 3966 a03d a190 58bc
00000090: b066 ef3d 47e2 dabd 24da 78bd 8715 3bbe
000000a0: 14fe 673d 3550 4bbe f27e 543d 2b44 54bd
000000b0: 689e 993d ca54 f7bd 98bd d13d d2b3 56bd
000000c0: 48f4 3cbd fd94 c93c b9ce b7bd 4b14 cd3c
000000d0: 0dca 2c3d 3e28 bbbd b004 a93a 8b4f 5cbd
000000e0: 4e44 8bbc 5de5 a53d 84d2 1dbd 2e1c b4bd
000000f0: d0b4 1a3d 2e4a 1bbe 5838 c1bd a1d4 923d
00000100: a758 71bd c671 fdbd 1f86 dcbd 687a 8a3d
00000110: 67eb a5bd 4f2f 41bd 3653 68bc 48cb b8bc
00000120: 2d52 1ebe 38ab 1fbd 6dca 04be 2159 0e3d
00000130: 9ae7 583c 802b 453c 0c9e f7bd fa78 41bd
00000140: 3aae 0bbd ea5f 9cbd b8b3 b0bc 9ea4 d0bd
00000150: f2d4 65bd 6a94 123d 0cdd 36bd 90e0 7abc
00000160: ec4c 5abd 8262 77bd 32cb 963d c01a 6abb
00000170: e401 c0bd 3c3c 893d 13dc 083c b713 f3bd
00000180: 4531 dcbd 09f1 fabd 9f5f 9e3d 6654 12be
00000190: 4a38 043e 7bec d9bd 27d7 0fbe 714e c1bd
000001a0: e407 2dbd 8c98 2dbe eb9e d1bc ea97 0dbe
000001b0: aa4b 81bd e044 493d f08e 65bd 5d51 acbd
000001c0: 50d0 a4bc e59d b1bd 4b4b 26be d022 403c
000001d0: f8ed 6f3d e80f 9f3d 1dfc 723d f0a2 b1bd
000001e0: ffa7 90bd ea6e 043d 414f 843d a8a0 ccbd
000001f0: d238 de3d 6e75 46bc 2398 03be 7b25 febd
00000200: deb2 8bbd ec0f 753d 38e6 b33c 781b d23d
00000210: 9b9d b63d 17b4 1f3d 98e3 6abd c08b 3d3b
00000220: befb 1bbe 20e7 f9bc 4ec5 03be 5f8a f9bb
00000230: dcc4 fa3c ac56 40bd c1a7 9dbc 3877 3ebd
00000240: 774f ddbd b2a0 adbd 4e6f 62bc 1e11 18bd
00000250: 3fab 5ebd 7601 883d d4bc 933d d3c0 19bd
00000260: ac18 ec3d 6427 bdbd 806e 513d e894 96bc
00000270: 6018 983c 8bbc e8bc 454a a7bd 5209 f2bc
00000280: f083 d7bd 1bc0 d43d a509 b8bd 162e 24be
00000290: cc27 ec3c 88f7 bebd c717 afbd b939 11be
000002a0: 40b0 fa3c 4acd 8fbd e585 f03d d420 2bbe
000002b0: 99d4 a43b 6aec d7bd 380b 893c f131 06be
000002c0: 6cd5 b23d a300 adbd 1c90 0cbe 684a af3d
000002d0: eb5d 37ba 1cf2 d33d 72ca a83d 84c7 963d
000002e0: ff36 003c 9a1e afbc 469c 50bd d677 c8bd
000002f0: b6fe 8ebd 4655 cabd ed78 cfbd 8158 25bd
00000300: 47fc de3d d400 b3bd f448 f7bd 0bd8 713c
00000310: f4af fc3c 0467 83bc 0097 fdbd e8fe d33d
00000320: af7b 683c 809b abbd 9e84 d8bd 45eb 16bd
00000330: ff72 11bc 831c 803c e00f 8a3c 9208 e1bc
00000340: efd5 d3bd 72f9 2b3d 90fc a3bd 868e bd3d
00000350: 20f9 47bc a4ad ad3d d41b 7a3c e837 53bd
00000360: e0d0 2b3d 598f 0dbc 8ba8 8c3c 9cbd 093d
00000370: 0855 b33c 8537 5a3d bcdd 08bc 8f90 a13d
00000380: 0c38 2f3d 0372 a7bc bd47 09bd f06c 843c
00000390: 9ef8 063e ef9b 93bd 1f6c 08be daa6 1ebc
000003a0: eea3 a6bd 7e49 ecbd 2acd d13d 9abf 15be
000003b0: b87e 6b3b fcde 9bbc a001 12bd f447 c2bd
000003c0: fcba 24bd 854a 573d 4be0 2cbe b18f 27bd
000003d0: 7e97 7d3d 28be 893d b933 7c3d b30c 683d
000003e0: e63a 943d eafc e03c e9be c1bd 00e0 7bbc
000003f0: 107c 9c3d 20b1 18bd b999 0abd 1ea1 bd3c
-0.1024583 -0.07741654 0.11336948 0.031698614 0.027008904 0.047085516 -0.1470436 -0.12061949
-0.1802853 -0.060455486 -0.079344235 0.06206033 0.048310492 0.05318454 -0.12490952 -0.069171056
-0.043732602 0.054872975 -0.10940836 -0.10750852 -0.0008489523 -0.0545042 -0.04715041 -0.104134634
0.09170687 0.043939333 0.100648314 0.0883497 0.084574 0.09069481 0.029427534 0.03573492
-0.08718333 0.005872233 0.078319974 -0.013218076 0.11689508 -0.1068769 -0.06075491 -0.18269931
0.056638792 -0.19854815 0.051878877 -0.051822823 0.07500917 -0.12076719 0.1024124 -0.052417584
-0.046131402 0.024607176 -0.08974976 0.02503409 0.04218488 -0.09138535 0.0012895074 -0.053786796
-0.017000344 0.08100388 -0.03853084 -0.08794437 0.037770092 -0.15165016 -0.09434575 0.07169462
-0.058922436 -0.12375216 -0.10767769 0.067616284 -0.0810154 -0.047164258 -0.014179995 -0.02255787
-0.15461035 -0.038981646 -0.12967844 0.03475297 0.013238812 0.012034297 -0.12090692 -0.047234513
-0.034101702 -0.07635482 -0.021570072 -0.10187648 -0.056111284 0.03578607 -0.0446444 -0.015312329
-0.053296015 -0.06039668 0.07362975 -0.003572151 -0.093753606 0.06700942 0.008353251 -0.11868995
-0.10751585 -0.12253005 0.07733082 -0.14290008 0.12912098 -0.10640808 -0.14046918 -0.0943879
-0.042243853 -0.16952723 -0.025588473 -0.13827482 -0.0631326 0.04913795 -0.05604452 -0.08413956
-0.020118862 -0.08672694 -0.1623966 0.01172705 0.058576554 0.07766706 0.059322465 -0.08673656
-0.07063293 0.03233234 0.06460429 -0.0999158 0.10850681 -0.012112958 -0.12851004 -0.124094926
-0.068212256 0.059829637 0.021960363 0.102591455 0.089167796 0.038990106 -0.057345957 0.0028922409
-0.15232751 -0.030505717 -0.12868235 -0.007615372 0.030611448 -0.046957657 -0.01924503 -0.046500415
-0.10806172 -0.08477916 -0.013820482 -0.0371257 -0.05436253 0.06640904 0.072137505 -0.037537407
0.11528143 -0.09236029 0.05113077 -0.01838155 0.01856631 -0.028410217 -0.08168463 -0.02954546
-0.10523212 0.10388204 -0.089862145 -0.16033205 0.02882757 -0.093245566 -0.08549457 -0.14182176
0.03060162 -0.07021578 0.11744288 -0.16711742 0.0050302264 -0.10543139 0.016728982 -0.13104989
0.08732113 -0.08447387 -0.13726848 0.08559114 -0.0006994891 0.10348913 0.082417384 0.07362273
0.007825612 -0.021376897 -0.050930284 -0.09788482 -0.06982176 -0.09879546 -0.10130487 -0.040367607
0.10887962 -0.08740392 -0.120744616 0.014760981 0.03084562 -0.016040333 -0.123823166 0.10351354
0.014189645 -0.08379269 -0.1057217 -0.036845464 -0.008877515 0.015638595 0.016853273 -0.027469907
-0.10343539 0.041985936 -0.08007157 0.092557 -0.012205392 0.08480385 0.015265424 -0.05156699
0.041947246 -0.008640134 0.017170211 0.03362809 0.021891132 0.053275604 -0.008353647 0.078889005
0.04277806 -0.020440107 -0.03351568 0.016165227 0.13180777 -0.07207476 -0.13322495 -0.009683335
-0.08136736 -0.11537455 0.1024421 -0.14623871 0.0035933685 -0.019027226 -0.03564608 -0.0948638
-0.040217385 0.0525613 -0.16882436 -0.04090852 0.061912052 0.067257226 0.061572764 0.056652736
0.072377965 0.027464349 -0.09460241 -0.01537323 0.076408505 -0.037278295 -0.033838008 0.023148116

dense3.bias f4 [4]
00000000: ff97 71bd ea1e b3bd f59a 0cbd b61b 40be
-0.058982845 -0.08746131 -0.034327466 -0.18760571
