Reinforcment_Learning_DQN/agent_output/weights/episode_75_weights.pt (torch, 21487 bytes, 6 tensors)

dense1.weight f4 [64, 5]
00000000: 5f80 18be f79b 9c3e 9ff8 db3e 4c04 03bf
00000010: 625c 4abf f1fe 4f3e dbf7 d0be 541e 9ebd
00000020: 3a7d 903e d0b4 2abd 5da6 19be 8194 81be
00000030: 5c78 cd3e 251c 60bf f2a0 75bf 299e 5ebe
00000040: d010 29be 00d7 113c a239 953e 4082 293c
00000050: ca32 f13c 1804 42bd 79fe 2c3e 63ef 9dbf
00000060: e708 26bf 053d 83be a0ce e53c f39a dbbe
00000070: b0f9 da3d 3868 0c3d 1a63 8cbe 09b1 163f
00000080: 2556 d83d 5bd0 e43e d35b c83e e199 ac3e
00000090: eeaa e6be 387d 6f3d 19c2 36bf db4e 6dbf
000000a0: 733e 99be 001c 113e c1b6 e4be b4dc 533e
000000b0: f810 6a3e 2635 923e 7594 723d 6693 07be
000000c0: 7e7b 92bd c313 c53d f487 103e 7e0b e3bc
000000d0: 53e0 afbe 0ab4 033f b58b 9a3b 0699 64be
000000e0: 4c1f f03e 1751 c73d f7e3 26bd 9d0e 983f
000000f0: 6c87 483b 1f07 a2be 7074 e83e ab52 53bf
00000100: 40ee d3bf c85c 12be 20b9 10bc b02f d8bd
00000110: 806c e0bc 2049 5a3e 1980 0e3e f2c0 bfbd
00000120: 9641 41bc 92b4 a5be 8d7e d03e d4fd af3e
00000130: 6bde b5be c814 c23e 4e34 a6bd d3b0 51bf
00000140: d5d4 213e 7188 bcbe c3fa c03e cea0 f1be
00000150: 0afc 8bbf 1c66 153e 82a5 10be a7e8 b6be
00000160: e438 12bf 30d7 b33d 2770 af3e aae5 98be
00000170: 02e7 443d 675f 32bf d638 60bf 56ee 4abe
00000180: a7d1 033f 5cd0 eabd e2be 233f 3eb5 d13f
00000190: 2401 82be ec29 f13e 49ec 87be cc41 a03f
000001a0: 21a8 e03e f939 8abd d3da d33e ea50 14be
000001b0: 1a17 953a ba70 863f 18f2 b5be 2e8a 33be
000001c0: b041 e8bd 153c cfbe 7455 473e 269f 7bbc
000001d0: 7251 823e 442a 163d c9db debe a2c5 1f3e
000001e0: caf2 a1be 40fa 373e ff8c 9cbe 5048 d83e
000001f0: 4275 a3be 61ce 7c3c 5291 afbd 6d2b 733e
00000200: 194b 03bf 183f 98bf 40be 44bc 5c6a c83e
00000210: f44d dabe fd7b 653f ef27 2e3f b2fc f5be
00000220: 08c2 293b f22c cc3e 265c 26bf 167b 28bf
00000230: 0c74 36be 08d4 1a3e f71b bbbe 9c70 88be
00000240: 3490 643e 5901 47be de10 fb3e ad46 383d
00000250: 64d9 acbd a685 013f 36ac ddbe 1665 8d3e
00000260: 1788 c9be b00b 8fbd 405f 49bd eb8c d9bd
00000270: eb52 42be 6a7c 993e d976 48be 13ba 50bf
00000280: 586b 3dbe 90ee 663d b361 dbbe c33c 6bbe
00000290: acca a5be a7e6 8d3e 3565 b1be 3fb0 49be
000002a0: ae7d 74bd 69d9 0abf 4d08 7e3e 2724 d2bd
000002b0: 89b3 05bf 19a9 2b3f 2d85 b5be b34d 8d3d
000002c0: 19ff 243e 969c 41be 014a ec3e 57b8 a03f
000002d0: 6542 16bf b29e 0e3e 1f71 9a3e 89bf 703e
000002e0: 76e2 27be 6280 8bbd fea2 82bd 3335 393e
000002f0: 8348 373d 9b54 95bf ccb3 4fbd 8ed4 673e
00000300: 6390 96b9 2455 58bd 3ee7 d9be 2611 28bd
00000310: 43b6 693d eec0 c33e 19d6 6cbf 8650 8cbf
00000320: ed52 17be e4f4 92bd 92a0 3f3e 9330 3fbe
00000330: d1e6 efbe da20 053c 398e b1be ee13 de3e
00000340: 411e 6ebf 838f 95bf b67d 11be 43a9 c53e
00000350: 91df bf3a b8e3 863e a3f2 6e3f 0953 8f3d
00000360: 4b8e b8be cae5 ec3e b275 01bf d898 cfbf
00000370: 67b7 a2be e03c 5b3d 6dda d8be f805 46be
00000380: e40f 693e 3b98 b7bd b625 ab3e cbe2 b63c
00000390: 6014 f83e 9067 773f 9615 86be c419 a9bd
000003a0: f531 c0be e863 b53d a295 46be 99c9 293d
000003b0: 2e71 11be 2792 4b3e a49e 3fbf b986 9bbf
000003c0: f3cf 6ebe 42f2 53bd be62 6a3e 3d35 4cbe
000003d0: ff16 83bf 5dd3 b8bd 0567 48be d556 c03e
000003e0: 515f 22bf c20e d9bf c85a 5b3e 04bd a0bd
000003f0: 8234 f8be 62a1 113f b548 9cbe 8c77 c8bd
-0.1489272 0.30587742 0.4296312 -0.5117843 -0.79047215 0.20312096 -0.408141 -0.077206284
0.2822054 -0.041676342 -0.15004869 -0.25308612 0.4013089 -0.87542945 -0.9594871 -0.21740021
-0.1651032 0.008901358 0.29145533 0.010345995 0.029443163 -0.047367185 0.16893949 -1.233868
-0.64857334 -0.25632492 0.028052628 -0.42891654 0.10692155 0.03427908 -0.27419358 0.58863884
0.10563306 0.44690213 0.39132556 0.3371115 -0.45052284 0.058469027 -0.7138992 -0.9269845
-0.29930457 0.14170837 -0.4467068 0.2068966 0.22858036 0.28556174 0.05922361 -0.13239822
-0.071524605 0.0962291 0.14114362 -0.02771544 -0.34350833 0.5144659 0.0047163614 -0.22323999
0.46898878 0.097322635 -0.040744748 1.187946 0.0030598296 -0.31646058 0.45401335 -0.82548016
-1.6557083 -0.14293206 -0.0088332 -0.10555971 -0.027395487 0.21316957 0.13916053 -0.09362973
-0.011795422 -0.32364327 0.4072155 0.34373343 -0.35521254 0.3790648 -0.08115445 -0.8191044
0.15803845 -0.36822847 0.37691316 -0.47192997 -1.0936291 0.14589733 -0.14125636 -0.35724375
-0.5711806 0.08781278 0.34265253 -0.2986272 0.04807187 -0.6967682 -0.87586725 -0.1981748
0.5149178 -0.11465523 0.6396314 1.6383436 -0.25391495 0.47102296 -0.2654746 1.252008
0.43878272 -0.06749339 0.41377887 -0.14483991 0.0011374683 1.0503151 -0.35536265 -0.1753318
-0.11340654 -0.40475526 0.19466192 -0.015357768 0.25452763 0.0366614 -0.43527058 0.15602735
-0.31630546 0.17966557 -0.3057632 0.4224267 -0.31925398 0.015430064 -0.085726395 0.23747034
-0.51286465 -1.1894255 -0.01200825 0.39143646 -0.426376 0.89642316 0.68029684 -0.48044354
0.0025903005 0.3987804 -0.6498436 -0.65812814 -0.17817706 0.15119946 -0.36544773 -0.26648414
0.22320634 -0.19434108 0.49036306 0.044989277 -0.084399015 0.50594556 -0.4329545 0.27616185
-0.3936164 -0.06984651 -0.049163103 -0.10622581 -0.18976943 0.29977733 -0.19576587 -0.81533927
-0.1849798 0.056379855 -0.42847976 -0.22972398 -0.3238119 0.27715036 -0.34647527 -0.19696139
-0.05969017 -0.5423799 0.24807854 -0.10260802 -0.52227074 0.670549 -0.35453168 0.068995856
0.16112937 -0.18907389 0.4615021 1.2556256 -0.5869506 0.13927725 0.3016443 0.23510565
-0.16394982 -0.068115965 -0.063787445 0.180867 0.044746887 -1.1666445 -0.050708577 0.22639677
-0.00028717806 -0.05281557 -0.42559236 -0.04103198 0.057058584 0.3823313 -0.9251419 -1.0962074
-0.14777727 -0.071756154 0.18713596 -0.18670873 -0.46855786 0.008125508 -0.3467882 0.4337458
-0.93014914 -1.1684421 -0.14208111 0.386057 0.0014638772 0.2634561 0.93338984 0.069982596
-0.3604606 0.46269065 -0.50570214 -1.6218519 -0.3178055 0.05352485 -0.42354146 -0.19338214
0.22759968 -0.089645825 0.3342721 0.02232494 0.48453045 0.966424 -0.26188344 -0.082568675
-0.37538114 0.08856946 -0.19393018 0.041452024 -0.14203331 0.19879971 -0.7485144 -1.2150489
-0.23321514 -0.051744707 0.2288923 -0.19942184 -1.0241393 -0.09024689 -0.19570549 0.37566248
-0.6342669 -1.6957629 0.21421349 -0.07848552 -0.4847756 0.56886876 -0.3052422 -0.09788427

dense1.bias f4 [64]
00000000: 71e0 17be 0f60 fb3d 4f6a b43e 1454 963e
00000010: 5497 05be 2a32 c93e 54f3 d73c c8a1 b43c
00000020: 1acc d73e 501e 533e 0b4b b3be 66d9 883e
00000030: 257e 35bc d469 c83e ecce efbe d1ce 62be
00000040: 1dac 1e3e 3b47 63be 6daa 14be 025d 93be
00000050: 1837 843d 31da 08be f033 8cbd 6b2e 5c3e
00000060: e0a4 ba3c dc0e 9dbe 75ad 7ebe c7d1 703e
00000070: 7976 d0be 4fe2 b63e 2927 a9be 89d4 0c3f
00000080: 7466 533e b1a2 c1be 5805 5cbe 586a 0dbf
00000090: 0fc9 013e c14d 963e 553c 00bf e937 9a3e
000000a0: 2d2b c3be 116d 933e e74f 5abe 98ec b53e
000000b0: 4c64 adbe 00b4 00bf adac c8be 02ee 063d
000000c0: 08c6 be3e 5f47 82be 9b53 623e 682a 28bd
000000d0: 601b 23bc 5421 cfbe 9f1c b93e 9e3e 453b
000000e0: 842a 0fbe 5d02 fcbe 235d 82be b8e6 f13d
000000f0: 5477 c0be 9425 733d 743c d1be ffa3 bcbe
-0.14831711 0.12274181 0.35237357 0.29361022 -0.13046008 0.39296085 0.026361145 0.0220498
0.42147905 0.20617032 -0.3501819 0.26728362 -0.0110774385 0.3914324 -0.46837556 -0.22149207
0.15495344 -0.22195141 -0.14518137 -0.28781897 0.06455821 -0.13364483 -0.06845844 0.21502082
0.022783697 -0.306754 -0.24870856 0.23517524 -0.40715387 0.35719535 -0.3303769 0.550118
0.20644552 -0.37819436 -0.21486413 -0.5524039 0.12674354 0.29356197 -0.5009206 0.3012078
-0.38118878 0.2879415 -0.21319543 0.3553207 -0.33865583 -0.5027466 -0.3919424 0.032941826
0.3726046 -0.25445077 0.22102205 -0.041056067 -0.009955257 -0.40455115 0.3615465 0.0030097137
-0.13981062 -0.49220553 -0.25461683 0.11811584 -0.3759104 0.05936201 -0.40866435 -0.3684387

dense2.weight f4 [64, 64]
00000000: 4022 533d 6921 2cbe 7e68 503e 6405 d5bd
00000010: b5ac 4d3d 84d0 713d 27b5 243d bf87 f93d
00000020: 0e7c f83d d14d 6c3d 18fa dfbc ccb3 2f3d
00000030: 45fa 283e a006 933b 67e5 02be faf4 a73d
00000040: 14b4 133e 8a8d 1dbd 42dc b9bd 236c 8bbe
00000050: 818f 1e3f 1a65 b2bd 00e8 e83d 13b9 e1bd
00000060: 3839 0d3d 8599 a2bb 5789 023e b8fa 113e
00000070: 0a3d f03d 2dcb a83c d8ae 5a3d 8128 2c3e
00000080: 3a53 88bd 3891 853d 0e15 623c d097 d43c
00000090: 4ffb d73e 7f94 6a3b e4b5 75bc 185c 823d
000000a0: b591 023e 1d8d 0e3e 2960 a4bd 6352 273e
000000b0: 9a0c cb3d 5cc5 c93c 1050 703c 59d1 053e
000000c0: 4633 233d 32fd be3b c4fd 2abe e820 cdbd
000000d0: a027 b0bc 737c 9ebd a301 033e 5cbe fa3c
000000e0: 4ae7 8a3d 9249 e53d bea4 293e 00c6 13ba
000000f0: 4e9a 4f3e 21d6 39bd 1e74 063e b6e5 b9bc
00000100: bb44 553e a384 debd 8203 82be 96e7 8ebd
00000110: ef62 f13d 5c95 b8bd 9e3d bb3e 2bb0 fabd
00000120: 283c fb3c dc7a 813d 199e e9ba 31b7 e73e
00000130: 10de 75be e6f0 e63d 0079 e5bc 7f5f 55bc
00000140: c9f2 a2be ff5d f1bd 5ae0 54bd 0c11 033f
00000150: f061 dfbe 6241 833e f85d 383d 85ac 903e
00000160: a4c3 08bd 7df7 3abd 2c9d 7dbd a0b7 a4bd
00000170: cccc 64bd c34e 123f c8c5 633d 354a 90bd
00000180: 8217 85bd b14d 03be 1cff 28be 02f0 92bc
00000190: cd17 74bb 1cb1 90bd ded9 3e3e c5c2 c23c
000001a0: 1c56 413d 0c07 d9be a440 9f3e 5c5a adbe
000001b0: 0093 b4bc 034c be3e c4ee a4bd 0bad 953d
000001c0: 2731 93bd 9bdd 52be c180 40bd 5c0c 75bd
000001d0: f4dc 123d 88fb a73d e95c a93d fb26 59be
000001e0: 2c6b 3ebe a4fe 373e c6e8 21be d0d9 29bd
000001f0: ecc3 8ebd 111f 103e 4fc1 33be f7bf 413e
00000200: 5de3 93bd df63 a63d dcd5 d03d 30d4 173d
00000210: b227 bdbd be3a f23d e146 33be e57e f0bd
00000220: 5076 c93d 8283 42bd c400 a2bd aaa0 d8bc
00000230: ce5e 9f3d 1610 8dbd 3b5b fabd f29d 63bd
00000240: 0779 83bd 51d1 08bc 23cf d7bd f351 7abd
00000250: 87d2 6fbd b35d 9dbc 4e6a 8f3d 9310 20be
00000260: aa9d cc3d bea8 57bc 5f51 123c d707 bebd
00000270: 108a 0dbc 8141 df3c bcf9 36bd 6e13 1bbc
00000280: 7808 e83d 9f16 4bbb c63f 843d da47 9c3d
00000290: 0605 183e b3ef 2dbd c0a1 79bd 91c2 babd
000002a0: b249 e3bc 5c0a b73d ffb5 203d cdaf 833d
000002b0: ac70 40bd d1c8 0bbe a0e8 d9bc 26eb 12be
000002c0: 6057 073e 4b71 643d 417f 1f3c e6ca e4bd
000002d0: 9442 b13d 8960 74bd fa96 dd3d 6427 ab3d
000002e0: f398 30bd f3b4 103d 4093 9fbb 20e4 98bd
000002f0: 8a70 25bd d8c4 dfbd 6fc6 233d bf58 ccbd
00000300: 0c34 b0bd 641f cdbd 305d 923e 567c b43d
00000310: 5fc7 c1bc fc0f 8dbd 9b3a 70bd 2768 5a3e
00000320: 6406 3b3d 6e0b 353d 5e85 07bd 53f7 b5bd
00000330: b456 1b3e 24a8 1ebd 4818 87bd 0997 083e
00000340: 1ad2 0b3f 424d 06bd 0492 363e 8626 02bf
00000350: a01d 013f d3f6 8fbe 4ee5 f33d f3d9 813d
00000360: 6025 ef3b 28b4 213e 168c 0f3e 7ef4 1c3e
00000370: 4c39 fbbd 5e9c 53be e4e9 4bbd f38c b53e
00000380: 70fe bfbc a965 31bd 82ae bebb 7329 f7bd
00000390: 65ce 243f b657 6d3d e7bb c3bc 0f8c fb3d
000003a0: 3734 7d3e 0119 fe3e e537 3ebd d313 a83e
000003b0: 1c1a 233d b05b 13be a4bc 90bd d5a7 463e
000003c0: 2b52 9d3e 99f9 c63e e881 c13d fa36 fabd
000003d0: 9071 ecbc 8a4a 053e e204 9c3e 190e 8a3e
000003e0: 738f 013e 1ae2 7cbd 5a6b c13d 5864 b9bc
000003f0: 179e 493e 2078 efbd 1768 4a3e bd4c 5fbc
0.051546335 -0.1680962 0.2035236 -0.10401419 0.050213534 0.059036747 0.040211823 0.12184095
0.121330366 0.0576914 -0.027340934 0.042896077 0.1650172 0.0044868737 -0.12782823 0.082010224
0.14424163 -0.03846506 -0.09075214 -0.2723094 0.6193772 -0.0871069 0.113723755 -0.11021628
0.034478396 -0.0049621486 0.12747703 0.14255798 0.11730392 0.020604694 0.0533894 0.16812326
-0.06656499 0.06521839 0.013798965 0.025951296 0.4218392 0.0035794077 -0.014996979 0.06365222
0.12750895 0.13921018 -0.080261536 0.16340022 0.09914513 0.024630241 0.014667526 0.13068141
0.03984382 0.005828523 -0.16698366 -0.10016042 -0.02150327 -0.077385806 0.12793593 0.030608349
0.06782396 0.11195673 0.1656675 -0.0005637109 0.20273706 -0.045370225 0.13130233 -0.022692543
0.20827 -0.10865142 -0.253933 -0.06977765 0.11786448 -0.09012863 0.36570448 -0.122406326
0.030668333 0.06322262 -0.0017823606 0.4525695 -0.24010491 0.112764165 -0.028011799 -0.013023256
-0.31825855 -0.117855065 -0.05197177 0.51197886 -0.43629408 0.2563582 0.04501149 0.28256622
-0.033389702 -0.04564618 -0.06191747 -0.08042836 -0.055859372 0.5715143 0.05560854 -0.07045404
-0.064986244 -0.12822606 -0.16503567 -0.01793671 -0.0037245632 -0.07065031 0.18637797 0.023774514
0.04720126 -0.4238819 0.31104004 -0.33858 -0.022042751 0.37167367 -0.080533534 0.07308396
-0.071871094 -0.20592348 -0.04699779 -0.05982624 0.03585525 0.08202273 0.08269674 -0.21206276
-0.1859557 0.17968231 -0.15811452 -0.041467488 -0.06970963 0.14074351 -0.1755421 0.18920885
-0.072211005 0.08124518 0.101970404 0.037067592 -0.09236087 0.118276104 -0.17507507 -0.11742953
0.098370194 -0.047488697 -0.07910302 -0.026443798 0.077817544 -0.06887834 -0.12224432 -0.05557055
-0.064195685 -0.008350686 -0.10537555 -0.06111331 -0.058550384 -0.019209718 0.07002698 -0.15631323
0.099910095 -0.01316279 0.008930533 -0.09278839 -0.008638874 0.027252914 -0.04467176 -0.009465082
0.1132974 -0.0030988825 0.06457476 0.07630892 0.14845666 -0.042464923 -0.060945272 -0.09119142
-0.027745102 0.08937523 0.039236065 0.06430016 -0.046982452 -0.13650824 -0.026600182 -0.14347515
0.13216925 0.055772107 0.00973493 -0.11171512 0.08655277 -0.059662376 0.10819812 0.083571225
-0.043114614 0.035328817 -0.0048698485 -0.074653864 -0.04039053 -0.10926217 0.039984163 -0.099778645
-0.08603677 -0.10015753 0.2858672 0.08812778 -0.023654638 -0.068878144 -0.05864964 0.21328793
0.04566039 0.044200353 -0.033086173 -0.08885064 0.15169793 -0.03873457 -0.06596428 0.13338865
0.54617465 -0.032788523 0.17829138 -0.5084003 0.5043583 -0.28118 0.11908971 0.06340399
0.0072981566 0.1579138 0.14018282 0.15327641 -0.12266788 -0.20665118 -0.049783602 0.35459098
-0.023436755 -0.04330984 -0.005819143 -0.12068453 0.64377433 0.057944976 -0.02389331 0.122825734
0.2472695 0.4962845 -0.046440024 0.32827625 0.03981982 -0.14390445 -0.0706723 0.1939996
0.30726752 0.38862303 0.09448606 -0.12217517 -0.028862745 0.13016716 0.30472475 0.2696388
0.12652378 -0.061739065 0.09444304 -0.022630855 0.19689213 -0.11692834 0.1976627 -0.013629136

dense2.bias f4 [64]
00000000: 05a9 5d3e b4e4 7dbd 47da 65bd b47d 3f3e
00000010: 188d 3abe 48f3 b93d 4054 e73b 443c e9bd
00000020: f16e 683d 7814 bd3c c4ec 3bbd ef1d 21bc
00000030: 54cf 4e3d 673e d6bd b0f9 853d 4108 993d
00000040: d294 9fbd c8cf 4b3d a09e 183d 0814 8cbc
00000050: 7d9f 0bbe f127 8ebc 7f54 31be 5212 8e3d
00000060: cc0b 55bd d99b 6e3d c5b1 be3d 761a e03d
00000070: 61f2 063d ba78 dfbc 08de debc 034e 1a3d
00000080: 1839 eebd 8814 99bd f406 d2bd fa02 a43d
00000090: acba 0ebe 4bf0 de3c e8c6 c2bc 1a9f fe3d
000000a0: b062 af3d 9884 b1bd 2582 55bd 8b11 98bd
000000b0: 0f02 08bd c919 bd3d 68b1 2f3d 70d6 ab3b
000000c0: 63a6 03be bcb2 df3d 433d ad3d d900 77bb
000000d0: dc08 393c 8050 f93c a067 1cbc a682 8ebc
000000e0: e5d0 06be 8458 0bbd 82c6 d3bd e8b0 df3d
000000f0: 7fb0 0b3e 5aef 32be 04cd 00be 9eb6 c63d
0.21646507 -0.061985686 -0.05611637 0.18700296 -0.18217885 0.09079605 0.007059604 -0.11388448
0.056746427 0.02308105 -0.045880094 -0.009833797 0.050490692 -0.10461121 0.06541765 0.074722774
-0.07792057 0.049758703 0.03726065 -0.017099395 -0.13635059 -0.01735303 -0.17317389 0.06937088
-0.052013204 0.058254097 0.093112506 0.10942547 0.032945994 -0.027279247 -0.027205482 0.037672054
-0.116319835 -0.07474619 -0.102552325 0.0800838 -0.13938397 0.02721419 -0.023776487 0.1243269
0.08563745 -0.086678684 -0.05212607 -0.07425221 -0.03320509 0.09233434 0.042893797 0.005244069
-0.1285644 0.10922763 0.0845895 -0.0037689714 0.011293616 0.030433893 -0.0095461905 -0.017396282
-0.13165624 -0.034019962 -0.10340597 0.10922414 0.13641547 -0.17474118 -0.12578207 0.097028

dense3.weight f4 [4, 64]
00000000: f229 a8bd 76bf 433e 8a3c d8bc 8a31 46be
00000010: d921 8f3c 84f5 5ebd 0e70 023d dc0a bc3c
00000020: 8bb4 a6bd 3202 aebd b807 e03d a01a 87bd
00000030: 5093 fabc 0cb4 833c 18a7 c43d 154e 7c3b
00000040: 01bd 29be 578a 05be da90 b23d 80be d8bc
00000050: eafc e1bc 4e7a 24be b3c5 81bd 0787 4ebc
00000060: c06f a7bc 1cbe a5bd cb3e 3e3d da88 a93d
00000070: f49e 21be a49b 453d e049 8cbd a76b aebb
00000080: d999 e1bb 0d4d 183d cc58 a53d ae67 833d
00000090: a1b4 993d 762c d1bd 704a d6bc 7001 863c
000000a0: 5903 113d 5f04 023e da38 423d 12e2 00be
000000b0: f0da acbd 87c1 a63d 24e7 b63d 7584 c13d
000000c0: bf85 f3bd 4601 df3d ec9d d9bc 469a 25bc
000000d0: 9267 1c3d 04c6 97bd b335 863c 983e aebc
000000e0: de52 c6bd 2096 203c 34d6 0abd ce8e 46be
000000f0: d4b7 19be 351a babd c494 9c3d d130 13be
00000100: 955b b9bd fcf1 503e 9744 76bd 6bbc 54be
00000110: 9dcd f33c 80ce 83bb 6ee7 4bbe 7036 3bbd
00000120: dfc5 db3c cee9 c4bd 946a 813d b70b 45be
00000130: 622c e23d a98b 4cbd 0296 b5bd 71ec c3bd
00000140: c6e9 b2bd 59ea 63be 34c0 54bd e4a9 44bd
00000150: 07d9 293c 126c 0ebe 0183 623d 498e 92bd
00000160: c07f 8f3b 4f36 e2bd 5f4b 283d 8012 5fbb
00000170: a45d b7bd 81db 633d a868 353d 0920 9f3c
00000180: 0937 7ebd 3dda ae3c 58f1 c0bc e49d c9bd
00000190: bae2 1d3d 5d97 86bc aafe f1bd f056 fa3c
000001a0: a936 683d 64b0 c93d 5860 afbd 3c91 c6bd
000001b0: db2b b33d 4c03 0cba e62d e0bd 67b0 583d
000001c0: a12b d5bd f889 ce3d 0e04 a6bd 3eb4 c33b
000001d0: 23dc fb3d a049 dd3d 65c0 543d 6f6c a6ba
000001e0: 0343 523d 609f 6ebc e8ae 95bc 036c 26be
000001f0: e834 4ebe a43a 23be e5ec 4b3d bd5f bebd
00000200: c57b 86bd ab6f 5b3e de7b 6abd 5b8c 0dbe
00000210: a50d 0cbe 1ab6 83bb 581d 603d 2d78 ecbd
00000220: 26fa 39bd 149b bebd 3046 703c 3a69 efbd
00000230: a8e5 693d e3e7 ba3d 54b4 82bd ae6e adbd
00000240: 5e88 d1bd 269e 09be 60d9 7a3d 0c43 6fbd
00000250: 9ab3 99bd 25ec 9cbd 213e 263d b104 57bc
00000260: 4e64 cf3d 9b45 353c 488c a63d 665e 84bd
00000270: e550 8ebd 4836 f53c f616 b4bd 70f0 683d
00000280: 53fb ca39 4a6c d5bc 9cb4 34bd 3ebd 97bd
00000290: aecf c03d 095c 83bd 6852 c7bc 5203 883d
000002a0: e435 f2bc 047a bd3d 5142 003d e2f3 a6bd
000002b0: b4f1 f63d 5327 2bbd 708a d33d 84bd 493d
000002c0: 5b08 1dbb c00f 13bb 6867 35bd 70ae b5bd
000002d0: d49f 0fbd 14e4 413d fba1 933d c9a6 043c
000002e0: bb54 ad3c 307b 2f3c ddb7 82bc e8b8 80bd
000002f0: 56a4 20be 85a0 0cbe b742 bf3d ab66 6b3d
00000300: e877 2dbe cf4c fe3d 0c20 8bbd 2a3d 56be
00000310: ddc2 bd3a 5896 1dbd b1c2 4bbe db83 a1bd
00000320: 2767 4d3d a049 cabd 30bc 833d e04f 19be
00000330: a070 883b d05a ca3d 2a2b b1bd b2ba f23c
00000340: 6cb6 dbbc 99d7 e6bd 6e8e b03d 5c59 d33d
00000350: a2ef 823d b975 12be 56b9 733d 07ef acbd
00000360: 7001 58bc 3982 3fbe 7dfa dbbd d8c0 7b3d
00000370: c3a7 f2bd bd37 893d 9c89 da3d 4f85 983d
00000380: 0a71 4bbd 9929 633b 807f 9a3c 9878 e83c
00000390: e10f 6fbd 0a5b b1bd fc22 833d 48a3 403d
000003a0: 4ce9 2dbc e45f 1e3d b747 11be 6bf7 a5bd
000003b0: 6ea6 cd3d c060 f3bd 20a6 fe3b eb5a b6bc
000003c0: 5336 753c 4ec0 a13d 5ca4 d8bd 1fc8 a93c
000003d0: 47bd f03d f49d 8abd e863 6a3d aeef 80bd
000003e0: f809 d13c 98c4 a2bd 30ec f73d 0845 a1bd
000003f0: 1447 24be 4659 aabc f7f9 3d3d 1af7 1dbe
-0.082111254 0.19116005 -0.026396055 -0.19354835 0.017472195 -0.05443336 0.031845145 0.022954397
-0.081399046 -0.084965125 0.10938972 -0.06596875 -0.030587822 0.016077064 0.09602183 0.003849869
-0.16576006 -0.13041054 0.087190345 -0.026458025 -0.02758642 -0.1606228 -0.06336536 -0.012605435
-0.020439029 -0.08092901 0.046446603 0.082780555 -0.15783292 0.048244134 -0.06850028 -0.0053228918
-0.006884795 0.037182856 0.08073577 0.0641626 0.07505155 -0.102135584 -0.026158541 0.016358107
0.035403583 0.1269698 0.0474175 -0.12586239 -0.084401965 0.08142381 0.08930805 0.09449092
-0.118907444 0.10888915 -0.02656456 -0.010107582 0.03818471 -0.07410815 0.016383028 -0.021270081
-0.096837744 0.009801418 -0.033895686 -0.19390413 -0.15011531 -0.0908703 0.07645562 -0.1437409
-0.09050671 0.2040481 -0.060124006 -0.20775001 0.02976113 -0.0040224195 -0.19912502 -0.045706213
0.02682775 -0.09614907 0.06319156 -0.1924275 0.110436216 -0.049937878 -0.08866502 -0.09566582
-0.08735995 -0.22257365 -0.05194111 -0.048013583 0.010366685 -0.13908413 0.055300716 -0.07156045
0.0043792427 -0.11045515 0.041087504 -0.0034038126 -0.089534074 0.055629257 0.04428926 0.019424455
-0.062064204 0.021344298 -0.023552582 -0.09844568 0.0385463 -0.016429598 -0.118161514 0.030559033
0.056692753 0.09848097 -0.08563298 -0.0969567 0.08748599 -0.00053410674 -0.109462544 0.052902605
-0.10408712 0.10084909 -0.08106242 0.0059724143 0.12297847 0.108050585 0.051941294 -0.0012697111
0.05133344 -0.014564365 -0.018271878 -0.1625214 -0.2013737 -0.15940338 0.049786467 -0.092956044
-0.06566576 0.21429317 -0.057247035 -0.13823073 -0.1367708 -0.004019511 0.054715484 -0.11546359
-0.045404576 -0.093069226 0.0146651715 -0.11689992 0.057103783 0.0912626 -0.06382051 -0.08468376
-0.10231088 -0.13439235 0.06124246 -0.05841355 -0.075049594 -0.076622285 0.040586594 -0.013123677
0.101265535 0.0110639585 0.08132225 -0.064633176 -0.06949023 0.02993311 -0.08793442 0.056869924
0.00038715694 -0.026052613 -0.044117555 -0.07409142 0.09414612 -0.06414039 -0.024331287 0.06641258
-0.029566713 0.09251788 0.031313244 -0.08151986 0.1205782 -0.04178555 0.10329139 0.049253
-0.002396128 -0.0022439808 -0.04428807 -0.08871162 -0.035064533 0.047336653 0.0720863 0.008096405
0.021158567 0.0107105225 -0.015956813 -0.06285268 -0.15687689 -0.13733108 0.09338897 0.05747096
-0.16940272 0.12416994 -0.06793222 -0.2092177 0.001447763 -0.038473457 -0.19898488 -0.078864776
0.050147202 -0.09877324 0.06432378 -0.14971876 0.0041638166 0.09880602 -0.08650811 0.029630039
-0.026820384 -0.11271591 0.08620916 0.10319778 0.063933626 -0.1430272 0.059502922 -0.08444028
-0.0131839365 -0.1870202 -0.10741136 0.061463207 -0.11848404 0.06700084 0.10670778 0.074473016
-0.04966835 0.0034662245 0.018859625 0.028377816 -0.058364753 -0.086599424 0.06403157 0.047030717
-0.010614704 0.038665667 -0.14187513 -0.08103832 0.100415096 -0.11883688 0.0077712685 -0.02226015
0.014966565 0.07898007 -0.10578224 0.020725308 0.11754852 -0.067684084 0.057224184 -0.06295715
0.025517449 -0.079476535 0.12105596 -0.07874495 -0.16042739 -0.020794522 0.046380963 -0.15426293

dense3.bias f4 [4]
00000000: 4062 76bb 9a93 bb39 8c43 61bb 9f35 1bbe
-0.0037595183 0.0003577739 -0.0034372536 -0.15157174
