Reinforcment_Learning_DQN/agent_output/weights/episode_226_weights.pt (torch, 21495 bytes, 6 tensors)

dense1.weight f4 [64, 5]
0	0xbd76063f	-0.06006455
1	0xbe5b6db2	-0.21428564
2	0x3e5174cf	0.20454715
3	0xc041df55	-3.029256
4	0xc048c695	-3.1371205
5	0x3e572ada	0.2101244
6	0x3d5525e3	0.052038085
7	0xbed42ffc	-0.4144286
8	0x3f1c2937	0.6100039
9	0xbec16a70	-0.37776518
10	0x3ee3b9e0	0.4447775
11	0xbeddf43d	-0.43350402
12	0xbed9aa05	-0.42512527
13	0x3ece109f	0.40247056
14	0x3d345ba7	0.04403272
15	0xbe57ccd5	-0.21074231
16	0x3ed3fe61	0.41405013
17	0xbe610dab	-0.2197787
18	0x3fc2b027	1.5210007
19	0xbe964bd2	-0.2935472
20	0xbe7eeb9a	-0.24894562
21	0x3da0f800	0.07859802
22	0xbe8eda08	-0.2790072
23	0xbe818c08	-0.25302148
24	0x3ed60dc0	0.41807365
25	0x3ebba05b	0.3664578
26	0xbed5dcc5	-0.41769996
27	0xbe99ffd0	-0.30077982
28	0x3e7f3b84	0.24925047
29	0x3f41d13a	0.7570988
30	0xbe3ef2fc	-0.18647379
31	0x3f3a3599	0.72738034
32	0xbd291a85	-0.041285057
33	0xbf9da621	-1.2316324
34	0xbfdf3246	-1.7437217
35	0xbe78eb73	-0.24308567
36	0x3de719e8	0.11284238
37	0xbe9e6d1e	-0.30942625
38	0x3c9b2a50	0.018941075
39	0xbc371b60	-0.01117596
40	0xbd18dcb0	-0.03731984
41	0xbe0be162	-0.13660195
42	0xbe755b8e	-0.23960707
43	0x3dafaaf0	0.085775256
44	0x3ec4797e	0.3837394
45	0x3ef3e51a	0.47635728
46	0xbf01124c	-0.50418544
47	0xbedd1a70	-0.43184233
48	0x3f019e50	0.5063219
49	0xbedf3d84	-0.4360162
50	0xbe9962ae	-0.299581
51	0xbeb3f9db	-0.35151562
52	0x3eaac56b	0.33353743
53	0xbfaa517d	-1.3306118
54	0xbfee4ffe	-1.8618162
55	0x3e42c839	0.19021691
56	0xbf0fe723	-0.5621206
57	0x3df5ffe6	0.120116994
58	0x3f0dcf19	0.5539413
59	0x3f514ff6	0.81762636
60	0xbdb36c26	-0.08760862
61	0x3db1fee4	0.08691195
62	0xbe68c937	-0.22733007
63	0x3f7788f9	0.9669338
64	0x3defea27	0.11714583
65	0x3e04f058	0.12982309
66	0xbeb0bcc4	-0.34519017
67	0xbe833fce	-0.25634617
68	0xbec576a8	-0.3856709
69	0xbe9ebe92	-0.3100477
70	0x3ed372de	0.41298574
71	0xbefb35ff	-0.49064633
72	0x3cf6d1fd	0.030129427
73	0x3e68c602	0.22731784
74	0xbf9a7144	-1.2065816
75	0xbe5ccbcd	-0.21562119
76	0x3d97b969	0.07408411
77	0x3dbb0088	0.09130961
78	0xc0135d0a	-2.3025537
79	0xc066f167	-3.608484
80	0xbe4142ee	-0.18873188
81	0xbe8aa7c0	-0.27081108
82	0x3e4d4cea	0.20048872
83	0xbf957199	-1.1675292
84	0xbfd4d55b	-1.6627611
85	0x3ed880ec	0.4228586
86	0xbed216a2	-0.41032892
87	0xbf07efa1	-0.5310002
88	0x3e80b951	0.25141385
89	0xbd95cd5f	-0.07314562
90	0x3ebc7fdd	0.36816302
91	0x3ec800e8	0.3906319
92	0xbc48962e	-0.012242837
93	0x3f1535ff	0.58285517
94	0x40311f45	2.7675335
95	0x3e7c4dd5	0.24639066
96	0xbecdcdd5	-0.401961
97	0x3e2ff40a	0.17182937
98	0xc02d3e9f	-2.706947
99	0xc0263113	-2.5967453
100	0xbe16778a	-0.14694038
101	0xbed737b7	-0.42034695
102	0xbe61a8dc	-0.22037071
103	0x3e573eb0	0.21020007
104	0xbd5aee38	-0.05344984
105	0x3e735326	0.23762187
106	0x3dade60b	0.08491143
107	0xbeeda787	-0.46416876
108	0xbe6d16d8	-0.23153245
109	0x3f8667ef	1.0500468
110	0xbebc4504	-0.36771405
111	0x3e8f02ed	0.2793192
112	0x3e48e33a	0.1961793
113	0x403e9b42	2.9782262
114	0x404de69d	3.2172005
115	0xbd46bad7	-0.048518028
116	0xbea42437	-0.3205888
117	0x3e9b49b0	0.30329657
118	0xc0488672	-3.133206
119	0xc03129e0	-2.7681808
120	0xbf4029f9	-0.75064045
121	0xbd085daf	-0.03329247
122	0x3e225bee	0.15855381
123	0x4003ea23	2.0611656
124	0x3fdd3809	1.7282726
125	0xbeba614a	-0.3640235
126	0xbed221e4	-0.41041481
127	0xbd60d9b0	-0.054895103
128	0x3d08d648	0.03340748
129	0x3ed1dbd2	0.40988022
130	0x3eda253b	0.4260653
131	0xbee9a146	-0.45630854
132	0xbea19684	-0.31560147
133	0x3f80495f	1.0022391
134	0x3eacc19c	0.33741462
135	0xbedcd19a	-0.43128663
136	0xbee4d9ce	-0.44697422
137	0xbd9c1ae4	-0.076223165
138	0xbe94d095	-0.29065385
139	0xbec0a06d	-0.37622395
140	0x3e71b4ec	0.23604172
141	0xbee99476	-0.4562108
142	0x3e79808c	0.24365443
143	0xc022b045	-2.5420086
144	0xc05bca11	-3.4342082
145	0x3e9f6179	0.31129053
146	0xbe9bb808	-0.30413842
147	0xbed0e3c7	-0.4079878
148	0x3ed26f27	0.41100428
149	0xbe84ee3b	-0.25963005
150	0xbec102ac	-0.3769735
151	0x3e09d058	0.13458383
152	0xbe15c89c	-0.14627308
153	0x3e9dde94	0.30833876
154	0x3ec5d73a	0.38640767
155	0xbe2008d2	-0.15628365
156	0x3e099f63	0.13439707
157	0x3d4722ba	0.048617102
158	0xc03260d2	-2.7871594
159	0xc04b4ee4	-3.17669
160	0xbed62d70	-0.4183154
161	0xbe904669	-0.2817872
162	0x3d2fd4b3	0.042927455
163	0x3e4fd9a0	0.20297861
164	0xbd1df0a0	-0.038559556
165	0x3e9a947f	0.3019142
166	0xbea5d7aa	-0.323911
167	0xbe2d9d93	-0.16954641
168	0x3f658faa	0.8967234
169	0xbf10f36c	-0.5662143
170	0xbed4a454	-0.41531622
171	0xbe0c4e12	-0.13701656
172	0xbe4a5a78	-0.19761074
173	0xbd4bad40	-0.04972577
174	0xbed0b902	-0.4076615
175	0xbee29940	-0.44257545
176	0x3e87b840	0.2650776
177	0xbc91d441	-0.017801406
178	0x3f3814c9	0.71906716
179	0x3faf85a1	1.3712655
180	0xbe6ace50	-0.22930264
181	0xbea1db70	-0.3161273
182	0x3d3ea550	0.046544373
183	0x3e859744	0.2609197
184	0xbedd358a	-0.4320491
185	0xbe2d1a49	-0.16904558
186	0xbee568c0	-0.4480648
187	0x3e983138	0.2972505
188	0xbf980d8b	-1.1879133
189	0xbfd646bd	-1.6740338
190	0x3ecab799	0.395932
191	0xbf0d340d	-0.5515755
192	0xbe3ce943	-0.18448357
193	0x3f932e35	1.1498476
194	0xbf05bcaa	-0.52241004
195	0xbe48012d	-0.19531699
196	0x3e68ecf3	0.22746639
197	0x3ccdf117	0.025139375
198	0xc02348d4	-2.55132
199	0xc016d884	-2.356965
200	0xbe2db4cd	-0.16963501
201	0x3e503c86	0.20335588
202	0x3d324dd0	0.04353124
203	0xc047030c	-3.109561
204	0xc082e868	-4.09087
205	0xbd30ed0a	-0.043194808
206	0x3d7f8a01	0.06238747
207	0x3d269d55	0.040677387
208	0xc01a476c	-2.4106092
209	0xc08bbe24	-4.3669605
210	0x3e6f9e60	0.23400259
211	0x3ebb4da4	0.36582673
212	0xbe337384	-0.17524534
213	0xc00b01f7	-2.171995
214	0xc00d8b53	-2.2116287
215	0x3eb6a215	0.35670534
216	0x3f061846	0.5238079
217	0x3d177ad0	0.036982358
218	0xbec17d33	-0.37790832
219	0x3f21d493	0.6321499
220	0xbea2ba63	-0.31782827
221	0xbd180eea	-0.0371236
222	0x3ea585f1	0.32328752
223	0x401305b8	2.297224
224	0x400432b9	2.0655959
225	0x3e8a8e40	0.27061653
226	0xbf007500	-0.5017853
227	0x3e82c62f	0.25541827
228	0xc0178b25	-2.3678677
229	0xc051367b	-3.2689502
230	0x3eb5024e	0.3535332
231	0xbeba84fb	-0.3642958
232	0x3cd215c6	0.025645148
233	0xc00ee844	-2.2329264
234	0xc059e55d	-3.4046242
235	0x3eab7f5c	0.33495605
236	0x3e9528e3	0.29132757
237	0xbec9a858	-0.3938625
238	0xbf23bba0	-0.6395817
239	0x3fd02d79	1.6263877
240	0xbf15d5d1	-0.5852938
241	0xbdea78da	-0.11448832
242	0x3e44679b	0.19180147
243	0x3ed6cd3c	0.41953456
244	0x3f43d71a	0.76500094
245	0xbe336da2	-0.1752229
246	0xbd0358ae	-0.032066993
247	0x3e0b89f2	0.1362684
248	0xc042bc4c	-3.0427427
249	0xc06a1a4e	-3.6578555
250	0xbec9300e	-0.39294475
251	0xbea1992a	-0.31562167
252	0x3e1ae7e2	0.15127519
253	0xbd93ba8a	-0.07213314
254	0xbe9bf24b	-0.30458292
255	0x3e64897a	0.22318068

dense1.bias f4 [64]
0	0x3e2b7fc7	0.16747962
1	0xbe7d8765	-0.2475868
2	0xbec43250	-0.38319635
3	0x3e94bbef	0.29049632
4	0x3e003d10	0.12523293
5	0xbe9aa6b4	-0.3020531
6	0x3f5d8601	0.865326
7	0xbe94f5c7	-0.29093763
8	0x3dac8120	0.08423066
9	0xbe410598	-0.1884979
10	0x3e632f31	0.22185971
11	0xbecaf9e8	-0.39643788
12	0xbe695987	-0.22788058
13	0x3ed413d0	0.41421366
14	0xbc97fdba	-0.018553603
15	0x3f6e5b43	0.93108004
16	0x3e8bc002	0.27294928
17	0x3e7e1f77	0.2481669
18	0xbe12fb25	-0.14353617
19	0x3ebcdeb6	0.36888665
20	0xbeb94f03	-0.36193094
21	0xbce2c801	-0.02768326
22	0xbec9fff1	-0.3945308
23	0x3f2498c6	0.64295614
24	0xbf2e77b8	-0.68151426
25	0x3e994530	0.29935598
26	0xbdfb89b5	-0.12282125
27	0x3e7e9cb0	0.24864459
28	0x3f59bee3	0.85056895
29	0xbec7135a	-0.38881952
30	0x3d3c98e8	0.04604426
31	0x3f47c421	0.78033644
32	0xbc341518	-0.010991357
33	0xbdf03034	-0.11727944
34	0xbcff2070	-0.031143397
35	0x3c8af7fe	0.016963955
36	0xbe1fe030	-0.15612864
37	0xbd8815e7	-0.066448025
38	0x3e31f44a	0.17378345
39	0x3c8c34c7	0.01711501
40	0x3e3e091f	0.18558167
41	0x3f2d0393	0.6758358
42	0x3f1f9034	0.6232941
43	0x3eabeda1	0.33579734
44	0xbf03f0c7	-0.5153927
45	0x3eb42430	0.3518386
46	0x3f2f8053	0.6855518
47	0xbcb60719	-0.022220181
48	0x3e3000e3	0.17187838
49	0x3f2e0cb7	0.6798815
50	0x3eb02e62	0.34410387
51	0x3f371f73	0.7153236
52	0x3e8e36cc	0.27776182
53	0x3f37898b	0.7169425
54	0x3d328ca8	0.04359117
55	0x3ec417eb	0.38299498
56	0x3f83ebe7	1.0306367
57	0xbe7788da	-0.24173298
58	0x3f41ee28	0.7575402
59	0x3e9bcba4	0.30428803
60	0xbea8d224	-0.32972825
61	0xbe9b94da	-0.30387002
62	0xbe7ad2f8	-0.2449454
63	0x3f072101	0.52784735

dense2.weight f4 [64, 64]
0	0xbddd3e0f	-0.10802852
1	0xbd806271	-0.06268776
2	0x3bbfe730	0.005856417
3	0xbd51aae8	-0.05118838
4	0x3d90c3dc	0.07068607
5	0x3d853218	0.06503695
6	0xbdb547b5	-0.08851568
7	0x3ddd0ba6	0.107932374
8	0x3c4c17c0	0.012456834
9	0xbd516d96	-0.0511299
10	0xbd8851b8	-0.066562116
11	0xbd2958b6	-0.041344367
12	0x3d5bf232	0.053697772
13	0xbda2b03e	-0.07943772
14	0xbd73765c	-0.05943905
15	0xbddb0ff0	-0.10696399
16	0x3d83098d	0.06398306
17	0xbd18aa3f	-0.037271734
18	0xbd68ef4c	-0.056868836
19	0xbb23a6cf	-0.0024971252
20	0xbde16722	-0.11005999
21	0x3d7e0d4f	0.06202441
22	0xbd936443	-0.07196858
23	0x3cc23c77	0.023710473
24	0xbd521010	-0.05128485
25	0xbdeab80e	-0.11460887
26	0xbde8204a	-0.11334284
27	0x3cc2c150	0.02377382
28	0x3d6dd93d	0.058068503
29	0xbd98a4b8	-0.074532926
30	0x3c4871d0	0.012234166
31	0x3de3e54e	0.11127721
32	0xbc3db830	-0.011579558
33	0xbdc14508	-0.09436995
34	0x3df00bda	0.117210105
35	0xbc13df31	-0.009025381
36	0xbde72c5a	-0.11287756
37	0x3d74fe03	0.059812557
38	0xbe0baa88	-0.13639271
39	0xbdeaf391	-0.11472238
40	0xbb4c4b97	-0.0031172985
41	0xbde85080	-0.11343479
42	0x3d4f6262	0.050630935
43	0xbd9842e4	-0.074346334
44	0xbdb1c2e8	-0.086797535
45	0x3de49ef6	0.11163132
46	0xbda47c71	-0.08031548
47	0x3c677e3c	0.014129218
48	0xbdac50fb	-0.08413883
49	0x3d2f27c6	0.04276254
50	0xbdd788df	-0.10524153
51	0xbe0aeed0	-0.13567662
52	0xbd0f699c	-0.035012826
53	0x3c45842f	0.012055441
54	0x3d64cdcb	0.055860322
55	0x3d209a48	0.039209634
56	0xbdf17d5b	-0.11791488
57	0x3db5d570	0.088786006
58	0xbd3cfddb	-0.046140533
59	0xbaf06700	-0.0018341243
60	0xbc113088	-0.008861668
61	0xbde753d0	-0.11295283
62	0xbd371078	-0.04469344
63	0x3e0247b0	0.12722659
64	0xbc9183a5	-0.017762968
65	0xbdc81c92	-0.09771074
66	0xbd75fa62	-0.060053237
67	0x3eaa3ec5	0.33251014
68	0xbda92b0c	-0.08260164
69	0xbc680405	-0.014161115
70	0x3ecccdaf	0.40000674
71	0xbc525750	-0.0128382
72	0x3d10a4cc	0.035313413
73	0xbd8a0fad	-0.06741271
74	0xbe6c16b7	-0.2305554
75	0xbdb46dc2	-0.08809997
76	0x3e719dfd	0.23595424
77	0x3d2bf24c	0.04197912
78	0xbe408100	-0.1879921
79	0xbc19bec2	-0.009383859
80	0xbe052382	-0.13001826
81	0xbe114bf6	-0.14189133
82	0xbe27ade3	-0.16374926
83	0xbe31c929	-0.17361893
84	0xbb0987c0	-0.0020985454
85	0xbe6322e2	-0.22181275
86	0xbd9b0d88	-0.0757094
87	0xbe382fd1	-0.1798699
88	0x3db4e3e4	0.08832529
89	0x3d8b5f94	0.068053395
90	0xbe0fdc7d	-0.14048953
91	0x3dc7cbe6	0.097556874
92	0xbe2221c9	-0.158332
93	0xbd02cf47	-0.031935956
94	0xbd94e6e8	-0.07270604
95	0x3e34d833	0.17660598
96	0xbddfd226	-0.109287545
97	0xbe02cecb	-0.12774198
98	0x3d1e8254	0.03869851
99	0x3e955aa3	0.29170713
100	0xbbd958c0	-0.0066328943
101	0xbdf0b0a8	-0.117524445
102	0x3cadde6f	0.021224229
103	0x3e034479	0.12819089
104	0x3e89a6ef	0.26885173
105	0x3e0b2849	0.13589586
106	0xbc4d1a3a	-0.01251846
107	0x3d83a52b	0.06427988
108	0xbdf3c142	-0.119020954
109	0xbe38e521	-0.18056156
110	0xbe3a5f3a	-0.18200389
111	0xbee952fb	-0.45571122
112	0x3c836d16	0.016043227
113	0xbd22cdac	-0.039746925
114	0x3d47f075	0.048813302
115	0xbde30fd6	-0.11087005
116	0x3d3e4f98	0.046462625
117	0xbc30388e	-0.010755671
118	0xbe51536c	-0.20441979
119	0xbe289470	-0.16462874
120	0x3df07c25	0.11742429
121	0x3d39c8a4	0.04535736
122	0x3e4c72ce	0.1996567
123	0xbc477790	-0.012174502
124	0xbc3fe0ce	-0.011711312
125	0x3ccadb70	0.02476284
126	0xbdafcc3c	-0.085838765
127	0x3eb79a83	0.3586007
128	0x3ca3452b	0.019930443
129	0xbe88eda6	-0.2674381
130	0x3ca42166	0.020035457
131	0xbdf178cc	-0.11790618
132	0x3cf0ec18	0.029409453
133	0x3d387752	0.045035668
134	0xbe22ed18	-0.15910757
135	0xbddbedcc	-0.107387155
136	0xbdff34ac	-0.12461218
137	0xbd8025b6	-0.06257193
138	0x3ba6943d	0.0050835893
139	0x3d20fb52	0.039302178
140	0x3cd753b6	0.026285034
141	0x3c3da6a0	0.011575371
142	0x3d727fd5	0.05920394
143	0xbdb5ffc7	-0.08886676
144	0xbe45b778	-0.19308269
145	0x3d16e069	0.036835108
146	0xbe0117f4	-0.12606794
147	0xbd613f51	-0.054992024
148	0x3df9e37a	0.12201591
149	0xbe2bd093	-0.16778784
150	0x3d798b19	0.06092367
151	0xbda0334d	-0.07822285
152	0xbd8b8bbf	-0.06813764
153	0xbdd617ca	-0.10453756
154	0xbd04cc0d	-0.03242116
155	0x3d976358	0.07391995
156	0x3ddd2b07	0.107992224
157	0xba9c0c44	-0.0011905511
158	0x3d44c920	0.04804337
159	0xbd63ceac	-0.05561702
160	0x3dd621c8	0.10455662
161	0x3d3a260f	0.04544645
162	0xbd2be2f8	-0.0419645
163	0x3c441608	0.011968143
164	0xbd6523e8	-0.055942446
165	0xbd206312	-0.03915698
166	0x3dffb49e	0.12485622
167	0xbe280c5c	-0.16410965
168	0xbd621195	-0.05519255
169	0xbe438b19	-0.1909603
170	0xbd2ad815	-0.041709978
171	0xbdff416a	-0.124636486
172	0xbddb6bfb	-0.10713955
173	0x3d00afe2	0.031417735
174	0xbcbdff09	-0.0231929
175	0xbd91251c	-0.07087156
176	0xbd20fc88	-0.039303333
177	0xbe1606eb	-0.14651076
178	0xba8e81cb	-0.0010872422
179	0xbd85538a	-0.065100744
180	0x3d9fce52	0.07803024
181	0xbe4baad9	-0.19889392
182	0x3d34a5b4	0.04410334
183	0x3d09cb73	0.03364129
184	0xbdf35ab4	-0.118825346
185	0x3daad340	0.08341074
186	0xbd4e73bc	-0.05040334
187	0xbdce3dc2	-0.10070373
188	0xbddc5a1a	-0.10759373
189	0x3de7675a	0.112990096
190	0x3be5f8a0	0.007018164
191	0xbdf30b94	-0.11867443
192	0xbd9d186f	-0.07670676
193	0xbd72949c	-0.059223756
194	0x3d63881a	0.05554972
195	0xbdd8f4a0	-0.105935335
196	0x3d094334	0.033511356
197	0xbd9947ed	-0.07484422
198	0x3d5919c3	0.053003084
199	0xbc16b7d0	-0.009199098
200	0xbde2c0ba	-0.11071916
201	0xbe08b72d	-0.13351126
202	0xbd95096d	-0.072771885
203	0xbddb5960	-0.10710406
204	0xbda9b745	-0.08286909
205	0x3da29692	0.07938875
206	0xbcbdfe11	-0.023192437
207	0x3b6d01b6	0.003616435
208	0x3dff5219	0.12466831
209	0xbe0bab82	-0.13639644
210	0xbe06d8ae	-0.13168594
211	0xbcbda088	-0.023147836
212	0x3b152740	0.002275899
213	0xbde13db6	-0.109980986
214	0xbde917d4	-0.11381498
215	0xbd2b2c78	-0.041790456
216	0x3c64c0e2	0.0139620025
217	0xbd6f4174	-0.05841203
218	0xbdbf5c21	-0.09343744
219	0xbdba5bea	-0.090995625
220	0x3db22fb5	0.08700506
221	0x3d85903e	0.06521653
222	0xbdd564c6	-0.10419612
223	0x3db22454	0.08698335
224	0x3c431e00	0.011909008
225	0x3c7c9dc8	0.015418477
226	0xbddd42a0	-0.10803723
227	0xbc3e7278	-0.011623971
228	0xbddf0b68	-0.108908474
229	0x3dfa55e3	0.12223413
230	0x3dff2622	0.12458445
231	0xbc8cfbae	-0.017209854
232	0xbcc77651	-0.02434841
233	0xbce87f24	-0.028380938
234	0xbdac5917	-0.0841543
235	0x3bfd08f6	0.0077220155
236	0xbcede11f	-0.02903801
237	0xbcb1d5fc	-0.021708481
238	0x3ca06164	0.01957769
239	0x3c9fbeba	0.019500125
240	0x3d347f28	0.04406658
241	0xbc60509c	-0.013691094
242	0x3c8792f4	0.016549565
243	0xbd82082c	-0.06349215
244	0x3d8b4a88	0.06801325
245	0xbdc4751b	-0.095926486
246	0x3d9eb6f3	0.077497385
247	0x3c9a8ad8	0.018865034
248	0xbdb6c7aa	-0.08924802
249	0xbdbf2664	-0.09333494
250	0xbca3a564	-0.019976325
251	0xbda4d050	-0.08047545
252	0xbd7ce615	-0.06174286
253	0xbdc236f8	-0.09483141
254	0xbb6c6c40	-0.0036075264
255	0xbdb3b913	-0.087755345

dense2.bias f4 [64]
0	0xbb41a45f	-0.0029547436
1	0x3e1926b8	0.14956176
2	0xbdf43cf2	-0.11925687
3	0xbdcec458	-0.10096043
4	0x3d8fadfe	0.07015608
5	0x3eb7f91b	0.3593224
6	0xbde035ac	-0.10947737
7	0x3ceecb30	0.029149622
8	0x3eebd73d	0.4606265
9	0xbd1b1ddf	-0.037870284
10	0x3ec0a7f4	0.37628138
11	0x3d4668a9	0.048439655
12	0xbd22367e	-0.03960275
13	0x3d3b8b00	0.045786858
14	0x3ee90397	0.4551055
15	0x3f16f9f6	0.5897516
16	0xbd895f5b	-0.06707641
17	0x3f021685	0.5081561
18	0x3edabaf3	0.42720756
19	0x3daf9d92	0.08574976
20	0xbc282855	-0.010263522
21	0x3ea97523	0.3309718
22	0x3d4dce4f	0.05024558
23	0x3ebc7e55	0.36815134
24	0x3ecbbb18	0.3979118
25	0x3f3c5716	0.7357038
26	0xbe0b3830	-0.13595653
27	0xbd8d3b62	-0.06896092
28	0x3c4d3858	0.01252564
29	0xbd19de8a	-0.037565745
30	0xbd7d2fdf	-0.06181323
31	0xbda695e1	-0.08134056
32	0xbd4590a2	-0.048233636
33	0xbd53cd97	-0.051709738
34	0xbd3f5ba7	-0.046718266
35	0x3cf97454	0.030450977
36	0xbc137cbb	-0.009001906
37	0x3f07b206	0.5300602
38	0xbe42d06c	-0.19024819
39	0x3f13b944	0.5770457
40	0x3c3e1811	0.011602418
41	0x3e8b2e4f	0.27183768
42	0xbdadb339	-0.0848145
43	0xbded59a4	-0.11589363
44	0xbdaf78c6	-0.085679576
45	0xbd289ba8	-0.04116407
46	0xbd84c32e	-0.0648254
47	0xbca313bd	-0.019906873
48	0x3eaefd44	0.341776
49	0x3dab2220	0.08356118
50	0xbba9eb3a	-0.005185512
51	0xbe0d53f2	-0.13801554
52	0xbdd2f5ac	-0.103007644
53	0xbd2f6712	-0.042822905
54	0xbe1718fe	-0.14755628
55	0xbe1c57ed	-0.15267916
56	0xbe049501	-0.12947465
57	0x3d087136	0.03331109
58	0x3d89340e	0.06699382
59	0xbd3339c0	-0.043756247
60	0xbe22aba4	-0.15885788
61	0xbd277d3a	-0.04089091
62	0xbe169b76	-0.14707741
63	0xbb6f55c9	-0.0036519638

dense3.weight f4 [4, 64]
0	0x3dd07acd	0.101796724
1	0xbda28b10	-0.0793668
2	0x3d01929f	0.03163397
3	0x3da5c425	0.08094052
4	0x3bf1a12b	0.007373949
5	0xbe4628dd	-0.19351526
6	0x3cbd80b0	0.023132652
7	0xbdc89e29	-0.09795792
8	0xbe63f7c7	-0.22262488
9	0xbd44f766	-0.0480875
10	0xbe7114db	-0.23543112
11	0xbc80e594	-0.015734471
12	0xbcc9fac2	-0.024655703
13	0x3ce96c92	0.028494153
14	0xbe84b796	-0.25921315
15	0xbd800278	-0.06250471
16	0xbd2d0c47	-0.042248037
17	0x3e98beeb	0.2983316
18	0xbe4b15b8	-0.19832504
19	0xbc973348	-0.01845707
20	0xbe1c7445	-0.15278728
21	0xbdc03563	-0.09385183
22	0xbda29180	-0.07937908
23	0xbdd740b7	-0.1051039
24	0xbdceade8	-0.10091764
25	0xbe85292c	-0.26007974
26	0x3dc50b82	0.096213356
27	0xbd7cce9d	-0.06172048
28	0x3db11259	0.08646078
29	0x3bd4dde0	0.006496176
30	0xbd7374c0	-0.059437513
31	0xbda88d88	-0.0823012
32	0x3bb2ac5d	0.005452676
33	0x3ceea5d0	0.0291318
34	0xbdc59687	-0.096478514
35	0x3d6f9590	0.058492243
36	0xbdc80239	-0.09766049
37	0xbdf90b91	-0.12160409
38	0x3dddf442	0.10837604
39	0xbe1b9bda	-0.15196171
40	0xbd90bd22	-0.07067324
41	0xbe11f3da	-0.14253178
42	0x3dc80b1a	0.097677425
43	0x3d98bf62	0.074583784
44	0xbd4c07f8	-0.049812287
45	0xbd99faf7	-0.07518571
46	0xbc5c83c2	-0.013459148
47	0xbc989c73	-0.018629288
48	0xbd91edc7	-0.071254306
49	0x3df29868	0.118454754
50	0xbe75ae93	-0.23992376
51	0xbdf3bca8	-0.11901218
52	0x3d2d2f90	0.042281687
53	0xbc907624	-0.017634459
54	0x3e238730	0.15969539
55	0xbd797558	-0.060902923
56	0x3d9e6c5a	0.0773551
57	0x3d3a7c7c	0.045528874
58	0xbd3ed8d0	-0.046593487
59	0xbd872924	-0.06599644
60	0x3bb1b40f	0.005423076
61	0xbc5564a0	-0.013024479
62	0xbde232da	-0.110448554
63	0xbd389408	-0.04506305
64	0x3ddc5cda	0.107598975
65	0xbe1eb57d	-0.1549892
66	0xbc4937b1	-0.012281344
67	0xbb325f38	-0.00272174
68	0x390db91b	0.00013515765
69	0xbe4bfa1c	-0.19919628
70	0xbdf308e4	-0.1186693
71	0x3d6702c6	0.05639913
72	0xbe0b49b4	-0.13602334
73	0x3da991b4	0.08279744
74	0xbe6e8304	-0.23292166
75	0xbc1f5358	-0.009724461
76	0x3d54b208	0.051927596
77	0x3d7b3034	0.061325267
78	0xbec24860	-0.37945843
79	0xbe3d9c06	-0.1851655
80	0x3c60cb2c	0.013720315
81	0x3e9b8ac3	0.30379304
82	0xbe0a0e6b	-0.13482063
83	0x3d9de7c4	0.077102214
84	0xbe3fab65	-0.18717726
85	0xbe378a19	-0.17923774
86	0xbcd7b410	-0.026330978
87	0xbe46a800	-0.19400024
88	0xbe7af198	-0.24506223
89	0xbe5acad4	-0.21366435
90	0xbc238d5e	-0.009982435
91	0xbdd41ed4	-0.103574425
92	0xbd8b6d37	-0.068079405
93	0xbe683931	-0.22678067
94	0xbd4905b5	-0.04907771
95	0xbd6852fb	-0.05671976
96	0xbdda280e	-0.10652171
97	0xbd531fbe	-0.051543944
98	0xbd31ca2a	-0.04340569
99	0xbcae05f2	-0.02124307
100	0x3e244b8d	0.16044445
101	0xbe7cb6c9	-0.24679102
102	0xbc486f25	-0.01223353
103	0xbe074c06	-0.13212594
104	0x3df2eb63	0.11861303
105	0xbdb78c5a	-0.08962317
106	0xbd0eaeb9	-0.034834597
107	0x3d44035e	0.047854774
108	0xbc9dff30	-0.019286722
109	0x3d635ecd	0.05551033
110	0xbc7dc8c7	-0.015489764
111	0xbd87033a	-0.06592412
112	0xbd85d23a	-0.06534238
113	0xba900500	-0.0010987818
114	0xbe6f45bb	-0.23366444
115	0xbd5c6586	-0.053807758
116	0x3d172bc3	0.03690697
117	0x3d6ecf59	0.05830321
118	0xbce397d3	-0.027782356
119	0xbdec29ae	-0.11531387
120	0xbd65288a	-0.055946864
121	0x3c16f7b4	0.00921433
122	0xbd601020	-0.054702878
123	0x3d128978	0.03577563
124	0x3b9abf00	0.004722476
125	0x3da753e6	0.08170299
126	0xbdd6f43a	-0.10495801
127	0xbcb57498	-0.022150323
128	0xbc3f31c0	-0.011669576
129	0xbe6ba594	-0.23012382
130	0x3d2a1df8	0.041532487
131	0x3d8e5755	0.06950251
132	0x3d727e09	0.059202228
133	0xbcc55baa	-0.02409156
134	0xbd0d5d88	-0.034513026
135	0xbd1e934d	-0.038714696
136	0xbe710831	-0.23538281
137	0xbe0ab71b	-0.13546412
138	0x3c5a6849	0.013330528
139	0x3cbb7f25	0.022887776
140	0x3d87169b	0.065961085
141	0xbd41efcc	-0.04734783
142	0x3dfeaddc	0.12435505
143	0xbda65a13	-0.08122649
144	0x3d40c9cf	0.04706746
145	0x3e9d369d	0.3070573
146	0xbe0906c9	-0.13381495
147	0xbcd882a0	-0.026429474
148	0x3c861433	0.016367054
149	0xbe13657d	-0.14394183
150	0x3dfd2332	0.123602286
151	0x3c0d3d4d	0.008620572
152	0xbd573f5f	-0.05255067
153	0xbe04fb04	-0.1298638
154	0x3dcd25e8	0.10016996
155	0x3cf34bd2	0.02969924
156	0x3db7ff22	0.089842096
157	0xbdcd9c8b	-0.10039624
158	0xbc539e4e	-0.012916161
159	0xbd654426	-0.055973195
160	0xbdb34da6	-0.08755045
161	0x3d9dcdaf	0.07705247
162	0x3da45d8a	0.08025654
163	0xbda37ee0	-0.07983184
164	0x3d7143de	0.058902614
165	0xbdeb1e55	-0.11480395
166	0x3d353e07	0.044248607
167	0xbd1ca80b	-0.038246196
168	0xbe42130d	-0.1895258
169	0xbdb4f7b9	-0.08836312
170	0x3d0639b0	0.03276986
171	0xbdcce3a4	-0.100043565
172	0x3c932d3c	0.017965905
173	0xbe5a1280	-0.2129612
174	0x3bebc88f	0.0071955393
175	0xbc3fe270	-0.011711702
176	0xbde1372b	-0.109968506
177	0xbda31df8	-0.079647005
178	0xbe1d5de6	-0.1536785
179	0xbd5d2114	-0.053986624
180	0xbae97ea8	-0.0017814236
181	0xbd8604cf	-0.06543886
182	0xbba4ff4e	-0.0050353175
183	0xbdd4d0d6	-0.10391395
184	0xb9fdca8c	-0.0004840683
185	0x3d09fc4f	0.033687886
186	0xbdfa4fee	-0.12222277
187	0x3bec2d40	0.0072075427
188	0xbd8a98c5	-0.0676742
189	0xbd7d08d1	-0.061775986
190	0x3d26b198	0.04069671
191	0xbd2dad3e	-0.042401545
192	0x3df37f64	0.11889532
193	0xbdec0d65	-0.11525992
194	0x3dcf8776	0.10133259
195	0x3cfecaca	0.031102557
196	0xbd878800	-0.06617737
197	0xbe69a02a	-0.22815004
198	0x3d26e638	0.040746897
199	0x3ceb8273	0.028748726
200	0xbe6b1d30	-0.22960353
201	0xbc935327	-0.017983986
202	0xbe11e9f3	-0.14249401
203	0x3d555f20	0.05209267
204	0xbba839a0	-0.0051338226
205	0x3d1cee80	0.03831339
206	0xbea81ff2	-0.32836872
207	0xbd912f01	-0.070890434
208	0xbdab3053	-0.083588265
209	0x3e76d669	0.24105228
210	0xbe0d21b6	-0.13782391
211	0x3cbe64f8	0.023241505
212	0xbd74960c	-0.05971341
213	0xbd977a94	-0.07396427
214	0xbcf2cb18	-0.029637858
215	0xbdfe00ca	-0.12402494
216	0xbe1fd095	-0.15606911
217	0xbe9c1a29	-0.3048871
218	0xbd34a060	-0.044098258
219	0xbc929940	-0.01789534
220	0x3e34aaf7	0.17643343
221	0x3d53c4e0	0.051701427
222	0xbcb9da6d	-0.022687161
223	0xbd89a836	-0.06721537
224	0xbcd31ea9	-0.025771456
225	0xbd1f1630	-0.03883952
226	0xbcdfedb4	-0.027335025
227	0x3cf84b08	0.030309215
228	0x3db33502	0.08750345
229	0xbe2674a8	-0.16255438
230	0x3e1987f2	0.14993265
231	0xbe1c7f8a	-0.15283027
232	0xbdf61423	-0.120155595
233	0xbd9e6833	-0.07734718
234	0xbdcdc070	-0.1004647
235	0xbcfcef68	-0.030875877
236	0xbd226fac	-0.03965728
237	0xbddbd866	-0.10734634
238	0x3d439d80	0.047757626
239	0xbdfadfe6	-0.122497365
240	0xbe07787e	-0.13229558
241	0x3dbfa26c	0.093571514
242	0xbe58c7de	-0.21169993
243	0x3d3298e4	0.04360284
244	0xbd809a85	-0.06279472
245	0xbde1809e	-0.1101086
246	0xbd6b4fd9	-0.057449196
247	0x3db87c2e	0.090080604
248	0x3c3b4934	0.011431027
249	0x3d4ab7f7	0.04949185
250	0x3dcbac1e	0.09944938
251	0xbb80ae00	-0.0039269924
252	0x3bd00925	0.0063487464
253	0xbc484bef	-0.012225135
254	0xbd7a5519	-0.06111631
255	0xbce06c40	-0.027395368

dense3.bias f4 [4]
0	0x3d232bee	0.039836816
1	0xbe09722f	-0.13422464
2	0x3e4347d2	0.19070366
3	0xbd31a6a7	-0.043371823
