Reinforcment_Learning_DQN/agent_output/weights/episode_223_weights.pt (torch, 21495 bytes, 6 tensors)

dense1.weight f4 [64, 5]
0	0xbd6e9472	-0.058247037
1	0xbe5d9bcc	-0.21641463
2	0x3e51a2e7	0.20472299
3	0xc04142f7	-3.0197122
4	0xc047dec0	-3.1229706
5	0x3e546991	0.20743395
6	0x3d58a084	0.052887455
7	0xbed2e15d	-0.41187564
8	0x3f174ea4	0.5910437
9	0xbeb86134	-0.3601166
10	0x3ee3f039	0.44519213
11	0xbedb4a14	-0.42829955
12	0xbed07430	-0.40713644
13	0x3ec2a60f	0.38017318
14	0x3d503202	0.05082894
15	0xbe61065e	-0.21975085
16	0x3ece8be8	0.40341115
17	0xbe6bd4c9	-0.2303039
18	0x3fbf2bae	1.4935205
19	0xbe9bb812	-0.30413872
20	0xbe7eeb9a	-0.24894562
21	0x3da0f800	0.07859802
22	0xbe8eda08	-0.2790072
23	0xbe818c08	-0.25302148
24	0x3ed60dc0	0.41807365
25	0x3ec1bb4e	0.37838215
26	0xbecc2eed	-0.39879552
27	0xbe8a643e	-0.27029604
28	0x3e65ed1a	0.22453728
29	0x3f477917	0.77919143
30	0xbe453860	-0.19259787
31	0x3f374222	0.71585286
32	0xbd527250	-0.05137855
33	0xbf9aae61	-1.2084466
34	0xbfe02fa2	-1.7514536
35	0xbe78eb73	-0.24308567
36	0x3de719e8	0.11284238
37	0xbe9e6d1e	-0.30942625
38	0x3c9b2a50	0.018941075
39	0xbc371b60	-0.01117596
40	0xbd18dcb0	-0.03731984
41	0xbe0be162	-0.13660195
42	0xbe755b8e	-0.23960707
43	0x3dafaaf0	0.085775256
44	0x3ec4797e	0.3837394
45	0x3ef91333	0.4864746
46	0xbef99233	-0.48744354
47	0xbed240bb	-0.4106501
48	0x3ef79a9e	0.4836015
49	0xbed5bba7	-0.4174473
50	0xbe98a8bd	-0.29816237
51	0xbeb2f751	-0.34954312
52	0x3ead50c5	0.33850685
53	0xbfaa517d	-1.3306118
54	0xbfee0db7	-1.8597935
55	0x3e48397d	0.1955318
56	0xbf0e7154	-0.55641675
57	0x3df8b2a9	0.12143452
58	0x3f0d15bf	0.55111307
59	0x3f514ff6	0.81762636
60	0xbdacce02	-0.0843773
61	0x3dbce831	0.092239745
62	0xbe68c937	-0.22733007
63	0x3f7a1aee	0.9769734
64	0x3dfaee85	0.12252525
65	0x3e04f058	0.12982309
66	0xbeb0bcc4	-0.34519017
67	0xbe833fce	-0.25634617
68	0xbec576a8	-0.3856709
69	0xbe9ebe92	-0.3100477
70	0x3ed80f6c	0.42199266
71	0xbef49650	-0.4777093
72	0x3d2d65f3	0.042333554
73	0x3e5295c0	0.20564938
74	0xbf9827e8	-1.1887178
75	0xbe5c5db1	-0.21520115
76	0x3d9634f4	0.07334319
77	0x3dbeb630	0.09312093
78	0xc012d22a	-2.2940774
79	0xc0665453	-3.5988967
80	0xbe41a88b	-0.1891195
81	0xbe8ce58e	-0.27518886
82	0x3e4d53ff	0.20051573
83	0xbf957199	-1.1675292
84	0xbfd586fb	-1.6681818
85	0x3ed97d5c	0.42478454
86	0xbece2e70	-0.40269804
87	0xbf01e95b	-0.507467
88	0x3e68c6ab	0.22732036
89	0xbd778023	-0.060424935
90	0x3eb65eab	0.356191
91	0x3ec30265	0.38087764
92	0xbca37c24	-0.019956656
93	0x3f150c37	0.58221763
94	0x402fb5a0	2.7454605
95	0x3e82d446	0.25552577
96	0xbecbbe23	-0.397935
97	0x3e334330	0.17506099
98	0xc02d3741	-2.7064974
99	0xc025a919	-2.588446
100	0xbe16778a	-0.14694038
101	0xbed737b7	-0.42034695
102	0xbe61a8dc	-0.22037071
103	0x3e573eb0	0.21020007
104	0xbd5aee38	-0.05344984
105	0x3e78628a	0.2425634
106	0x3dbc79f2	0.09202947
107	0xbee8bdaf	-0.45457217
108	0xbe4cb256	-0.19989905
109	0x3f880c86	1.0628822
110	0xbebd2e5f	-0.3694944
111	0x3e8e379b	0.277768
112	0x3e47b3c7	0.19502173
113	0x403e051e	2.9690623
114	0x404cbd4c	3.1990538
115	0xbd55cdfa	-0.052198388
116	0xbea63ffe	-0.32470697
117	0x3e9ae2ba	0.30251104
118	0xc04858f7	-3.13043
119	0xc030a374	-2.7599764
120	0xbf3efe57	-0.7460684
121	0xbcc33d6a	-0.023832995
122	0x3e2732c5	0.16327961
123	0x4003ea23	2.0611656
124	0x3fdcf91f	1.7263526
125	0xbeba614a	-0.3640235
126	0xbed221e4	-0.41041481
127	0xbd60d9b0	-0.054895103
128	0x3d08d648	0.03340748
129	0x3ed1dbd2	0.40988022
130	0x3edb3972	0.42817265
131	0xbee5f6e8	-0.44914937
132	0xbe998468	-0.2998383
133	0x3f7a8a76	0.97867525
134	0x3eb20a63	0.3477355
135	0xbedcd19a	-0.43128663
136	0xbee4d9ce	-0.44697422
137	0xbd9c1ae4	-0.076223165
138	0xbe94d095	-0.29065385
139	0xbec0a06d	-0.37622395
140	0x3e7dd72f	0.24789117
141	0xbee76816	-0.451966
142	0x3e7ca6da	0.24673024
143	0xc022490d	-2.5357087
144	0xc05b2396	-3.424047
145	0x3ea173d7	0.3153369
146	0xbe966ecd	-0.2938141
147	0xbec25b73	-0.37960395
148	0x3ec61b60	0.3869276
149	0xbe781ceb	-0.24229781
150	0xbec102ac	-0.3769735
151	0x3e09d058	0.13458383
152	0xbe15c89c	-0.14627308
153	0x3e9dde94	0.30833876
154	0x3ec5d73a	0.38640767
155	0xbe265b4f	-0.16245769
156	0x3e043fb7	0.1291493
157	0x3d3f3f3a	0.046691157
158	0xc031e43a	-2.7795548
159	0xc04a9a11	-3.1656535
160	0xbed62d70	-0.4183154
161	0xbe904669	-0.2817872
162	0x3d2fd4b3	0.042927455
163	0x3e4fd9a0	0.20297861
164	0xbd1df0a0	-0.038559556
165	0x3e9af231	0.30262902
166	0xbea50146	-0.32227534
167	0xbe1cf4ee	-0.15327808
168	0x3f5f8153	0.8730671
169	0xbf100501	-0.56257635
170	0xbed4a454	-0.41531622
171	0xbe0c4e12	-0.13701656
172	0xbe4a5a78	-0.19761074
173	0xbd4bad40	-0.04972577
174	0xbed0b902	-0.4076615
175	0xbee41896	-0.44550008
176	0x3e895142	0.26819807
177	0xbc651b2b	-0.013983528
178	0x3f3814c9	0.71906716
179	0x3fad94fc	1.3561091
180	0xbe6ace50	-0.22930264
181	0xbea1db70	-0.3161273
182	0x3d3ea550	0.046544373
183	0x3e859744	0.2609197
184	0xbedd358a	-0.4320491
185	0xbe3215c3	-0.17391114
186	0xbee939f7	-0.45552036
187	0x3e97626b	0.29567274
188	0xbf980d8b	-1.1879133
189	0xbfd7a6c5	-1.6847769
190	0x3ec85b0a	0.39131957
191	0xbf0dcb29	-0.5538812
192	0xbe3831f7	-0.1798781
193	0x3f9013cb	1.125604
194	0xbf068a50	-0.525548
195	0xbe4cd390	-0.2000258
196	0x3e6403d0	0.2226708
197	0x3cc5dac2	0.024152163
198	0xc022a14f	-2.5410955
199	0xc0161abd	-2.345382
200	0xbe32ae6c	-0.17449349
201	0x3e4bfd21	0.1992078
202	0x3d287bfe	0.041133873
203	0xc0466047	-3.0996263
204	0xc08275fb	-4.076902
205	0xbce91b4b	-0.028455397
206	0x3d91aadd	0.07112668
207	0x3d3ae9a1	0.045632962
208	0xc019a71e	-2.400825
209	0xc08b2b1f	-4.349014
210	0x3e6f2583	0.23354153
211	0x3eb94b64	0.3619033
212	0xbe3a9e9a	-0.18224564
213	0xc0096e96	-2.1473746
214	0xc00e1839	-2.2202284
215	0x3eb3235a	0.3498791
216	0x3f03bc31	0.5145903
217	0x3ce5d7c5	0.028056988
218	0xbebdb5a3	-0.3705264
219	0x3f1be48d	0.60895616
220	0xbe9d6baa	-0.30746204
221	0xbd02da49	-0.031946454
222	0x3ea7a648	0.3274405
223	0x4012537d	2.2863457
224	0x4003836d	2.0548966
225	0x3e8f81f7	0.28028843
226	0xbefe2b9b	-0.49642643
227	0x3e856f9e	0.2606172
228	0xc017a941	-2.3697054
229	0xc050c7db	-3.2621982
230	0x3eb8f669	0.36125496
231	0xbeb7a659	-0.358691
232	0x3cff70fa	0.031181801
233	0xc00fb26d	-2.2452652
234	0xc059efae	-3.405254
235	0x3ea55cc9	0.32297352
236	0x3e900e68	0.2813599
237	0xbecde756	-0.40215558
238	0xbf1da52e	-0.6158017
239	0x3fcf89f6	1.6213977
240	0xbf13e6b2	-0.5777389
241	0xbdd96ef7	-0.10616868
242	0x3e485137	0.19562231
243	0x3ed6cd3c	0.41953456
244	0x3f44e265	0.7690795
245	0xbe37c886	-0.17947587
246	0xbd121986	-0.035668872
247	0x3e0abd6d	0.13548823
248	0xc0422d37	-3.0340097
249	0xc0694c5d	-3.6452858
250	0xbecd0fc6	-0.40051097
251	0xbea61111	-0.32434896
252	0x3e0f079f	0.13967751
253	0xbd93ba8a	-0.07213314
254	0xbe9bf24b	-0.30458292
255	0x3e73859a	0.23781434

dense1.bias f4 [64]
0	0x3e2a687d	0.16641422
1	0xbe7e08c4	-0.24808031
2	0xbec18cf2	-0.37802845
3	0x3e8f49c5	0.2798597
4	0x3e003d10	0.12523293
5	0xbe91749e	-0.28409284
6	0x3f5a7953	0.85341376
7	0xbe94f5c7	-0.29093763
8	0x3dac8120	0.08423066
9	0xbe31c986	-0.17362031
10	0x3e67e93e	0.22647569
11	0xbec95329	-0.3932126
12	0xbe63ed1d	-0.2225842
13	0x3ed413d0	0.41421366
14	0xbbef9bd8	-0.007312279
15	0x3f6e3ca0	0.93061256
16	0x3e8b977f	0.2726402
17	0x3e82d114	0.2555014
18	0xbe1c1958	-0.15244043
19	0x3ebf670d	0.3738331
20	0xbeb94f03	-0.36193094
21	0xbcac0497	-0.020998282
22	0xbec9d2c8	-0.39418626
23	0x3f23f731	0.6404906
24	0xbf2d2675	-0.67636806
25	0x3e994530	0.29935598
26	0xbdee2b33	-0.11629333
27	0x3e7e9cb0	0.24864459
28	0x3f5b1312	0.85575974
29	0xbec22ba7	-0.3792393
30	0x3d3c98e8	0.04604426
31	0x3f464e2b	0.77463025
32	0xbc341518	-0.010991357
33	0xbde4c062	-0.111695066
34	0xbcff2070	-0.031143397
35	0x3ca466a4	0.020068474
36	0xbe1fe030	-0.15612864
37	0xbd8d81fe	-0.0690956
38	0x3e2fccbb	0.17167942
39	0x3c45c306	0.012070423
40	0x3e380de7	0.17974053
41	0x3f2f0b8f	0.6837701
42	0x3f1e35e4	0.6180098
43	0x3ea7c796	0.3276946
44	0xbf019c95	-0.5062955
45	0x3eb7a2c8	0.3586638
46	0x3f31645f	0.6929378
47	0xbd05c1cd	-0.032655526
48	0x3e34b480	0.1764698
49	0x3f2cfc47	0.67572445
50	0x3eaa63a5	0.33279148
51	0x3f3a943a	0.72882426
52	0x3e8e36cc	0.27776182
53	0x3f39170b	0.72300786
54	0x3d5339f7	0.05156895
55	0x3ec768ee	0.38947242
56	0x3f835464	1.0260129
57	0xbe7788da	-0.24173298
58	0x3f432828	0.7623315
59	0x3e9bcba4	0.30428803
60	0xbea43848	-0.3207419
61	0xbe9b94da	-0.30387002
62	0xbe7ad2f8	-0.2449454
63	0x3f05810f	0.5215005

dense2.weight f4 [64, 64]
0	0xbddd3e0f	-0.10802852
1	0xbd806271	-0.06268776
2	0x3bbfe730	0.005856417
3	0xbd51aae8	-0.05118838
4	0x3d90c3dc	0.07068607
5	0x3d853218	0.06503695
6	0xbdb547b5	-0.08851568
7	0x3ddd0ba6	0.107932374
8	0x3c4c17c0	0.012456834
9	0xbd516d96	-0.0511299
10	0xbd8851b8	-0.066562116
11	0xbd2958b6	-0.041344367
12	0x3d5bf232	0.053697772
13	0xbda2b03e	-0.07943772
14	0xbd73765c	-0.05943905
15	0xbddb0ff0	-0.10696399
16	0x3d83098d	0.06398306
17	0xbd18aa3f	-0.037271734
18	0xbd68ef4c	-0.056868836
19	0xbb23a6cf	-0.0024971252
20	0xbde16722	-0.11005999
21	0x3d7e0d4f	0.06202441
22	0xbd936443	-0.07196858
23	0x3cc23c77	0.023710473
24	0xbd521010	-0.05128485
25	0xbdeab80e	-0.11460887
26	0xbde8204a	-0.11334284
27	0x3cc2c150	0.02377382
28	0x3d6dd93d	0.058068503
29	0xbd98a4b8	-0.074532926
30	0x3c4871d0	0.012234166
31	0x3de3e54e	0.11127721
32	0xbc3db830	-0.011579558
33	0xbdc14508	-0.09436995
34	0x3df00bda	0.117210105
35	0xbc13df31	-0.009025381
36	0xbde72c5a	-0.11287756
37	0x3d74fe03	0.059812557
38	0xbe0baa88	-0.13639271
39	0xbdeaf391	-0.11472238
40	0xbb4c4b97	-0.0031172985
41	0xbde85080	-0.11343479
42	0x3d4f6262	0.050630935
43	0xbd9842e4	-0.074346334
44	0xbdb1c2e8	-0.086797535
45	0x3de49ef6	0.11163132
46	0xbda47c71	-0.08031548
47	0x3c677e3c	0.014129218
48	0xbdac50fb	-0.08413883
49	0x3d2f27c6	0.04276254
50	0xbdd788df	-0.10524153
51	0xbe0aeed0	-0.13567662
52	0xbd0f699c	-0.035012826
53	0x3c45842f	0.012055441
54	0x3d64cdcb	0.055860322
55	0x3d209a48	0.039209634
56	0xbdf17d5b	-0.11791488
57	0x3db5d570	0.088786006
58	0xbd3cfddb	-0.046140533
59	0xbaf06700	-0.0018341243
60	0xbc113088	-0.008861668
61	0xbde753d0	-0.11295283
62	0xbd371078	-0.04469344
63	0x3e0247b0	0.12722659
64	0xbc57966f	-0.013158425
65	0xbdc81c92	-0.09771074
66	0xbd75fa62	-0.060053237
67	0x3ea3f87a	0.3202551
68	0xbda92b0c	-0.08260164
69	0xbc680405	-0.014161115
70	0x3ecd6820	0.40118504
71	0xbc525750	-0.0128382
72	0x3d10a4cc	0.035313413
73	0xbd8a0fad	-0.06741271
74	0xbe6d81be	-0.23194024
75	0xbdb46dc2	-0.08809997
76	0x3e719dfd	0.23595424
77	0x3d2bf24c	0.04197912
78	0xbe40dd84	-0.18834502
79	0xbb7cd9dd	-0.0038582005
80	0xbe0492cf	-0.12946628
81	0xbe114bf6	-0.14189133
82	0xbe263657	-0.16231667
83	0xbe315449	-0.17317308
84	0xbb0987c0	-0.0020985454
85	0xbe63f87e	-0.22262761
86	0xbd8f37c9	-0.06993062
87	0xbe315aa4	-0.17319733
88	0x3db8e280	0.090275764
89	0x3d8b5f94	0.068053395
90	0xbe0fdc7d	-0.14048953
91	0x3dc7cbe6	0.097556874
92	0xbe1f07ff	-0.15530394
93	0xbd02cf47	-0.031935956
94	0xbd94e6e8	-0.07270604
95	0x3e3a2d8a	0.18181434
96	0xbddfd226	-0.109287545
97	0xbe02cecb	-0.12774198
98	0x3d1e8254	0.03869851
99	0x3e91bbee	0.2846369
100	0xbbd958c0	-0.0066328943
101	0xbdeccf7b	-0.11563011
102	0x3cadde6f	0.021224229
103	0x3e05981d	0.13046308
104	0x3e8ab62b	0.27092108
105	0x3e0b26ba	0.13588992
106	0xbc7018dd	-0.014654365
107	0x3d8642af	0.06555688
108	0xbde4045d	-0.11133645
109	0xbe351160	-0.1768241
110	0xbe47a8cb	-0.19497983
111	0xbeeaa16b	-0.45826277
112	0x3c83b11c	0.016075663
113	0xbd066e44	-0.03282
114	0x3d47f075	0.048813302
115	0xbde525d8	-0.11188859
116	0x3d3e4f98	0.046462625
117	0xbc5e6814	-0.013574619
118	0xbe585a1d	-0.21128125
119	0xbe26ebf6	-0.1630095
120	0x3df2e3c5	0.1185985
121	0x3d39c8a4	0.04535736
122	0x3e4bbed2	0.19897011
123	0xbc477790	-0.012174502
124	0xbc3fe0ce	-0.011711312
125	0x3ccadb70	0.02476284
126	0xbdafcc3c	-0.085838765
127	0x3eb8b108	0.36072564
128	0x3ca3452b	0.019930443
129	0xbe88eda6	-0.2674381
130	0x3ca42166	0.020035457
131	0xbdf178cc	-0.11790618
132	0x3cf0ec18	0.029409453
133	0x3d387752	0.045035668
134	0xbe22ed18	-0.15910757
135	0xbddbedcc	-0.107387155
136	0xbdff34ac	-0.12461218
137	0xbd8025b6	-0.06257193
138	0x3ba6943d	0.0050835893
139	0x3d20fb52	0.039302178
140	0x3cd753b6	0.026285034
141	0x3c3da6a0	0.011575371
142	0x3d727fd5	0.05920394
143	0xbdb5ffc7	-0.08886676
144	0xbe45b778	-0.19308269
145	0x3d16e069	0.036835108
146	0xbe0117f4	-0.12606794
147	0xbd613f51	-0.054992024
148	0x3df9e37a	0.12201591
149	0xbe2bd093	-0.16778784
150	0x3d798b19	0.06092367
151	0xbda0334d	-0.07822285
152	0xbd8b8bbf	-0.06813764
153	0xbdd617ca	-0.10453756
154	0xbd04cc0d	-0.03242116
155	0x3d976358	0.07391995
156	0x3ddd2b07	0.107992224
157	0xba9c0c44	-0.0011905511
158	0x3d44c920	0.04804337
159	0xbd63ceac	-0.05561702
160	0x3dd621c8	0.10455662
161	0x3d3a260f	0.04544645
162	0xbd2be2f8	-0.0419645
163	0x3c441608	0.011968143
164	0xbd6523e8	-0.055942446
165	0xbd206312	-0.03915698
166	0x3dffb49e	0.12485622
167	0xbe280c5c	-0.16410965
168	0xbd621195	-0.05519255
169	0xbe438b19	-0.1909603
170	0xbd2ad815	-0.041709978
171	0xbdff416a	-0.124636486
172	0xbddb6bfb	-0.10713955
173	0x3d00afe2	0.031417735
174	0xbcbdff09	-0.0231929
175	0xbd91251c	-0.07087156
176	0xbd20fc88	-0.039303333
177	0xbe1606eb	-0.14651076
178	0xba8e81cb	-0.0010872422
179	0xbd85538a	-0.065100744
180	0x3d9fce52	0.07803024
181	0xbe4baad9	-0.19889392
182	0x3d34a5b4	0.04410334
183	0x3d09cb73	0.03364129
184	0xbdf35ab4	-0.118825346
185	0x3daad340	0.08341074
186	0xbd4e73bc	-0.05040334
187	0xbdce3dc2	-0.10070373
188	0xbddc5a1a	-0.10759373
189	0x3de7675a	0.112990096
190	0x3be5f8a0	0.007018164
191	0xbdf30b94	-0.11867443
192	0xbd9d186f	-0.07670676
193	0xbd72949c	-0.059223756
194	0x3d63881a	0.05554972
195	0xbdd8f4a0	-0.105935335
196	0x3d094334	0.033511356
197	0xbd9947ed	-0.07484422
198	0x3d5919c3	0.053003084
199	0xbc16b7d0	-0.009199098
200	0xbde2c0ba	-0.11071916
201	0xbe08b72d	-0.13351126
202	0xbd95096d	-0.072771885
203	0xbddb5960	-0.10710406
204	0xbda9b745	-0.08286909
205	0x3da29692	0.07938875
206	0xbcbdfe11	-0.023192437
207	0x3b6d01b6	0.003616435
208	0x3dff5219	0.12466831
209	0xbe0bab82	-0.13639644
210	0xbe06d8ae	-0.13168594
211	0xbcbda088	-0.023147836
212	0x3b152740	0.002275899
213	0xbde13db6	-0.109980986
214	0xbde917d4	-0.11381498
215	0xbd2b2c78	-0.041790456
216	0x3c64c0e2	0.0139620025
217	0xbd6f4174	-0.05841203
218	0xbdbf5c21	-0.09343744
219	0xbdba5bea	-0.090995625
220	0x3db22fb5	0.08700506
221	0x3d85903e	0.06521653
222	0xbdd564c6	-0.10419612
223	0x3db22454	0.08698335
224	0x3c431e00	0.011909008
225	0x3c7c9dc8	0.015418477
226	0xbddd42a0	-0.10803723
227	0xbc3e7278	-0.011623971
228	0xbddf0b68	-0.108908474
229	0x3dfa55e3	0.12223413
230	0x3dff2622	0.12458445
231	0xbc8cfbae	-0.017209854
232	0xbcc77651	-0.02434841
233	0xbce87f24	-0.028380938
234	0xbdac5917	-0.0841543
235	0x3bfd08f6	0.0077220155
236	0xbcede11f	-0.02903801
237	0xbcb1d5fc	-0.021708481
238	0x3ca06164	0.01957769
239	0x3c9fbeba	0.019500125
240	0x3d347f28	0.04406658
241	0xbc60509c	-0.013691094
242	0x3c8792f4	0.016549565
243	0xbd82082c	-0.06349215
244	0x3d8b4a88	0.06801325
245	0xbdc4751b	-0.095926486
246	0x3d9eb6f3	0.077497385
247	0x3c9a8ad8	0.018865034
248	0xbdb6c7aa	-0.08924802
249	0xbdbf2664	-0.09333494
250	0xbca3a564	-0.019976325
251	0xbda4d050	-0.08047545
252	0xbd7ce615	-0.06174286
253	0xbdc236f8	-0.09483141
254	0xbb6c6c40	-0.0036075264
255	0xbdb3b913	-0.087755345

dense2.bias f4 [64]
0	0xbb41a45f	-0.0029547436
1	0x3e1b959d	0.15193792
2	0xbdf43cf2	-0.11925687
3	0xbdcec458	-0.10096043
4	0x3d8fadfe	0.07015608
5	0x3eba85f3	0.3643032
6	0xbde035ac	-0.10947737
7	0x3ceecb30	0.029149622
8	0x3eef5dd9	0.46751288
9	0xbd1b1ddf	-0.037870284
10	0x3ec5d696	0.3864028
11	0x3d4668a9	0.048439655
12	0xbd22367e	-0.03960275
13	0x3d3b8b00	0.045786858
14	0x3eec1def	0.46116588
15	0x3f174d8f	0.5910272
16	0xbd895f5b	-0.06707641
17	0x3efc59fa	0.49287397
18	0x3edde970	0.4334216
19	0x3daf9d92	0.08574976
20	0xbc6611d5	-0.014042337
21	0x3ea97523	0.3309718
22	0x3d4dce4f	0.05024558
23	0x3eb9e082	0.36304098
24	0x3ec5cb91	0.3863187
25	0x3f3d50b2	0.73951256
26	0xbe0b3830	-0.13595653
27	0xbd8d3b62	-0.06896092
28	0x3c4d3858	0.01252564
29	0xbd19de8a	-0.037565745
30	0xbd7d2fdf	-0.06181323
31	0xbda695e1	-0.08134056
32	0xbd4590a2	-0.048233636
33	0xbd53cd97	-0.051709738
34	0xbd3f5ba7	-0.046718266
35	0x3cf97454	0.030450977
36	0xbc137cbb	-0.009001906
37	0x3f071d7f	0.5277938
38	0xbe42d06c	-0.19024819
39	0x3f149ce0	0.5805187
40	0x3bd749f0	0.0065700933
41	0x3e8c3588	0.2738459
42	0xbdadb339	-0.0848145
43	0xbded59a4	-0.11589363
44	0xbdaf78c6	-0.085679576
45	0xbd289ba8	-0.04116407
46	0xbd84c32e	-0.0648254
47	0xbca313bd	-0.019906873
48	0x3eb7ee5b	0.35924038
49	0x3dab2220	0.08356118
50	0x3b122c55	0.0022304256
51	0xbe0d53f2	-0.13801554
52	0xbdd2f5ac	-0.103007644
53	0xbd2f6712	-0.042822905
54	0xbe1718fe	-0.14755628
55	0xbe1c57ed	-0.15267916
56	0xbe049501	-0.12947465
57	0x3d087136	0.03331109
58	0x3d89340e	0.06699382
59	0xbd3339c0	-0.043756247
60	0xbe22aba4	-0.15885788
61	0xbd277d3a	-0.04089091
62	0xbe169b76	-0.14707741
63	0xbb6f55c9	-0.0036519638

dense3.weight f4 [4, 64]
0	0x3dd07acd	0.101796724
1	0xbdc0b1c5	-0.09408907
2	0x3d01929f	0.03163397
3	0x3da5c425	0.08094052
4	0x3bf1a12b	0.007373949
5	0xbe53d282	-0.20685771
6	0x3cbd80b0	0.023132652
7	0xbdc89e29	-0.09795792
8	0xbe5dfd8b	-0.2167875
9	0xbd44f766	-0.0480875
10	0xbe6c69f2	-0.2308729
11	0xbc80e594	-0.015734471
12	0xbcc9fac2	-0.024655703
13	0x3ce96c92	0.028494153
14	0xbe81c111	-0.2534261
15	0xbd89a16d	-0.06720243
16	0xbd2d0c47	-0.042248037
17	0x3e932749	0.2874091
18	0xbe49e9e4	-0.19718128
19	0xbc973348	-0.01845707
20	0xbe1c7445	-0.15278728
21	0xbdc03563	-0.09385183
22	0xbda29180	-0.07937908
23	0xbdc2e8e7	-0.09517079
24	0xbdbf718e	-0.09347831
25	0xbe85e5fe	-0.26152033
26	0x3dc50b82	0.096213356
27	0xbd7cce9d	-0.06172048
28	0x3db11259	0.08646078
29	0x3bd4dde0	0.006496176
30	0xbd7374c0	-0.059437513
31	0xbda88d88	-0.0823012
32	0x3bb2ac5d	0.005452676
33	0x3ceea5d0	0.0291318
34	0xbdc59687	-0.096478514
35	0x3d6f9590	0.058492243
36	0xbdc80239	-0.09766049
37	0xbe083322	-0.13300756
38	0x3dddf442	0.10837604
39	0xbe11518b	-0.14191262
40	0xbd90bd22	-0.07067324
41	0xbe105002	-0.1409302
42	0x3dc80b1a	0.097677425
43	0x3d98bf62	0.074583784
44	0xbd4c07f8	-0.049812287
45	0xbd99faf7	-0.07518571
46	0xbc5c83c2	-0.013459148
47	0xbc989c73	-0.018629288
48	0xbd91f667	-0.07127076
49	0x3df29868	0.118454754
50	0xbe7f8090	-0.24951386
51	0xbdf3bca8	-0.11901218
52	0x3d2d2f90	0.042281687
53	0xbc907624	-0.017634459
54	0x3e238730	0.15969539
55	0xbd797558	-0.060902923
56	0x3d9e6c5a	0.0773551
57	0x3d3a7c7c	0.045528874
58	0xbd3ed8d0	-0.046593487
59	0xbd872924	-0.06599644
60	0x3bb1b40f	0.005423076
61	0xbc5564a0	-0.013024479
62	0xbde232da	-0.110448554
63	0xbd389408	-0.04506305
64	0x3ddc5cda	0.107598975
65	0xbe04b488	-0.12959492
66	0xbc4937b1	-0.012281344
67	0xbb325f38	-0.00272174
68	0x390db91b	0.00013515765
69	0xbe5841d6	-0.21118864
70	0xbdf308e4	-0.1186693
71	0x3d6702c6	0.05639913
72	0xbe173041	-0.14764501
73	0x3da991b4	0.08279744
74	0xbe7428e3	-0.23843722
75	0xbc1f5358	-0.009724461
76	0x3d54b208	0.051927596
77	0x3d7b3034	0.061325267
78	0xbec4111c	-0.38294303
79	0xbe35f869	-0.17770542
80	0x3c60cb2c	0.013720315
81	0x3e9917a4	0.2990085
82	0xbe02aead	-0.12761946
83	0x3d9de7c4	0.077102214
84	0xbe3fab65	-0.18717726
85	0xbe378a19	-0.17923774
86	0xbcd7b410	-0.026330978
87	0xbe3f8150	-0.18701673
88	0xbe72274b	-0.23647802
89	0xbe5d8b1c	-0.21635097
90	0xbc238d5e	-0.009982435
91	0xbdd41ed4	-0.103574425
92	0xbd8b6d37	-0.068079405
93	0xbe683931	-0.22678067
94	0xbd4905b5	-0.04907771
95	0xbd6852fb	-0.05671976
96	0xbdda280e	-0.10652171
97	0xbd531fbe	-0.051543944
98	0xbd31ca2a	-0.04340569
99	0xbcae05f2	-0.02124307
100	0x3e244b8d	0.16044445
101	0xbe721226	-0.23639736
102	0xbc486f25	-0.01223353
103	0xbe015e2b	-0.12633578
104	0x3df2eb63	0.11861303
105	0xbdb0d2c0	-0.08633947
106	0xbd0eaeb9	-0.034834597
107	0x3d44035e	0.047854774
108	0xbc9dff30	-0.019286722
109	0x3d635ecd	0.05551033
110	0xbc7dc8c7	-0.015489764
111	0xbd87033a	-0.06592412
112	0xbd880a8b	-0.06642636
113	0xba900500	-0.0010987818
114	0xbe638111	-0.22217204
115	0xbd5c6586	-0.053807758
116	0x3d172bc3	0.03690697
117	0x3d6ecf59	0.05830321
118	0xbce397d3	-0.027782356
119	0xbdec29ae	-0.11531387
120	0xbd65288a	-0.055946864
121	0x3c16f7b4	0.00921433
122	0xbd601020	-0.054702878
123	0x3d128978	0.03577563
124	0x3b9abf00	0.004722476
125	0x3da753e6	0.08170299
126	0xbdd6f43a	-0.10495801
127	0xbcb57498	-0.022150323
128	0xbc3f31c0	-0.011669576
129	0xbe76afe6	-0.24090537
130	0x3d2a1df8	0.041532487
131	0x3d8e5755	0.06950251
132	0x3d727e09	0.059202228
133	0xbc2eeb33	-0.010676193
134	0xbd0d5d88	-0.034513026
135	0xbd1e934d	-0.038714696
136	0xbe60f7ae	-0.21969482
137	0xbe0ab71b	-0.13546412
138	0x3ce875cb	0.02837648
139	0x3cbb7f25	0.022887776
140	0x3d87169b	0.065961085
141	0xbd41efcc	-0.04734783
142	0x3e0d29c1	0.13785459
143	0xbda4ed27	-0.08053046
144	0x3d40c9cf	0.04706746
145	0x3e9c3097	0.3050582
146	0xbe08d648	-0.13362992
147	0xbcd882a0	-0.026429474
148	0x3b50620d	0.0031796724
149	0xbe13657d	-0.14394183
150	0x3dfd2332	0.123602286
151	0x3bd0c026	0.006370562
152	0xbd6dcf44	-0.058058992
153	0xbdf2dce6	-0.11858539
154	0x3dcd25e8	0.10016996
155	0x3cf34bd2	0.02969924
156	0x3db7ff22	0.089842096
157	0xbdcd9c8b	-0.10039624
158	0xbc539e4e	-0.012916161
159	0xbd654426	-0.055973195
160	0xbdb34da6	-0.08755045
161	0x3d9dcdaf	0.07705247
162	0x3da45d8a	0.08025654
163	0xbda37ee0	-0.07983184
164	0x3d7143de	0.058902614
165	0xbdec288f	-0.115311734
166	0x3d353e07	0.044248607
167	0xbd02a123	-0.031891953
168	0xbe28f2ba	-0.16498843
169	0xbdb4652a	-0.08808358
170	0x3d0639b0	0.03276986
171	0xbdcce3a4	-0.100043565
172	0x3c932d3c	0.017965905
173	0xbe5a1280	-0.2129612
174	0x3bebc88f	0.0071955393
175	0xbc3fe270	-0.011711702
176	0xbde33a3c	-0.11095092
177	0xbda31df8	-0.079647005
178	0xbe319585	-0.17342193
179	0xbd5d2114	-0.053986624
180	0xbae97ea8	-0.0017814236
181	0xbd8604cf	-0.06543886
182	0xbba4ff4e	-0.0050353175
183	0xbdd4d0d6	-0.10391395
184	0xb9fdca8c	-0.0004840683
185	0x3d09fc4f	0.033687886
186	0xbdfa4fee	-0.12222277
187	0x3bec2d40	0.0072075427
188	0xbd8a98c5	-0.0676742
189	0xbd7d08d1	-0.061775986
190	0x3d26b198	0.04069671
191	0xbd2dad3e	-0.042401545
192	0x3df37f64	0.11889532
193	0xbde35e87	-0.11102014
194	0x3dcf8776	0.10133259
195	0x3cfecaca	0.031102557
196	0xbd878800	-0.06617737
197	0xbe692ef8	-0.22771823
198	0x3d26e638	0.040746897
199	0x3ceb8273	0.028748726
200	0xbe82bb1b	-0.25533375
201	0xbc935327	-0.017983986
202	0xbe2e6287	-0.17029773
203	0x3d555f20	0.05209267
204	0xbba839a0	-0.0051338226
205	0x3d1cee80	0.03831339
206	0xbeb5c9c0	-0.35505486
207	0xbdadcde2	-0.08486535
208	0xbdab3053	-0.083588265
209	0x3e701286	0.23444566
210	0xbe1e4230	-0.15454936
211	0x3cbe64f8	0.023241505
212	0xbd471608	-0.048604995
213	0xbd977a94	-0.07396427
214	0xbcf2cb18	-0.029637858
215	0xbe0dc2ce	-0.13843843
216	0xbe2c04a5	-0.16798647
217	0xbea68367	-0.32522127
218	0xbd34a060	-0.044098258
219	0xbc929940	-0.01789534
220	0x3e34aaf7	0.17643343
221	0x3d53c4e0	0.051701427
222	0xbcb9da6d	-0.022687161
223	0xbd89a836	-0.06721537
224	0xbcd31ea9	-0.025771456
225	0xbd1f1630	-0.03883952
226	0xbcdfedb4	-0.027335025
227	0x3cf84b08	0.030309215
228	0x3db33502	0.08750345
229	0xbe337cc9	-0.1752807
230	0x3e1987f2	0.14993265
231	0xbe32e4e4	-0.17470127
232	0xbe065df7	-0.13121782
233	0xbdb991a2	-0.090609804
234	0xbdcdc070	-0.1004647
235	0xbcfcef68	-0.030875877
236	0xbd226fac	-0.03965728
237	0xbddbd866	-0.10734634
238	0x3d439d80	0.047757626
239	0xbdfadfe6	-0.122497365
240	0xbe077877	-0.13229547
241	0x3dbfa26c	0.093571514
242	0xbe596571	-0.21230103
243	0x3d3298e4	0.04360284
244	0xbd809a85	-0.06279472
245	0xbde1809e	-0.1101086
246	0xbd6b4fd9	-0.057449196
247	0x3db87c2e	0.090080604
248	0x3c3b4934	0.011431027
249	0x3d4ab7f7	0.04949185
250	0x3dcbac1e	0.09944938
251	0xbb80ae00	-0.0039269924
252	0x3bd00925	0.0063487464
253	0xbc484bef	-0.012225135
254	0xbd7a5519	-0.06111631
255	0xbce06c40	-0.027395368

dense3.bias f4 [4]
0	0x3cd86ec4	0.026420005
1	0xbe0a2bfc	-0.13493341
2	0x3e494c1f	0.19657944
3	0xbd7b1136	-0.06129571
