Reinforcment_Learning_DQN/agent_output/weights/episode_345_weights.pt (torch, 21495 bytes, 6 tensors)

dense1.weight f4 [64, 5]
0.09674638 -0.1665905 0.0794448 -3.131359 -4.348188 0.3879237 -0.4351768 -0.073333934
-0.037302144 0.68973124 -0.1590693 -0.1454114 -0.19677794 0.20958334 0.4430123 0.2728724
-0.6729844 0.13852182 0.28344226 0.16195709 -0.17624125 -0.23496039 -0.2958821 0.004589319
-0.17472106 0.18672423 -0.3476848 0.09704594 -1.9313965 -4.082695 -0.3206429 -0.42210567
-0.36001134 -0.026060402 -0.3152027 0.11470088 0.72079843 -0.2078854 1.2669739 1.5599878
-0.7982474 -0.01706424 0.2684382 -0.9495774 -0.83470875 -0.3581755 0.015071958 -0.40748453
0.37109184 0.34176672 -0.48938274 0.034994353 0.3538798 -1.5903068 -1.4133389 -0.26108843
-0.5604687 0.25267097 -0.7160629 -1.0354561 -0.21246661 0.15722209 -0.101418495 -0.093485326
0.38021576 0.23631057 -0.07043771 -0.6047776 -0.13033748 -2.5514436 -0.30928215 -0.43969363
0.2627915 -0.52420104 -0.21947503 0.18671419 0.24878235 -0.08662618 1.4400996 2.0586164
0.34032506 0.0271198 -0.4168746 0.50408745 0.50130826 -0.056347243 0.19410071 0.097090065
-3.1180105 -2.8825297 -0.6511588 0.041422695 0.18768446 -0.8128156 -0.5100239 -0.033232085
0.31689006 0.029448468 -3.2788026 -1.8552952 0.24123216 -0.38388252 0.109602235 -1.5182728
-3.339324 0.27111748 -0.44163173 0.1649598 -2.7415462 -4.473681 -0.0035589635 -0.4151567
-0.30684435 0.21566164 0.36043257 -0.18927273 0.5742722 -0.10674757 0.2825781 0.18682878
0.16609417 -0.29012164 0.22775954 -2.8214862 -3.681471 -0.041763872 0.16320945 -0.0032184655
-3.727617 -3.7644696 -0.23190767 0.48709545 0.26042867 -3.3059556 -2.420579 -0.023126353
0.38027388 0.07468154 -3.4423633 -1.4889905 0.22535838 -0.36855006 0.15059529 -2.382529
-3.8890193 -0.07216591 -1.1942115 0.241427 -0.18198138 -0.15240854 -0.054934233 -0.38638422
0.026403576 -0.39306372 0.38130027 0.004952465 0.032466784 -0.07863171 -2.538391 -3.3580904
-0.27996016 0.71588206 0.23881806 0.9566349 1.1571872 0.27371508 -0.41096744 0.095604315
-1.0052749 -2.832466 -0.105522126 0.09999751 -0.566798 0.6468964 -0.30503136 0.16937359
-0.0044966033 -0.5919885 0.7373312 -1.7079886 -0.38724247 0.07332468 -0.25763017 -0.18881357
-0.2534031 0.19146185 0.1068628 -0.7504596 -0.14317867 0.63830805 -0.11638187 0.47835815
0.1294862 -1.8895131 -0.5482198 -0.01981458 -0.14363989 -0.32462895 0.43395936 0.2610675
0.23187834 -0.4246177 0.13330404 -2.7342925 -4.1063952 0.15070532 -0.34284836 -0.38955003
0.14840204 0.2046445 0.26541895 -0.6559884 0.099010386 -0.0055192863 -0.2575492 -0.06740859
0.18372262 -0.03440421 -2.9669263 -3.2413018 -0.09965425 0.46980393 -0.11070496 -1.6520766
0.3507665 -0.26553622 -0.23939009 0.06623882 -0.25960886 0.37298614 -0.5104445 -0.09886202
0.29488677 -1.3460796 -0.85614204 0.12561056 -0.27706456 0.2050623 -2.870423 -3.9553406
0.053213723 -0.4789145 -0.1687764 -0.11702783 -0.42269304 -0.39433092 0.09288235 0.046827786
-2.3960588 -2.865732 0.0041685444 0.19825497 -0.045501746 0.679319 -0.26632315 -0.33400708
00000000: f722 c63d b396 2abe f5b3 a23d 3068 48c0
00000010: 5b24 8bc0 ef9d c63e 7ecf debe 1a30 96bd
00000020: 22ca 18bd 3a92 303f 10e3 22be bae6 14be
00000030: 2880 49be 049d 563e 82d2 e23e eeb5 8b3e
00000040: b548 2cbf aad8 0d3e 581f 913e 14d8 253e
00000050: 9678 34be 7599 70be dc7d 97be 0062 963b
00000060: 14ea 32be a334 3f3e be03 b2be 06c0 c63d
00000070: 0038 f7bf 70a5 82c0 4e2b a4be 3c1e d8be
00000080: 6853 b8be a07c d5bc 4062 a1be 4ce8 ea3d
00000090: 3f86 383f e9df 54be 332c a23f aead c73f
000000a0: f159 4cbf 4eca 8bbc bb70 893e 8117 73bf
000000b0: 79af 55bf c762 b7be 60f0 763c d0a1 d0be
000000c0: c0ff bd3e 0cfc ae3e 6090 fabe 3d56 0f3d
000000d0: bc2f b53e 2c8f cbbf 4ae8 b4bf 62ad 85be
000000e0: e07a 0fbf 175e 813e e64f 37bf d389 84bf
000000f0: d990 59be d4fe 203e 80b4 cfbd 3c75 bfbd
00000100: a4ab c23e 66fb 713e a541 90bd b4d2 1abf
00000110: 3077 05be da4a 23c0 3b5a 9ebe 861f e1be
00000120: 9c8c 863e 0a32 06bf 10be 60be 0132 3f3e
00000130: cdc0 7e3e 1169 b1bd 2f55 b83f 5fc0 0340
00000140: 163f ae3e 582a de3c 9670 d5be e00b 013f
00000150: bd55 003f 5ecc 66bd 56c2 463e 28d7 c63d
00000160: 7c8d 47c0 5e7b 38c0 58b2 26bf d8aa 293d
00000170: 5b30 403e af14 50bf ed90 02bf 5e1e 08bd
00000180: 6a3f a23e ea3d f13c e7d7 51c0 507a edbf
00000190: 9005 773e 408c c4be 2377 e03d c356 c2bf
000001a0: 7cb7 55c0 e9cf 8a3e 8e1d e2be 39eb 283e
000001b0: 7e75 2fc0 6528 8fc0 803d 69bb 6b8f d4be
000001c0: b41a 9dbe 68d6 5c3e 9e8a b83e b6d0 41be
000001d0: 8103 133f 789e dabd 14ae 903e 0b50 3f3e
000001e0: 9714 2a3e d38a 94be cc39 693e 3b93 34c0
000001f0: 399d 6bc0 9810 2bbd 6120 273e e4ec 52bb
00000200: 4791 6ec0 12ed 70c0 3479 6dbe 9364 f93e
00000210: e856 853e c794 53c0 c4ea 1ac0 7a73 bdbc
00000220: 42b3 c23e a3f2 983d ae4f 5cc0 3e97 bebf
00000230: 59c4 663e 98b2 bcbe a735 1a3e 5b7b 18c0
00000240: b1e5 78c0 b8cb 93bd ecdb 98bf a438 773e
00000250: 5459 3abe fc10 1cbe b802 61bd 27d4 c5be
00000260: 504c d83c a63f c9be ca39 c33e 4a48 a23b
00000270: e4fb 043d a909 a1bd 0075 22c0 f4ea 56c0
00000280: f056 8fbe 0c44 373f b98c 743e 06e6 743f
00000290: b61e 943f 6224 8c3e 536a d2be 32cc c33d
000002a0: d9ac 80bf 1f47 35c0 fc1b d8bd 7fcb cc3d
000002b0: ac19 11bf 019b 253f 122d 9cbe 4570 2d3e
000002c0: 3e58 93bb 8f8c 17bf bdc1 3c3f 5f9f dabf
000002d0: a544 c6be 402b 963d 1ae8 83be 5858 41be
000002e0: 0dbe 81be 930e 443e e2da da3d 1f1e 40bf
000002f0: 6e9d 12be 2868 233f 9e59 eebd 5ceb f43e
00000300: 0898 043e 91db f1bf 2258 0cbf 3052 a2bc
00000310: 5616 13be c435 a6be ec2f de3e a4aa 853e
00000320: 8471 6d3e 7e67 d9be db80 083e a6fe 2ec0
00000330: 9767 83c0 7f52 1a3e d289 afbe 1a73 c7be
00000340: b4f6 173e 548e 513e fee4 873e dbee 27bf
00000350: f5c5 ca3d 21db b4bb 7ddd 83be 840d 8abd
00000360: c821 3c3e 6eeb 0cbd 1fe2 3dc0 7d71 4fc0
00000370: 8717 ccbd 248a f03e 48b9 e2bd 3f77 d3bf
00000380: ab97 b33e 5df4 87be ad22 75be 38a8 873d
00000390: 74eb 84be 0af8 be3e 7eac 02bf 2c78 cabd
000003a0: 66fb 963e 564c acbf 202c 5bbf 0ea0 003e
000003b0: 68db 8dbe dafb 513e 03b5 37c0 4d24 7dc0
000003c0: a2f6 593d 4834 f5be b8d3 2cbe 49ac efbd
000003d0: 396b d8be bee5 c9be 1a39 be3d 7ece 3f3d
000003e0: 0759 19c0 2768 37c0 4998 883b 5a03 4b3e
000003f0: 0a60 3abd dae7 2d3f 825b 88be fa02 abbe

dense1.bias f4 [64]
0.46116024 -0.37040892 0.35169303 0.42977378 -0.12978694 0.2447821 0.42225194 0.35202882
0.3561986 0.21593422 0.5777097 -0.23551369 0.14058179 0.005278188 -0.27576652 -0.21542594
-0.2325752 0.027110836 -0.09723546 -0.15787064 0.2540207 0.5072112 0.008955717 0.20833191
0.6675763 0.49801868 0.04556229 -0.024135595 0.42282486 -0.41388506 -0.20864697 0.10352188
-0.015180037 -0.066078655 0.33491325 -0.17478728 -0.19755839 -0.66649187 0.16783363 -0.41259047
0.64528817 0.29121405 0.248849 0.14523618 0.20337465 -0.0059044063 0.104559764 0.010832683
-0.3399039 0.050586097 -0.2694258 0.53255945 0.4070832 0.22394855 0.20314145 0.55758595
0.33518082 -0.2097098 -0.3714199 0.2666583 0.19754533 0.5802914 -0.33962825 0.3081141
00000000: 321d ec3e 3da6 bdbe 1c11 b43e 4f0b dc3e
00000010: dee6 04be 29a8 7a3e 6831 d83e 1f3d b43e
00000020: aa5f b63e dc1d 5d3e c8e4 133f 802a 71be
00000030: acf4 0f3e a6f4 ac3b 4531 8dbe 9e98 5cbe
00000040: 3128 6ebe 8b17 de3c 6323 c7bd d7a8 21be
00000050: 000f 823e 98d8 013f 00bb 123c f654 553e
00000060: 48e6 2a3f 4efc fe3e 869f 3a3d 03b8 c5bc
00000070: 807c d83e bee8 d3be 8da7 55be 4803 d43d
00000080: b1b5 78bc 3f54 87bd c079 ab3e 70fb 32be
00000090: bf4c 4abe 369f 2abf 94dc 2b3e 0f3f d3be
000000a0: 9b31 253f 021a 953e 46d2 7e3e cbb8 143e
000000b0: 7241 503e c079 c1bb 6e23 d63d 917b 313c
000000c0: e207 aebe 5e33 4f3d 2ef2 89be d155 083f
000000d0: 366d d03e c552 653e 5004 503e f4bd 0e3f
000000e0: d29c ab3e 2abe 56be c02a bebe 7087 883e
000000f0: 5349 4a3e fa8d 143f c1e3 adbe 22c1 9d3e

dense2.weight f4 [64, 64]
0.11367174 -0.25222585 -0.10162085 0.115304485 -0.034134313 0.088462554 -0.031141058 -0.12823613
0.15134303 0.06473051 0.07954564 0.21680698 -0.08169712 -0.33832505 0.21895002 -0.15756229
-0.14361371 -0.04347083 0.1400097 -0.3764205 -0.034173157 0.07009689 0.10134442 -0.18901293
0.118838206 -0.0036283557 -0.13287923 -0.24518637 0.102634564 0.20012757 0.08641283 -0.37564266
-0.08728225 -0.084787495 0.080441825 -0.26101255 -0.07303533 -0.07060124 -0.0949032 -0.07509458
0.13763191 0.088150054 0.15007177 -0.26758537 -0.006155135 -0.046501383 0.13145816 0.040711563
0.092179686 -0.021036517 -0.41035417 0.06838772 -0.11721487 -0.39333314 0.05673249 -0.10050604
-0.11399323 -0.055408224 -0.12151192 -0.32243797 0.057227414 -0.069396235 0.11167641 -0.13535735
0.019114805 -0.076625794 0.08264923 0.011625209 -0.11523591 0.061417866 0.119546175 0.0017773062
-0.0852846 0.051178932 0.03493143 -0.15432635 -0.0434331 -0.058206867 0.0137437275 -0.06748171
-0.049855538 -0.1439511 -0.022284973 -0.03389432 -0.05694277 0.013290428 0.0060767233 -0.08330929
-0.008410932 -0.1370893 0.09997865 -0.14584401 0.05995713 -0.16888064 -0.091013 0.05845496
-0.023165006 -0.013553854 -0.10372771 -0.017270923 0.0100412965 -0.08063946 -0.023421098 0.12103827
-0.10991762 -0.044857398 0.074676424 0.027523898 0.09647629 -0.03630601 0.124983385 0.011100434
-0.084685996 0.05043134 -0.12555501 -0.17074294 0.115920424 -0.1651879 -0.024051353 -0.14352083
0.028702274 -0.09651017 -0.06752086 -0.04551795 -0.008708316 -0.105985485 -0.0326778 -0.0372603
-0.010994623 -0.052778196 0.0703869 0.010661125 -0.044996634 -0.09266764 0.0044395775 -0.02946306
-0.107656285 -0.11036576 0.00042839348 -0.040282115 0.010447785 0.016545082 -0.010048062 -0.079983115
-0.01219995 -0.0334528 0.046606243 0.06127715 0.0035248084 -0.17084736 -0.069295764 0.10559721
0.070108585 0.03903142 0.017249601 -0.12281361 -0.15201682 -0.05652137 0.009866357 -0.15020269
-0.07375034 -0.00925596 -0.06536921 0.077881105 0.016945228 0.06477783 -0.052132484 0.032022476
0.0054828045 -0.11267333 0.104076356 -0.13336186 0.0793656 -0.023358136 0.093851745 -0.11946923
-0.03916128 -0.08861471 -0.09766745 0.016792163 0.07400291 0.015345479 0.09582281 -0.14885908
0.022167176 0.09237884 -0.033423617 -0.10871054 -0.015077724 -0.070540674 -0.0880321 -0.05394539
-0.002637902 -0.11694881 0.09148915 -0.06421551 0.071203604 0.08425656 0.012904093 -0.07281994
0.10556657 0.11816524 -0.0015183088 0.019087149 0.118193746 -0.11515361 0.033335026 0.04345091
0.053711206 -0.10192391 -0.056724224 -0.13401087 -0.091673546 -0.018875781 0.10604264 0.04657355
-0.06232411 -0.057635777 -0.105133966 -0.06337767 -0.07086829 -0.10603416 -0.06456277 -0.05404459
0.022115815 0.06599113 -0.089491665 -0.12437908 -0.00057798624 -0.11781525 -0.052534945 -0.029587507
-0.08518185 -0.04256469 0.054746773 -0.11182892 -0.05290188 0.063279554 -0.036570188 -0.13010882
0.012548983 0.095480286 -0.050841764 0.1125704 -0.019156098 -0.0017060792 0.036549643 -0.026848286
0.10657033 -0.06432293 -0.005418271 0.030173453 0.019214053 -0.025999231 -0.117066234 0.012351547
00000000: bbcc e83d bf23 81be 981e d0bd c224 ec3d
00000010: 6cd0 0bbd db2b b53d 881b ffbc 5550 03be
00000020: abf9 1a3e 6e91 843d d3e8 a23d a602 5e3e
00000030: d250 a7bd f138 adbe 6f34 603e 0258 21be
00000040: 790f 13be 780e 32bd b45e 0f3e 30ba c0be
00000050: 27f9 0bbd f58e 8f3d aa8d cf3d 9b8c 41be
00000060: 7261 f33d b5c9 6dbb 7e11 08be 2312 7bbe
00000070: 1232 d23d 3eee 4c3e 36f9 b03d 3c54 c0be
00000080: 09c1 b2bd 11a5 adbd afbe a43d 70a3 85be
00000090: 8c93 95bd 6297 90bd 9c5c c2bd 30cb 99bd
000000a0: 61ef 0c3e 0488 b43d 6aac 193e f300 89be
000000b0: 04b1 c9bb 3c78 3ebd f89c 063e 2bc1 263d
000000c0: b4c8 bc3d c654 acbc f119 d2be dc0e 8c3d
000000d0: 5a0e f0bd f662 c9be 5460 683d 1cd6 cdbd
000000e0: 4875 e9bd bcf3 62bd 3edb f8bd 9716 a5be
000000f0: 4b67 6a3d 9d1f 8ebd 9ab6 e43d 1e9b 0abe
00000100: a796 9c3c fced 9cbd 0044 a93d a977 3e3c
00000110: ce00 ecbd 4d91 7b3d a0d4 f43d 80f4 e83a
00000120: b1a9 aebd 00a1 513d 4214 0f3d ba07 1ebe
00000130: e8e6 31bd 536a 6ebd 5f2d 613c da33 8abd
00000140: 5235 4cbd eb67 13be fa8e b6bc c5d4 0abd
00000150: d23c 69bd 18c0 593c 401f c73b 109e aabd
00000160: 01ce 09bc 2361 0cbe 9bc1 cc3d 2258 15be
00000170: 9c95 753d 0cef 2cbe 0665 babd 786e 6f3d
00000180: 8ac4 bdbc fc10 5ebc 326f d4bd c07b 8dbc
00000190: 4084 243c 4d26 a5bd 9add bfbc eae2 f73d
000001a0: 7d1c e1bd 64bc 37bd f4ef 983d cc79 e13c
000001b0: 5c95 c53d 9cb5 14bd 4af7 ff3d 98de 353c
000001c0: da6f adbd 1891 4e3d 7e91 00be 3dd7 2ebe
000001d0: b067 ed3d 0427 29be 5807 c5bc 20f7 12be
000001e0: 0821 eb3c 20a7 c5bd 6048 8abd 0871 3abd
000001f0: 53ad 0ebc eb0e d9bd 28d9 05bd 429e 18bd
00000200: cb22 34bc f32d 58bd 0227 903d 00ac 2e3c
00000210: 644e 38bd 88c8 bdbd e079 913b 845c f1bc
00000220: e67a dcbd 7207 e2bd 009a e039 dcfe 24bd
00000230: 302d 2b3c 8d89 873c a0a0 24bc 30ce a3bd
00000240: 4de2 47bc ce05 09bd 30e6 3e3d c0fd 7a3d
00000250: 7900 673b 9cf2 2ebe f0ea 8dbd 5a43 d83d
00000260: 1795 8f3d 69df 1f3d 094f 8d3c b485 fbbd
00000270: 4caa 1bbe f482 67bd 80a6 213c bcce 19be
00000280: 6b0a 97bd 4fa6 17bc 4be0 85bd 2180 9f3d
00000290: b8d0 8a3c 3daa 843d df88 55bd 002a 033d
000002a0: 19a9 b33b 46c1 e6bd fc25 d53d 0390 08be
000002b0: 6f8a a23d 9059 bfbc 5835 c03d 49ac f4bd
000002c0: 9467 20bd a17b b5bd df05 c8bd b88f 893c
000002d0: d68e 973d 9b6b 7b3c c03e c43d 846e 18be
000002e0: f097 b53c 1e31 bd3d 34e7 08bd a2a3 debd
000002f0: 8f08 77bc a177 90bd 2c4a b4bd d7f5 5cbd
00000300: a7e0 2cbb dc82 efbd aa5e bb3d 6c83 83bd
00000310: 32d3 913d b48e ac3d b06b 533c 9f22 95bd
00000320: 4933 d83d 9e00 f23d fd01 c7ba a75c 9c3c
00000330: 900f f23d a8d5 ebbd 4f8a 083d 95f9 313d
00000340: 4800 5c3d 7cbd d0bd a957 68bd 253a 09be
00000350: 57bf bbbd 62a1 9abc e22c d93d e8c3 3e3d
00000360: 9147 7fbd 7e13 6cbd 7a50 d7bd 27cc 81bd
00000370: 6523 91bd 7028 d9bd 7c39 84bd dc5d 5dbd
00000380: 3a2c b53c 5c26 873d 6847 b7bd 76ba febd
00000390: 0084 17ba 1f49 f1bd e22e 57bd 8061 f2bc
000003a0: d273 aebd 5058 2ebd 273e 603d 9006 e5bd
000003b0: a4af 58bd b698 813d 9fca 15bd 3f3b 05be
000003c0: 409a 4d3c 2b8b c33d 743f 50bd 4f8b e63d
000003d0: 40ed 9cbc 859e dfba 14b5 153d f0f0 dbbc
000003e0: 8c41 da3d bebb 83bd c08b b1bb 512e f73c
000003f0: ca66 9d3c 57fc d4bc 6cc0 efbd 255e 4a3c

dense2.bias f4 [64]
-0.08388626 0.058430586 -0.08263224 -0.010494288 -0.017199306 -0.11467838 0.32227618 0.055257596
0.07621439 0.03762825 0.29957813 0.050560586 -0.03303846 0.067637675 0.0091512995 0.08478004
0.1002711 -0.1030274 0.04245612 -0.13758521 -0.089070335 -0.020736108 0.0026837566 0.38369703
0.025896031 -0.0136915855 0.3776567 -0.017949874 0.014402262 0.028523188 -0.012195362 -0.19510482
-0.13783884 -0.16186608 0.04413514 -0.09303697 -0.20894688 0.4872988 -0.02908476 0.19853306
-0.13020444 0.35833666 -0.117723495 0.16606809 -0.058190707 0.032741174 0.078041 0.075913526
-0.14516413 -0.041323934 0.36967507 -0.1552502 0.04638144 -0.05891385 -0.17476398 0.03688024
-0.118822165 -0.15906942 0.04149252 0.023831218 0.019580713 -0.022569038 0.39785695 0.0014993495
00000000: 8fcc abbd e954 6f3d 183b a9bd 3cf0 2bbc
00000010: 8fe5 8cbc 80dc eabd 6201 a53e ca55 623d
00000020: 4a16 9c3d 1420 1a3d 4e62 993e 9e18 4f3d
00000030: 5653 07bd 9f85 8a3d 55ef 153c 28a1 ad3d
00000040: ef5a cd3d 0800 d3bd 78e6 2d3d 23e3 0cbe
00000050: 826a b6bd c5de a9bc f7e1 2f3b f073 c43e
00000060: ea23 d43c ac52 60bc 385c c13e 9d0b 93bc
00000070: 77f7 6b3c 76a9 e93c 0ecf 47bc 8fc9 47be
00000080: a025 0dbe 39c0 25be 0cc7 343d 2b8a bebd
00000090: 2cf6 55be 3a7f f93e 2a43 eebc 404c 4b3e
000000a0: 5054 05be e777 b73e 0419 f1bd c10d 2a3e
000000b0: 6159 6ebd 9c1b 063d f6d3 9f3d 8d78 9b3d
000000c0: e8a5 14be 4943 29bd 0d46 bd3e e9f9 1ebe
000000d0: 77fa 3d3d a64f 71bd 54f5 32be bc0f 173d
000000e0: 0959 f3bd 18e3 22be 10f4 293d b039 c33c
000000f0: bb67 a03c b4e2 b8bc e8b3 cb3e d285 c43a

dense3.weight f4 [4, 64]
-0.09737649 -0.07741654 0.07425427 0.063464426 0.027008904 0.047085516 -0.11598677 -0.12061949
-0.3095193 -0.02631421 -0.1272867 0.06206033 0.048310492 -0.02870345 -0.13825251 -0.042749695
-0.071288966 0.054872975 -0.08769483 -0.13174781 -0.06423267 -0.0545042 -0.009893614 0.014190997
0.09170687 0.043939333 0.2959989 0.05658392 0.084574 0.09069481 0.025915464 0.0136854565
-0.047048386 0.005872233 0.06282994 -0.06146836 0.010686234 -0.20027643 0.16273648 -0.20653443
0.056638792 -0.28687394 0.06757868 -0.07033077 0.07500917 -0.12076719 0.1024124 -0.08741273
-0.046131402 -0.015005508 -0.1775266 0.02503409 0.040240042 -0.09138535 0.21244478 -0.053786796
-0.02308848 0.08100388 -0.03853084 -0.08794437 0.031055372 -0.21687645 -0.1506502 0.07169462
-0.09266983 -0.12375216 -0.10767769 0.067616284 -0.0810154 -0.04574781 -0.09173032 -0.02255787
-0.34990117 -0.07074718 -0.24720441 0.03475297 0.028331097 -0.00016076102 -0.12279446 -0.049841378
-0.13100588 -0.07635482 -0.03631248 -0.11065161 -0.029360713 0.03578607 -0.0446444 -0.117139086
-0.053296015 -0.06039668 0.30052876 -0.003572151 -0.093753606 0.06700942 0.033069152 -0.061603505
-0.08306844 -0.1215227 0.09233397 -0.18305217 -0.07801692 -0.16607875 0.3071503 -0.19373438
-0.042243853 -0.21491231 0.038060635 -0.21800089 -0.0631326 0.04913795 -0.03091497 -0.25361666
-0.05188416 -0.09820361 -0.19522691 0.01172705 0.11184717 0.07766706 0.06306133 -0.08673656
-0.08316213 0.03233234 0.06460429 -0.0999158 0.08477988 -0.23353088 -0.24712242 -0.11054133
0.09546595 0.059829637 0.048875056 0.07082779 0.089167796 0.038990106 -0.09503518 0.0028922409
-0.13929866 -0.06621113 -0.1943674 -0.0028097134 0.0036308616 0.008130408 -0.08403676 0.012615514
-0.01961056 -0.08477916 -0.10219513 0.023124991 -0.060022376 0.06640904 0.02243935 0.18040241
0.08351567 -0.12412602 0.30229014 -0.01838155 0.01856631 -0.028410217 -0.119912 -0.04448035
-0.07195471 0.10388204 -0.046151035 -0.14246692 0.13884155 -0.1625025 0.013857359 -0.19295256
0.03060162 -0.034205005 0.1245013 -0.042223994 -0.003529116 -0.07366562 0.025693458 -0.13409293
0.03842543 -0.0638501 -0.09708157 0.08559114 0.0051483037 0.10348913 0.12077251 0.07362273
0.05429804 -0.021376897 -0.050930284 -0.09788482 -0.010559685 -0.2495472 -0.117668495 -0.01102954
0.22278185 -0.055653263 -0.15250857 0.014760981 0.03084562 -0.016040333 -0.10116371 0.07175497
0.011493098 -0.08379269 -0.15968646 -0.036845464 0.016808942 -0.025355294 -0.073025204 0.01781427
-0.11998785 0.010235533 -0.084540315 0.13092007 -0.012205392 0.0530457 0.047025863 -0.12694864
0.041947246 0.023125622 0.21305145 0.03362809 0.021891132 0.053275604 -0.017142495 0.09407553
-0.027539046 -0.020440107 -0.03351568 -0.015706016 0.19732586 -0.2095993 -0.29990405 -0.2280561
-0.08136736 -0.2101292 0.09299658 -0.23692124 0.011096198 -0.019027226 0.0013776305 -0.24498697
-0.008452043 0.040532693 -0.21981746 -0.010652932 0.067542315 0.035491526 0.05045159 0.056652736
0.06435711 0.027464349 -0.09460241 -0.01537323 0.07280181 -0.15047853 -0.165556 -0.000464806
00000000: 536d c7bd 908c 9ebd 9f12 983d a3f9 813d
00000010: c741 dd3c bedc 403d 798a edbd 5a07 f7bd
00000020: 5079 9ebe e690 d7bc 7257 02be f932 7e3d
00000030: 39e1 453d 7f23 ebbc 1192 0dbe 4e1a 2fbd
00000040: f3ff 91bd 7cc2 603d 5999 b3bd e6e8 06be
00000050: 6b8c 83bd cc3f 5fbd d318 22bc 5b81 683c
00000060: d0d0 bb3d bbf9 333d 2b8d 973e 8ac4 673d
00000070: 2235 ad3d 33be b93d ab4c d43c f738 603c
00000080: cfb5 40bd dc6b c03b fcac 803d 3fc6 7bbd
00000090: 5015 2f3c 4415 4dbe 64a4 263e c37d 53be
000000a0: 14fe 673d 24e1 92be b166 8a3d 9409 90bd
000000b0: 689e 993d ca54 f7bd 98bd d13d 7205 b3bd
000000c0: 48f4 3cbd aad9 75bc 88c9 35be 4b14 cd3c
000000d0: bed2 243d 3e28 bbbd 208b 593e 8b4f 5cbd
000000e0: 0d24 bdbc 5de5 a53d 84d2 1dbd 2e1c b4bd
000000f0: d667 fe3c dc14 5ebe 0c44 1abe a1d4 923d
00000100: aec9 bdbd c671 fdbd 1f86 dcbd 687a 8a3d
00000110: 67eb a5bd 0e62 3bbd 1bdd bbbd 48cb b8bc
00000120: 3f26 b3be e6e3 90bd 2723 7dbe 2159 0e3d
00000130: 9e16 e83c f591 28b9 a97b fbbd 7926 4cbd
00000140: 6826 06be ea5f 9cbd 65bc 14bd 509d e2bd
00000150: e185 f0bc 6a94 123d 0cdd 36bd 9ee6 efbd
00000160: ec4c 5abd 8262 77bd e8de 993e c01a 6abb
00000170: e401 c0bd 3c3c 893d 8573 073d f553 7cbd
00000180: c91f aabd e5e0 f8bd 9819 bd3d 0772 3bbe
00000190: 56c7 9fbd 8c10 2abe ce42 9d3e 4e62 46be
000001a0: e407 2dbd f911 5cbe 78e5 1b3d a03b 5fbe
000001b0: aa4b 81bd e044 493d 6441 fdbc 0bda 81be
000001c0: 7c84 54bd f91e c9bd 90e9 47be d022 403c
000001d0: 2110 e53d e80f 9f3d 4c26 813d f0a2 b1bd
000001e0: e850 aabd ea6e 043d 414f 843d a8a0 ccbd
000001f0: 13a1 ad3d b822 6fbe a90d 7dbe 7e63 e2bd
00000200: a783 c33d ec0f 753d 3631 483d 290e 913d
00000210: 9b9d b63d 17b4 1f3d cea1 c2bd c08b 3d3b
00000220: 4fa4 0ebe b399 87bd 3f08 47be 2b23 38bb
00000230: c0f3 6d3b 6735 053c 771b acbd 4db1 4e3c
00000240: 53a6 a0bc b2a0 adbd ae4b d1bd 9f70 bd3c
00000250: 06da 75bd 7601 883d bad2 b73c 69bb 383e
00000260: 430a ab3d c835 febd c6c5 9a3e e894 96bc
00000270: 6018 983c 8bbc e8bc 6c94 f5bd 0731 36bd
00000280: fe5c 93bd 1bc0 d43d de08 3dbd d9e2 11be
00000290: 7b2c 0e3e 0e67 26be fa09 633c 5b95 45be
000002a0: 40b0 fa3c 8c1a 0cbd 8afa fe3d 11f3 2cbd
000002b0: be48 67bb 00de 96bd 167b d23c a84f 09be
000002c0: fc63 1d3d d7c3 82bd b4d2 c6bd 684a af3d
000002d0: 1ab3 a83b 1cf2 d33d 9457 f73d 84c7 963d
000002e0: 9f67 5e3d 9a1e afbc 469c 50bd d677 c8bd
000002f0: 8702 2dbc 4d89 7fbe 2efc f0bd 3eb5 34bc
00000300: ed20 643e adf4 63bd 352b 1cbe 0bd8 713c
00000310: f4af fc3c 0467 83bc eb2e cfbd 45f4 923d
00000320: 8c4d 3c3c 809b abbd d984 23be 45eb 16bd
00000330: e8b2 893c e8b5 cfbc 3d8e 95bd 3bef 913c
00000340: 31bc f5bd f0b2 273c 7923 adbd e90f 063e
00000350: 20f9 47bc 7346 593d 319e 403d d3fe 01be
00000360: e0d0 2b3d f271 bd3c 292a 5a3e 9cbd 093d
00000370: 0855 b33c 8537 5a3d 6b6e 8cbc acaa c03d
00000380: 9199 e1bc 0372 a7bc bd47 09bd e7a9 80bc
00000390: ca0f 4a3e 33a1 56be 068d 99be 8a87 69be
000003a0: eea3 a6bd 1c2c 57be fe74 be3d 7b9b 72be
000003b0: d4cc 353c fcde 9bbc 9c91 b43a dddd 7abe
000003c0: 707a 0abc 9c05 263d d417 61be a389 2ebc
000003d0: a053 8a3d 905f 113d 54a6 4e3d b30c 683d
000003e0: a9cd 833d eafc e03c e9be c1bd 00e0 7bbc
000003f0: 1e19 953d 0b17 1abe 8387 29be 35b1 f3b9

dense3.bias f4 [4]
0.66867703 0.59446996 0.6357455 -0.11627689
00000000: 6b2e 2b3f 2f2f 183f 38c0 223f 9422 eebd
