Reinforcment_Learning_DQN/agent_output/weights/episode_157_weights.pt (torch, 21495 bytes, 6 tensors)

dense1.weight f4 [64, 5]
000000 14 39 be 3d 6d 92 25 be 48 ec a9 3d 23 65 25 c0
       0.092882305 -0.16169138 0.0829702 -2.584298
000010 46 e5 3d c0 bb 9d c2 3e 31 f2 b9 be 42 a3 4d bd
       -2.9671187 0.38010964 -0.3631759 -0.050204523
000020 93 b3 74 be 43 24 3d 3f 10 e3 22 be ba e6 14 be
       -0.23896627 0.73883456 -0.1590693 -0.1454114
000030 28 80 49 be 04 9d 56 3e 82 d2 e2 3e a9 de 41 3e
       -0.19677794 0.20958334 0.4430123 0.18932594
000040 40 c2 15 bf 8a 33 01 3e 08 d5 fe 3e 14 d8 25 3e
       -0.58499527 0.12617317 0.49771905 0.16195709
000050 96 78 34 be 75 99 70 be dc 7d 97 be 00 62 96 3b
       -0.17624125 -0.23496039 -0.2958821 0.004589319
000060 14 ea 32 be 55 52 4b 3e c1 55 a8 be ac 33 ff 3d
       -0.17472106 0.19855626 -0.32877925 0.124610275
000070 c0 10 dc bf 83 13 3e c0 4e 2b a4 be 3c 1e d8 be
       -1.7192612 -2.969941 -0.3206429 -0.42210567
000080 68 53 b8 be a0 7c d5 bc 40 62 a1 be 1d a7 e7 3d
       -0.36001134 -0.026060402 -0.3152027 0.11311171
000090 6b 88 13 3f 3a 2d 71 be 73 a9 3f 3f db fd 7c 3e
       0.5763003 -0.23552409 0.74867934 0.24706213
0000a0 5a 4f 1f bf ea 7d 04 bd 36 7a c5 3e 59 5c 49 bf
       -0.62230456 -0.032346644 0.38569802 -0.78656536
0000b0 5b 01 2c bf c7 62 b7 be 60 f0 76 3c d0 a1 d0 be
       -0.6718957 -0.3581755 0.015071958 -0.40748453
0000c0 c0 ff bd 3e 0c fc ae 3e a2 9f fe be f7 6b 91 bc
       0.37109184 0.34176672 -0.49731165 -0.017751677
0000d0 7d c4 a1 3e 45 05 82 bf ca 96 6a bf c3 d9 79 be
       0.3159522 -1.0157858 -0.91636336 -0.24399476
0000e0 11 7c e6 be 0b e5 7c 3e e6 4f 37 bf d3 89 84 bf
       -0.4501653 0.24696748 -0.7160629 -1.0354561
0000f0 d9 90 59 be d4 fe 20 3e 80 b4 cf bd 3c 75 bf bd
       -0.21246661 0.15722209 -0.101418495 -0.093485326
000100 a4 ab c2 3e dc 60 5f 3e ff 0c 7e 3d f4 7b af be
       0.38021576 0.21814293 0.062024113 -0.34274256
000110 3d 2f 4e bf 26 2f 05 c0 05 08 9d be eb af c1 be
       -0.8054083 -2.0810027 -0.3067018 -0.37829527
000120 5d ff 8a 3e 0a 32 06 bf 10 be 60 be 63 06 57 3e
       0.27147952 -0.52420104 -0.21947503 0.2099853
000130 5f cf 32 3e d7 2d 9b bd d0 18 07 3f 5c 0e 5d 3f
       0.17461918 -0.07577103 0.52772236 0.86350036
000140 73 d6 ad 3e 9d 76 69 bb 66 3d b6 be 7e 69 0d 3e
       0.33952674 -0.0035623678 -0.35593718 0.13809773
000150 bc 0c a4 3e ca 40 f3 38 d9 75 fe 3d 2c a0 e7 3d
       0.32040966 0.00011599211 0.124248214 0.11309847
000160 ed c3 f9 bf 23 62 36 c0 bb 0e 0c bf b9 de b0 bb
       -1.9512917 -2.8497398 -0.54709977 -0.0053976444
000170 be 0b 84 3e 21 3f 17 bf 76 4e ad be 62 fb 19 3d
       0.2579021 -0.590807 -0.33848923 0.037593253
000180 0f ff 94 3e e8 b0 2f bd 45 53 07 c0 f7 4d f0 bf
       0.29100844 -0.04289332 -2.1144574 -1.8773793
000190 3b b4 52 3e bc 64 c6 be ab 7e 18 3e c0 43 b0 bf
       0.20576565 -0.3874873 0.1489207 -1.3770676
0001a0 2e f0 10 c0 bf a2 6f 3e 4e 0b e4 be 40 9c 5c 3e
       -2.2646594 0.23401926 -0.44539875 0.2154398
0001b0 d3 5e 04 c0 0f c0 47 c0 80 3d 69 bb 6b 8f d4 be
       -2.0682876 -3.1210973 -0.0035589635 -0.4151567
0001c0 b4 1a 9d be 68 d6 5c 3e 9e 8a b8 3e 6e 17 41 be
       -0.30684435 0.21566164 0.36043257 -0.18856594
0001d0 9c 4d c5 3e c7 61 6d be 75 e9 78 3e d1 c9 af be
       0.38535774 -0.2318183 0.24307807 -0.3433366
0001e0 c1 9b 2e 3e 29 7f af be 88 51 80 3e 6d 44 0a c0
       0.17051603 -0.34276703 0.25062203 -2.1604264
0001f0 d0 a8 38 c0 10 c5 5d 3c 29 8f 05 3e 28 bc 4a bd
       -2.8853035 0.013535753 0.13042893 -0.049495846
000200 ed 5a 1f c0 65 5d 2f c0 cc 7a c8 be 6b 79 8c 3e
       -2.4899247 -2.7400753 -0.39156187 0.27436385
000210 4c bd 8c 3e 47 04 14 c0 32 d4 16 c0 d0 39 47 3d
       0.27488172 -2.312761 -2.3567014 0.04863912
000220 74 cc a8 3e af 8a 98 3d 29 56 1c c0 66 7a ec bf
       0.32968485 0.07448327 -2.4427588 -1.8474853
000230 47 a5 4d 3e f2 59 c2 be 74 60 1a 3e d6 8f f7 bf
       0.2008258 -0.37959248 0.15075856 -1.934077
000240 2c f9 25 c0 c1 01 ee bd a4 ec 79 bf 52 00 88 3e
       -2.5933332 -0.11621428 -0.9762671 0.26562744
000250 54 59 3a be fc 10 1c be b8 02 61 bd 27 d4 c5 be
       -0.18198138 -0.15240854 -0.054934233 -0.38638422
000260 50 4c d8 3c a6 3f c9 be ca 39 c3 3e a7 41 60 3e
       0.026403576 -0.39306372 0.38130027 0.21900044
000270 6d 3a 38 3e 6e 87 df bd 1f b9 fd bf c4 a4 25 c0
       0.17991038 -0.10914503 -1.982212 -2.5881815
000280 0b 02 c9 be 81 30 f7 3e 5b 1b 1b 3e f7 5a 55 3e
       -0.3925937 0.48279193 0.15147154 0.20835482
000290 2a 46 98 be 87 2f 7e 3e f7 8c cc be cf b6 f3 3d
       -0.2974103 0.24822818 -0.39951298 0.11900102
0002a0 cc b6 a0 bf 7f 89 ff bf 73 84 9a bd e1 ce 1c 3e
       -1.2555785 -1.9963835 -0.07544794 0.15313293
0002b0 f5 47 11 bf 12 c2 51 3f 38 f4 80 be 7e 08 16 3e
       -0.5675042 0.8193675 -0.25186324 0.14651677
0002c0 6c 50 a2 3d 73 f5 c8 be b4 47 2d 3d e4 45 ac bf
       0.079254955 -0.39249763 0.04230471 -1.3458829
0002d0 a5 44 c6 be 40 2b 96 3d 1a e8 83 be 58 58 41 be
       -0.38724247 0.07332468 -0.25763017 -0.18881357
0002e0 0d be 81 be b6 69 99 3e f5 02 ad 3e cc 3c f8 be
       -0.2534031 0.29963464 0.3379132 -0.48483884
0002f0 3e 9a e8 be b2 1e 40 3f a2 c3 df bd d3 52 a7 3e
       -0.45430177 0.7504684 -0.10925986 0.32680377
000300 0f 48 d1 3d eb 9c ae bf 58 8a b4 bf 30 52 a2 bc
       0.10218822 -1.3641638 -1.4104719 -0.01981458
000310 56 16 13 be c4 35 a6 be ec 2f de 3e a4 aa 85 3e
       -0.14363989 -0.32462895 0.43395936 0.2610675
000320 2d ee 5e 3e 6e 65 d5 be e8 32 39 3e fc 00 0e c0
       0.21770544 -0.41678947 0.18085825 -2.21881
000330 a9 01 34 c0 7f 52 1a 3e d2 89 af be 1a 73 c7 be
       -2.8126013 0.15070532 -0.34284836 -0.38955003
000340 b4 f6 17 3e 54 8e 51 3e 73 91 4a 3e d5 38 0b bf
       0.14840204 0.2046445 0.19782047 -0.54383594
000350 d3 b5 bb 3d 88 21 3f 3d 7d dd 83 be 73 6a 08 bd
       0.091655396 0.046662837 -0.2575492 -0.033304643
000360 7a 12 e9 3d 2e 4a 53 3c 9d 66 de bf 48 14 23 c0
       0.11380477 0.012896104 -1.7375065 -2.5481129
000370 df 63 0a bd d4 24 a2 3e 63 79 4c be 41 66 9f bf
       -0.03378665 0.31668723 -0.1996818 -1.245308
000380 38 23 a2 be 5d f4 87 be ad 22 75 be 38 a8 87 3d
       -0.31667495 -0.26553622 -0.23939009 0.06623882
000390 74 eb 84 be 0a f8 be 3e ce 4b ba be db 5f 74 be
       -0.25960886 0.37298614 -0.3638596 -0.23864691
0003a0 81 23 b8 3e 19 3c 9f bf a4 0b 41 bf 7d 16 13 3e
       0.35964587 -1.2440215 -0.7540839 0.14364047
0003b0 bf c2 92 be da 82 72 3e 46 c5 06 c0 1c 1a 2e c0
       -0.28664204 0.23682728 -2.1057906 -2.7203436
0003c0 a2 f6 59 3d 48 34 f5 be b8 d3 2c be 49 ac ef bd
       0.053213723 -0.4789145 -0.1687764 -0.11702783
0003d0 39 6b d8 be f0 6e a6 be 99 ad de 3d 09 51 e7 3d
       -0.42269304 -0.32506514 0.10872955 0.11294753
0003e0 07 59 19 c0 be 60 37 c0 f0 d6 3c 3e d8 ab 94 3e
       -2.3960588 -2.8652797 0.18441367 0.29037356
0003f0 1b f2 92 3b d3 61 cc 3e 7b 45 67 bf 8a f5 99 be
       0.0044844276 0.39918384 -0.90340394 -0.30070144

dense1.bias f4 [64]
000000 b4 27 c2 3e 28 75 b4 be 1c 11 b4 3e 75 dc c8 3e
       0.37920916 -0.35245633 0.35169303 0.39230695
000010 de e6 04 be c8 41 73 3e 68 31 d8 3e 79 13 d0 3e
       -0.12978694 0.23755562 0.42225194 0.40639856
000020 d2 6f ef 3e dc 1d 5d 3e 5f ab f6 3e bc 06 6c be
       0.46765 0.21593422 0.4817762 -0.23049444
000030 ac f4 0f 3e bc 10 bf 3d f7 b9 88 be a2 89 d0 bd
       0.14058179 0.09329364 -0.2670438 -0.101825014
000040 2d 05 76 be c9 44 39 3c 61 5b 2f bd 7e 4c 86 be
       -0.24025412 0.011307904 -0.042811755 -0.26230234
000050 38 8f 5e 3e 17 5c df 3e 00 bb 12 3c 6c de b8 3d
       0.21734321 0.43624946 0.008955717 0.090267986
000060 58 c1 1a 3f a9 d5 a2 3e fd 91 fd bd 9a 80 d4 bc
       0.6045127 0.31803635 -0.12381361 -0.025940228
000070 ff a4 ac 3e 68 e7 cd be 8d a7 55 be c1 ae 1c 3e
       0.33719632 -0.4021561 -0.20864697 0.15301038
000080 4a 66 35 bd 59 03 b4 bd de aa c6 3e a7 dd e0 bd
       -0.044287004 -0.08789701 0.38802236 -0.10979777
000090 bf 4c 4a be 01 20 0d bf 4d 92 fc 3d 0f 3f d3 be
       -0.19755839 -0.5512696 0.12332592 -0.41259047
0000a0 88 f1 12 3f 02 1a 95 3e 6b 5e 65 3e 74 a6 e9 3b
       0.573998 0.29121405 0.22399299 0.0071304385
0000b0 b4 06 11 3e c0 79 c1 bb 43 35 32 3e ef 9b 84 bd
       0.14162713 -0.0059044063 0.1740313 -0.064750545
0000c0 e2 07 ae be 11 33 ed 3d 18 86 a7 bd ef 2e e0 3e
       -0.3399039 0.11582006 -0.08179873 0.43785807
0000d0 36 6d d0 3e 75 e3 ae 3e 50 04 50 3e 1e 74 df 3e
       0.4070832 0.3415791 0.20314145 0.43643278
0000e0 d2 9c ab 3e 2a be 56 be c0 2a be be 64 63 75 3e
       0.33518082 -0.2097098 -0.3714199 0.23963696
0000f0 a4 90 d2 3d bd f4 ee 3e c1 e3 ad be f8 25 96 3e
       0.10281494 0.46671095 -0.33962825 0.29325843

dense2.weight f4 [64, 64]
000000 47 cf af 3d a8 13 81 be 98 1e d0 bd 97 28 c5 3d
       0.08584457 -0.2521031 -0.10162085 0.096268825
000010 6c d0 0b bd 63 37 86 3d 88 1b ff bc 4a 44 16 be
       -0.034134313 0.06553533 -0.031141058 -0.14674488
000020 ab 01 8c 3d 6e 91 84 3d 37 92 2a 3c df da 1a 3e
       0.06836256 0.06473051 0.010410837 0.15122555
000030 d2 50 a7 bd f1 38 ad be 49 17 21 3e 94 d5 44 be
       -0.08169712 -0.33832505 0.15731539 -0.19222099
000040 b2 96 33 be 0c f7 59 bd 3c 02 1b 3d 2a e0 8a be
       -0.17537954 -0.053214118 0.037843928 -0.2712415
000050 38 5c 78 bd ca 82 3d 3d aa 8d cf 3d 9b 8c 41 be
       -0.06063482 0.04626731 0.10134442 -0.18901293
000060 72 4e d0 3d de 74 52 3c 52 24 24 be 19 62 78 be
       0.10171212 0.012845246 -0.1602948 -0.24256171
000070 83 2b a3 3d 01 37 ef 3d 36 f9 b0 3d cc fc 56 be
       0.079672836 0.11680413 0.08641283 -0.20994872
000080 6f 98 bb bd d9 e8 e4 bd af be a4 3d 70 a3 85 be
       -0.09159934 -0.11177225 0.080441825 -0.26101255
000090 8c 93 95 bd 62 97 90 bd 28 d1 76 bd 30 cb 99 bd
       -0.07303533 -0.07060124 -0.06025806 -0.07509458
0000a0 f6 54 e4 3d 04 88 b4 3d 96 d1 cf 3d 9a 83 85 be
       0.111490175 0.088150054 0.10147397 -0.26076967
0000b0 04 b1 c9 bb 3c 78 3e bd 98 ba 7e 3d fc e6 c5 3c
       -0.006155135 -0.046501383 0.06218967 0.024157993
0000c0 b4 c8 bc 3d d6 66 8a bd b4 da d1 be d6 53 72 3d
       0.092179686 -0.06757896 -0.4098717 0.059161983
0000d0 5a 0e f0 bd e3 5b a0 be 54 60 68 3d 5e 86 de bd
       -0.11721487 -0.31320104 0.05673249 -0.10865472
0000e0 48 75 e9 bd bc f3 62 bd 3e db f8 bd 2e 5a b5 be
       -0.11399323 -0.055408224 -0.12151192 -0.35420364
0000f0 84 83 2a 3d 1a 5c 0c be 9a b6 e4 3d 51 fe 05 be
       0.04162933 -0.13707009 0.11167641 -0.13085295
000100 a7 96 9c 3c fc ed 9c bd 00 44 a9 3d a9 77 3e 3c
       0.019114805 -0.076625794 0.08264923 0.011625209
000110 ce 00 ec bd 4d 91 7b 3d a0 d4 f4 3d 80 f4 e8 3a
       -0.11523591 0.061417866 0.119546175 0.0017773062
000120 b1 a9 ae bd 00 a1 51 3d 42 14 0f 3d ba 07 1e be
       -0.0852846 0.051178932 0.03493143 -0.15432635
000130 e8 e6 31 bd 53 6a 6e bd 5f 2d 61 3c da 33 8a bd
       -0.0434331 -0.058206867 0.0137437275 -0.06748171
000140 52 35 4c bd eb 67 13 be fa 8e b6 bc c5 d4 0a bd
       -0.049855538 -0.1439511 -0.022284973 -0.03389432
000150 d2 3c 69 bd 18 c0 59 3c 40 1f c7 3b 10 9e aa bd
       -0.05694277 0.013290428 0.0060767233 -0.08330929
000160 01 ce 09 bc 23 61 0c be 9b c1 cc 3d 22 58 15 be
       -0.008410932 -0.1370893 0.09997865 -0.14584401
000170 9c 95 75 3d 0c ef 2c be 06 65 ba bd 78 6e 6f 3d
       0.05995713 -0.16888064 -0.091013 0.05845496
000180 8a c4 bd bc fc 10 5e bc 32 6f d4 bd c0 7b 8d bc
       -0.023165006 -0.013553854 -0.10372771 -0.017270923
000190 40 84 24 3c 4d 26 a5 bd 9a dd bf bc ea e2 f7 3d
       0.0100412965 -0.08063946 -0.023421098 0.12103827
0001a0 7d 1c e1 bd 64 bc 37 bd f4 ef 98 3d cc 79 e1 3c
       -0.10991762 -0.044857398 0.074676424 0.027523898
0001b0 5c 95 c5 3d 9c b5 14 bd 4a f7 ff 3d 98 de 35 3c
       0.09647629 -0.03630601 0.124983385 0.011100434
0001c0 da 6f ad bd 18 91 4e 3d 7e 91 00 be 3d d7 2e be
       -0.084685996 0.05043134 -0.12555501 -0.17074294
0001d0 b0 67 ed 3d 04 27 29 be 58 07 c5 bc 20 f7 12 be
       0.115920424 -0.1651879 -0.024051353 -0.14352083
0001e0 08 21 eb 3c 20 a7 c5 bd 60 48 8a bd 08 71 3a bd
       0.028702274 -0.09651017 -0.06752086 -0.04551795
0001f0 53 ad 0e bc eb 0e d9 bd 28 d9 05 bd 42 9e 18 bd
       -0.008708316 -0.105985485 -0.0326778 -0.0372603
000200 cb 22 34 bc f3 2d 58 bd 02 27 90 3d 00 ac 2e 3c
       -0.010994623 -0.052778196 0.0703869 0.010661125
000210 64 4e 38 bd 88 c8 bd bd e0 79 91 3b 84 5c f1 bc
       -0.044996634 -0.09266764 0.0044395775 -0.02946306
000220 e6 7a dc bd 72 07 e2 bd 00 9a e0 39 dc fe 24 bd
       -0.107656285 -0.11036576 0.00042839348 -0.040282115
000230 30 2d 2b 3c 8d 89 87 3c a0 a0 24 bc 30 ce a3 bd
       0.010447785 0.016545082 -0.010048062 -0.079983115
000240 4d e2 47 bc ce 05 09 bd 30 e6 3e 3d c0 fd 7a 3d
       -0.01219995 -0.0334528 0.046606243 0.06127715
000250 79 00 67 3b 9c f2 2e be f0 ea 8d bd 5a 43 d8 3d
       0.0035248084 -0.17084736 -0.069295764 0.10559721
000260 17 95 8f 3d 69 df 1f 3d 09 4f 8d 3c b4 85 fb bd
       0.070108585 0.03903142 0.017249601 -0.12281361
000270 4c aa 1b be f4 82 67 bd 80 a6 21 3c bc ce 19 be
       -0.15201682 -0.05652137 0.009866357 -0.15020269
000280 6b 0a 97 bd 4f a6 17 bc 4b e0 85 bd 21 80 9f 3d
       -0.07375034 -0.00925596 -0.06536921 0.077881105
000290 b8 d0 8a 3c 3d aa 84 3d df 88 55 bd 00 2a 03 3d
       0.016945228 0.06477783 -0.052132484 0.032022476
0002a0 19 a9 b3 3b 46 c1 e6 bd fc 25 d5 3d 03 90 08 be
       0.0054828045 -0.11267333 0.104076356 -0.13336186
0002b0 6f 8a a2 3d 90 59 bf bc 58 35 c0 3d 49 ac f4 bd
       0.0793656 -0.023358136 0.093851745 -0.11946923
0002c0 94 67 20 bd a1 7b b5 bd df 05 c8 bd b8 8f 89 3c
       -0.03916128 -0.08861471 -0.09766745 0.016792163
0002d0 d6 8e 97 3d 9b 6b 7b 3c c0 3e c4 3d 84 6e 18 be
       0.07400291 0.015345479 0.09582281 -0.14885908
0002e0 f0 97 b5 3c 1e 31 bd 3d 34 e7 08 bd a2 a3 de bd
       0.022167176 0.09237884 -0.033423617 -0.10871054
0002f0 8f 08 77 bc a1 77 90 bd 2c 4a b4 bd d7 f5 5c bd
       -0.015077724 -0.070540674 -0.0880321 -0.05394539
000300 a7 e0 2c bb dc 82 ef bd aa 5e bb 3d 6c 83 83 bd
       -0.002637902 -0.11694881 0.09148915 -0.06421551
000310 32 d3 91 3d b4 8e ac 3d b0 6b 53 3c 9f 22 95 bd
       0.071203604 0.08425656 0.012904093 -0.07281994
000320 49 33 d8 3d 9e 00 f2 3d fd 01 c7 ba a7 5c 9c 3c
       0.10556657 0.11816524 -0.0015183088 0.019087149
000330 90 0f f2 3d a8 d5 eb bd 4f 8a 08 3d 95 f9 31 3d
       0.118193746 -0.11515361 0.033335026 0.04345091
000340 48 00 5c 3d 7c bd d0 bd a9 57 68 bd 25 3a 09 be
       0.053711206 -0.10192391 -0.056724224 -0.13401087
000350 57 bf bb bd 62 a1 9a bc e2 2c d9 3d e8 c3 3e 3d
       -0.091673546 -0.018875781 0.10604264 0.04657355
000360 91 47 7f bd 7e 13 6c bd 7a 50 d7 bd 27 cc 81 bd
       -0.06232411 -0.057635777 -0.105133966 -0.06337767
000370 65 23 91 bd 70 28 d9 bd 7c 39 84 bd dc 5d 5d bd
       -0.07086829 -0.10603416 -0.06456277 -0.05404459
000380 3a 2c b5 3c 5c 26 87 3d 68 47 b7 bd 76 ba fe bd
       0.022115815 0.06599113 -0.089491665 -0.12437908
000390 00 84 17 ba 1f 49 f1 bd e2 2e 57 bd 80 61 f2 bc
       -0.00057798624 -0.11781525 -0.052534945 -0.029587507
0003a0 d2 73 ae bd 50 58 2e bd 27 3e 60 3d 90 06 e5 bd
       -0.08518185 -0.04256469 0.054746773 -0.11182892
0003b0 a4 af 58 bd b6 98 81 3d 9f ca 15 bd 3f 3b 05 be
       -0.05290188 0.063279554 -0.036570188 -0.13010882
0003c0 40 9a 4d 3c 2b 8b c3 3d 74 3f 50 bd 4f 8b e6 3d
       0.012548983 0.095480286 -0.050841764 0.1125704
0003d0 40 ed 9c bc 85 9e df ba 14 b5 15 3d f0 f0 db bc
       -0.019156098 -0.0017060792 0.036549643 -0.026848286
0003e0 8c 41 da 3d be bb 83 bd c0 8b b1 bb 51 2e f7 3c
       0.10657033 -0.06432293 -0.005418271 0.030173453
0003f0 ca 66 9d 3c 57 fc d4 bc 6c c0 ef bd 25 5e 4a 3c
       0.019214053 -0.025999231 -0.117066234 0.012351547

dense2.bias f4 [64]
000000 0c cc b7 bd e9 54 6f 3d 18 3b a9 bd 3c f0 2b bc
       -0.08974466 0.058430586 -0.08263224 -0.010494288
000010 8f e5 8c bc 80 dc ea bd 23 e3 a4 3e ca 55 62 3d
       -0.017199306 -0.11467838 0.32204542 0.055257596
000020 af 27 b8 3d 8b 1d 8e 3d 83 72 65 3e 9e 18 4f 3d
       0.08991944 0.069392286 0.22406964 0.050560586
000030 56 53 07 bd d3 24 9a 3d 3d 48 45 3d e8 16 e8 3d
       -0.03303846 0.07526555 0.048164595 0.11332494
000040 74 d7 29 3e 08 00 d3 bd 91 8d c7 3d d4 9c b4 bd
       0.16586095 -0.1030274 0.097437985 -0.08818975
000050 a7 96 83 bd c5 de a9 bc f7 e1 2f 3b 2f 1a c5 3e
       -0.06425219 -0.020736108 0.0026837566 0.3849654
000060 ea 23 d4 3c ac 52 60 bc a4 d5 74 3d 40 5c 62 3c
       0.025896031 -0.0136915855 0.059774056 0.013815939
000070 77 f7 6b 3c 76 a9 e9 3c 0e cf 47 bc 3f 7f 42 be
       0.014402262 0.028523188 -0.012195362 -0.18993853
000080 a0 25 0d be 39 c0 25 be b3 d0 96 3d 2b 8a be bd
       -0.13783884 -0.16186608 0.07364025 -0.09303697
000090 97 55 4e be 8e a4 a7 3e 8f f7 af 3d 62 94 0a 3e
       -0.20149837 0.32742733 0.0859214 0.13533166
0000a0 50 54 05 be ce 0f 97 3e 04 19 f1 bd 19 ab 4b 3e
       -0.13020444 0.29504246 -0.117723495 0.19889487
0000b0 61 59 6e bd 3c 1c 84 3d f6 d3 9f 3d 4a 21 94 3d
       -0.058190707 0.06450698 0.078041 0.07232912
0000c0 e8 a5 14 be 49 43 29 bd 16 24 9c 3e e9 f9 1e be
       -0.14516413 -0.041323934 0.3049628 -0.1552502
0000d0 77 fa 3d 3d a6 4f 71 bd c6 2c 1e be bc 0f 17 3d
       0.04638144 -0.05891385 -0.15446767 0.03688024
0000e0 09 59 f3 bd 18 e3 22 be 10 f4 29 3d b0 39 c3 3c
       -0.118822165 -0.15906942 0.04149252 0.023831218
0000f0 3e 50 52 3d 5f e1 16 3d b7 5b 90 3e d2 85 c4 3a
       0.051346056 0.036836024 0.28194973 0.0014993495

dense3.weight f4 [4, 64]
000000 e2 e7 c7 bd 90 8c 9e bd 9f 12 98 3d a3 f9 81 3d
       -0.09761025 -0.07741654 0.07425427 0.063464426
000010 c7 41 dd 3c be dc 40 3d 72 8c 6e bd 5a 07 f7 bd
       0.027008904 0.047085516 -0.058239408 -0.12061949
000020 7a 78 85 be e6 90 d7 bc 14 cc cb bd f9 32 7e 3d
       -0.2606848 -0.02631421 -0.09951034 0.06206033
000030 39 e1 45 3d f9 b1 48 3b cd 14 0a be 3c 5b 95 bd
       0.048310492 0.0030623658 -0.13484497 -0.07292792
000040 91 a5 93 bd 7c c2 60 3d 4b e2 93 bd 76 e6 01 be
       -0.07209314 0.054872975 -0.07220896 -0.1268557
000050 3e 90 05 bd cc 3f 5f bd d3 18 22 bc 6b 8e 73 bd
       -0.032608263 -0.0545042 -0.009893614 -0.059461992
000060 d0 d0 bb 3d bb f9 33 3d b4 20 ce 3d b0 f0 b4 3d
       0.09170687 0.043939333 0.100648314 0.0883497
000070 22 35 ad 3d 33 be b9 3d ab 4c d4 3c f7 38 60 3c
       0.084574 0.09069481 0.025915464 0.0136854565
000080 cf b5 40 bd dc 6b c0 3b 39 66 a0 3d 3f c6 7b bd
       -0.047048386 0.005872233 0.078319974 -0.06146836
000090 c7 87 87 3d cc 99 ca bd ad af 1c be b6 00 54 be
       0.06617694 -0.09892616 -0.1530139 -0.20703396
0000a0 14 fe 67 3d 0a 40 56 be b1 66 8a 3d a1 9e c1 bd
       0.056638792 -0.20922866 0.06757868 -0.09454084
0000b0 68 9e 99 3d ca 54 f7 bd 98 bd d1 3d e1 a6 8a bd
       0.07500917 -0.12076719 0.1024124 -0.06770111
0000c0 48 f4 3c bd aa d9 75 bc b2 c5 bd bd 4b 14 cd 3c
       -0.046131402 -0.015005508 -0.09266223 0.02503409
0000d0 be d2 24 3d 3e 28 bb bd a9 0f 43 3d 8b 4f 5c bd
       0.040240042 -0.09138535 0.047622357 -0.053786796
0000e0 0d 24 bd bc 5d e5 a5 3d 84 d2 1d bd 2e 1c b4 bd
       -0.02308848 0.08100388 -0.03853084 -0.08794437
0000f0 d6 67 fe 3c 44 21 54 be 90 0a 10 be a1 d4 92 3d
       0.031055372 -0.20715815 -0.1406653 0.07169462
000100 48 22 2a bd c6 71 fd bd 1f 86 dc bd 68 7a 8a 3d
       -0.0415366 -0.12375216 -0.10767769 0.067616284
000110 67 eb a5 bd 0e 62 3b bd 86 e3 97 bd 48 cb b8 bc
       -0.0810154 -0.04574781 -0.074164435 -0.02255787
000120 22 73 84 be e6 e3 90 bd 8d 39 42 be 21 59 0e 3d
       -0.2586909 -0.07074718 -0.18967266 0.03475297
000130 9e 16 e8 3c 80 2b 45 3c 21 f9 1c be fa 78 41 bd
       0.028331097 0.012034297 -0.1532941 -0.047234513
000140 16 56 17 be ea 5f 9c bd 70 c1 d1 bd 71 4e bd bd
       -0.14778933 -0.07635482 -0.102419734 -0.09243477
000150 f2 d4 65 bd 6a 94 12 3d 0c dd 36 bd f6 48 27 be
       -0.056111284 0.03578607 -0.0446444 -0.16336426
000160 ec 4c 5a bd 82 62 77 bd 32 cb 96 3d c0 1a 6a bb
       -0.053296015 -0.06039668 0.07362975 -0.003572151
000170 e4 01 c0 bd 3c 3c 89 3d 85 73 07 3d d8 eb 7b bd
       -0.093753606 0.06700942 0.033069152 -0.061504215
000180 c9 1f aa bd e5 e0 f8 bd 9f 5f 9e 3d 07 72 3b be
       -0.08306844 -0.1215227 0.07733082 -0.18305217
000190 dd e4 9e 3d b8 76 4b be 18 0b 0d be 9f cc 2f be
       0.07758496 -0.19869506 -0.13773763 -0.171679
0001a0 e4 07 2d bd 2f ce 4f be 78 e5 1b 3d 1c fc 14 be
       -0.042243853 -0.20293497 0.038060635 -0.14549297
0001b0 aa 4b 81 bd e0 44 49 3d 64 41 fd bc 5a 01 2c be
       -0.0631326 0.04913795 -0.03091497 -0.1679739
0001c0 7c 84 54 bd f9 1e c9 bd 9f 2c 5d be d0 22 40 3c
       -0.05188416 -0.09820361 -0.21599053 0.01172705
0001d0 21 10 e5 3d e8 0f 9f 3d 41 a4 15 3b f0 a2 b1 bd
       0.11184717 0.07766706 0.0022833499 -0.08673656
0001e0 e8 50 aa bd ea 6e 04 3d 41 4f 84 3d a8 a0 cc bd
       -0.08316213 0.03233234 0.06460429 -0.0999158
0001f0 13 a1 ad 3d c1 ac 2c be 1c 34 6f be 7e 63 e2 bd
       0.08477988 -0.16862775 -0.23359722 -0.11054133
000200 89 74 3e bd ec 0f 75 3d 36 31 48 3d 29 0e 91 3d
       -0.046497855 0.059829637 0.048875056 0.07082779
000210 9b 9d b6 3d 17 b4 1f 3d 6b a3 71 bc c0 8b 3d 3b
       0.089167796 0.038990106 -0.014748435 0.0028922409
000220 dd c3 24 be 9a c1 92 bd 34 eb cb bd 2b 23 38 bb
       -0.16090341 -0.07165833 -0.09956971 -0.0028097134
000230 c0 f3 6d 3b 7a 02 88 bc 80 11 8d bd 8c 48 2b bc
       0.0036308616 -0.016602743 -0.068881035 -0.010454308
000240 96 9b 4d bd b2 a0 ad bd ab 6c 81 bd aa 14 46 bd
       -0.050197206 -0.08477916 -0.06319555 -0.04835955
000250 6e 7a e7 bc 76 01 88 3d ba d2 b7 3c 29 62 0d 3e
       -0.028256621 0.06640904 0.02243935 0.13806976
000260 43 0a ab 3d c8 35 fe bd 80 6e 51 3d e8 94 96 bc
       0.08351567 -0.12412602 0.05113077 -0.01838155
000270 60 18 98 3c 8b bc e8 bc 6c 94 f5 bd 36 2c 20 bd
       0.01856631 -0.028410217 -0.119912 -0.039104663
000280 fe 5c 93 bd 1b c0 d4 3d a5 09 b8 bd d9 e2 11 be
       -0.07195471 0.10388204 -0.089862145 -0.14246692
000290 e7 8f 0e 3e 2e 31 ce bd bd 9b 04 be 5d a5 02 be
       0.13922082 -0.10067974 -0.12950034 -0.12758394
0002a0 40 b0 fa 3c 21 54 b1 bb 8a fa fe 3d 0c 62 06 be
       0.03060162 -0.0054116403 0.1245013 -0.1312334
0002b0 be 48 67 bb 6a ec d7 bd 16 7b d2 3c a8 4a b7 bd
       -0.003529116 -0.10543139 0.025693458 -0.089497864
0002c0 fc 63 1d 3d d7 c3 82 bd 4a 41 14 be 68 4a af 3d
       0.03842543 -0.0638501 -0.14478031 0.08559114
0002d0 1a b3 a8 3b 1c f2 d3 3d e5 aa 25 3e 84 c7 96 3d
       0.0051483037 0.10348913 0.16178472 0.07362273
0002e0 9f 67 5e 3d 9a 1e af bc 46 9c 50 bd d6 77 c8 bd
       0.05429804 -0.021376897 -0.050930284 -0.09788482
0002f0 63 86 2c bd 99 33 49 be 01 4f ac ba 3e b5 34 bc
       -0.04212035 -0.19648589 -0.0013146104 -0.01102954
000300 88 0c 24 3e ad f4 63 bd 35 2b 1c be 0b d8 71 3c
       0.16020405 -0.055653263 -0.15250857 0.014760981
000310 f4 af fc 3c 04 67 83 bc af f2 1c be 45 f4 92 3d
       0.03084562 -0.016040333 -0.15326951 0.07175497
000320 a5 f4 10 bd 80 9b ab bd bb 57 2a be 45 eb 16 bd
       -0.03538956 -0.08379269 -0.16635029 -0.036845464
000330 e8 b2 89 3c 31 3b f2 bc 3d 8e 95 bd cf 0d 2c bc
       0.016808942 -0.02956924 -0.073025204 -0.010501339
000340 73 f4 0e be f0 b2 27 3c 7a 1c ee bd ae 51 03 3e
       -0.13960437 0.010235533 -0.11626525 0.12824127
000350 20 f9 47 bc 73 46 59 3d 31 9e 40 3d fa da 1a be
       -0.012205392 0.0530457 0.047025863 -0.15122595
000360 e0 d0 2b 3d f2 71 bd 3c 8b a8 8c 3c 9c bd 09 3d
       0.041947246 0.023125622 0.017170211 0.03362809
000370 08 55 b3 3c 85 37 5a 3d 6b 6e 8c bc ac aa c0 3d
       0.021891132 0.053275604 -0.017142495 0.09407553
000380 91 99 e1 bc 03 72 a7 bc bd 47 09 bd e7 a9 80 bc
       -0.027539046 -0.020440107 -0.03351568 -0.015706016
000390 ad 7e 1c 3e db 6b 27 be 0f 26 4f be ce d0 2e be
       0.15282698 -0.16349737 -0.20229362 -0.1707184
0003a0 ee a3 a6 bd 58 71 56 be fe 74 be 3d 24 d8 44 be
       -0.08136736 -0.20941675 0.09299658 -0.19223076
0003b0 d4 cc 35 3c fc de 9b bc 9c 91 b4 3a 76 3c 4e be
       0.011096198 -0.019027226 0.0013776305 -0.20140252
0003c0 70 7a 0a bc 9c 05 26 3d f1 7d 63 be a3 89 2e bc
       -0.008452043 0.040532693 -0.22216012 -0.010652932
0003d0 a0 53 8a 3d 90 5f 11 3d c3 7f 1e 3d b3 0c 68 3d
       0.067542315 0.035491526 0.03869606 0.056652736
0003e0 a9 cd 83 3d ea fc e0 3c e9 be c1 bd 00 e0 7b bc
       0.06435711 0.027464349 -0.09460241 -0.01537323
0003f0 1e 19 95 3d 0e f6 47 be ef 24 15 be 35 b1 f3 b9
       0.07280181 -0.19527456 -0.1456487 -0.000464806

dense3.bias f4 [4]
000000 a4 2f 12 3e 89 4c 12 3e 29 20 17 3e 04 44 6c be
       0.14275986 0.14287008 0.14758362 -0.23072821
