Reinforcment_Learning_DQN/agent_output/weights/episode_36_weights.pt (torch, 21487 bytes, 6 tensors)

dense1.weight f4 [64, 5]
00000000: 8094 5f3d b8d4 99be c082 bebe b861 863e
00000010: 740c 92be baa7 e33c abf6 8cbe a855 a93e
00000020: 93d8 43be a91b 8bbf df5b 96be 30d5 7cbe
00000030: abff c13e 95ca c6be 655f 99bc 48b5 b6be
00000040: 7d93 d5be 72ce 03be 14c4 703e e429 913e
00000050: 25ce 823d 9450 9f3d 02ed 073e ad09 e9bd
00000060: 5c33 fa3c 2f22 863e afc4 b1bd bbb0 80bd
00000070: 57c4 a8bd 2732 42be 7ec3 5fbe be11 00be
00000080: 25aa 843e 3f85 26be bec1 db3d 5d6e e4be
00000090: af09 cebe 40bb cebb f0f4 aa3d 84f9 e23e
000000a0: dcc8 f3be 8ed6 2d3e 39f7 833c 1059 9d3d
000000b0: eb00 bcbe b190 863e 080e cbbe 4fcb c2be
000000c0: 5417 633e 1f48 02be ad58 8d3e c077 08bf
000000d0: 4224 ca3e 691c 2fbe 0379 88bf 42cf 473e
000000e0: e998 3abe 8ebb 103e 8c74 f8be 6fa6 22bf
000000f0: ec83 923c b430 c1bd 156b b73e 08bb adbe
00000100: 77fa b4be ec25 833e d22e 9fbe 2d39 cdbe
00000110: 208c 3bbe a08b e23d 60ba 62bd 6139 c2be
00000120: b793 dd3e ca2f 59bf bff5 17bf 2e98 94bd
00000130: ff8a 9fbe 89a8 d33e 0e24 21be f0fd 9abe
00000140: d385 e13e 10a2 d7be c127 ccbc 04e9 113e
00000150: 06d7 6ebe 04ea dcbe 8815 83bd 6ca0 f9bd
00000160: c838 91be 9883 b43d 8e1a 8fbe 9f04 3abe
00000170: eae1 ad3e dd58 2a3e a735 b1be 9f9d d5be
00000180: ccd8 733e 041c a1bd 009e 6c3b aaa8 26be
00000190: 8cd8 91bd dc1e dbbe d96c a4be e0e0 2abc
000001a0: b0c5 cd3d a534 843e 957a 1fbe cda0 cdbe
000001b0: 35b9 2dbe 67d4 7b3d 78a5 7dbd 5251 0fbe
000001c0: c099 41bc 002f bb3e e2fa 73be 3639 74be
000001d0: 2c50 4abd f525 6f3e c65d 79be ae25 22bf
000001e0: b706 03bd e559 7a3d 08f8 8f3d 7fdb 05bf
000001f0: c531 af3e f0ec 33bd 2d9c 31be 7c4e 073e
00000200: d719 6ebe 7fa7 c73d 7499 4a3e 0141 83be
00000210: 10b8 9bbe 1a53 b53e 4203 243b 3d3d 983e
00000220: 661a 19bf f50a a13e 87e6 74bf 470e 3fbf
00000230: d382 6d3e a53b 8dbe e28e c4be a050 b83e
00000240: 73ad a7be 5d11 ce3d 0979 98bd 311b c03c
00000250: 68ff f03e ba47 ce3d 3e48 5d3c 185b 2fbd
00000260: e604 08bd 1fab b5bc a3e5 aebd 1a2d 213e
00000270: 919f ddbd c8e8 7fbe 73d3 fe3d 7062 1a3e
00000280: 3df5 8e3e 8cac e9bc da2c 03bf 9cb5 cbbc
00000290: 80e3 89be 76a2 8dbc 7a05 263d ac2a e0be
000002a0: a28f 84be 3bf5 edbe b59b 943e b8ba 07bf
000002b0: ed67 713e 00ba 05be a9bd 0ebf 48c2 223e
000002c0: 9769 b33e fae5 e8be eb07 103b c284 853e
000002d0: 6d8c 64be b9ad 6f3e 4f5a 1c3e 4c6b 373e
000002e0: 8998 0e3f 29c9 8f3e e79a 49be 1fb8 843e
000002f0: 01ca d2bd 1482 38bf a54c c7be 7c27 873e
00000300: 4283 be3e af53 d9bd 8686 e3be be71 943e
00000310: 867e c2be cc11 6a3d e44b aabd c056 a1be
00000320: cdd1 df3d 7106 c73e 9914 e1be 0c75 9e3e
00000330: 9caa a33d 6366 32be 25fc 2dbe 98c5 753e
00000340: d9ec 25bf 8d6b 2cbf 330f 4bbe 5091 a1bc
00000350: 7e9e b3be 0c30 bf3e 0079 ad3e 907d c3bc
00000360: 2a3d 99be aeed 3fbe 904a b13c d4cf 95be
00000370: 5716 d0be 65b8 343e 46d0 753e f13e 18be
00000380: afac d03e 8cc6 38bd 3c80 463e a8eb b9bd
00000390: 557d 933d ba05 b43e cf92 c8be 28c2 873e
000003a0: e5f1 c4be 1099 60bd ae48 8f3e c4fe c5be
000003b0: 77e2 8d3e 1134 993e 297a dd3e efc2 99bc
000003c0: b567 573e 0cb5 75be 8035 bb3d a7ac 17be
000003d0: 47c3 f9be c28c 47bb 5a07 083c b77c 67bd
000003e0: 2467 54be 8175 5ebe 0eae ff3c 27ed ea3b
000003f0: 1a52 0e3e 37dc a33d bb21 21bf 5a00 66be
0.05458498 -0.30045104 -0.3720913 0.26246428 -0.28525126 0.02778994 -0.27531943 0.33073163
-0.19125585 -1.0867816 -0.29366967 -0.246907 0.37890372 -0.38826433 -0.018722245 -0.35685182
-0.41714087 -0.12871721 0.23512298 0.28352273 0.06386975 0.07779041 0.13274005 -0.11378799
0.030542068 0.26197955 -0.086800925 -0.06283709 -0.08240574 -0.18964444 -0.21851918 -0.12506768
0.2591106 -0.16261767 0.10730313 -0.4461545 -0.40241763 -0.006308943 0.08347499 0.4433099
-0.4761418 0.16976377 0.016109096 0.07683003 -0.3671945 0.26282266 -0.39659142 -0.38045737
0.22176868 -0.12722825 0.27606717 -0.53307724 0.39480788 -0.17100681 -1.066193 0.19512656
-0.18222393 0.14134046 -0.48526418 -0.6353521 0.01788517 -0.094331175 0.35823885 -0.33931756
-0.3534734 0.2561487 -0.3109041 -0.40082684 -0.18315172 0.110617876 -0.055353522 -0.37934402
0.4327676 -0.84838545 -0.59359354 -0.072555885 -0.31160733 0.4133952 -0.1573641 -0.30271864
0.44047412 -0.4211583 -0.0249213 0.14249045 -0.23324212 -0.4314729 -0.06400591 -0.12188801
-0.28363633 0.08814162 -0.27949947 -0.18165825 0.3396142 0.16635461 -0.34611246 -0.41721818
0.2381317 -0.07866672 0.0036104918 -0.16275278 -0.07121381 -0.4279698 -0.32114294 -0.010429591
0.100474715 0.25821415 -0.15574105 -0.40161744 -0.16965182 0.06148186 -0.06192538 -0.13995865
-0.011816442 0.36559296 -0.23826173 -0.23849949 -0.049392864 0.23354323 -0.24352178 -0.63338745
-0.031988826 0.061120886 0.0702973 -0.5228805 0.3421766 -0.043927133 -0.17344733 0.13213533
-0.23252045 0.09748744 0.197851 -0.25635532 -0.30413866 0.35414964 0.0025026356 0.2973422
-0.59805906 0.31453672 -0.95664257 -0.7463116 0.23194437 -0.27584568 -0.3839026 0.35999012
-0.3274952 0.100619055 -0.074449606 0.023450466 0.4706986 0.100722745 0.013505993 -0.042811483
-0.033207797 -0.022176323 -0.085398935 0.15739861 -0.108214505 -0.24991143 0.124426745 0.15076613
0.27921477 -0.02852466 -0.51240313 -0.024866872 -0.2693138 -0.017289381 0.040532567 -0.43782556
-0.25890833 -0.46476158 0.29025045 -0.53019285 0.23574801 -0.13059235 -0.5575815 0.15894425
0.35041496 -0.45487958 0.0021977376 0.2607785 -0.22319193 0.23406114 0.15268825 0.17912024
0.557015 0.2808316 -0.19687997 0.25921723 -0.102924354 -0.72073483 -0.38925663 0.26397312
0.37209517 -0.106116645 -0.4443857 0.28993028 -0.37987155 0.05714588 -0.08315256 -0.31511497
0.10928688 0.38872102 -0.43961027 0.30948675 0.079915255 -0.1742187 -0.16990717 0.24001157
-0.64814526 -0.6735161 -0.19830017 -0.01972261 -0.35081857 0.37341344 0.33881378 -0.023863584
-0.29929477 -0.18743011 0.021642 -0.29260123 -0.40642044 0.17648466 0.24005231 -0.1486776
0.40756747 -0.045111224 0.19384855 -0.09078151 0.072016396 0.3516062 -0.39174506 0.26515317
-0.384658 -0.05483347 0.27985138 -0.38670933 0.2771184 0.29922536 0.43257263 -0.01876971
0.21035655 -0.23994845 0.09141064 -0.14811955 -0.48781797 -0.0030448888 0.008302534 -0.05651542
-0.2074247 -0.21724512 0.031210925 0.007169384 0.13898507 0.08000987 -0.62942094 -0.22461072

dense1.bias f4 [64]
00000000: c4a5 13be 50be ed3e 7216 c53e ac22 943e
00000010: 7975 cfbd e8d6 923e 147d 843e b858 573e
00000020: 706a 6b3d 5466 14bd 7062 c03e ed8e 763c
00000030: 0244 d1be ca66 b8be 5860 e13e 51bb 0bbd
00000040: f4a1 4f3e 006e 7e3e 504a 85be 6475 cf3e
00000050: 4481 c0bd b520 afbe f8ee 053d 6b0e 60be
00000060: 5a46 57be 0b34 133d e941 ed3b b4c7 a13e
00000070: 6e59 e5bd 2f67 2ebe 96a3 c0be c461 bfbd
00000080: a790 553d 5b96 01be 83d3 bb3e 3054 85bd
00000090: 31fb dfb9 2c52 99be dd5c 0d3e b891 7c3e
000000a0: 0223 813e 67b4 cebd 90ce 7e3d 63f9 79be
000000b0: 94aa 27bd 56a9 71be 4cd2 debe 6a8b 3d3d
000000c0: a82e aabe 5b99 83be bd96 b5be ae66 d73e
000000d0: 7098 dc3c c5b3 a5be 0273 bbbc 79f3 bcbe
000000e0: 9ebf cfbe b9a0 ed3e d4e6 dcbe 86c7 703e
000000f0: 942b 4c3d f95c e4bd fe1b 7d3e c1ea 48be
-0.14418703 0.4643426 0.38493687 0.28932703 -0.10129828 0.28679585 0.25876677 0.21029937
0.057474554 -0.0362304 0.37575102 0.015048725 -0.40872198 -0.36015922 0.44018817 -0.034114186
0.20276624 0.24846649 -0.26033258 0.4051925 -0.093996555 -0.3420464 0.0326986 -0.218805
-0.2102293 0.035938304 0.007240523 0.31597674 -0.11198698 -0.17031549 -0.37624806 -0.09344819
0.052139904 -0.12655012 0.36684808 -0.06510198 -0.00042721027 -0.29945505 0.13804956 0.24664962
0.2522202 -0.10093003 0.062208712 -0.2441154 -0.04093416 -0.23599753 -0.4351982 0.046275534
-0.3323872 -0.25702938 -0.35466567 0.42070526 0.026928157 -0.32363716 -0.022881988 -0.36904505
-0.4057588 0.46411684 -0.43144858 0.23513612 0.049846247 -0.111505456 0.2471771 -0.19620802

dense2.weight f4 [64, 64]
00000000: f85c e6bc cb89 dc3d 9235 d03d 0c2f e93d
00000010: 7445 acbd 934e e9bc db2a 863e 54ac 5fbd
00000020: 4bc6 173b bb89 533d 50af f83d fb88 0b3d
00000030: d9ea 8d3d bcc8 56bc c0b2 9d3d fc14 283e
00000040: c52d 07ba 64a5 c6bd d88f 923e e0f3 49bd
00000050: 8a77 a93d 3c58 3b3d b852 643d 1fb8 4a3b
00000060: fdc1 5dbd ff32 a83d cd27 fdbd 91a4 9e3d
00000070: e071 bebd 31c4 e63d 43b8 d23d 22df 4f3c
00000080: 412a e1bd b2b3 8cb9 df11 fa3d 1fcd 113d
00000090: 2f73 55bb f01b 803d 23ce 91bd 7137 89bd
000000a0: 4b20 19be 9773 573e b820 e7bd d041 003c
000000b0: 8ad3 bbbd 0491 e23d 1000 23bc d6d2 923d
000000c0: 37db c4bd a9a8 1a3d e480 e1bd 80cd 8bbd
000000d0: d650 c33d f6dd 6bbb 9ec0 97bd 9fda 563b
000000e0: be6d f0bd cc27 003c 1300 77bc 4113 3cbe
000000f0: 87c8 7d3d d08b ebbb f50a 3e3e 2cf5 883d
00000100: 906f 063c 6148 b5bd b0b2 7a3c 00e7 de3a
00000110: 067c a63d 2233 04be bc45 593d 3432 73bd
00000120: 88a4 14bd ca5c 1dbc ce9f 1e3d a50a 85bd
00000130: d557 05be f328 7b3d c708 17be 5c52 b93b
00000140: fd7d 383d c0f4 3e3c 0ca1 cf3d 2091 303c
00000150: 0089 bfbd 140d 013c 205c 79bc 3487 f1bd
00000160: d03b 71bd d06f 58bd 30aa a83c 7fe8 d03d
00000170: bee1 56bd fb40 5fbd 4084 cfbd 8d8a 7c3b
00000180: 4818 fdbd ba54 ca3d 4581 573d d49e c4bb
00000190: 4217 a83b a228 e83c 04d7 cabd 5a0f eabd
000001a0: 51bc cebc c0e9 223c b44b 1abd 80c6 d33c
000001b0: 2b19 19bd ada5 aebd d6d5 b4bd 61e8 e83c
000001c0: 9b32 72bd 62f5 b0bc e919 643d 78a8 993d
000001d0: e0ba 6fbd 47e1 a43d 1cd3 c1bd 9a4a f93c
000001e0: 90c5 f53d ab69 13be a0c0 00bd 70a3 6abd
000001f0: c1de 9c3d 03af b73d b210 01be c3e5 ac3d
00000200: 6adf c23d 1a16 b33d 7eba 13be 24d8 2fbd
00000210: bc7b 5bbd 6fc5 4ebd 1664 88bb 4eef d13d
00000220: 9758 afbc 8a17 b63d 6867 0cbe 430c 18be
00000230: 7fbd 7c3d 388e 8f3d 2939 a9bd 5ecc 96bd
00000240: cb15 11be 104e 00bc c496 763d a834 48bd
00000250: 88ff b63d 6ec3 bfbd 1cea 823d e153 3abd
00000260: e931 d9bd 07f3 a23d 4085 67bc 2903 c93d
00000270: e0eb 453d 430d 05be 3acc 76bd e0fb 793c
00000280: 65ce 583c 3811 f03d 6c88 593d 2e50 b9bd
00000290: ef02 9c3d f073 82bc c602 20be e48f cb3d
000002a0: d2cb e33c 67b4 793d d83e c3bd 106e f63c
000002b0: 4dec 8f3d 0c3b f0bd 2a71 913d cf55 593d
000002c0: 72cb d9bd c00a 5b3c eecb fb3c 46ff 94bd
000002d0: 0025 f83d 6003 debb 77d4 ac3d 69a2 c03d
000002e0: 92c9 bf3d 8065 7cbc 7af6 09bd 0840 06bd
000002f0: 5080 3fbd 36b4 493d a481 a2bc 20b3 963d
00000300: ba80 943d 37e9 293d b970 41bd 3883 8ebd
00000310: 547a 0b3e 82ec 8b3c 7dc9 0d3e d22c 99bd
00000320: 4475 883d 27da a23c 0582 cbbc 7202 e3bc
00000330: 70bd a0bd 6fd8 3f3d 3527 493d 8cae 493b
00000340: 56bd f6bc 6233 e43d 0126 c73d 0891 22bd
00000350: 0035 b13d 48d4 153d c0e4 173c 8c14 62bd
00000360: e4b1 e0bb 58b9 88bd 1a0e cd3c a903 593d
00000370: e432 393c 1a38 9e3d 384b b13c 3bd1 1fbd
00000380: 3ab6 ff3c ef0a 0a3d 1e3f a63d 0867 083e
00000390: 1bb7 c3bc 49a1 8a3c e0dd e93c 181c 233e
000003a0: 1817 14bd ae43 98bd 68cb 9dbd 9cd3 55bd
000003b0: c614 c0bd 35fd b93d a0bf 31bd 7174 bcbc
000003c0: cb09 983d ab5f bebd b728 1b3d f0ed d63c
000003d0: f6ff a23d 0c41 b7bd 663a bb3d 9a3d ae3d
000003e0: ba0d 883d 0708 b3bd 8174 163e 3e1f 0c3e
000003f0: 9d82 873c 2014 603d 1603 9a3d 4f08 f2bd
-0.028120503 0.107684694 0.10166468 0.113859266 -0.08411685 -0.02847985 0.2620457 -0.054607704
0.0023158963 0.051645022 0.12142813 0.03406618 0.06929559 -0.013109382 0.077001095 0.16414255
-0.00051566615 -0.096995145 0.2862537 -0.049304843 0.082747534 0.045738444 0.05574295 0.0030932499
-0.05414008 0.08212852 -0.12361107 0.07746232 -0.09299064 0.11267889 0.102890514 0.012687476
-0.109943874 -0.00026836764 0.1221044 0.03559601 -0.0032569875 0.06255329 -0.071193956 -0.06700028
-0.14953725 0.21040188 -0.112855375 0.007828191 -0.09171207 0.11062816 -0.009948745 0.0716912
-0.096121244 0.037758503 -0.11010912 -0.068263054 0.095369026 -0.0035990453 -0.07409786 0.0032784117
-0.11739682 0.007821988 -0.015075701 -0.1836672 0.061958816 -0.007188298 0.18558867 0.06687388
0.0082053095 -0.08851696 0.0153013915 0.0017006099 0.08129124 -0.1291013 0.05304502 -0.05937405
-0.03628972 -0.009604642 0.03872662 -0.06496171 -0.13021787 0.06131835 -0.14749442 0.00565557
0.045042027 0.011655033 0.10138139 0.010776788 -0.093523026 0.007876653 -0.015219718 -0.11793366
-0.058894932 -0.052841008 0.020588964 0.10200595 -0.05246138 -0.05450533 -0.101326466 0.003853473
-0.12358147 0.098794416 0.052613515 -0.006000379 0.0051297257 0.028339688 -0.09904292 -0.11428709
-0.02523628 0.009943426 -0.037669852 0.025851488 -0.037377518 -0.08527694 -0.088298485 0.02843112
-0.059130292 -0.021601383 0.055688772 0.07502836 -0.058527827 0.08050781 -0.09464094 0.03043108
0.12000573 -0.14395778 -0.0314337 -0.057284772 0.076596744 0.08968928 -0.12604025 0.08442261
0.09515269 0.0874445 -0.1442661 -0.042930737 -0.0535848 -0.050481256 -0.004162322 0.10250722
-0.021404548 0.088912085 -0.13711321 -0.14848427 0.061704155 0.07009548 -0.082628556 -0.07363199
-0.1416847 -0.007831112 0.060202375 -0.048878342 0.089354575 -0.09363447 0.06392309 -0.04549015
-0.10605223 0.0795651 -0.01413089 0.09815056 0.04832065 -0.1299334 -0.06025336 0.015257806
0.013232802 0.11722034 0.053108618 -0.09048496 0.07617747 -0.015924424 -0.15626058 0.09939554
0.02780715 0.06096306 -0.09533471 0.030081779 0.07027493 -0.11730012 0.071016625 0.05306035
-0.10634507 0.013369262 0.03073689 -0.07275252 0.12116432 -0.0067753047 0.08438962 0.09405977
0.09364618 -0.015405059 -0.033682324 -0.03277591 -0.046753228 0.04924413 -0.019837208 0.07358384
0.07251115 0.041482177 -0.04722664 -0.06958622 0.13620883 0.01708055 0.13846393 -0.07479252
0.06662992 0.019879414 -0.024842272 -0.027711127 -0.07848632 0.046837267 0.049109656 0.0030774204
-0.03011958 0.11142613 0.097240455 -0.039689094 0.08652687 0.0365794 0.009270847 -0.055195376
-0.0068571437 -0.066759765 0.025031138 0.052982006 0.011303637 0.07725544 0.021642312 -0.039017897
0.031214822 0.033701833 0.081175074 0.13320553 -0.023891022 0.01692261 0.028548181 0.15928686
-0.036154836 -0.07434784 -0.07704812 -0.05220376 -0.09378962 0.090814985 -0.04339564 -0.023004742
0.07423743 -0.09295591 0.037880626 0.026236504 0.07958977 -0.089479536 0.09141998 0.08507843
0.06643243 -0.087417655 0.1469288 0.13683793 0.016541773 0.054706693 0.0752012 -0.11817991

dense2.bias f4 [64]
00000000: 38ef 97b9 43f6 9fba fcf1 8ebd 6170 66bd
00000010: ef87 14bd 26dc 23bc e38d ecbd 7077 f9bd
00000020: fa3e 273e 09e7 d23d 6678 f2bc db7b 5dbd
00000030: 5768 96bd 0252 1ebd b5ad cebd 07fd 63bd
00000040: d19d ceba 328f 9b3c 9533 333d 7e09 4b39
00000050: a7d0 49bd 889b d6bd 9b77 20be e864 533d
00000060: 28d6 c13d 2627 0bbe cd82 13be 795d b7bd
00000070: 446f 53bc c3e1 fb3d ae6d a63d e0de df3c
00000080: 7497 21bd 6cc3 07bd 114f 94bd f69b febd
00000090: 0cee ef3c 93a6 1a3e 016b 253c 1f6e b8bc
000000a0: cc9b 91bd 15bf c63d 9c5a 2e3c 67db 2ebd
000000b0: 4a72 d13c 2d7e 15bd 0637 c9bd 5ab3 563d
000000c0: cc55 43be fa30 af3c 1fcf 20bd 9510 033e
000000d0: 1ea8 a93d 5ccd 12be 0cc9 2abc 64eb 983d
000000e0: 3d88 013e 7b3d 2abd 75f4 a83d 824d 243e
000000f0: 2233 b23d 1e31 c83d ad23 853d 4898 043d
-0.00028979196 -0.0012204129 -0.069797486 -0.056259517 -0.03626245 -0.010001218 -0.115505 -0.12180984
0.16332617 0.10297973 -0.029598426 -0.054073196 -0.0734412 -0.038652427 -0.10091726 -0.055661228
-0.0015763586 0.01898918 0.043750364 0.00019363125 -0.049271252 -0.10478884 -0.15670626 0.051609904
0.09464675 -0.13589153 -0.14405365 -0.08953375 -0.012904946 0.1229892 0.081263885 0.027327955
-0.039451078 -0.033145353 -0.07241643 -0.12432091 0.029288314 0.15102606 0.0100963125 -0.022513447
-0.07109794 0.09704415 0.01064172 -0.042689707 0.025567193 -0.036497284 -0.09824948 0.052417137
-0.19075698 0.021385659 -0.039260026 0.12799294 0.08284019 -0.14336151 -0.01042391 0.07466772
0.12649627 -0.04156254 0.082497515 0.16045192 0.08701159 0.09774993 0.06500945 0.03237179

dense3.weight f4 [4, 64]
00000000: fc6d 343b 8b5f 8cbd 13ae 68bd 29e8 83bd
00000010: 446c 873d 0777 c8bb 4b48 5d3d 5494 8c3d
00000020: d0ec 26bd a966 95bd ccbd 4b3c e1d1 933d
00000030: 013b d33d 9b5c 70bd 04d2 033d 02db 3b3c
00000040: c95c 18bd 4195 573c 651d d6bd 28ba b8bd
00000050: cd58 02bd a254 ab3d 153c 9d3a da88 6f3d
00000060: 5d6e ab3c c731 0c3b 9f18 433d 0edc 613d
00000070: c26c f13c 5716 e5bc ef03 86bd 2ca9 033d
00000080: 78fe f4bd c94f 713c a45e 43bb e3a8 a2bc
00000090: a0bd e2bc ae53 87bd de4f 97bd e49c babc
000000a0: 4da2 adbd c13a 003d 3ab7 af3d 82f3 03bd
000000b0: 8ed6 05be bc1d 86bd 5fcc bdbd 03f6 b03d
000000c0: 5144 2a3d b704 24bc 4ef8 5e3d d809 ca3d
000000d0: 09c6 3abd 0114 883d 1069 373d e588 acbd
000000e0: cebd c73d edfb 3a3d 28cf 9cbd 688c 3bbd
000000f0: 8264 0dbd 28cb 8dbd c3c5 1f3d 0aab 15bd
00000100: ae12 abbd 082b 843d 108a 7abd 4562 80bd
00000110: f82c 7dbd b0a4 a3bd a0f0 5a3d 0855 c63c
00000120: f1d4 b2bd 6ed6 2cbe 9d6f 423c 3844 78bd
00000130: c6ec bf3d bb7a bc3d 81ed 22bc cfb7 cd3d
00000140: 6722 953d f68b 993d 7fc2 01be 7642 d5bc
00000150: d625 ebbc 7d45 f4bd 1c35 e9ba 6434 eabb
00000160: 9577 2fbe 889c 13bc d207 f03b f2fd e73d
00000170: af9d 2c3d 4886 0fbe 10e1 12be da63 ecbd
00000180: 4867 a9bd addc b3bd 24d6 a3bd 4502 bc3d
00000190: 3738 1ebe 57a2 40be 50d8 4f3d 8c46 ad3d
000001a0: 6f0f c13c aa78 96bd 65f1 573d 1e72 87bd
000001b0: 8930 78bd 94ed 193d 09f3 65bd 6601 d4bd
000001c0: d0cd 54bd 1a35 d63d 02b8 d0bd 2ddb 6d3d
000001d0: 1085 86bc 6367 74bd 0fca 9e3d bfc4 053d
000001e0: 2ada 00bd fec9 ed3c fc2c d13d 7727 70bd
000001f0: 54c6 26bd e053 b63b 72ae 1c3d 6427 40bd
00000200: e28c 22be 303a ce3d 49c6 a5bc 7802 c4bd
00000210: 52d1 b03c 6587 cb3d 2f98 8ebd 0a29 953d
00000220: 4650 adbd e351 adbd 1b72 6a3b 18ae fd3c
00000230: e4c9 c13c 79f3 a73d a90c f93c cca7 943d
00000240: a2ea 453d dc77 4bbd 7a6d 16be 72ce a1bd
00000250: 06c2 dbbd 4d1e 8e3d 0044 2f3d c8dc 8f3c
00000260: c898 63be 2591 383c b695 f93a 0c3a 543d
00000270: 0b30 ed3d 145d 9ebd 5277 9dbd 2cc4 af3d
00000280: 187d 02bc c83e 8c3d fabc 61bc db83 6abd
00000290: 7283 a8bd f2cc cbbd 0e78 c2bd 54b4 513d
000002a0: ed05 613d 4270 66bd a036 a73d f0a4 79bc
000002b0: 47c5 1dbe 9a95 243d 6728 423d ded5 453d
000002c0: d4de 703d 9655 8a3d e2d1 1e3d 3db2 38bd
000002d0: 9803 debd 191e c6bb cf33 3ebd f104 2dbc
000002e0: 12bf bf3d c124 23bd 2f80 7cbc e5ef bcbd
000002f0: 7233 d1bd 1093 c0bd fee5 b73d 60cc 183d
00000300: cc61 813c 3539 a4bc a6c1 e4bc ac0f b1bc
00000310: 5606 c23d 6c28 a03d 01a7 193d b8b5 bbbd
00000320: 91ac 06be 3c96 fdbc 9a67 f0bb 60a6 883c
00000330: c995 253b 7bfe d33d 97e4 0cbd d7e8 4dbd
00000340: a0b9 dabd ae6d 8c3c 2086 36be 4950 03be
00000350: 13d3 5bbd 07f6 a53d 6ae3 cd3d c785 dfb9
00000360: f4b3 39be 7c3f f4bc ccbb 09bc 0054 f43a
00000370: e8aa c73d e12a 53be 5f02 5cbc 9003 bebc
00000380: 20b4 3b3c 63f5 f0bd ccd9 cc3c 4853 443d
00000390: 3540 00be c132 34be f00e bcbd a403 443d
000003a0: 955b 993d 72fc 8fbd bb35 94bd 5055 dcbd
000003b0: ea70 49bd 98a7 7abd e42c c6bd 2ced 213d
000003c0: 9b6d b2bc f93c 443d 8a90 65bc 7112 f63d
000003d0: f6e7 bfbd 0b86 243d b00e 0a3d b753 8d3d
000003e0: da2f 0bbe 98e3 15be bc56 82bd 029a 0bbe
000003f0: f603 1dbe e0a8 65bd 63c9 1a3e f279 e7bd
0.0027531376 -0.06854161 -0.056806635 -0.064407654 0.06612447 -0.006117705 0.054024022 0.06864229
-0.040753186 -0.072949715 0.012435388 0.072177656 0.103139885 -0.058682065 0.03218271 0.01146579
-0.03719786 0.0131581435 -0.10454825 -0.090198815 -0.03182297 0.08365752 0.0011996055 0.05848012
0.020926649 0.0021391974 0.047630902 0.0551415 0.029470805 -0.027964754 -0.06543719 0.032143757
-0.119625986 0.014728495 -0.002981105 -0.019855922 -0.02767831 -0.066077575 -0.0738828 -0.02277989
-0.08478222 0.031306032 0.085798696 -0.03221465 -0.13070127 -0.0654864 -0.09267496 0.08640673
0.041569058 -0.01001089 0.05443602 0.09865159 -0.045599017 0.066444404 0.04477793 -0.08424548
0.09752999 0.04565041 -0.076566994 -0.0457882 -0.03451968 -0.069235146 0.03900696 -0.03654007
-0.08353172 0.0645352 -0.061166823 -0.062687434 -0.061810464 -0.07990396 0.053452134 0.024210468
-0.087320216 -0.16878673 0.011867431 -0.060611933 0.09371333 0.092030965 -0.009944321 0.10044824
0.07281952 0.074973986 -0.1267185 -0.026032668 -0.028704565 -0.11927316 -0.0017792317 -0.0071473587
-0.1713546 -0.009009488 0.007325151 0.11327733 0.042142566 -0.14016068 -0.14343667 -0.11542483
-0.082716525 -0.08782325 -0.079998285 0.091801204 -0.15451132 -0.18811928 0.0507434 0.084607214
0.02356693 -0.073472336 0.052720446 -0.06613563 -0.06059316 0.037580088 -0.05613998 -0.10351829
-0.05195409 0.10459347 -0.10191347 0.05807035 -0.016420871 -0.05966891 0.07753383 0.032658335
-0.031458057 0.029026981 0.10213658 -0.058631387 -0.040716484 0.005564198 0.0382523 -0.046912566
-0.15874055 0.10069692 -0.020236151 -0.095707834 0.021584187 0.09937934 -0.069626205 0.07283218
-0.084625766 -0.08462884 0.0035773579 0.030966803 0.02365584 0.082007356 0.030401545 0.07258567
0.048319466 -0.049674854 -0.146902 -0.079007044 -0.107303664 0.06939373 0.04278946 0.017561331
-0.2222625 0.011265074 0.001904181 0.05181317 0.11581429 -0.07732597 -0.07688774 0.08582339
-0.007964395 0.06847912 -0.013777966 -0.057254653 -0.08228196 -0.099511996 -0.09495555 0.051197365
0.054937292 -0.0562594 0.08164716 -0.015237078 -0.15407287 0.040181734 0.047401812 0.048299663
0.058806255 0.067546055 0.03877438 -0.045091856 -0.10840529 -0.0060460684 -0.046436127 -0.01056026
0.09362616 -0.039829973 -0.015411421 -0.09225444 -0.102148905 -0.0940305 0.089794144 0.037304282
0.015793703 -0.02004681 -0.02792437 -0.021613918 0.09473865 0.0782021 0.037512783 -0.091655195
-0.13151766 -0.030955426 -0.007336569 0.016680896 0.002526628 0.10351273 -0.034397688 -0.05027088
-0.106799364 0.017142143 -0.17824602 -0.12823595 -0.053668093 0.081035666 0.100531414 -0.00042633546
-0.18135053 -0.029815428 -0.008406591 0.0018640757 0.09749395 -0.20621826 -0.0134283 -0.023195058
0.011456519 -0.11765554 0.025006197 0.047930986 -0.12524493 -0.17597486 -0.091825366 0.047855034
0.07488171 -0.07030572 -0.07236811 -0.107584596 -0.04917995 -0.061194986 -0.09676531 0.039532825
-0.02178078 0.04790971 -0.014011512 0.12015236 -0.09370415 0.040166896 0.033705413 0.06900733
-0.13592473 -0.14637601 -0.063641995 -0.13632968 -0.15333542 -0.056069255 0.15115885 -0.11302556

dense3.bias f4 [4]
00000000: 70f0 b0bd 345a dcbd dd8c 1cbe 7a1f f4bd
-0.0863961 -0.107593924 -0.1528811 -0.11920066
